lunar_lander_continuous/models/DuelingDQN/quantization_81/model.pth (torch, 181767 bytes, 9 tensors)

fc.weight f4 [128, 8]
000000 30 58 0c 3f ac 48 19 be 10 a7 d5 3f 74 a0 33 3f
       0.54822063 -0.14969128 1.6691608 0.7016671
000010 e3 c6 48 c0 ed 6f e4 be f0 12 36 3f 66 31 15 3f
       -3.137139 -0.44616643 0.71122646 0.582785
000020 3f 85 19 3f e1 0b 8c bd df 70 77 3f be 9a 61 3e
       0.5996894 -0.06838203 0.966566 0.22031686
000030 43 d9 88 c0 a7 92 09 3f 9f 43 40 bf 7f 43 cc bd
       -4.276521 0.537394 -0.7510318 -0.09973811
000040 4b 11 a1 3e bb 7c e1 bd 0f 77 06 bf 94 5f 3a 3f
       0.31458506 -0.110101186 -0.5252542 0.7280209
000050 77 ce df 3f 3d ee a4 3f 9b 29 43 3f de 62 37 bf
       1.7484883 1.2885205 0.7623536 -0.71635234
000060 b2 dd 83 be e1 46 43 be 56 84 94 be c2 54 a9 bf
       -0.25755078 -0.19070007 -0.29007214 -1.3228991
000070 89 27 f2 be 3a 05 b9 3e 8b d2 05 bf 36 ed 13 bf
       -0.47295788 0.361368 -0.5227439 -0.5778383
000080 b3 ed 94 3f 43 83 94 3f 5c 0f 08 3e d2 8b b3 3e
       1.163504 1.1602558 0.13287109 0.35067612
000090 a3 29 6b be 7a 5c 2f bf 9a 74 87 3e 1e 9e 0c bf
       -0.22965102 -0.68500483 0.26456147 -0.5492877
0000a0 5b db 31 3f d0 cf c9 3e 14 4e 0f bd 06 cd a6 bf
       0.69475335 0.3941636 -0.03498657 -1.3031318
0000b0 b2 94 e8 bc ad 69 bf 3d 82 ba aa be 6b 4b c5 bd
       -0.028391216 0.09346328 -0.3334542 -0.096335255
0000c0 b8 d2 d8 3e 34 78 f5 bf 14 5c 20 bc e4 da b2 3f
       0.42348266 -1.9177308 -0.009787578 1.397305
0000d0 2b 3b 12 3f 8c 67 64 3c ed 6f d2 3e 0d 18 72 3f
       0.57121533 0.013940703 0.41101018 0.9456795
0000e0 62 0a 78 bf cf c3 4b be eb 1c 17 3f a6 e0 f3 be
       -0.9689084 -0.19898914 0.590285 -0.4763233
0000f0 a2 16 81 bf b6 5d c2 3f ca 10 0c 3e 64 da 58 3f
       -1.0085032 1.5184848 0.1367828 0.8470824
000100 53 39 20 be 07 d8 84 bf ec 38 bd bc 24 81 0a bf
       -0.15646867 -1.0378426 -0.023098432 -0.541033
000110 06 03 0f bf 76 35 52 bf 8c ea ce 3e e2 9c 22 be
       -0.5586399 -0.82112825 0.4041332 -0.15880159
000120 3c ad b7 be d9 f8 b9 3e 54 8c 51 3e fb d7 72 3e
       -0.35874355 0.36322668 0.20463687 0.23715203
000130 79 f8 2a 3f e2 05 99 3f f8 9d 20 40 ad 0d cc bd
       0.6678539 1.195492 2.5096416 -0.09963546
000140 b1 06 d1 be df a3 47 bd 72 82 aa 3e 6b 98 4d bd
       -0.40825418 -0.048740264 0.33302647 -0.050194185
000150 d5 f9 e6 bf 8c e4 91 3f b5 e3 d4 3f aa 74 1f 40
       -1.8044993 1.1397872 1.6631991 2.4914956
000160 a8 0d 3d 3f e4 f2 ff 3d 1d 72 39 3e 8d 9f c7 be
       0.7384896 0.124974996 0.18109937 -0.38988915
000170 d1 6e 42 3f 82 09 b8 bc 6b 59 ce bf ad e8 aa bf
       0.7595034 -0.022465471 -1.6121038 -1.3352257
000180 83 e0 57 3f 8a e8 f8 bc 62 93 4f bf 6f 32 52 be
       0.8432695 -0.03038432 -0.81084263 -0.20527051
000190 a4 44 a9 40 50 49 6e 3e cd c9 af 3e be 44 58 bf
       5.289629 0.23270154 0.3433365 -0.8447989
0001a0 1c 59 b9 3e 96 21 e6 bd 77 b5 e3 3d 60 3b 86 3e
       0.36200798 -0.11236875 0.11118596 0.26217175
0001b0 89 02 e4 bd 41 87 2b bf a3 8e 02 3d f8 76 34 3f
       -0.11133296 -0.67003256 0.03187431 0.7049403
0001c0 d3 a1 f1 3c a9 03 e7 3d e2 ce 3b 3d de 49 5c 3f
       0.02949611 0.11279995 0.045851596 0.8605021
0001d0 03 0f f5 be 71 20 37 bf c9 79 6b bf 29 48 ce bf
       -0.47863016 -0.71533877 -0.91982704 -1.6115772
0001e0 29 bf f0 3e 9a 45 c2 bf 1f 4f fd bd 66 26 15 bf
       0.47020844 -1.5177491 -0.12368607 -0.58261716
0001f0 01 22 16 bf 3b bd 12 3e 34 15 9b 3f fa 46 17 3f
       -0.58645636 0.14329998 1.2115846 0.59092677
000200 c6 68 1b bf 91 de 92 bf 91 fa 4c 3e 14 42 c5 3f
       -0.60706747 -1.1474172 0.20017458 1.541079
000210 f0 36 66 be db a7 83 3e 23 6a 89 3e 51 69 21 3f
       -0.22481894 0.25714 0.26838788 0.63051325
000220 28 92 97 be 71 81 e1 3c a8 03 07 3f c4 a2 06 be
       -0.29603696 0.027527543 0.52739954 -0.13148028
000230 25 06 1d bf 26 ba 35 bf 33 cd df 3f 48 e1 40 3f
       -0.613375 -0.70987165 1.7484497 0.7534375
000240 38 df 11 3f ce b8 16 bf ee 85 14 3f db 37 13 bf
       0.5698123 -0.5887574 0.5801686 -0.57507104
000250 16 14 39 3f af fc 2c 3f 16 b4 f8 3f 30 d6 16 3f
       0.72296274 0.67573065 1.9429958 0.58920574
000260 e4 d0 48 bc 76 83 62 be a0 8b 20 3e b9 56 1e 3e
       -0.012256835 -0.22120461 0.15678263 0.1546277
000270 b4 5e a4 be 46 20 10 bf 3c ae 9a bf 8b 40 36 3d
       -0.32103503 -0.56299245 -1.2084422 0.044495147
000280 4a 56 01 3f da 0c ad be d0 8e af 3e 0c d9 ac 3e
       0.5052229 -0.33798867 0.34288645 0.33759344
000290 15 85 b2 bd db 44 03 bf b9 4d c6 bf 4a 36 95 3e
       -0.0871679 -0.5127694 -1.5492469 0.29142982
0002a0 ca 9d 1a be 1b 44 5c 3e e0 43 99 be e0 f9 14 be
       -0.15099254 0.21510355 -0.29934597 -0.14548445
0002b0 25 ff 14 3f 47 2f 05 3f 6c 17 85 3f 96 07 4d bd
       0.5820182 0.52025265 1.0397773 -0.050056063
0002c0 85 34 e8 3e 51 93 b2 be 89 3c 4e 3f 31 3c 8c 3e
       0.4535257 -0.34878018 0.8056112 0.27389672
0002d0 e7 01 e2 3e 3e f0 92 3e cb 07 e4 3e 2b 6c 53 bf
       0.44142076 0.28698915 0.44537196 -0.82586926
0002e0 69 3c d0 bd 05 2c a8 3e 81 8e d3 be fe 66 20 bd
       -0.10167772 0.32846084 -0.4131966 -0.03916072
0002f0 d7 60 86 3e 7d 42 52 3f 4f 00 11 3f d2 5d 52 bf
       0.26245758 0.82132703 0.56641096 -0.8217441
000300 fd 11 77 3e 4c f3 a8 3f 33 ce 2b be 34 2e 36 3f
       0.24127956 1.3199248 -0.16777878 0.7116425
000310 d9 a4 f2 be 2e 34 14 bf 5a d5 67 bc 3f 27 a6 be
       -0.47391394 -0.5789212 -0.014149988 -0.32451817
000320 3d 52 9a be bf 0c 5e 3e 56 2b fa be 34 38 1c 3f
       -0.30140868 0.2168455 -0.48861188 0.6102326
000330 86 2c bc 3f 4e 5e 82 bf 9a 64 bf bc a4 46 42 be
       1.4701087 -1.018503 -0.0233634 -0.1897226
000340 a3 d8 6d 3e 67 fc d8 be 20 6a 48 3f e5 29 85 bd
       0.23227172 -0.42380068 0.78286934 -0.065021314
000350 7d 81 e7 be 5d 20 69 40 f8 c9 71 bf b3 68 32 be
       -0.4521598 3.6426003 -0.94448805 -0.17422752
000360 a4 78 7c be ee 5e b6 3d ba 75 1f bf ee 16 bd 3f
       -0.24655396 0.08904825 -0.6228901 1.4772623
000370 da 73 93 bf 4b 49 2f 3e 95 c3 69 3e d1 15 46 3f
       -1.151973 0.17117803 0.22828515 0.7737704
000380 74 a5 07 bf af 48 e5 3e d2 bf 65 bf 30 cf 45 3e
       -0.52986836 0.44782016 -0.8974582 0.19317317
000390 01 e6 0c c0 a8 67 2f 3f 27 46 2c 40 3b c3 ad be
       -2.2015383 0.6851754 2.6917818 -0.33938012
0003a0 66 b0 5a be 82 b6 40 3d 6b db 05 bf 75 9a 92 bf
       -0.21356353 0.047049053 -0.5228793 -1.1453387
0003b0 08 28 a5 3f 51 7b 9c 3f 76 a1 2b 3d 5a cf 0c 3f
       1.2902842 1.2225133 0.041902028 0.55003893
0003c0 cc d8 9e be b4 81 ab 3e b6 15 a3 bc 80 8f 2a 3f
       -0.31024778 0.33497393 -0.019907814 0.66625214
0003d0 3a ad 77 bf 24 c4 de 3e 76 1c c2 3d 41 31 16 3f
       -0.967487 0.43509018 0.09478085 0.58668905
0003e0 8d cf 78 bf 70 7c 6f bd 1a e7 da be 3b 60 23 bf
       -0.971917 -0.058468282 -0.42754441 -0.6381871
0003f0 78 c5 22 be 93 d5 70 bf de 87 95 3e 56 59 ab 3f
       -0.15895641 -0.9407589 0.2920522 1.3386638

fc.bias f4 [128]
000000 8f f8 93 be d5 47 e6 bd d1 16 6e 3f ed af 00 3f
       -0.28900573 -0.112441696 0.93003565 0.5026844
000010 4f 52 b8 3e fa 68 10 bd c8 40 43 be 29 5a 00 3f
       0.36000296 -0.035256363 -0.19067681 0.50137573
000020 fe 88 dc be 1c cd 07 be 3e 30 09 bf 38 e4 e6 be
       -0.43073267 -0.13261837 -0.53589237 -0.45095992
000030 24 c7 02 bf 19 d9 ec be 13 54 b3 be 8a fc 9e bd
       -0.51085114 -0.46259382 -0.3502508 -0.07763012
000040 d2 4e 3a be d7 a3 bd 3e ed d6 bb 3c 3d 29 8d be
       -0.1819413 0.37039062 0.022929633 -0.27570525
000050 e6 1f 48 3e f2 28 0e 3f d3 04 64 3d 44 63 b7 3e
       0.19543418 0.5553123 0.055668663 0.3581792
000060 be 39 26 3f 44 f6 dd 3e da 51 c2 3e 9d 9c a7 be
       0.6493186 0.43351948 0.37953073 -0.32736674
000070 c5 f9 fb 3e 60 ad d0 be 34 c1 b5 be 05 93 07 3e
       0.49213997 -0.40757275 -0.35498965 0.13239677
000080 6a 21 3a 3f 5c 36 bd be 54 80 3a 3e 9e 29 9e 3d
       0.72707236 -0.36955535 0.18213016 0.077227816
000090 54 a6 98 be e4 53 c3 3e 03 cd e3 be 4d b3 90 3e
       -0.29814398 0.3814994 -0.4449235 0.28261796
0000a0 04 3a aa 3d 97 36 3d bf 1e 36 c9 3e 30 7d 29 3f
       0.08311847 -0.7391142 0.392991 0.66206646
0000b0 aa 66 e6 3d 77 cb a3 3e 97 b0 c0 be 7a 8d 39 3f
       0.1125005 0.3199117 -0.37634727 0.724815
0000c0 50 39 72 be 82 17 55 3f 20 8d bd be ff c9 2d 3e
       -0.23654675 0.83238995 -0.37021732 0.16971587
0000d0 13 34 59 3e e7 62 1b bf 85 24 90 3e ee 0a 70 3e
       0.21211271 -0.6069779 0.28152862 0.2344167
0000e0 7d 97 8c 3e 5a 45 ff be ab 2e d9 bc 52 67 42 bc
       0.27459326 -0.498576 -0.02651151 -0.011865454
0000f0 66 5a 0e 3f 12 3b e6 be 46 72 d6 bc 8d ee f0 be
       0.5560669 -0.44966942 -0.026177537 -0.47057
000100 2c c2 13 bc 5a 60 9e 3e 4c 83 03 bf 21 a0 95 be
       -0.009018462 0.30932885 -0.5137222 -0.2922373
000110 76 84 c7 be a2 d0 73 3e 24 c7 14 3f 20 16 48 be
       -0.38968247 0.23810056 0.58116364 -0.1953969
000120 40 0f b5 3e 50 6a 82 be 65 b7 fb 3e ce 2f 70 3d
       0.35363197 -0.25471735 0.49163356 0.05863934
000130 43 cf 4a 3d f1 d0 e1 3e 81 9e 07 3e 53 f8 95 3e
       0.049514066 0.44104722 0.13244058 0.2929102
000140 3b d5 cd be de 81 62 3d b4 1d c3 be 24 d0 be bd
       -0.40201744 0.055299632 -0.381086 -0.093170434
000150 0e 52 22 3e 00 f3 b2 3e 1e ff c3 3e da 6a 6a bd
       0.15851614 0.3495102 0.38280576 -0.057230808
000160 ed b7 ab 3e 4b 55 b5 3e f1 a2 b2 3e bb e8 ab be
       0.33538762 0.35416636 0.3488994 -0.33575997
000170 8b eb 36 be cc cc 20 be c0 b3 0a bd 56 d9 2e 3e
       -0.1786329 -0.15703124 -0.03386283 0.17075095
000180 28 97 c3 be 68 03 9f be 00 33 55 3e 84 9d 20 be
       -0.3820126 -0.31057286 0.20820236 -0.15685087
000190 03 a5 36 bf 57 c1 87 bd 6f 18 03 be 10 93 81 be
       -0.7134554 -0.066286735 -0.1280229 -0.25307512
0001a0 f5 9b 02 bf c1 90 f5 3e a8 1d 22 be c5 94 26 bd
       -0.5101922 0.47962 -0.15831625 -0.04066922
0001b0 5d 24 8b be 5e d2 25 bc 26 a1 39 3f 7c b2 9f 3e
       -0.2717618 -0.010120956 0.7251152 0.3119086
0001c0 e2 cf 2b bf 36 df 62 3e 48 3b a1 be 64 8d 91 3d
       -0.6711408 0.2215546 -0.3149054 0.07107046
0001d0 17 3a bb 3d 4a 71 04 3f c4 65 c7 be 3c 93 82 3e
       0.09141939 0.51735365 -0.3894483 0.25502956
0001e0 d8 6b c0 3e d6 ee 02 3f 27 8f c1 bd 79 94 c8 3d
       0.37582278 0.51145685 -0.09451132 0.09793944
0001f0 63 e3 69 3d 00 7b a4 3e f2 b0 c6 be ee a7 36 bf
       0.05710162 0.32125092 -0.38806874 -0.7134999

fc_value.weight f4 [128, 128]
000000 c9 5d d4 3e 05 51 ac 3e 1c ba c0 3d f1 72 fc 3d
       0.41477802 0.33655563 0.094104975 0.12326611
000010 8f af 93 3e c5 47 df 3a d9 a1 34 bc 2a b9 42 3d
       0.28844878 0.0017034939 -0.011024916 0.047539867
000020 ad b3 08 be 8a f4 89 3e b2 82 4d be 01 f2 00 3e
       -0.13349791 0.2694438 -0.20069388 0.12592317
000030 67 da 84 3f 39 c5 1a be 95 8c e7 be 3d 1f 09 3e
       1.0379151 -0.15114297 -0.45224443 0.13390823
000040 15 f6 ea bc 2e cb de 3d 42 5c d1 3e 17 d3 81 be
       -0.028681794 0.10878597 0.408907 -0.2535636
000050 8e f1 23 be 35 ae be 3e 61 28 9b 3e b3 1e be 3e
       -0.16010115 0.37242284 0.30304244 0.37132797
000060 d1 f5 9c 3e 03 9e 5a bd e7 70 84 3e 52 6e 9b be
       0.30656293 -0.053373348 0.25867388 -0.30357605
000070 c2 41 71 3d 32 aa a1 be db 73 b9 be f8 fd 1c be
       0.058900602 -0.3157516 -0.36221203 -0.15331256
000080 cb 8e 1e 3e 8c f8 89 be 83 f8 af bd 1d 86 aa 3f
       0.15484159 -0.2694744 -0.08592322 1.3322178
000090 09 32 aa bd 0c f5 e5 3e 71 25 db be 86 98 9f bd
       -0.08310325 0.44913518 -0.42802003 -0.077927634
0000a0 87 32 b7 be 5f e3 13 bf ef 45 9a 3d 2a f3 7c 3e
       -0.35780737 -0.57768816 0.0753287 0.24702135
0000b0 eb 87 de bd ac 31 18 3f d4 4d b3 3e cd 2d 5a 3e
       -0.10865768 0.59450793 0.35020316 0.21306534
0000c0 eb a7 a4 3f fc 1b 3f 3e 92 c9 fb 3d ee bd 6a be
       1.2863744 0.18663019 0.12294306 -0.22924015
0000d0 3a e8 45 3e 54 bb 1e 3e 14 52 03 be 4c 9a 68 be
       0.19326869 0.15501148 -0.12824279 -0.2271511
0000e0 06 ba 82 be a0 59 1b bd 95 16 ae be 10 3a 78 3e
       -0.2553255 -0.03792727 -0.34001604 0.24240899
0000f0 7f c7 46 3e df 82 15 be ec a3 05 3f 57 8f 9e bd
       0.19412039 -0.14600705 0.5220325 -0.07742184
000100 17 fa 2b 3e 1a 6e ac 3e 68 d2 f9 be 1f b6 fb 3e
       0.1679462 0.3367775 -0.4879334 0.49162385
000110 e1 c9 97 be cb d6 ce 3e 97 82 96 3e d4 63 ca 3d
       -0.2964621 0.4039825 0.29396507 0.09882322
000120 f2 97 6b bd 76 7a 19 bd b8 33 b9 be ea ff 8f be
       -0.057517953 -0.037470303 -0.3617227 -0.28124934
000130 b0 73 91 be 7b 55 24 3f a6 50 fd be 0f 55 81 be
       -0.28408575 0.6419293 -0.49475592 -0.25260207
000140 af 2a b1 be 88 e5 6d be 3c 5e 28 be 35 68 df 3e
       -0.34602877 -0.2323209 -0.16442198 0.4363419
000150 8e 31 4c 3e 10 bb 54 3d b6 f3 13 3e f1 6a cd 3d
       0.19940779 0.05193621 0.14448437 0.10030163
000160 03 b1 88 be 57 71 0d be 60 81 f8 bd 7e 2d eb be
       -0.2669755 -0.13812767 -0.12134051 -0.45933145
000170 d3 f2 c6 3e 7e 72 0e bf 40 1e 2b 3b 48 b4 92 3d
       0.38857135 -0.5564345 0.002611056 0.07163292
000180 70 5b 9f bf ce 0d 9c be 76 2c 6e 3e 82 80 82 be
       -1.244978 -0.30479282 0.23259148 -0.2548867
000190 e6 e9 20 be 64 70 f2 3c 1c 78 9d 3e 92 97 f4 3d
       -0.15714225 0.029594608 0.307557 0.11942972
0001a0 92 58 c9 3e bc 0b ae 3d dd 69 b7 3d a8 7c a9 3e
       0.39325386 0.08498332 0.08955739 0.33102918
0001b0 e8 8d 39 3d 26 af 0c be 75 01 b1 3e 14 79 18 3f
       0.045301348 -0.13738689 0.34571424 0.5955975
0001c0 d7 14 03 bf 28 f4 bf 3d ae d1 89 3c 20 92 92 3e
       -0.51203674 0.09372741 0.016823616 0.2862711
0001d0 ad 8e 9b 3d e9 a5 36 3e 23 b9 d7 3d 49 c7 2d 3e
       0.075955726 0.17836727 0.10533359 0.16970553
0001e0 88 bc a6 3e 73 77 db 3e 64 7d 78 be 4a 32 6f be
       0.32565713 0.4286457 -0.24266583 -0.23359028
0001f0 3e 36 0f 3f 5c 76 8b be 75 b8 19 be 2b a5 a1 bd
       0.5594214 -0.2723874 -0.15011771 -0.078928314
000200 af fe 49 3e 8c 4b a0 3e 04 44 10 3f 76 ae c5 3e
       0.1972606 0.31307638 0.56353784 0.38609666
000210 47 ac 9e 3d ac 1f ba 3e e3 13 0d be f6 fd fd bb
       0.07747703 0.3635229 -0.13777117 -0.007751222
000220 be ec 93 3e 54 d7 ae be ad 72 0e bf 7d 36 89 bd
       0.28891557 -0.34148657 -0.5564373 -0.06699846
000230 c5 b0 34 3e 6d 88 92 bd 56 6c a2 3d 8b 6d 3d 3e
       0.17645557 -0.071549274 0.0793082 0.18498819
000240 1d 86 32 be 0a cf 30 bf da fd a9 be b3 10 5a bc
       -0.17433973 -0.69065917 -0.33201486 -0.0133096455
000250 a8 2c 81 be 5f 8b 45 3d 38 63 f0 bb 30 f0 8b 3d
       -0.25229383 0.048228618 -0.0073360465 0.068329215
000260 c3 e9 4d 3c c4 28 3c 3e 7c 4e 78 3f 2e f6 e5 be
       0.01256794 0.18374926 0.9699476 -0.44914383
000270 52 87 ab 3e ac ee b5 3e 92 91 fd be 6c f0 dc be
       0.3350168 0.35533655 -0.49525124 -0.43152177
000280 3d 5f 16 3d 5b 0e 1c be b7 81 bf 3e 55 dd 5c 3e
       0.03671192 -0.15239851 0.37403652 0.21568806
000290 65 33 b9 be 40 f9 9c 3d a9 ed 42 be 7f e1 c0 3e
       -0.36172023 0.07664728 -0.19035973 0.3767204
0002a0 35 5a 2e be 20 d4 9e be 91 a6 d7 3e 1a 87 25 be
       -0.17026599 -0.31021214 0.42119268 -0.16164818
0002b0 9d 0a 3c bd 2d e8 01 3e a2 2f 01 3f 51 1d 8f 3e
       -0.04590856 0.12686224 0.50463307 0.27952054
0002c0 05 a7 8c 3f 60 61 98 be 13 d9 5a 3f 30 54 b0 be
       1.098847 -0.2976179 0.8548748 -0.3443923
0002d0 20 59 93 3e c6 3f 61 be 33 ec ea be 87 76 81 be
       0.28778934 -0.21996984 -0.4588333 -0.25285742
0002e0 4d 5a 13 3f a5 0a 3e bf e8 02 7a 3e 9a da 10 bf
       0.57559663 -0.7423499 0.24415171 -0.5658356
0002f0 65 7d 09 3e da 3b 36 3f 6c cc 0e 3e a1 a6 15 3f
       0.1342674 0.71185076 0.13945168 0.5845738
000300 b2 72 2b 3f ee 43 18 be 2c 2a 5e 3c b0 f5 7b be
       0.66971886 -0.14869663 0.013559859 -0.24605441
000310 27 b5 d6 be d8 a3 9b 3d e8 16 81 3e 57 9a fb bd
       -0.41935083 0.0759961 0.2521279 -0.12285297
000320 aa 62 a9 3e 8e 22 65 be c8 8e d7 be 34 37 12 bd
       0.33083087 -0.22376463 -0.4210112 -0.035697177
000330 8f 28 36 bf 51 8e ba 3a 51 03 18 3f d3 25 08 3e
       -0.7115564 0.0014233087 0.5938006 0.13295679
000340 4c b7 3f 3e 76 d3 ce 3d ae 7c a7 bd d1 21 e0 be
       0.18722266 0.10098927 -0.08178078 -0.437758
000350 f3 65 6b be df cc 64 be 61 39 1f bd 06 74 2c bd
       -0.2298811 -0.22343777 -0.03887308 -0.042102836
000360 04 31 39 bc 6d 54 60 3e bf f0 02 3f e0 43 2c be
       -0.01130319 0.21907206 0.511486 -0.16822767
000370 28 49 2e 3e a7 60 7f be 3f 48 15 3d 38 ed 59 3e
       0.17020094 -0.24939214 0.036445852 0.21281898
000380 7c 95 17 be 19 dc 18 3e c8 c7 e1 3e a3 66 b8 3e
       -0.14803118 0.1492771 0.44097733 0.36015806
000390 fd e3 49 3e c4 1b 20 3f c6 26 67 3f 79 0c 4a be
       0.19715877 0.62542367 0.9029354 -0.1973132
0003a0 bf 8a 95 be c0 8e 15 bd 55 d3 6f 3e 1b d0 01 be
       -0.29207417 -0.03651309 0.2342046 -0.12677042
0003b0 16 97 79 be ca 10 09 3d 61 e9 66 3e 70 ee a4 3e
       -0.24374041 0.033463277 0.22549964 0.32213163
0003c0 39 c4 c5 bd 01 3e 57 3e b3 bb ab be f7 ec f4 be
       -0.09656567 0.21019746 -0.3354164 -0.4783704
0003d0 c6 0e 9e 3e e9 da 1a be d5 36 b1 be 40 97 ab bd
       0.30870646 -0.1512257 -0.34612146 -0.08378458
0003e0 a9 34 a0 be a8 a6 a2 bd 14 be 02 3e df 68 84 be
       -0.31290177 -0.079419434 0.12767822 -0.2586126
0003f0 f5 39 2c bf 66 ae ab 3e ef 3a 0c bf 3e 42 a8 be
       -0.67275935 0.33531493 -0.54777426 -0.3286304

fc_value.bias f4 [128]
000000 7a d6 43 3e a3 91 c2 3d 44 ef 41 be de 68 76 3e
       0.19124785 0.09500434 -0.18938929 0.24063441
000010 43 e0 1c bd 6f a3 b0 3d 8a 01 80 bd b5 6f 0a 3e
       -0.03829981 0.086249225 -0.062502936 0.13519175
000020 d8 4c aa 3d 11 70 53 be 27 2a 96 3d 7c ce ea 3e
       0.08315438 -0.20648219 0.07332259 0.4586066
000030 f1 02 2a 3e 08 5d df bd 00 c3 15 bc f3 10 19 3d
       0.16602685 -0.10906416 -0.00914073 0.03736968
000040 a7 b8 78 3d 6a d0 d2 3d 75 fa 95 be bd 13 4c 3b
       0.060722973 0.10293658 -0.29292646 0.0031139695
000050 93 a6 86 be d5 b0 9c 3c b0 92 93 bd 63 2a 60 3e
       -0.2629896 0.019127289 -0.07205713 0.21891169
000060 26 d8 c9 be 04 d2 5d be 5c de ae bb b5 b0 85 be
       -0.3942272 -0.21662146 -0.005336566 -0.2611138
000070 1a 2d 83 be 28 13 49 bd e2 a6 1b be 3d aa a3 3d
       -0.25620347 -0.049090534 -0.1520038 0.07991455
000080 0f 53 8a be 72 d8 f6 bd 83 54 9d be a8 27 73 3d
       -0.27016494 -0.120530024 -0.3072854 0.05936399
000090 f1 b9 fd 3d e6 5e ea bd 79 fc 13 be 43 8b fb bd
       0.12388981 -0.11443882 -0.1445178 -0.122824214
0000a0 3e d2 37 3d 47 f0 d1 be ac 7c c1 3e c6 e3 2e 3a
       0.044878237 -0.4100363 0.3779043 0.0006671514
0000b0 e6 aa 18 3e 9e 6b fe bd 7a df 8d bd ce 6c cd 3b
       0.14908943 -0.1242287 -0.069273904 0.006269074
0000c0 60 bc 8b bd 88 86 a0 3d a6 91 4e 3e b3 91 da be
       -0.06823039 0.0783816 0.20172748 -0.42689285
0000d0 fa 3d 87 be 3f c3 5c be 2a 0b 1a be 4b ea 02 3e
       -0.26414472 -0.21558855 -0.15043321 0.12784688
0000e0 51 47 95 be 81 8d 90 3e b8 26 b0 3d 73 08 a7 be
       -0.29155973 0.2823296 0.08601135 -0.32623634
0000f0 eb 77 f5 3d 27 a8 29 be ae ea 8f 3d 52 d7 83 be
       0.11985763 -0.16568051 0.070271835 -0.25750214
000100 df fb 49 3e 39 ca c9 3d 69 95 6d 3e a2 a3 60 be
       0.19724987 0.09853024 0.23201527 -0.21937421
000110 b6 f3 e1 bd 9c d4 2e bc 92 c5 66 be de 6e b3 3d
       -0.11032812 -0.010670807 -0.22536305 0.087613806
000120 f4 38 e4 3d 6e 70 bc bd 39 f2 92 bc f9 db 58 3e
       0.111436754 -0.09201132 -0.017937766 0.21177663
000130 5f ba 19 3e f9 56 33 be a5 72 30 be e4 b2 72 3d
       0.15012501 -0.17513646 -0.17231233 0.059252635
000140 5e 30 83 3e 2b 92 1e 3e a4 86 77 3e 67 62 f6 3c
       0.2562284 0.15485446 0.24172455 0.030076219
000150 dd 4e 22 3e be b8 a0 3e 7e 27 28 be f6 b7 97 be
       0.15850396 0.31390947 -0.16421315 -0.2963254
000160 3f ed 22 3d 1e 94 7c 3d f2 60 48 bc 8a b3 ef be
       0.039777037 0.061664693 -0.012230145 -0.46816665
000170 e7 24 17 be 3f 22 47 be fe 1d 5a 3e a9 90 d4 3e
       -0.14760171 -0.19446658 0.21300504 0.41516617
000180 56 d1 70 3e be 88 00 be 68 9c 2d bd b8 9f 74 bb
       0.23517355 -0.12552163 -0.04238549 -0.0037326645
000190 25 ed 06 be 95 ea 94 bd 04 92 d9 3d 3e f4 3e be
       -0.13176401 -0.072713055 0.106235534 -0.18647859
0001a0 88 af 64 be 46 19 38 be a2 b3 8e 3e 1e 9c 5b 3e
       -0.22332585 -0.17978391 0.27871424 0.21446273
0001b0 1d 53 18 3d 00 85 21 be 5c 52 2f 3e 4b 64 76 be
       0.037188638 -0.15773392 0.17121261 -0.24061696
0001c0 69 47 4f 3e 36 04 d5 3d ba 44 cd 3d 69 a6 f0 3d
       0.20242085 0.10401194 0.10022874 0.1175049
0001d0 9e f7 ec bd 2a 27 25 be 8f b3 2b bb 57 e4 8a 3c
       -0.11570667 -0.16128221 -0.0026199555 0.016954584
0001e0 8c 6b 55 be e8 c1 b2 bd 35 8b 80 3d b9 9d 8f be
       -0.20841807 -0.08728391 0.06276552 -0.2805002
0001f0 44 c4 02 3e 13 63 03 bd a6 f7 50 3e 7d e6 65 be
       0.12770182 -0.032076906 0.2040697 -0.22451206

fc_adv.weight f4 [128, 128]
000000 ea a0 38 bc 3d fe a4 3e 53 e7 08 be 2d 3a 79 3b
       -0.011268834 0.32225218 -0.13369493 0.003802906
000010 49 72 ff be 15 9c 41 3e 53 9a 48 3d 05 2d 2c 3d
       -0.4989188 0.18907197 0.0489753 0.04203512
000020 1e c0 62 bd 65 d3 28 3d a8 53 53 3e 4a 27 52 3f
       -0.055359 0.041217227 0.20637381 0.820912
000030 d7 50 82 bc a9 ac b3 3d c3 ad 3f bd c2 14 02 3f
       -0.015907688 0.08773167 -0.04679657 0.50812924
000040 e0 0c 32 3e 72 b4 9c be 6a 60 c5 3e c9 a3 57 bb
       0.17387724 -0.3060642 0.3855012 -0.003290402
000050 32 38 83 3e f1 d0 72 3d 77 bb 00 3f 73 85 81 be
       0.2562881 0.059281293 0.5028605 -0.25297126
000060 1a 54 45 bf 48 93 28 bf 65 06 07 3e da d8 36 3e
       -0.77081454 -0.65849733 0.13186033 0.1785616
000070 0b 01 2d bf 5b c2 27 3f 73 75 6b 3d 7f e4 00 be
       -0.67579716 0.6553094 0.057485055 -0.12587164
000080 64 12 fa be 52 5a a2 3d 65 25 74 3d 60 8f 9c 3e
       -0.48842156 0.079273835 0.059605975 0.30578136
000090 5b cd 93 3d c7 55 ac bd db 0c 8c 3e 3d 84 7d 3e
       0.07216903 -0.08414798 0.27353558 0.24757476
0000a0 51 74 42 bd 8b 7c cc 3e eb 88 11 bf 34 f7 b7 be
       -0.04747421 0.3993877 -0.56849545 -0.3593079
0000b0 88 90 76 3d 91 ff 81 3e 5c ac 52 3e 03 1e 55 be
       0.06019643 0.25390294 0.20573562 -0.2081223
0000c0 d7 73 ef 3e 6f 73 42 bd 19 9b c5 3e 91 f1 a8 be
       0.46768066 -0.047473367 0.38594893 -0.329968
0000d0 f6 73 76 be a6 64 53 3f 42 55 9d bd 65 5d 02 3e
       -0.24067673 0.8257545 -0.07682277 0.1273094
0000e0 ae ac b1 3e 78 19 76 3e cf 1a f0 3e 34 f5 3f be
       0.34702057 0.24033153 0.46895453 -0.18745881
0000f0 b4 3d ff 3d 12 18 12 bd fc 8f 41 3e 7c 1c d5 3e
       0.12462941 -0.035667486 0.18902582 0.41623294
000100 ca f7 76 be e2 5f 30 be b2 00 c4 bd b5 ee 96 bd
       -0.24117962 -0.17224076 -0.09570445 -0.073697485
000110 80 96 0f be b1 77 0a 3e a6 84 1e 3d a9 a4 0b be
       -0.14022255 0.13522221 0.038700722 -0.13637032
000120 f7 0b 1e 3d a3 64 92 be c0 f9 1d be 19 57 d1 3e
       0.03858563 -0.28592405 -0.15427303 0.40886763
000130 ec df 15 be f7 bf 5f be 81 48 d7 3e 82 8b d0 be
       -0.146362 -0.21850573 0.42047504 -0.40731436
000140 28 77 12 3c 3b e3 02 3d 9e 55 06 3d d5 7a e8 3d
       0.008939542 0.031954985 0.032796495 0.11351553
000150 0e 74 15 3d 62 86 17 be 6b 14 55 bc 4a e6 73 be
       0.03648763 -0.14797357 -0.013005356 -0.23818317
000160 67 2e db bd 75 5c d4 bd e7 fa a0 bc 1c 0a 8d 3e
       -0.1070221 -0.10369197 -0.01965089 0.27546775
000170 05 b8 ea be a3 f4 c9 3d 74 4f 6f be 62 c2 8a be
       -0.4584352 0.09861114 -0.23370153 -0.27101427
000180 50 9d 05 3f 70 e1 0e 3e c2 ba 63 be b2 2e 20 be
       0.52193165 0.13953185 -0.22239211 -0.15642813
000190 f5 8a 69 3e 20 39 49 bd 34 a8 a4 3e 63 b6 de 3d
       0.22806914 -0.049126744 0.3215958 0.10874631
0001a0 05 5c ce 3e 7b 66 ce be 92 ba c3 3d 25 30 21 bd
       0.4030458 -0.4031256 0.0955707 -0.039352555
0001b0 65 93 59 bd 99 43 29 bf 81 9d 8d 3e df d1 f5 3d
       -0.053119082 -0.6611877 0.27659228 0.1200292
0001c0 2a c7 63 3e c2 83 af bd 07 d7 5a bd aa 94 85 3d
       0.22243944 -0.08570053 -0.053427722 0.06522496
0001d0 a8 80 95 3e 6f db cc bb 3a c6 66 3e cb fd c9 bd
       0.2919972 -0.0062517445 0.22536555 -0.0986286
0001e0 fb e3 23 be a0 dc 19 bf 07 db 30 3e d8 02 c5 3d
       -0.16004936 -0.6010227 0.17271052 0.09619683
0001f0 f8 4e 38 be d2 9b c8 3d 48 01 6b bd 0a ce 54 3e
       -0.17998874 0.09795345 -0.05737427 0.20781723
000200 32 ac 0a be 55 14 19 bf 76 57 2c 3e 91 9b 35 3e
       -0.1354225 -0.5979665 0.16830239 0.17735125
000210 81 5a 62 bd 2a a9 a7 3d 52 f0 6b bd 3b 47 46 bf
       -0.055262093 0.08186562 -0.057602234 -0.7745244
000220 a0 ea 27 3e f3 c4 ae bd 6e 8f b8 3e 66 36 97 3c
       0.16398096 -0.08533659 0.36046928 0.018458556
000230 23 47 8c bd 3f f8 03 be 3e 8d 49 be 1f 43 ce 3d
       -0.06849506 -0.12887667 -0.19682786 0.10071396
000240 f4 93 1d 3d a4 32 b1 ba dd 7c 9e be 30 68 aa be
       0.038471177 -0.001351912 -0.30954638 -0.33282614
000250 83 c3 e4 be d2 20 fd 3e 02 53 0c bf 29 cb 4e 3e
       -0.44680414 0.49439102 -0.5481416 0.20194687
000260 3c 41 63 be ca b2 5e 3e 80 96 05 bf 9f 6f cb 3e
       -0.22192854 0.2174789 -0.5218277 0.39733598
000270 cd 95 5a be 7a f1 9e 3e 01 8e 84 bd 75 6b 36 3f
       -0.21346207 0.31043607 -0.064723976 0.71257716
000280 2a 49 20 be 93 9d 99 bf 19 79 89 3d f2 e1 87 bd
       -0.1565291 -1.2001213 0.06712551 -0.066348925
000290 00 af f4 be 22 fe da be 07 9f b7 be b1 e8 3d 3f
       -0.47789764 -0.42772013 -0.35863516 0.74183184
0002a0 36 28 3c 3f 7f f1 47 3d 23 ef f6 bd 2c fd b3 bd
       0.7349886 0.048814293 -0.120573305 -0.08788523
0002b0 e2 92 07 3e 11 53 0a 3e 3d 68 8a 3d ba df eb 3e
       0.13239625 0.1350825 0.06758163 0.46069127
0002c0 94 8b c2 bd f8 c1 31 bd 4f 37 f8 be c4 08 76 be
       -0.09499279 -0.043397874 -0.48479697 -0.24026781
0002d0 f1 1a 53 3e f1 4d dc 3d b7 11 9b bd a0 96 6a 3e
       0.20615746 0.10757054 -0.07571738 0.22909021
0002e0 23 16 6f bc 2b 85 39 3c 33 fe 69 be 33 37 1b bf
       -0.01459268 0.011323254 -0.22850876 -0.606311
0002f0 5c 9d 1d be 10 10 2f bd 89 7f 5d bf 83 1a 54 bd
       -0.15392059 -0.042739928 -0.8652273 -0.051783096
000300 b1 41 f5 bd 39 4f 04 bf 2c 64 d3 3d b9 0e b6 bd
       -0.1197542 -0.51683384 0.10321841 -0.08889527
000310 f5 2f 8d 3f 42 62 3a bc 14 08 78 3d 10 ce 02 bc
       1.103026 -0.011375966 0.06055458 -0.007983699
000320 fc f5 8b 3e 70 43 3a 3f b8 32 3d be ea a5 77 be
       0.2733611 0.7275915 -0.18476379 -0.24184385
000330 54 d8 38 3e 44 8d 21 3e cf a3 b1 3e 91 aa 46 3e
       0.18051273 0.15776545 0.3469529 0.19401003
000340 2d c9 cc be 51 78 13 3e 00 74 68 bc 1a b6 cc be
       -0.39997235 0.14401366 -0.014187813 -0.39982682
000350 b2 a7 0d be b5 b2 d6 3d 96 b1 0d be 90 64 00 3f
       -0.13833502 0.104833044 -0.13837275 0.50153446
000360 0c b8 c4 be bd 36 0a be 69 70 d6 3d a1 69 e8 be
       -0.38421667 -0.13497443 0.10470659 -0.45393088
000370 9a 64 1c be 0b bd b2 3e f0 ad c9 3e b2 ac ba be
       -0.15272751 0.34909853 0.39390516 -0.3645988
000380 a8 2f eb 3e 17 20 f5 3e 96 05 00 3e b5 34 68 3e
       0.45934796 0.47876045 0.12502131 0.22676356
000390 32 04 b5 3e b7 6e b7 3e 5d f4 8d be 95 be 39 be
       0.35354763 0.35826656 -0.27725497 -0.18139108
0003a0 df 64 16 bf 04 92 d9 bd 50 a8 92 3d 15 53 12 3d
       -0.5874767 -0.106235534 0.07161009 0.035723764
0003b0 2e c9 1e be 3c bf cc 3e 21 c4 aa bd 18 42 c3 3c
       -0.15506431 0.3998965 -0.0833819 0.023835227
0003c0 62 12 86 be b6 f2 69 bc 1c dc 5a be 18 4d 76 be
       -0.261859 -0.014279058 -0.21373028 -0.24052846
0003d0 57 29 77 be a9 8f b5 bd d3 87 c1 be b9 17 5b bd
       -0.24136864 -0.088652916 -0.37798938 -0.05348942
0003e0 10 52 f2 bc 7b 4e 41 3b 52 35 91 3e 2a 3d 8a bf
       -0.029580146 0.002949624 0.28360993 -1.0799916
0003f0 03 ad 77 bf 40 12 e0 3e 92 3d 83 3e d4 ef 0a 3e
       -0.9674837 0.43763924 0.25632912 0.1356805

fc_adv.bias f4 [128]
000000 c2 06 8f be 8b 6f d7 3c 94 75 8a bd 5d ce cb bd
       -0.27934843 0.026298305 -0.067607075 -0.0995147
000010 9b 62 c5 3e d8 52 db 3e b8 61 3c 3e f2 05 4a bc
       0.38551793 0.42836642 0.18396652 -0.012330519
000020 1f 01 01 3d 5b 0f 46 3f fd 47 4e bc 45 ce 01 bf
       0.03149521 0.7736718 -0.0125904055 -0.5070537
000030 6c 15 05 3f 3b 25 d6 ba 84 2d 8d 3e 3d 5a 2a 3e
       0.5198581 -0.0016338 0.27573788 0.16635986
000040 fc 09 52 bd c2 25 3f 3f ed fe f8 3d 37 ba 5d 3d
       -0.051279053 0.7466699 0.12157998 0.054132666
000050 ec 4e 4a 3e 1f 9c 20 3e ea 05 8c 3e df f4 0d bd
       0.19756669 0.15684555 0.27348262 -0.034657355
000060 d7 08 94 3e 0e 5d a9 3d 15 45 01 be 9d 4b bc bd
       0.28912994 0.08269702 -0.12624009 -0.091941096
000070 16 8b a3 3d 98 bc 9d 3d 6e 04 cc be 76 4c ac be
       0.07985513 0.07701987 -0.3984713 -0.33652085
000080 98 28 78 3e d4 27 5b bd b4 81 d7 be ef 48 9d bd
       0.24234235 -0.05350478 -0.42091143 -0.076799266
000090 48 01 c1 3d b8 f2 ee 3c 7d 71 72 bd 0c 53 3a 3d
       0.094240725 0.029168472 -0.059190262 0.045489356
0000a0 9a 2f 92 3c 44 be e6 bc 52 c9 5b be 82 f2 f5 3d
       0.017844964 -0.028166898 -0.21463516 0.12009145
0000b0 f1 63 a3 3d 09 e8 3c 3e b5 02 b7 3e 1a 92 d6 3b
       0.07978047 0.1844789 0.35744253 0.0065481784
0000c0 e5 32 14 3c 07 73 c5 3d 53 40 89 3e 5b cd 98 bd
       0.009045337 0.0964108 0.26806888 -0.074610434
0000d0 79 24 cc be 7a d6 52 be 02 fa 58 3d 4c b7 d2 bd
       -0.39871576 -0.20589629 0.0529728 -0.10288867
0000e0 3d ab c4 3d 25 09 59 be 52 58 94 3e ac a3 12 be
       0.096029736 -0.21194895 0.28973633 -0.14320248
0000f0 65 5d f0 3b 12 b4 5b 3e 52 26 3c be 49 74 a1 bd
       0.0073353522 0.2145541 -0.18373993 -0.07883508
000100 e5 67 cf 3d fc e1 22 be df ea f1 3d 41 0e e7 3d
       0.10127238 -0.15906519 0.11812376 0.112820156
000110 c9 9c 58 be db de a1 3d 60 34 ca bd dc 43 8c be
       -0.21153559 0.079038344 -0.09873271 -0.27395523
000120 7c 6b 8b 3c c7 c7 98 3e 72 1b f8 3d 42 b7 a4 bc
       0.017019026 0.29839918 0.1211461 -0.020106915
000130 c9 8f 5a be 15 96 73 3e 89 f4 2f 3e f1 9c e5 bc
       -0.21343912 0.2378772 0.17183127 -0.028028937
000140 03 ff 2d be 41 1b 27 bf a2 92 7b be 86 e1 41 3f
       -0.1699181 -0.6527596 -0.24567655 0.75734746
000150 84 95 e9 3c 1a aa 91 3e 24 fd 30 3e 84 cf b3 be
       0.028513677 0.2845009 0.17284065 -0.3511926
000160 6d e2 95 bd 22 ee fd 3e c6 a6 35 3e 74 62 bc be
       -0.07318578 0.49595743 0.177394 -0.36793864
000170 7f 1e 2b 3d 66 52 f9 3e 6b 84 6f be 8e 70 c1 3e
       0.04177713 0.48695678 -0.23390357 0.37781185
000180 e6 99 3d 3e 9c f4 2f bd 07 e5 91 3d 29 c6 5d 3d
       0.18515739 -0.042957887 0.071237616 0.05414406
000190 1a a2 42 3d 84 07 89 bc 96 d6 e8 3d 1f 02 57 bc
       0.047517873 -0.016727217 0.11369054 -0.013123064
0001a0 a3 78 b4 bd d8 3e d6 3d 71 f3 33 bc 8b 6f 27 bf
       -0.08812072 0.10461205 -0.010983334 -0.65404576
0001b0 84 38 23 3e 65 52 7d be ff 1b 72 3e 07 85 04 bc
       0.15939528 -0.24738462 0.23643492 -0.008088357
0001c0 63 70 d5 3e f7 9c d8 bd ab fa bc bd 5e 1f a4 3d
       0.41687307 -0.10576814 -0.092274986 0.08013795
0001d0 1b d7 b2 be a5 8f fd 3c 7f 1d 60 be 75 54 4f bd
       -0.34929737 0.030952284 -0.21886252 -0.050617654
0001e0 dc bb f2 bd 00 45 31 be 1c 8d 20 be 91 8e 9a 3e
       -0.118522376 -0.17311478 -0.15678829 0.30186895
0001f0 24 a8 ef 3d b2 db 0c 3f 57 72 51 bc 07 57 a9 bd
       0.11701992 0.5502273 -0.012783608 -0.08268552

value.weight f4 [1, 128]
000000 c2 c5 b1 3f 36 88 32 bf 1a 2c 07 40 07 79 04 c0
       1.3888476 -0.6973909 2.1120667 -2.069887
000010 37 e8 89 3f 21 b2 0b c0 e7 8d c7 bf 63 c1 07 c0
       1.0773991 -2.1827471 -1.559018 -2.1211784
000020 4f c9 2f bf f4 3d 82 3f 50 b3 4f c0 ba 6a f0 bf
       -0.6866655 1.0175157 -3.2453194 -1.878257
000030 45 7a 01 c0 6e 14 07 40 1b 89 37 c0 67 1f 5d bf
       -2.0230877 2.110622 -2.8677433 -0.8637604
000040 f4 5f 3a c0 30 9e 1a 40 60 5d b9 3f 6d b9 cf bf
       -2.9121065 2.415905 1.4481621 -1.6228462
000050 83 b1 b3 3f 3c b9 1c c0 d1 70 4a bf 05 12 e5 bf
       1.4038547 -2.4488058 -0.79078394 -1.7896124
000060 8f 03 8d bf 9d 73 7d bf 39 a4 0f 40 5c 8f 03 40
       -1.1016711 -0.99004537 2.2443984 2.055625
000070 64 00 42 3f 00 af 02 40 b1 bb 2a 40 ad 53 c8 3f
       0.75781846 2.0419312 2.6677058 1.5650536
000080 f8 3c 94 bf b0 c7 00 40 3f 5e 96 3f f5 5c 5f 40
       -1.1581106 2.012188 1.1747512 3.4900486
000090 0e 2a a4 3f 85 c2 98 bf 30 7d f2 3f 3b 65 2f 40
       1.2825334 -1.1934363 1.8944454 2.7405536
0000a0 82 85 3b c0 88 d0 b7 bf 49 28 ec bf a6 c2 ff 3f
       -2.9300237 -1.4360514 -1.8449794 1.9981277
0000b0 e0 11 0e c0 0a db d6 3f 48 16 d7 bf 9b 17 03 40
       -2.219841 1.6785595 -1.6803675 2.0483158
0000c0 f6 99 51 bf 56 4f 71 bf 83 68 d7 3f b5 f6 96 bf
       -0.8187555 -0.9426168 1.682877 -1.1794039
0000d0 4e 84 d6 bf fc 2c 59 3f 4a dd f6 3f 5e 7f 0f bf
       -1.6759126 0.84834266 1.9286282 -0.5605372
0000e0 5e 84 7c bf d5 9c b8 3f a9 c5 2c bf 79 d1 f9 3f
       -0.98639476 1.4422861 -0.67489105 1.9517051
0000f0 97 4b 07 c0 50 dd 54 40 69 52 d6 3f d1 f2 94 bf
       -2.1139886 3.3260078 1.67439 -1.1636602
000100 7c a7 11 40 c5 a2 0b c0 c2 01 15 c0 f7 c1 e5 3f
       2.2758474 -2.1818097 -2.3282323 1.7949818
000110 23 d6 ea 3f 31 bb ef 3f 68 30 81 3f 3e fd 20 40
       1.8346599 1.8729001 1.0092897 2.5154567
000120 3f 0d fe bf 59 c8 6c 40 2a a8 48 bf ee ec 05 c0
       -1.9847792 3.6997283 -0.783816 -2.092586
000130 1d ea 07 c0 52 e3 97 3f 76 97 b7 bf 29 5c 05 40
       -2.1236641 1.1866248 -1.4343097 2.08375
000140 cc 74 59 bf 1a a1 6c 40 99 40 47 bf 58 0a 06 40
       -0.8494384 3.6973329 -0.77832943 2.0943813
000150 c6 fa 69 bf 6e 78 2f bf 6c 99 5c 3f f4 d5 0e 40
       -0.91398275 -0.68543136 0.86171603 2.2318087
000160 56 fc f5 3f ab df 9a 3f d7 90 60 40 6d e8 8b bf
       1.9217632 1.2099508 3.5088403 -1.0930306
000170 e0 a5 11 40 36 24 90 bf eb 0e 06 c0 1f 71 90 3f
       2.2757492 -1.1261051 -2.0946605 1.1284522
000180 26 d5 19 c0 bc 24 78 40 59 aa 01 40 c1 6f 60 40
       -2.4036345 3.877242 2.0260222 3.506821
000190 fe 0b 31 40 16 af ed bf a0 14 f9 bf 19 32 b9 bf
       2.766357 -1.8569057 -1.9459419 -1.4468414
0001a0 5e 67 a7 3f e5 eb 80 3f 9b 09 72 bf 01 19 37 c0
       1.307842 1.0071989 -0.94545907 -2.860901
0001b0 a7 e6 07 c0 a3 63 27 3f 37 b0 dd bf 72 ab 02 c0
       -2.123453 0.6538641 -1.7319402 -2.0417142
0001c0 d2 e6 e6 3f b2 1f 09 c0 fb ab 41 bf 86 7f 6f bf
       1.8039191 -2.1425595 -0.75653046 -0.9355396
0001d0 89 d3 12 40 3f 06 01 40 7d c4 1a c0 95 76 21 40
       2.294161 2.0160062 -2.4182427 2.5228627
0001e0 43 ac ef 3f fe 21 9b bf 37 90 01 c0 f8 fc c6 3f
       1.8724445 -1.2119749 -2.0244272 1.554595
0001f0 78 f1 5e c0 b1 f9 6e 40 f8 3e 8f bf 39 66 91 3f
       -3.483488 3.73399 -1.1191092 1.1359321

adv.weight f4 [81, 128]
000000 ce 45 94 3e cd 50 cb bd bd 60 87 3e 49 f3 30 be
       0.28959507 -0.09927521 0.26440993 -0.17280306
000010 85 10 bf 3e cf e0 c7 3d 0d 89 1f 3e 16 e0 d7 3e
       0.3731729 0.09759676 0.15579624 0.42163152
000020 40 10 1d be 7a ea 27 3f 48 ee b6 3e 7b 2e 91 3e
       -0.1533823 0.6559216 0.3572867 0.28355774
000030 ae c6 e8 3d eb 10 09 3f 26 e4 a1 be 16 c4 98 be
       0.1136602 0.5354144 -0.31619376 -0.29837102
000040 14 5d 54 3e 58 91 df 3d cd 9d ea 3d 3d eb 71 3b
       0.20738631 0.10916394 0.11455879 0.0036913895
000050 cc c6 81 be b3 39 0c bd 59 4a bd 3e f9 ac 83 bd
       -0.25346982 -0.034234714 0.36970785 -0.06429476
000060 59 18 62 3d 3f 99 bc 3e 8d 60 21 3e 7b b6 91 3d
       0.055199 0.36835667 0.15759487 0.071148835
000070 9d 2e c0 3c a3 93 c3 39 d3 6c cd 3c a9 00 2b be
       0.023459727 0.00037303296 0.025076305 -0.1669947
000080 4a 4b 9f bd a9 2c 70 3f db 51 10 3c 7a ea 76 3e
       -0.07778032 0.93818146 0.008808578 0.24112883
000090 76 c9 0a bd e8 94 01 be a4 71 68 3e 55 3a f5 3b
       -0.033883534 -0.1265446 0.226996 0.0074837604
0000a0 38 0b a2 be e9 a9 eb 3d 73 b1 05 3e ab 74 bd bd
       -0.31649184 0.11507017 0.13055973 -0.09250768
0000b0 ee cb 20 3e b2 bd e5 bc a2 a0 13 bf 6c 62 2c be
       0.15702793 -0.028044555 -0.5766698 -0.1683442
0000c0 ec fa f7 bd 9b f8 1a be 67 9d 81 bd cf ef 02 be
       -0.121084064 -0.15133898 -0.0632885 -0.12786792
0000d0 36 24 04 3f f6 dd 3b 3d 03 0b a5 bc 98 24 c6 3e
       0.51617754 0.045865975 -0.020146852 0.38699794
0000e0 54 4d 3f be b3 c3 a9 be 03 43 85 bd 93 c5 8d 3e
       -0.18681842 -0.3315712 -0.06506922 0.276898
0000f0 6a 0b 0c bf 9d 4e c6 3d 16 7a ef 3e 9e ef 59 bb
       -0.54704916 0.09682963 0.46772832 -0.0033254395
000100 df 09 98 3c 29 a6 33 bf 20 b1 0b be 5b 82 8f 3d
       0.018559394 -0.70175415 -0.13641787 0.07007285
000110 38 d4 3b be 6a 4c ac be 6e 58 13 bc 90 64 f2 3e
       -0.18342674 -0.3365205 -0.008993251 0.47342348
000120 c3 66 c5 3e 8e 3a 61 be cb 2d 1f bd 82 9f 2d 3e
       0.38554963 -0.21994993 -0.03886203 0.16955379
000130 26 ca 82 bd 64 20 69 bd 1e 7b 73 be 8e 59 00 3f
       -0.06386213 -0.056915656 -0.23777434 0.5013665
000140 fc dc 9d 3d e8 24 f0 bd 86 44 af be 53 00 ce 3e
       0.07708165 -0.11725789 -0.34231967 0.40234622
000150 59 95 e7 3d 08 57 5c bf 63 24 93 3e d0 bc ca be
       0.11307783 -0.860703 0.28738698 -0.39597178
000160 16 3a ba 3c 79 19 b9 bd a0 9e d7 3c 52 42 03 be
       0.022732776 -0.09038062 0.026320755 -0.12818268
000170 9e fa 99 bd 2c 8b 35 be 17 f5 17 bd 2b 09 e2 3e
       -0.075185046 -0.17728871 -0.03709897 0.4414762
000180 46 2a 7c be 2a 34 cd 3e 80 ae dc 3e 54 c2 29 3f
       -0.24625501 0.4007886 0.43101883 0.66312146
000190 df db 60 bc 79 b8 33 3e 4e d0 0b 3e 2d 21 e9 3e
       -0.013724296 0.1755084 0.1365368 0.45533124
0001a0 78 40 77 bc 0d 6d a4 3e 69 51 24 3d bf 60 28 bd
       -0.015091054 0.3211445 0.0401167 -0.04110789
0001b0 fe 89 67 be dc 33 5c bd 57 fb 6c be 5b fe 8e bc
       -0.22611234 -0.053760394 -0.23142754 -0.01745527
0001c0 93 6f 3e 3d a5 52 2a be f7 40 ca bd d0 c8 f6 3d
       0.046493124 -0.16633089 -0.09875672 0.12050021
0001d0 53 82 97 be c1 21 50 3e 42 4d 8d 3e 56 87 f0 3d
       -0.29591617 0.20325376 0.27598006 0.11744563
0001e0 03 ab 7a bd 0b cd 14 bc 61 9c a1 bd e2 12 cc bd
       -0.061198246 -0.009082089 -0.07891155 -0.09964539
0001f0 a5 45 8e 3e 5d 8b 98 3e 60 3e ae be 76 ce ae be
       0.2778751 0.29793826 -0.34031963 -0.34141892
000200 03 d0 8b be 83 3a 30 be 50 a3 10 3e df c0 bb be
       -0.27307138 -0.1720982 0.14124799 -0.36670586
000210 38 4b fd 3e 30 ed cd 3d 82 06 a7 be d8 67 29 be
       0.4947145 0.100550056 -0.32622153 -0.1654352
000220 72 a4 40 3d 6a cd ec 3d 47 4c 22 be 86 0b df 3e
       0.047031827 0.11562617 -0.1584941 0.4356348
000230 e0 ee a9 bd ce 90 11 3f a7 84 b7 bd 7a 1c 87 be
       -0.08297515 0.5686158 -0.08960848 -0.26388913
000240 62 70 e4 bb 3f 21 1e 3c 91 3c b7 3d 8c 5c 3b 3e
       -0.006971405 0.009651481 0.08947099 0.18297023
000250 12 e2 a9 bd b4 2b 8c 3d c5 ad f6 3e 2e de b9 3d
       -0.082950726 0.06844273 0.4817945 0.090755805
000260 0c 0f 6c 3d f7 a8 66 3e ed 46 d5 3d 7a fc bd bd
       0.057631537 0.22525392 0.10413919 -0.09276672
000270 e6 9e 7a 3e 71 b0 2d 3e ec cb d3 be 6c c7 28 3e
       0.24474677 0.16961838 -0.41366518 0.16482323
000280 b6 3d 12 bf 02 19 d2 3e fb 69 d7 be 30 7a 5c 3e
       -0.57125413 0.41034704 -0.42073044 0.21530986
000290 81 f7 70 be f3 61 3c bd b5 d0 d9 3d a0 89 3b bd
       -0.23531915 -0.04599185 0.10635511 -0.045785546
0002a0 0a 71 84 bd 1d 59 e9 3d 81 1a b5 3e 8d db 84 be
       -0.06466873 0.1139395 0.35371783 -0.25948754
0002b0 74 2f 99 3e 44 a4 0f 3f f9 73 a9 be ab 69 c3 3d
       0.29919016 0.56110024 -0.33096293 0.09541639
0002c0 f7 d3 2a 3e ed 9a 0d 3e 01 46 4c 3d f7 82 09 3e
       0.1668242 0.13828631 0.04987145 0.13428865
0002d0 5a db 1c 3f 14 17 d5 3c 8d 09 e4 3b 27 06 15 be
       0.61272204 0.026011981 0.0069591464 -0.14553128
0002e0 95 8d 48 be 18 04 13 3d 47 4c e8 bd 54 47 d3 bd
       -0.1958526 0.035892576 -0.11342674 -0.10316339
0002f0 8c 85 5a be d2 c0 e3 3b 95 f6 5a 3e 7b 62 9d be
       -0.21340007 0.006950476 0.21383126 -0.30739197
000300 43 8f bb 3c 73 d0 59 3c 4f 3f 5a 3e 55 cc 4b be
       0.022895461 0.013294327 0.21313213 -0.19902165
000310 9f 87 95 3e 7e 7c 0f bc 71 36 17 3e 07 df af be
       0.29205033 -0.008757709 0.14766861 -0.34349844
000320 7f be 85 3c 47 05 73 3e 82 cf 4b 3c b7 46 e8 3e
       0.016326187 0.23732482 0.01243961 0.4536645
000330 da 95 38 bd 1a 66 05 3e 53 b5 9c be 99 ea 47 be
       -0.045064785 0.1302723 -0.3060709 -0.19523086
000340 5d 9f ce be 33 0d a5 bd 0c f9 9c bd d1 14 ce 3d
       -0.4035596 -0.08059158 -0.076646894 0.10062564
000350 8a 3b 80 3e 4d dd c1 be cd 7f c9 be a9 f7 d4 bd
       0.25045425 -0.37864152 -0.39355317 -0.103988
000360 78 1c 0c bd e3 b3 28 3c 17 48 02 bf 16 50 88 3e
       -0.034206837 0.010296795 -0.5089125 0.266236
000370 26 54 a6 be 42 81 ca be 87 29 26 3d a5 c9 0e 3e
       -0.32486075 -0.3955174 0.040566947 0.13944109
000380 22 54 ce bd fa c7 05 bc 99 7a 89 be b4 c1 8d 3e
       -0.10074641 -0.008165354 -0.26851347 0.27686846
000390 60 80 91 3e da c3 be 3d d9 db a9 3e a7 40 8c 3e
       0.28418255 0.093146995 0.33175543 0.27393076
0003a0 b4 bd 16 be 3c cb 1a 3f ea 56 10 be b1 3f 4f 3e
       -0.14720803 0.6046636 -0.14095655 0.2023914
0003b0 05 39 82 3e f9 b0 22 3e 57 f2 16 be 04 51 e7 3c
       0.25434127 0.15887822 -0.14740883 0.028236873
0003c0 27 ff f5 bc cd b8 c6 be a3 01 4f be 80 a2 70 be
       -0.030028893 -0.38812867 -0.20215468 -0.23499489
0003d0 da 85 da bd cb 94 ca 3d be a6 73 3e 45 b6 3e be
       -0.106700614 0.09891661 0.23794076 -0.18624218
0003e0 42 dd 4e 3d 2c d6 0e 3e 3e e4 12 3d 55 76 85 be
       0.050503977 0.13948888 0.0358622 -0.26066843
0003f0 4f f8 ea 3e 3e 6b 94 3e d9 08 7a 3e 0d 2e 72 be
       0.4589257 0.2898807 0.24417438 -0.2365038

adv.bias f4 [81]
000000 95 b8 7f 3e f6 a9 32 bd 6c 74 99 3d 20 ab d7 3d
       0.24972756 -0.04361912 0.07492909 0.105306864
000010 e4 da d6 ba 78 d3 2d 3e 05 1a 2b 3e c9 5d 2d be
       -0.0016392139 0.169752 0.16709144 -0.16930307
000020 ac 86 18 bd 52 be 1b bd a6 b2 69 3d fc be 70 bc
       -0.037237808 -0.0380233 0.057055138 -0.014693972
000030 d2 a4 36 3e d0 dc 5f 3e 21 41 59 3e fc 0e 06 be
       0.17836311 0.21861577 0.21216251 -0.13091654
000040 e6 ef 09 3e c9 64 60 3e 58 3f 24 3e 05 e6 88 3e
       0.1347042 0.21913446 0.16039789 0.2673799
000050 bd c9 5d be a5 7f e2 3d 37 2e 51 3e a0 0f 81 3e
       -0.21658988 0.110595025 0.20427786 0.25207233
000060 f3 3a b8 3d b7 16 04 3c cd c1 05 ba 88 22 d2 3c
       0.08995619 0.008062056 -0.0005102426 0.025651231
000070 75 91 e5 3d ba a6 0e 3e ae 3e 4e be 32 97 18 3e
       0.11209384 0.13930789 -0.20141098 0.14901426
000080 3d 28 a5 3e db 5b bc 3d 4c 7d bd bc fd d6 09 3d
       0.32257262 0.091972075 -0.023131035 0.033652294
000090 6b c3 f1 bd cf be 4d 3e d8 cd c9 ba a0 61 5e 3a
       -0.11804851 0.20092319 -0.0015396429 0.0008483175
0000a0 eb e0 be bd e0 17 cf 3d d2 19 9d bd 90 a6 68 3e
       -0.093202434 0.10111976 -0.076709405 0.22719789
0000b0 f3 35 ee bd 81 ed 97 bd 68 f4 90 3c e4 19 82 be
       -0.11631384 -0.07418347 0.017694667 -0.25410378
0000c0 c4 fd 20 3e b2 0c 81 bd e7 38 cb 3d e6 86 92 3d
       0.15721804 -0.063012496 0.09922963 0.07154636
0000d0 bb 6c b7 3c b7 84 ef be e9 00 cf bd d2 8d e8 bd
       0.022390714 -0.4678094 -0.101075955 -0.11355175
0000e0 f5 28 db bd 3d c9 20 be 06 78 b8 be 9e fe 6d 3e
       -0.10701171 -0.15701766 -0.3602907 0.2324166
0000f0 c6 50 42 bd 1a fa d9 3d a4 a7 80 be c6 76 19 be
       -0.047440313 0.10643406 -0.251279 -0.14986715
000100 fb 4a 19 3e a3 d8 4f bd 08 c4 b0 bd 8b f7 b3 bd
       0.14970009 -0.05074371 -0.0863114 -0.087874494
000110 ee 52 0f be d7 60 60 3c 02 12 a5 bc 75 e0 84 bd
       -0.13996479 0.013694963 -0.020150188 -0.06488124
000120 a8 70 84 be b2 2a 76 be a1 88 02 3e 4e de e4 bd
       -0.258672 -0.24039724 0.12747432 -0.11175214
000130 6a 7d b0 3d d4 33 50 3e c5 9b af 3b 5e 73 35 be
       0.08617671 0.20332271 0.0053591453 -0.1771979
000140 59 a8 cb bb
       -0.006215137
