lunar_lander_continuous/models/DQN/layers_2/8_128_tanh_25/model.pth (torch, 18975 bytes, 4 tensors)

net.0.weight f4 [128, 8]
00000000: d267 b83d 3c0c 5140 8a3a fd3e 20d2 6e40
00000010: e09e 14c0 3d34 58bf 9029 81bf b308 9c3f
00000020: e920 153c d000 7dc0 71c4 423e a751 80c0
00000030: 0e21 993f 6a8f 613f e1d0 1c3f 8104 93bf
00000040: 41ec e1bf 09bb e23f ddfa b73f c2fa 1bbf
00000050: 5f7d 00bf 4345 d940 a45b 783f 7c15 c7be
00000060: ce3b 1cbf 4bb7 c23e eda8 94bf 1327 973f
00000070: 7b99 d73f 2ec2 c73e 3752 9f3e 3025 8cbd
00000080: c1e8 033f 2b8d 933f b3df c93f 64cf bb3f
00000090: fb91 5abf daa5 5bc0 ace1 1ac0 0149 1540
000000a0: 105e 4abf 17e7 bcbf 6272 c33f 64fe 3d40
000000b0: 7f56 e9bd d8c0 9b3e 71a9 6e40 f207 ed40
000000c0: de7a 84bf db6f 6f40 48dd 023e e61c b9be
000000d0: 8937 c53f 6d24 c3bf afb0 f2c0 a186 1c40
000000e0: 5e6c ff3f 056e 24c0 32b1 b73f 7340 623f
000000f0: bdb5 3dbe 187e 2bbf 553a d5bf a2d8 20c0
00000100: 4f00 fa3e c8c6 c2bd af12 f13f a377 ef3e
00000110: f02e 30c0 b5d4 b6c0 7c4d 84c0 9e0d 9e3e
00000120: 723e 163f 1238 7a3f 1076 d7bf 931c 6f40
00000130: 0928 f93e 18d3 df3f 1d37 91bf 20bf 3ec0
00000140: 0f7d efbf ba9a 4b3f 06ba 803f 9f29 5640
00000150: 060b c93f b86c 9c3f f72e bfc0 efe7 a2bf
00000160: 78fb 0a3f 2770 f73f 1ba3 b2bf aacb 87c0
00000170: 4b79 7a3f 020b a03e 264c 263f 2e84 b1bf
00000180: cab0 023f 5919 fabe 79c0 5fbc e1fc 54c0
00000190: 1154 edbf 88fa a7bf 7cff e03f 01da de3e
000001a0: 6e61 7dbf 6a48 1040 5e33 99be e474 62bf
000001b0: 8932 4b3f 219a 30bf 1331 6ac0 4fd3 88c0
000001c0: f05c c93c d19b afbf 8700 983f 15ca acbf
000001d0: e916 50c0 9b9f dbc0 ba2e adc0 02ba 253f
000001e0: 9605 a53e 4123 32c0 dddf 643f 8eb9 e5be
000001f0: f00c 68c0 6f45 753d 042b a3bf 6103 3241
00000200: 898a 9840 9a7a 033f ec85 8940 10fa 2540
00000210: bfad 043f 9506 87be 8478 1840 4659 9d40
00000220: 8560 9c3e cd5a 2c3e 3fdd 1dc0 5239 1c40
00000230: 3eda 53bf bc78 4ec0 f058 45c0 f4c3 3340
00000240: 5bdd 813d 0159 4740 8cd3 8abf 5f82 0c40
00000250: 5f37 d63f ae0d 5840 e3d0 8bc0 10aa 26bf
00000260: 47c0 9bbf d2a0 ac3d 2c53 86bf 571d 2c3f
00000270: 64da 983f 33c1 37be 4306 bf40 5bfa b03f
00000280: 25cf 33be 9cdd c63f bd23 9d3f 9722 313e
00000290: 19a6 e8bf e4ec bcc0 d98b 42c0 2d13 1740
000002a0: 389d c63f 4cdd 4c40 9559 833f 1a93 2740
000002b0: a0bc 69bf e978 4ebf bec9 39bf cbe1 4bbd
000002c0: 9a65 92bf ae9a 21bf c780 a8bf 0c28 213e
000002d0: c8f5 3240 8125 e83f 17bf b0bf 6609 6abf
000002e0: f1cb 67bf 8d61 f7be 2133 4ebf 13ab 873e
000002f0: bdf0 2340 6f7f 7340 01f9 903e 21b4 9dc0
00000300: 8ed2 ebbe 9593 7540 17d0 c8bf 30e4 8040
00000310: c15a 1740 aff8 cfbe 6c84 923e d227 8abe
00000320: 5a37 4940 8ff8 30c0 cd6f 533f b75b 9fbf
00000330: ffa3 c5be 2e4f 1d40 d43a 713f f0d0 b6bd
00000340: 8bab 8d3f bbb8 9ebf 6179 8b3f 9f57 0bbf
00000350: 632a 2bc0 39cc 4ac0 c074 64c0 6021 c4bf
00000360: 1b3d 1440 b157 993e b0ee 303f dade 02c0
00000370: 9d9d 04c0 d6f2 8dbb ae94 ad3f 7b12 c63f
00000380: d48f adc0 f0dd d03f 1ec2 d3bf fb6c c8be
00000390: e9fe 7cbe 5e94 3ac0 81fe 8f3e 35b2 d53e
000003a0: e738 3e3d 6638 acbf c2f0 bc3f efa0 293f
000003b0: ebfa bcbf fb86 12c0 9b02 bcbf 32fa d03f
000003c0: 1067 e9c0 27a0 833f a321 27c0 56c8 9840
000003d0: 2624 2240 ff8b e33f 1c30 253e acec 4cbe
000003e0: e8c6 f33c 2815 19be 2261 95bf 8b93 013e
000003f0: 5446 6641 8864 8ebe 0427 05c0 c415 08c0
0.09004177 3.2663717 0.49458724 3.731575 -2.322197 -0.8445471 -1.0090809 1.2190155
0.009102085 -3.9531746 0.19020249 -4.0099673 1.1963212 0.8810946 0.61256224 -1.148575
-1.7650224 1.7713329 1.4373432 -0.609295 -0.501913 6.789705 0.9701483 -0.3888358
-0.61028755 0.38030466 -1.1614052 1.18088 1.6843714 0.39015335 0.31117412 -0.068430305
0.5152703 1.1527456 1.5771393 1.4672666 -0.85379 -3.4319978 -2.420024 2.3325808
-0.7904978 -1.4758023 1.5269282 2.9686518 -0.11393451 0.30420566 3.729092 7.40722
-1.0349996 3.741202 0.12779725 -0.3615486 1.5407573 -1.5245491 -7.584068 2.445717
1.9954946 -2.569215 1.4350951 0.8837959 -0.18526359 -0.6698928 -1.6658427 -2.5132222
0.4882836 -0.09510571 1.8833827 0.46770963 -2.7528648 -5.713465 -4.1344585 0.30869764
0.58689034 0.97741807 -1.6832905 3.736119 0.48663357 1.7486296 -1.1344944 -2.9804153
-1.871004 0.7953297 1.005677 3.3462903 1.5706489 1.2220678 -5.974483 -1.272703
0.5428996 1.9331101 -1.3956026 -4.2436113 0.9784133 0.31258398 0.64959943 -1.3868463
0.5105101 -0.48847464 -0.013656729 -3.3279345 -1.854128 -1.3123331 1.7577968 0.435257
-0.9897679 2.2544198 -0.29922003 -0.8845961 0.79373986 -0.6898518 -3.6592453 -4.2757945
0.024580449 -1.3719426 1.1875161 -1.349917 -3.2513983 -6.863233 -5.411954 0.6473695
0.32230824 -2.7834017 0.8940409 -0.4486813 -3.6257896 0.05988067 -1.2747502 11.125825
4.766911 0.5135895 4.297598 2.5933876 0.51827615 -0.2637221 2.3823557 4.9171476
0.3054239 0.16831513 -2.4666288 2.4409986 -0.82754886 -3.226119 -3.0835533 2.808835
0.06341048 3.1148074 -1.0845809 2.1954572 1.6735648 3.375835 -4.369249 -0.65103245
-1.2168053 0.084291115 -1.0494132 0.6723227 1.1941648 -0.17944793 5.9695144 1.3826402
-0.17559488 1.553638 1.2276531 0.17298351 -1.8175689 -5.9039173 -3.0397856 2.3605454
1.5516729 3.201007 1.0261713 2.6183534 -0.91303444 -0.80653244 -0.7257346 -0.04977588
-1.1437256 -0.6312665 -1.31643 0.15737933 2.7962513 1.8136445 -1.3808316 -0.9142059
-0.90545565 -0.48316613 -0.80546767 0.26497707 2.5615685 3.804653 0.28314975 -4.9282384
-0.46059078 3.8371327 -1.5688504 4.027855 2.3649142 -0.40619418 0.28616655 -0.26983505
3.1440034 -2.7651708 0.8259247 -1.2449864 -0.38601682 2.4579577 0.9423039 -0.089265704
1.1067976 -1.2400125 1.0896417 -0.54430574 -2.674462 -3.1687148 -3.5696259 -1.5322685
2.3162296 0.29949716 0.6911421 -2.0448518 -2.07212 -0.004331927 1.3560998 1.547439
-5.423807 1.631773 -1.6543615 -0.39145645 -0.24706616 -2.9153056 0.2812386 0.41737524
0.046440985 -1.3454711 1.4760973 0.6626119 -1.4764074 -2.2894886 -1.4688295 1.6326354
-7.293831 1.028325 -2.611428 4.774455 2.5334563 1.7777098 0.16131634 -0.20012158
0.029757932 -0.14949477 -1.1670268 0.1265394 14.39217 -0.27811074 -2.0805063 -2.1263285

net.0.bias f4 [128]
00000000: 26d3 3340 756b 29c0 f3c1 d3bf 7a56 e2bf
00000010: 4a08 5940 da42 3b40 18aa 03c0 0c94 223e
00000020: 4579 4fc0 df89 bf3e d937 cbbe 21bb 18c0
00000030: bd71 0740 5bb0 50bf ae16 3ec0 8ab1 ae3f
00000040: 8f46 30be 6cea 02c0 910d 0740 2c65 aabf
00000050: ba01 0640 9a14 5540 374f 78c0 6230 36c0
00000060: 268e 4d3f 5288 e2bf be05 3ec0 7189 ccbe
00000070: 0050 033f 8c44 4d3b b961 4fbf f213 89bf
00000080: 45a9 8d3f 7900 49bf ac50 8fbf 03da bbbe
00000090: 1ab0 1340 e385 a93e 7e04 b4be 6f75 1dc0
000000a0: d100 c43f eaf5 1d40 a885 be3f 3c9e 7f3f
000000b0: e659 b33f c128 86bf 029c 5940 ecaa 5940
000000c0: a6cf ccbf 8c97 4c40 c7b9 64bf f5a8 e3be
000000d0: aa5b 02c0 bd65 1440 cae5 2d3f 77ac debe
000000e0: 540b 4b40 2c21 51c0 6ff1 34bf 777a 6040
000000f0: 6a4a bf3f 7f85 3cc0 531e cebf a7dc 10c0
00000100: de5a 6340 4d07 963f 2a19 593f 2751 1dc0
00000110: f44c 78bf 5b34 48bf d83b ae3f ccfc 423f
00000120: 49c2 29c0 46d7 c5be 12ad 0dbe ccdc 1fc0
00000130: 0bd6 0bc0 97ec 203e ef21 2740 603a cc3f
00000140: b742 12c0 3a1d 2e3f d352 4540 2083 43bf
00000150: 188b 39c0 214b 863d 7fcf 14bd 4148 a6bf
00000160: 1e3c 5940 e503 b33e b71e 5bc0 a3df 0d3f
00000170: 4923 903f 142a b3bf 95dd c83f 4929 24bf
00000180: 685a b5bf a91e 5fc0 1245 4fc0 54b1 abbf
00000190: efb5 3240 c7d0 5140 966d 0640 f87e 1540
000001a0: a9c8 043e 200a 45c0 0ca9 71bf 1b8c 28c0
000001b0: c8b5 f3bd 3627 6240 adc1 243d 66d5 1a40
000001c0: 1ce6 4440 f957 0140 a135 a9bf 919c 3640
000001d0: f153 f7be 813c 19bf 3d7d f73e 56dc 553f
000001e0: ea18 2bc0 3b00 d03f bbfe 4e3f 1449 acbf
000001f0: 43bf a23f 416a e13f 5dd2 a9bf 526f b4be
2.8097625 -2.6471837 -1.6543564 -1.768264 3.391131 2.9259553 -2.0572567 0.15876788
-3.2417767 0.37409875 -0.39691046 -2.3864214 2.116317 -0.815191 -2.9701343 1.3647931
-0.17214416 -2.045558 2.110203 -1.3312125 2.0938554 3.3293824 -3.879835 -2.846703
0.80295026 -1.7697852 -2.9691005 -0.3994861 0.51293945 0.0031321375 -0.8100849 -1.0709212
1.1067282 -0.78516346 -1.1196494 -0.36689767 2.3076234 0.3310996 -0.35159677 -2.4602926
1.5312749 2.4681344 1.4884539 0.9985082 1.401181 -1.0481187 3.400147 3.4010572
-1.6000869 3.1967497 -0.89345974 -0.4446484 -2.0368447 2.3187096 0.67928755 -0.43490955
3.1725664 -3.2676497 -0.706809 3.5074747 1.4944584 -2.945648 -1.6103004 -2.2634676
3.552421 1.1720978 0.8480402 -2.4580781 -0.9699242 -0.7820489 1.3612013 0.7616699
-2.6524832 -0.38640803 -0.13835552 -2.4978514 -2.1849391 0.15715252 2.6114461 1.5955315
-2.285322 0.68013346 3.0831802 -0.76371956 -2.8991146 0.065572985 -0.036330696 -1.29908
3.3942943 0.3496391 -3.4237497 0.5541937 1.1260768 -1.3997216 1.5692621 -0.64125496
-1.4168215 -3.4862463 -3.2385907 -1.3413491 2.7923543 3.2783678 2.1004386 2.3358746
0.12967171 -3.078743 -0.9439857 -2.6335514 -0.118999064 3.5336432 0.040223766 2.4192748
3.0765448 2.0209944 -1.3219491 2.853306 -0.4830623 -0.59857947 0.48337737 0.8353933
-2.6733956 1.625007 0.8085744 -1.3459802 1.2714618 1.7610551 -1.3267323 -0.3524118

net.2.weight f4 [25, 128]
00000000: 3e73 0b40 048d 10c0 a894 e43f c6b2 a9bf
00000010: baae d33f b19d 16c0 4741 2340 6065 19bf
00000020: ebd3 18c0 9376 1fc0 7014 cabf 20c5 33be
00000030: 4515 1b40 53b7 803f 1688 11c0 8481 fcbf
00000040: e4b5 debf c700 1bc0 1b68 b43f 227e debf
00000050: 76d9 1840 ad97 f23f 6e15 a7bf 5412 eabf
00000060: 97c8 ebbf 0854 f2bf e246 abbf bf4f a03f
00000070: 86ba 0240 7756 743f e16a eebf ae26 fd3f
00000080: 18a4 d2bf df10 ff3f f4be d73f 9343 15c0
00000090: 7481 25c0 9586 9fbf df2f 9cbf c901 1bc0
000000a0: ae1c f7bf 66ca 10c0 8d84 1740 209f 3e40
000000b0: 11d9 983f b254 0540 4ecb 1940 769d 0a40
000000c0: 3bf0 dcbf 5b8c e13f 63a1 0840 d7a0 bf3f
000000d0: 4672 783f d16d 1540 0605 34c0 7f7d b9be
000000e0: 77c3 ab3f 8797 d1bf 8110 2640 f27a fa3f
000000f0: 009f 08c0 82af 09c0 8b6a 2040 cc88 d2bf
00000100: 2426 c13f 672a abbf a5e1 95bf ff70 8cbf
00000110: ac6f e3bf e5c5 5640 db2c d4bf 21b6 72bf
00000120: 56c6 e7bf 14b9 f0bf d843 4340 f778 1ac0
00000130: 72ef 69bf f7df 9a3f 52ac ca3f 589c 07c0
00000140: cce0 82bf 3c2a 21c0 3d92 c13f 7c45 0e40
00000150: dd5d e2bf 93f1 0740 c20a ac3f aea3 0d40
00000160: 1f0d 0940 8367 03c0 9282 b5bf 311c 1240
00000170: 5bdd 1fc0 aa87 1440 29c5 ffbf 2944 21c0
00000180: b917 ee3f f8c2 dcbf 8048 c8bf 74a9 c33f
00000190: c67f a03f 0f01 f83f 9297 0ec0 3524 e0bf
000001a0: baf7 b13f 9edd e0bf f872 c43f dd81 03c0
000001b0: 701e 26c0 bd2e c73f da87 e13f 2dbc f33f
000001c0: d258 be3f 3792 bbbf 1846 2440 6ff1 bc3f
000001d0: dd3e e5bf 3c24 d9bf cc36 4a3f c508 bfbf
000001e0: 5d8e 04c0 39fd dcbf 8851 a43f fc5b 2540
000001f0: 339d 01c0 a910 e4bf 7538 b8bf e512 e1bf
00000200: 5051 0040 3850 eebf fe52 0040 355d 8dbf
00000210: 2450 e33f 884e f9bf 5eae 0440 6e51 87bf
00000220: 5475 16c0 4355 08c0 26da f5bf fcf7 83bf
00000230: b4bf e23f 5c03 c03f 7cbd 1bc0 691a 0fc0
00000240: f3a0 06c0 e9f0 1cc0 4dbe fe3f e963 d0bf
00000250: 978a 0940 149e e33f 9aea e5bf 5e2c d7bf
00000260: 2c80 babf fdc7 debf a395 c9bf 77e0 ae3f
00000270: 378b 0340 0e2f 89be 4723 00c0 8bd2 1c40
00000280: 0852 fcbf 95c1 2a40 e6dc 0b40 1e60 09c0
00000290: 9bf1 1ec0 d121 b8bf e0f9 d9bf de48 27c0
000002a0: 908e 0cc0 a8d5 09c0 79a6 0d40 9c2e 3b40
000002b0: c784 ac3f 6abc fd3f fe79 ea3f 67ec 0940
000002c0: eaed fabf c9f3 e53f 2d2a f93f fec8 d63f
000002d0: 32d3 c93f 4983 1940 01b3 f5bf ba3d d8be
000002e0: e275 df3f fac7 95bf 453f 0c40 854f d93f
000002f0: ca22 0fc0 c034 0cc0 4d21 1140 cac7 d7bf
00000300: 3b6b ed3f f1fe d9bf 3d41 96bf ed9f e0bf
00000310: d4e8 08c0 94a2 1c40 aaa5 e7bf eaee 95bf
00000320: 0367 e9bf 90c4 d7bf 0552 643f 6e12 ebbf
00000330: 9ce5 a0bf f33b ed3e b91e c63f 40ac fdbf
00000340: 847a c0bf 0e15 2dc0 a38d e23f 921b f33f
00000350: 8c35 4bbf c2b2 0b40 91fe da3e b4ec dc3f
00000360: c618 db3f 29ee efbf 805c d8bf eea9 2140
00000370: 3bc5 e5bf eeb2 2040 0e72 edbf 09af 1ac0
00000380: 6b6e da3f baa0 e4bf dc3e b0bf 35ec ca3f
00000390: 6540 d13f a3e6 de3f 3076 06c0 dfe6 d2bf
000003a0: b07b 873f 5b8c dfbf 3e89 ba3f 3903 f3bf
000003b0: 5808 14c0 304a e43f 191a 0f40 72bb cf3f
000003c0: 4e60 cd3f 61c4 11c0 3a82 1940 9ba3 dc3f
000003d0: d6b4 cdbf 9c9c bdbf 7178 243f 2c31 a8bf
000003e0: 46a0 04c0 2be5 0bc0 10db 8b3f db7e 1a40
000003f0: e8a2 d3bf f628 fdbf ff18 2bbf 771f 1ec0
2.1789088 -2.258607 1.7857866 -1.3257682 1.6537697 -2.3533747 2.5508592 -0.5992031
-2.3879344 -2.4916122 -1.5787487 -0.17555666 2.4231732 1.0055946 -2.273931 -1.9727025
-1.7399259 -2.4219224 1.409427 -1.7382243 2.3882728 1.8952538 -1.3053415 -1.8286843
-1.842059 -1.8931894 -1.3381007 1.2524337 2.0426345 0.95444435 -1.8626367 1.9777429
-1.6456327 1.9927024 1.6855149 -2.3322494 -2.5860262 -1.2462946 -1.2202109 -2.421984
-1.9305627 -2.2623534 2.3674653 2.9784622 1.1941243 2.0832944 2.4030337 2.1658607
-1.7260813 1.7620958 2.1348503 1.497096 0.9704937 2.3348277 -2.8128066 -0.36228558
1.3419026 -1.6374367 2.5947573 1.956877 -2.1347046 -2.1513371 2.5065029 -1.6447997
1.5089765 -1.3372315 -1.1709486 -1.0971984 -1.7768455 3.3558285 -1.6576189 -0.94809157
-1.8107402 -1.8806481 3.0510159 -2.413633 -0.9138099 1.2099599 1.5833838 -2.1189175
-1.0224853 -2.5182028 1.5122753 2.222991 -1.7684895 2.1241195 1.3440783 2.2131152
2.1414258 -2.0531929 -1.4180472 2.2829707 -2.4978855 2.3207803 -1.9982044 -2.5197852
1.860099 -1.7247 -1.5647125 1.5286088 1.2538993 1.9375323 -2.228001 -1.751105
1.3903725 -1.7567632 1.5347586 -2.0548012 -2.5956078 1.5561138 1.7619584 1.9041802
1.4870856 -1.4653996 2.5667782 1.476118 -1.7909809 -1.6964183 0.78989863 -1.4924551
-2.0711892 -1.7264777 1.2837381 2.5837393 -2.0252197 -1.7817584 -1.4392229 -1.7583891
2.004963 -1.8618231 2.0050654 -1.104407 1.7758832 -1.9477091 2.0731425 -1.0571725
-2.3509111 -2.130204 -1.9207199 -1.0310054 1.7714753 1.5001025 -2.4334402 -2.235987
-2.1035736 -2.452204 1.9901825 -1.628049 2.1490839 1.7782617 -1.796222 -1.6810415
-1.4570365 -1.7404782 -1.574879 1.3662251 2.055372 -0.26793712 -2.0021532 2.4503505
-1.9712534 2.6680653 2.1853576 -2.1464915 -2.4834964 -1.438532 -1.7029381 -2.6138225
-2.1962013 -2.1536655 2.2132857 2.9247198 1.347802 1.9823124 1.8318479 2.1550539
-1.9603856 1.7965022 1.9465996 1.6780088 1.5767577 2.398638 -1.9195253 -0.42234594
1.745785 -1.1701653 2.1913617 1.6977392 -2.2364984 -2.1907196 2.2676575 -1.6857846
1.8548349 -1.7030927 -1.1738659 -1.7548805 -2.1392107 2.447423 -1.8097432 -1.1713536
-1.8234562 -1.6856861 0.8918765 -1.8364999 -1.2570071 0.463348 1.5478126 -1.9818192
-1.5037389 -2.70441 1.7699474 1.8992789 -0.7937858 2.1827855 0.42772344 1.7259736
1.7116935 -1.8744556 -1.6903229 2.5259967 -1.7950815 2.510921 -1.8550432 -2.4169333
1.7064947 -1.786155 -1.3769183 1.5853335 1.6347777 1.7414135 -2.1009636 -1.6476706
1.0584621 -1.7464708 1.4573133 -1.8985358 -2.3130093 1.783514 2.2359679 1.6229079
1.6045015 -2.277611 2.3985734 1.7237428 -1.6070812 -1.4813418 0.6424628 -1.3140006
-2.0722823 -2.1858623 1.0926228 2.4139926 -1.653409 -1.9778125 -0.66835016 -2.4706705

net.2.bias f4 [25]
00000000: 844e 443f 8330 663e aa96 ad3e 60be 0f3f
00000010: dede 8e3e 83fa a73e c4a4 0f3f f6d0 7a3e
00000020: 318e 1e3e 84a0 623e 799b 653f f2a6 ab3e
00000030: f58a 263e 4a42 1d3e 11de 4a3f cbc9 933e
00000040: e7b8 89be 1fa8 0cbe 7aae 1a3e 9def ef3e
00000050: 1076 693e 4df1 ee3d 30b1 553e 960b 4dbe
00000060: 5ca4 213f
0.76682305 0.22479443 0.3390401 0.56149864 0.2790441 0.32808313 0.5611079 0.24493775
0.15483929 0.22131544 0.8969036 0.33525807 0.16263945 0.15357319 0.79245096 0.28864893
-0.26898882 -0.13736008 0.1510562 0.46862498 0.22798944 0.11667118 0.20868373 -0.20023951
0.6314142
