lunar_lander_continuous/models/DQN/layers_3/8_128_tanh_128_tanh_25/model.pth (torch, 85399 bytes, 6 tensors)

net.0.weight f4 [128, 8]
000000 fb 20 2e 3f b5 4c 72 3e b2 ad 0d bf 28 d1 5d 3e
       0.68019074 0.23662074 -0.55343163 0.21661818
000010 22 3d 5a c0 2d 96 8c 3f 6d 5c e0 bb 56 32 0e be
       -3.4099813 1.098333 -0.0068469555 -0.13886389
000020 db 82 e6 be 27 fc 03 bf b0 d5 71 3e be 42 ea 3d
       -0.4502171 -0.5155663 0.23616672 0.11438511
000030 18 9d 87 be 19 d9 59 bf 0e e4 3c 40 b2 05 0a bf
       -0.2648704 -0.8509689 2.9514194 -0.5391494
000040 74 26 2d 3e a1 db 07 bf b0 86 35 bd 91 be bd 3f
       0.169092 -0.530695 -0.0443179 1.4823781
000050 17 2a a4 3e 02 30 a0 3e 15 a5 1c bf f8 a2 6a 3f
       0.32063362 0.31286627 -0.61189395 0.9165492
000060 4f 48 52 3f de d1 50 3d 3b df 46 3f 8e b0 2c bf
       0.82141584 0.050981395 0.7768437 -0.674569
000070 36 c4 00 40 b7 27 1f bf 02 a7 85 be 00 e3 c4 bf
       2.0119758 -0.62169975 -0.2610398 -1.5381775
000080 3e 95 02 3e 85 87 60 c0 42 90 0d be fd 83 1b 40
       0.12752244 -3.5082715 -0.13824561 2.429931
000090 27 bd da bf 7d 14 c7 3b cb 1b a7 3f e1 6d 57 3f
       -1.7088975 0.0060754404 1.3055357 0.84152037
0000a0 fa e8 a8 3e 26 eb 9d 3f 94 77 49 be 46 49 b1 3e
       0.32990247 1.2337387 -0.19674522 0.34626216
0000b0 5c 31 4f bf cb 5a 75 bf 11 d8 09 3f e9 07 13 3f
       -0.8093469 -0.95841664 0.53845316 0.57433945
0000c0 1d 54 b0 3e e2 38 9f be 96 dd 9f 3d df 2c 06 3e
       0.34439173 -0.31098086 0.07805936 0.13103054
0000d0 53 1d 69 bf 45 6b bf bf 67 a9 9a bf 02 1b 71 3f
       -0.9106037 -1.4954611 -1.2082947 0.94181836
0000e0 fa 66 43 bf ef 9d 88 3e 02 d5 9d b9 8c 90 a7 3d
       -0.76329005 0.26682994 -0.00030104077 0.08181867
0000f0 a0 66 0f 3f 50 ba 23 c0 d4 a5 05 bf 01 cc b7 bf
       0.5601597 -2.5582466 -0.5220616 -1.4359132
000100 f5 7f af 3f ad 96 58 3e 6b 37 a8 bf 61 6e a6 bf
       1.3710924 0.21151228 -1.3141912 -1.3002435
000110 2f 35 44 3f 88 01 39 bf 00 e4 ac bd 09 de fa ba
       0.7664365 -0.7226796 -0.08441925 -0.0019139658
000120 28 50 5d bf 3c 50 aa be 22 94 85 3e 1e 7b c3 bd
       -0.86450434 -0.3326434 0.2608958 -0.09544967
000130 59 fe f6 be b3 30 ac 3f 8f 37 af bf d4 72 78 3f
       -0.48240927 1.3452362 -1.368883 0.97050214
000140 41 ae a9 be 1f e2 1e 3f 09 59 85 3c d8 19 f5 3d
       -0.33140758 0.62063783 0.016277807 0.1196782
000150 ed 59 55 3f b4 0c bb 3f fe 65 c4 3e 39 f4 35 3f
       0.8334034 1.4613252 0.38359064 0.7107578
000160 c5 59 9e bf ca 30 59 be 89 99 e9 be da fb 38 bf
       -1.2371145 -0.21210018 -0.4562495 -0.72259295
000170 ef fb 55 3f a8 bc a1 3f ad 73 c7 3f 8e fb 92 3e
       0.83587545 1.2635698 1.5582176 0.28707546
000180 9e e5 1b bf 43 b2 90 bd 3f 56 85 bd c0 17 24 bf
       -0.60897243 -0.07065251 -0.06510591 -0.6409874
000190 7c f1 d4 3e e4 41 a6 bf 87 94 b8 bf e8 ae b8 3f
       0.41590488 -1.2988858 -1.4420327 1.4428377
0001a0 be 00 2e bd 94 1c 4b be 86 9f 37 be 2c 4b ee 3e
       -0.042481177 -0.1983512 -0.17931947 0.46541727
0001b0 ad 68 8e 3f 04 29 55 3e e2 47 00 bf 4e 60 9d bf
       1.1125695 0.20816427 -0.50109684 -1.2295015
0001c0 cf e4 de bd 70 73 5e 3f ef 18 d5 bf 5e 50 98 3f
       -0.108834855 0.86894894 -1.6648234 1.1899526
0001d0 d5 a2 78 bf 62 00 ab 3f 6f d2 95 3f dd b7 18 3f
       -0.9712346 1.3359492 1.1704844 0.59655553
0001e0 58 a0 ce be 20 47 fd 3e 31 37 44 be 9d ed 39 be
       -0.40356708 0.49468327 -0.19161679 -0.18157049
0001f0 43 5b 9a 3f 35 c8 72 3f 0f e8 e9 3f 43 e4 81 bf
       1.2059101 0.9483674 1.8273944 -1.0147785
000200 82 a2 5e bf 41 1b e7 3e 4b 5a dd be be ee 4b 3f
       -0.8696672 0.4513798 -0.4323295 0.79661167
000210 a4 ca 35 3e e5 c9 40 3f 9a da d2 bf 3d 6c 58 bf
       0.17753083 0.75308067 -1.6472962 -0.8454016
000220 12 a3 22 be d8 70 5c be 6c 0a c1 be f5 c3 a4 3e
       -0.15882519 -0.21527421 -0.37703264 0.32180753
000230 41 e5 7b 3f 1f 25 65 3f 29 59 bf 3f 6a b1 bd bf
       0.9839669 0.8950977 1.4949085 -1.4819767
000240 e3 c4 a0 bc a5 3b 90 be 57 b4 a3 bd bd 6e 5c bf
       -0.019625133 -0.28170505 -0.079933815 -0.86106473
000250 32 02 5a 3f 8c ad a4 3e 7a 07 b6 bc af e6 4e be
       0.851596 0.32163656 -0.022220362 -0.20205186
000260 1e a1 17 be 41 b0 4f bf d0 45 92 3d c7 7d bf be
       -0.14807555 -0.8112832 0.07142222 -0.37400648
000270 9d 2a ac be 04 7a 0f bf 47 c6 5e 3f 37 c6 0f bf
       -0.3362626 -0.56045556 0.870213 -0.56161827
000280 ba 7d 87 3f b1 d7 ba be 27 67 8a 3f 68 b3 9c 3f
       1.0585244 -0.36492684 1.081273 1.224225
000290 77 df a4 3f 96 a2 55 be 5b 78 69 3d 26 90 d6 be
       1.2880696 -0.20862803 0.056999546 -0.41906852
0002a0 04 ce fb be 57 17 41 bf 2c 6a 46 3e 5b 46 30 bf
       -0.49180615 -0.7542624 0.19376439 -0.68857354
0002b0 7f 8c ab be 3c 37 54 3f 7e e5 5b c0 ce 11 e2 bf
       -0.33505628 0.8289678 -3.435882 -1.7661684
0002c0 22 0c 1d bf 1f cf e4 bd 50 87 90 3f 31 87 a9 3f
       -0.6134664 -0.11172318 1.1291294 1.3244382
0002d0 ec 7b 46 40 2b a3 69 bf a3 71 7e 3e 44 11 07 3e
       3.1013136 -0.912646 0.24848036 0.1319018
0002e0 14 72 fd be 3b 63 96 3e 98 a4 62 3e 23 40 ae bf
       -0.49501097 0.29372582 0.221331 -1.3613323
0002f0 f5 d5 3f bf b6 b5 4a 3f ff e1 39 3d 19 9e f9 3c
       -0.7493585 0.7918352 0.045381542 0.030470895
000300 88 d0 4e bf 27 e4 16 3e d3 63 54 3f 28 c6 6b be
       -0.80786943 0.1473547 0.8296482 -0.2302481
000310 3f ea fb c0 42 05 d6 be 6c 6d 3e 3f 85 f0 7a bd
       -7.8723445 -0.41800886 0.74385715 -0.061264534
000320 68 1d d9 3f d7 08 3a 3d c4 9a 43 3f 41 b1 01 3f
       1.6962099 0.045418587 0.7640803 0.50661093
000330 a5 0e 14 c0 98 1c fd bf da 3a 61 bf b8 bd dd bf
       -2.3133938 -1.9774351 -0.87980425 -1.7323523
000340 7f 85 a0 be 69 6f 07 bf 91 de 83 bf 52 1c 9b 3f
       -0.3135185 -0.52904373 -1.0302297 1.2118018
000350 ee 64 7c bf 74 d2 01 3f 0f 1c bb be 2c 8b a3 3f
       -0.98591506 0.5071175 -0.36544845 1.2776847
000360 c2 07 22 3f 15 01 a1 be 70 3b 87 be a3 98 65 be
       0.6329309 -0.31446138 -0.26412535 -0.22421508
000370 15 ff 99 3e 36 ca df 3e 88 6d 44 3f 7f 97 9b 3f
       0.30077425 0.43708962 0.7672963 1.2155608
000380 b9 f8 85 3f d2 eb 15 bf 5b 85 06 bf 3e 78 08 bf
       1.0466529 -0.5856296 -0.52547234 -0.53308475
000390 a5 d3 6d be 90 e5 f9 bd 16 4a f5 3e 3d 72 ad 3e
       -0.23225267 -0.12201989 0.47908086 0.3387622
0003a0 2d 41 04 3f f6 2b c4 3e 99 f5 98 bd 54 35 24 bf
       0.5166195 0.3831479 -0.07468719 -0.6414387
0003b0 57 3c 08 bf 8e 4f 85 3f 20 0c 3b bf f3 ab 09 bf
       -0.5321707 1.0414903 -0.73065376 -0.53778
0003c0 20 15 01 bf 8b d7 b5 bf f5 77 0c be 9f 04 04 bf
       -0.5042286 -1.4206403 -0.13717635 -0.5156955
0003d0 8d b8 98 3e 96 2a 54 3f ef 09 7a bf f1 d3 90 be
       0.298283 0.8287748 -0.9767141 -0.28286698
0003e0 aa ba 1e bf a0 30 20 3f 2e 25 44 3e 87 d5 e5 bf
       -0.62003577 0.62574196 0.19154808 -1.7955788
0003f0 26 ee 7a 3f 2d 67 c6 3e b8 e0 71 bf b1 18 1a be
       0.98019636 0.38750592 -0.9448352 -0.15048482

net.0.bias f4 [128]
000000 78 79 11 3f 02 51 be 3c ef 0c f9 3e d3 e4 cf 3e
       0.5682597 0.023231987 0.4864268 0.40604267
000010 36 df 8f be 93 1a e3 3e b2 eb 2d bf aa 88 b8 be
       -0.28099984 0.44356212 -0.6793777 -0.36041766
000020 ca 78 3c 3f 1f cf 90 3e d7 63 0b 3f e1 54 04 3f
       0.7362181 0.2828302 0.5444922 0.51692015
000030 45 43 6a 3d 83 98 45 3f 9c 7c 95 be 78 e3 73 3e
       0.05719306 0.7718584 -0.29196632 0.23817241
000040 54 19 ec bd d8 1b 0a bf 11 3e f5 3e 45 3e 83 be
       -0.115282685 -0.53948736 0.47898915 -0.25633445
000050 9e 9e 37 bf 9d 60 17 be 1d 3a 31 bf e5 be 56 3f
       -0.71726406 -0.14782949 -0.692293 0.8388503
000060 d1 91 b0 3e 03 88 92 be d4 15 83 be 76 46 0a bf
       0.3448625 -0.28619394 -0.2560259 -0.54013765
000070 ee f8 83 be 4e ee 52 3e de 2c c2 be 18 fa 13 be
       -0.25775856 0.20598719 -0.37924856 -0.14450872
000080 5a 76 60 3e 9e 19 18 be a8 3c 1e be 60 7f 2e bf
       0.21920148 -0.14853522 -0.15452826 -0.6816311
000090 24 cd f3 be 0d 01 06 3f 62 2f 34 3f 1e 9d 1b 3f
       -0.47617447 0.52345353 0.703848 0.60786617
0000a0 e4 50 a4 3e 25 ec 52 bf 85 7a e0 be d8 46 13 3f
       0.32092965 -0.8239158 -0.43843475 0.57529974
0000b0 27 7a dc be f6 95 19 3e 2e eb bd bd 87 12 95 3e
       -0.43061945 0.14998612 -0.092733726 0.29115698
0000c0 28 cd c5 3e ec b1 4d be 68 ed b2 3e 8e 3f 8c 3e
       0.38633084 -0.20087403 0.34946752 0.27392238
0000d0 ec 0c 36 3e c1 52 93 3e 9d 8e 22 bf 79 50 89 be
       0.17778367 0.28774074 -0.6349886 -0.26819208
0000e0 63 bb 17 bf bc 18 4d 3e ef 34 55 3f c8 93 eb be
       -0.59270304 0.20028967 0.83283895 -0.46011186
0000f0 59 d7 3c 3e cc cf c8 be 12 4b b7 be c3 78 41 bd
       0.18441524 -0.39221036 -0.35799462 -0.047234308
000100 45 42 0d be be 84 5f 3d 21 da 60 3e 66 31 eb bd
       -0.13794811 0.054569952 0.2195821 -0.114840314
000110 7c cf a3 3e 67 a1 38 3e 24 be aa be 9a ac be 3e
       0.31994236 0.1803032 -0.3334819 0.3724106
000120 4a 7b ba bd a9 22 ec 3e ec ad 66 3f de be 45 be
       -0.09105547 0.46120194 0.90109134 -0.19311091
000130 57 8d 25 3f 7c 4b bc 3e 72 ec 09 bf b0 e0 ad 3e
       0.6466879 0.3677634 -0.5387641 0.33960485
000140 f3 4b db 3e 36 55 5a bf 29 d9 88 be 99 12 0c bf
       0.42831382 -0.8528627 -0.2672818 -0.5471588
000150 8c 93 93 3e 95 e7 80 3e b0 00 74 3e f2 59 68 3e
       0.28823507 0.25176683 0.23828387 0.22690561
000160 73 56 b3 be 33 3a 23 bf d8 b3 48 3f df 91 07 bf
       -0.35026893 -0.6376068 0.7839942 -0.52956957
000170 e5 93 ef be 50 bd 6c 3f 50 5c 25 3f f9 ca b5 3d
       -0.46792522 0.9247637 0.6459398 0.088766046
000180 06 4c 99 be 36 bd 38 be 2b 22 2d bd 51 eb 39 3f
       -0.29940814 -0.18040928 -0.042268913 0.7262469
000190 7e c2 c0 be fc 77 1a 3e e6 27 88 3d 42 77 21 3f
       -0.37648386 0.15084833 0.06648235 0.630726
0001a0 4a e8 62 3f 36 77 ae bd 42 bf f6 be 96 9e 4d 3e
       0.88635695 -0.085188314 -0.48192793 0.20080027
0001b0 48 51 4e 3e 84 0f f5 3e 53 ca e0 3e 50 40 fb 3e
       0.20148194 0.478634 0.4390436 0.49072504
0001c0 64 23 96 be 6c fb ac be f9 b2 50 3f 1e 63 af be
       -0.29323876 -0.3378557 0.8152309 -0.34255308
0001d0 57 e3 ca be 6c 59 8d bf 30 c8 18 bf 9b f0 aa 3e
       -0.39626572 -1.1042914 -0.5968046 0.33386692
0001e0 0c 65 a8 3e fb b4 00 bf 2a b4 28 bf 02 4f 17 3f
       0.32889593 -0.50276154 -0.6589991 0.5910493
0001f0 60 a5 4b 3f 90 65 26 3f eb 0e 24 bf fe a7 1a bf
       0.7954922 0.6499872 -0.64085263 -0.60412586

net.2.weight f4 [128, 128]
000000 39 23 0e bf cf af fa be 4b 44 30 be f9 22 93 3e
       -0.55522496 -0.48962256 -0.17213552 0.2873762
000010 46 16 53 3e 57 e7 61 3f 5a 18 ae be 4b b5 45 bf
       0.20613965 0.8824362 -0.34002954 -0.77229756
000020 e1 71 ae be 26 f9 b1 3e 9c 00 39 3c 1f 48 a6 be
       -0.34071258 0.34760398 0.011291649 -0.324769
000030 20 a4 69 3e 2a 17 3e 3f d0 8d d8 be 62 7a ab 3e
       0.22816515 0.74254096 -0.42295694 0.33491808
000040 cc cc 86 be fb 13 e9 be b7 5d 46 3f 40 4b ee 3e
       -0.26328123 -0.45523056 0.7748675 0.46541786
000050 53 68 2f 3e 6c 50 61 be be f3 9e 3e 21 76 b6 bd
       0.1712964 -0.22003335 0.31045336 -0.0890925
000060 3e 98 85 bf 83 4f 59 3f 77 81 ef bd 59 7a 17 bf
       -1.0437086 0.8488695 -0.11694615 -0.5917106
000070 35 16 7b be 9c eb 6c bd 20 d8 c8 bd 4a 3a 5b be
       -0.2452019 -0.057841882 -0.098068476 -0.21408954
000080 25 1f 4d 3f 05 3e 36 3f 27 1c b9 be 06 04 e5 bd
       0.8012565 0.71188384 -0.3615429 -0.11182408
000090 ef 8b 95 be 51 be 85 bd bf 76 a0 3e 94 3b 46 bf
       -0.29208323 -0.065304406 0.31340596 -0.7743466
0000a0 c2 49 9e 3e 7f 9c e0 be 4d 46 bc bd 93 40 c0 3e
       0.30915648 -0.43869397 -0.09193096 0.37549266
0000b0 8d c4 b1 3e a0 6f 3d be 89 15 d4 be e9 0d 95 be
       0.3472027 -0.18499613 -0.4142268 -0.29112175
0000c0 7c c7 a1 3e 71 b1 05 bf 44 ca e7 3e 8e d0 29 3c
       0.31597507 -0.5222388 0.45271504 0.010364665
0000d0 84 54 c3 be d9 8e 6f 3f ca 86 36 3f 85 c3 02 3f
       -0.38150418 0.93577343 0.7129942 0.5107959
0000e0 e3 81 d1 3e ee d3 dd 3d 89 87 c4 3c d3 6e 15 be
       0.40919408 0.10831438 0.02399041 -0.14593057
0000f0 03 32 bd 3e eb 15 98 be 2c 0f 8c be ef 25 19 bd
       0.36952218 -0.29704222 -0.27355325 -0.037389692
000100 99 ea 99 be e8 73 f9 be 20 90 bc be e9 c8 2d 3f
       -0.30061796 -0.48721242 -0.3682871 0.6788469
000110 d6 03 1b 3f 88 92 10 3f 09 05 c8 3e e0 ba 8a be
       0.6055273 0.5647359 0.39066342 -0.270957
000120 38 f0 4b bf cb 10 78 3a 99 ec 86 3e ab 56 31 be
       -0.7966342 0.00094629516 0.26352385 -0.17318217
000130 96 af ce 3e a3 bb e8 3e 22 8a 06 bf d7 63 c7 bd
       0.40368336 0.45455655 -0.52554524 -0.0973584
000140 15 07 77 3e 36 d9 da be ef b2 5c be 08 ff 10 bf
       0.24123795 -0.42743844 -0.21552633 -0.56639147
000150 01 5f 31 bf 13 5c 87 bb 80 8c db bd c4 71 5f bd
       -0.6928559 -0.004130849 -0.107201576 -0.054551855
000160 59 82 fd 3e 42 03 c4 be d4 7a 86 3d 8a 84 3a 3e
       0.4951351 -0.38283736 0.06566396 0.18214622
000170 fb 29 31 be 9d a7 94 be 7d e0 07 bd b2 5c 08 bf
       -0.1730117 -0.2903413 -0.033173073 -0.5326644
000180 00 9b e3 3e b8 9a 9d 3e 24 bb c7 be 9e da fa be
       0.44454193 0.30782104 -0.39009964 -0.48994917
000190 e2 09 93 be fc e1 04 3f 63 23 d2 3e 66 27 73 3e
       -0.28718477 0.51907325 0.41042623 0.23745498
0001a0 78 c9 f8 3e bc 9c 16 3e e9 f4 91 3e 4b 94 0c 3f
       0.48591208 0.14708227 0.28507164 0.5491378
0001b0 94 e5 ed be 21 58 73 3f 47 87 16 bf 77 c4 4f bf
       -0.46464217 0.9505635 -0.58800167 -0.81159157
0001c0 bb f0 ef be ef 6b 8a 3d 78 1a a6 3e 51 a1 83 3e
       -0.4686335 0.06758868 0.3244207 0.25709012
0001d0 bc 02 93 be 89 88 f1 bd 34 3e 9b 3e f6 9b 72 be
       -0.28713024 -0.1179362 0.30320895 -0.23692307
0001e0 ad 5f 0d bf a9 77 de 3e e8 06 05 bf f3 fa 4c 3f
       -0.55224115 0.43450668 -0.51963663 0.8007042
0001f0 6a ca 93 3d a0 b6 ab be 43 30 db be dc 70 f3 be
       0.07216342 -0.3353777 -0.42810258 -0.47547042
000200 10 69 19 bf 49 88 41 bd 6f 6c d5 3f bc 6d 26 bf
       -0.5992594 -0.047249112 1.6673716 -0.6501119
000210 71 dd 7e be ea 9f 14 3f 17 ad a7 3d 56 bc bd be
       -0.2488916 0.5805651 0.08187311 -0.3705775
000220 14 2a c6 bd cf e8 03 bd ee 2b 97 bc 26 5d f6 3d
       -0.096759945 -0.032204445 -0.018453564 0.120294854
000230 5f b3 68 3f 53 7b 34 bf df 7d 77 3f 9b 8d 8b be
       0.908987 -0.7050068 0.9667644 -0.27256474
000240 5a b8 15 3f 70 96 a4 bd 2a 32 9b be e6 dd 2e be
       0.58484423 -0.08036506 -0.3031171 -0.17076835
000250 33 35 94 3e 20 2d bf 3e 36 83 0e 3f 7e 50 56 bf
       0.28946838 0.37339115 0.5566896 -0.8371657
000260 dd 61 bd be f8 a0 97 be 02 56 4c 3f dd f2 09 3e
       -0.36988726 -0.29614997 0.7981874 0.13471551
000270 ab e2 55 3e 8f 65 7c bf 8f 4b ac be 99 90 cb bf
       0.20887248 -0.98592466 -0.33651397 -1.5903503
000280 72 d2 ac be 92 b1 3d 3f 35 10 53 bf 6d 98 10 3d
       -0.33754307 0.74099076 -0.82446605 0.035301615
000290 e6 42 06 bf 18 a1 ee 3e ab 02 0c bc 20 1f 86 3e
       -0.5244583 0.4660728 -0.008545558 0.26195621
0002a0 94 28 50 bf 52 75 0d 3e 4a ac ad 3f 3d fe f9 bd
       -0.8131192 0.13814285 1.3568203 -0.12206695
0002b0 76 8c de be ce 9f 16 bf 38 ce cf 3c 4a df 78 3f
       -0.43466538 -0.5883759 0.025366887 0.9721571
0002c0 8e e1 51 3e 96 97 64 bf 49 e7 db bd 1f 6d 9a 3f
       0.20496199 -0.892938 -0.107374735 1.2064551
0002d0 65 d3 25 3f 7c e5 cd 3e 8e 6b b9 3e ee ed e2 be
       0.6477569 0.40214145 0.3621487 -0.4432215
0002e0 58 cf b7 3d ce a1 8a 3e d2 a8 e2 be cd 72 00 3f
       0.089750946 0.27076572 -0.44269425 0.5017517
0002f0 6f c5 3e 3f 5c f6 87 3f 52 99 34 3f 6c 0e e5 be
       0.7452001 1.0622058 0.7054645 -0.44737566
000300 23 6b 8e be 6f 4a c1 be 58 5e 76 3e de 99 6a 3e
       -0.27816114 -0.377521 0.24059427 0.22910258
000310 8d af 90 bd c6 e4 c7 3e d3 9e 15 be 47 d3 80 3f
       -0.07064734 0.39041728 -0.14611368 1.0064477
000320 a4 51 98 3e 9e b4 8e bd 5f 5e 77 be b3 5d a1 3e
       0.29749787 -0.06968044 -0.24157093 0.315168
000330 cf 5b bf 3d 6e d9 32 3e 45 bc 10 3f b2 bf cb bc
       0.09343683 0.17465755 0.56537277 -0.02487168
000340 a0 c3 73 3e ff 78 84 bf e3 d4 2b bf 67 59 61 3d
       0.23805094 -1.0349425 -0.67121714 0.0550169
000350 39 28 07 3f f0 6c ed 3e 51 32 41 be 2d 92 41 3f
       0.5279575 0.46372175 -0.1886685 0.7561367
000360 5b c0 fb bd 72 d9 9e be 73 d7 21 be b7 60 7d 3f
       -0.12292548 -0.31025273 -0.15804844 0.989757
000370 ba 97 08 3f 87 02 41 bf 3f 3f 69 be 43 89 b5 3e
       0.53356516 -0.7539448 -0.22778033 0.35456285
000380 78 d5 a5 be db 61 55 be a6 bd 7a be de 0b 0a 3f
       -0.32389426 -0.2083811 -0.24486408 0.5392436
000390 4f 31 9c 3e 38 71 97 bd ee c0 b8 be 73 6e 39 3f
       0.3050637 -0.07394642 -0.36084694 0.7243416
0003a0 28 e2 fa 3e 78 4f 03 bf 1c 55 48 bc 00 57 22 3f
       0.4900067 -0.51293135 -0.012227323 0.63414
0003b0 68 97 21 3f 43 0a 8a 3e 61 4f 61 3d ee 0d d5 3e
       0.6312165 0.26960954 0.055007342 0.4161219
0003c0 8e 91 65 3e 7c 01 1e bf dc 4b 93 be d9 81 0a be
       0.22418806 -0.61721015 -0.28768814 -0.13526095
0003d0 86 fc 92 3e 70 ec 05 be 74 20 90 3e 33 34 f1 3f
       0.28708285 -0.13078475 0.2814976 1.8844055
0003e0 5a a9 b6 3e b3 15 01 be ea 39 ca bc d3 5a c5 be
       0.3567608 -0.12605934 -0.024685819 -0.38545856
0003f0 e8 ff 8d be 7d 2b 4b be 35 bd 36 3c 82 5e 08 3f
       -0.27734303 -0.19840808 0.011153509 0.5326921

net.2.bias f4 [128]
000000 3a b0 9d 3e ef a3 cb be e4 77 71 be 15 b0 a0 3e
       0.30798513 -0.3977351 -0.23580891 0.3138434
000010 eb 22 02 3e 36 a0 62 b9 20 75 5a be a8 2f 11 3b
       0.12708633 -0.00021612723 -0.21333742 0.002215365
000020 a8 88 13 3d 72 23 a7 3d cf 1a 37 3e cd 27 1a 3d
       0.036018997 0.081610575 0.1788132 0.037635613
000030 72 e1 58 be a4 95 c2 bd 08 a2 39 bc 82 66 c1 be
       -0.2117975 -0.09501198 -0.011330135 -0.3777352
000040 17 31 54 3e 43 18 b5 3d c3 b5 00 3e 7e 3f 0e 3e
       0.20721851 0.08842518 0.12569337 0.13891408
000050 2f c3 70 3e ad 93 83 3e 1d 5f c6 3e 5f e2 36 be
       0.23511957 0.25698605 0.3874444 -0.17859791
000060 52 73 88 be a6 7e 3f 3d 8c 61 6f 3c 53 16 fc bd
       -0.26650482 0.04675164 0.014610659 -0.123089455
000070 1a 60 2b bc 07 a1 e6 3d 56 6a c5 3c 7a 69 a3 3d
       -0.010459924 0.11261182 0.024098556 0.079791024
000080 00 b1 1a be 4e 7f 14 3e c5 d3 2e be 7b 16 a4 3e
       -0.15106583 0.14501688 -0.17072971 0.320484
000090 eb 70 ef bd 10 67 86 3d eb 00 67 be f1 85 c1 be
       -0.11691459 0.06562626 -0.22558944 -0.37797502
0000a0 16 59 b9 bc cf 66 8d 3e 67 22 7b 3d 73 9b 0b be
       -0.022625487 0.276175 0.061312106 -0.13633518
0000b0 f0 fc 60 3d 61 4b 70 3d 18 e8 bb 3e de 63 b8 bd
       0.05492872 0.058665637 0.3670051 -0.09003423
0000c0 d0 ec 1d be 07 48 88 3e 63 b7 a7 3e e6 7e 01 be
       -0.15422368 0.26617453 0.327571 -0.12646064
0000d0 68 a1 9c 3e 66 75 49 3e b4 b6 b2 3b 6a 31 0c be
       0.30591893 0.1967369 0.005453909 -0.13690725
0000e0 b2 b8 2b be 2e a8 f6 bc 44 0f dc 3d e3 8c f2 3c
       -0.16769674 -0.030109491 0.10745099 0.029608196
0000f0 43 3d 23 3d db 71 a7 3d c5 8f 66 be 84 2f 97 be
       0.039853346 0.08176013 -0.22515781 -0.2952844
000100 0d 8e ab be ae e5 0f 3c 2c 80 8c bc da 24 0c 3e
       -0.33506814 0.008782787 -0.01715096 0.13685933
000110 3f a0 7d be 2b e1 30 3e e8 ab a2 3e c8 ae e1 3e
       -0.2476816 0.17273395 0.3177178 0.4407866
000120 f3 cd 0c be c1 2d a3 3e c8 f7 d0 bd a6 84 18 3e
       -0.13750438 0.31870845 -0.102035105 0.14894351
000130 c2 31 8b 3b 56 17 ab 3d 29 1f 95 bc a3 d2 80 3e
       0.004247875 0.0835406 -0.018203335 0.25160703
000140 10 95 fe be 5f e1 b4 3e 81 41 b9 3d ae c6 84 be
       -0.497231 0.35328194 0.09045697 -0.2593283
000150 57 e0 11 3f b4 c3 ce be 4f 87 50 bd b1 23 51 3d
       0.5698294 -0.40383685 -0.05091029 0.05105943
000160 d4 f9 09 3d 7a 87 0d be d7 ac 62 3e 2a a5 09 be
       0.03368552 -0.13821211 0.22136246 -0.13441911
000170 7a e3 a8 bc 3e c2 69 bd 14 e2 31 3e 21 17 32 3f
       -0.020616282 -0.05707001 0.17371398 0.6956654
000180 61 f6 b7 3e 94 7d fb bd c5 cd e5 be 84 71 49 3e
       0.3593016 -0.122798115 -0.44883552 0.19672209
000190 5a 2e 6e bd a0 ed 97 bd 71 1e 05 3e 37 2d c4 3e
       -0.058149673 -0.0741837 0.12999894 0.38315746
0001a0 9e 7e 59 3e 0f 6f 04 3e cb ce ac 3e bd 18 ea 3d
       0.21239707 0.1293299 0.3375152 0.114305
0001b0 73 00 bc 3e 84 c7 43 3d d6 75 0a bf 94 a9 ac be
       0.36719093 0.047797695 -0.54086053 -0.33723128
0001c0 0c f4 de 3d 8b c1 98 be b6 9a a3 3e 05 c5 53 be
       0.10886392 -0.29835162 0.31953973 -0.20680626
0001d0 00 ca 5f be 2f c6 ee bd 70 d5 49 3e 00 22 a1 be
       -0.218544 -0.11658894 0.19710326 -0.31471252
0001e0 bb 2b 7f bd 8e f9 9b 3e 2d 9f 8b 3e e4 de 72 3e
       -0.062297564 0.30463833 0.2726988 0.23717839
0001f0 87 26 21 3d 09 a1 67 bd 90 33 38 3e 6e b8 b2 be
       0.039343383 -0.05655006 0.1798842 -0.34906334

net.4.weight f4 [25, 128]
000000 af bc 5f 3f 5c 1e 86 3f c2 fa e3 bf f0 da cb 3f
       0.87397283 1.0478015 -1.78109 1.592619
000010 fd 96 fc 3e 9a 60 06 40 1e 42 d2 bf 1b 33 bd bf
       0.49333945 2.099646 -1.6426427 -1.4781221
000020 94 d8 0a bf 6a b1 fe 3f f9 24 e8 bf 94 d4 96 3f
       -0.5423672 1.9897892 -1.8136283 1.1783624
000030 33 47 54 3f 83 e8 1a 40 7b 08 73 3f d4 07 11 40
       0.8292114 2.4204414 0.94934815 2.2661028
000040 16 d9 34 c0 38 97 d9 bf 79 72 c4 bf 45 dc 4b c0
       -2.8257499 -1.6999273 -1.5347434 -3.1853192
000050 d7 e7 7f be e8 23 11 c0 d5 b7 b4 3f 71 44 dc 3f
       -0.24990784 -2.2678165 1.4118601 1.7208387
000060 2f ad e1 3e 96 fb f5 3f 5c e5 43 bf b4 a4 c5 3f
       0.4407744 1.9217403 -0.7652185 1.5440888
000070 e3 b1 fa 3f 26 94 06 40 49 d9 0a c0 ff 49 c2 3f
       1.9585537 2.1027923 -2.169512 1.5178832
000080 33 14 00 40 70 cf d1 bf 93 00 95 3f de 09 c7 3f
       2.0012329 -1.639143 1.16408 1.5549886
000090 eb af da 3f e6 59 fb bf 7b 5d 13 40 6e 23 7d 3f
       1.7084936 -1.963681 2.3025806 0.98882186
0000a0 2a b3 f7 3f 31 bf 17 c0 69 9b 9a 3f 20 cb a9 bf
       1.9351552 -2.3710444 1.2078677 -1.3265114
0000b0 6e d1 b0 bf 11 0e 3d bf 73 99 b1 3f 2d ec 9f bf
       -1.3813913 -0.7384959 1.3874954 -1.249395
0000c0 5b f3 c3 3f d7 cd 74 3f 7c 76 6e bf 3e 8e e1 bf
       1.5308641 0.95626587 -0.9314954 -1.7621534
0000d0 ed a8 de 3f c1 d8 e6 3f dd 12 b5 3f 7e e5 c0 3f
       1.7395302 1.8034898 1.4146382 1.5070035
0000e0 e5 7f 04 c0 8e 20 b8 3f 22 76 1a c0 e8 50 b0 bf
       -2.070306 1.4384935 -2.4134603 -1.3774691
0000f0 68 1a 06 c0 0c fa 51 bf 11 4e 33 3f 30 ca 01 3f
       -2.0953617 -0.82022166 0.70040995 0.5069914
000100 f2 1e ff bf 2e f3 e6 be 2b c0 95 3f 14 5b e1 bf
       -1.9931319 -0.45107406 1.169927 -1.760592
000110 b7 a5 c4 bf 73 97 2c bf fb fa 15 40 48 27 ed 3f
       -1.5363072 -0.67418593 2.3434436 1.8527613
000120 30 a9 18 40 15 73 d4 3f 18 a3 d8 3f 18 80 86 3f
       2.3853264 1.659762 1.6924772 1.0507841
000130 10 20 3b c0 7c a2 2b 3f 07 04 1d c0 15 bb d9 3f
       -2.923832 0.67044806 -2.4533708 1.7010218
000140 d2 9a b2 bf 4b 8d 96 bf e2 26 6d bf 34 47 1a 40
       -1.3953497 -1.1761869 -0.92637455 2.410596
000150 76 8f c7 3f f4 92 5d 3f d3 ac fd 3f 81 e7 1a 3f
       1.5590656 0.8655236 1.9818367 0.60509497
000160 e5 45 2a 3f b4 4b af bf 8b dd 14 c0 49 bc fc bf
       0.665129 -1.3694978 -2.326022 -1.974496
000170 c5 51 b4 3f fd bd 49 bf a8 ce f8 bd f3 b8 58 bf
       1.4087454 -0.78805524 -0.121487916 -0.8465721
000180 44 56 cb 3f 35 93 b7 bf ad b9 ae bf 87 29 74 3f
       1.5885701 -1.4341799 -1.3650414 0.95375866
000190 9c 42 b9 3f 2b 1e 22 40 99 7d dd bf c6 a1 e1 3f
       1.4473453 2.5330913 -1.7303954 1.7627494
0001a0 55 63 d9 bf 48 36 49 bf 1a 86 d1 be b8 33 95 3f
       -1.6983439 -0.7859845 -0.40922624 1.1656408
0001b0 9e 2d a0 3f 51 c6 11 40 ac d9 23 3f 12 d5 0a 3f
       1.2513921 2.2777293 0.64004016 0.5423137
0001c0 d1 7d 09 bf 87 0f 0d 40 0c 6f d4 3f 8f 0e 02 40
       -0.53707606 2.2040727 1.6596389 2.0321386
0001d0 97 42 c5 3f 7a be c8 3f 00 72 b8 bf ad 90 ec 3e
       1.5410947 1.5683129 -1.440979 0.4620413
0001e0 8a 8e b3 bf a7 d1 0c c0 9d 02 c4 3f ed 40 e8 3f
       -1.4027874 -2.2002962 1.5313298 1.8144814
0001f0 df 5e d3 3f 4c 79 a0 3f 71 90 14 c0 9f 44 b6 bf
       1.6513327 1.2537017 -2.321316 -1.4239691
000200 a3 de a5 3f ce 23 81 3f f6 7b f5 bf 40 da a2 3f
       1.2958568 1.0089052 -1.9178455 1.2722855
000210 e2 9c 2e 3f 7b f4 0a 40 36 2e d1 bf b6 74 9f bf
       0.68208134 2.171172 -1.6342227 -1.2457492
000220 7f 02 31 bf 77 a3 0f 40 ce 7c bd bf 2f 06 bf 3f
       -0.69144434 2.244352 -1.4803712 1.4923762
000230 d2 c7 3e 3f 8c a0 21 40 e8 14 a2 3f 9d 3b 15 40
       0.7452365 2.525424 1.266263 2.3317635
000240 1d ac 1e c0 c3 d9 e6 bf 8d 3b ae bf fd 14 3e c0
       -2.479255 -1.8035206 -1.3611923 -2.970031
000250 0a da 33 be 2f d1 0b c0 be 1e a5 3f 38 d5 ea 3f
       -0.17563644 -2.1846426 1.2900007 1.8346319
000260 de c9 17 3e dc 5f de 3f a4 79 65 bf aa cf df 3f
       0.148231 1.7373004 -0.89638734 1.7485249
000270 87 a4 f1 3f 54 d3 f6 3f f2 f3 0f c0 5b 1e dc 3f
       1.8878335 1.9283242 -2.2492642 1.7196764
000280 85 9f 07 40 0c b5 cf bf 30 0b 97 3f 98 18 f5 3f
       2.1191113 -1.6227126 1.1800289 1.914813
000290 b0 e7 e8 3f e5 b7 06 c0 28 e4 fe 3f 7c 94 18 3f
       1.8195705 -2.104974 1.9913378 0.5960157
0002a0 d0 1d 04 40 dd 07 16 c0 16 20 7c 3f 1d 74 b0 bf
       2.0643196 -2.34423 0.9848646 -1.3785435
0002b0 15 37 99 bf f3 8f 2e bf f8 c4 e3 3f 88 72 b3 bf
       -1.1969935 -0.681884 1.7794485 -1.4019327
0002c0 cd 5c c5 3f c8 04 78 3f 2c b6 58 bf e4 92 ef bf
       1.5418946 0.96882296 -0.8465297 -1.8716702
0002d0 54 5f ea 3f 7d d7 e2 3f f7 18 a9 3f ef 3e e8 3f
       1.8310342 1.7722012 1.3210744 1.8144206
0002e0 70 51 20 c0 dd f9 03 40 f6 89 17 c0 cb b1 a1 bf
       -2.5049706 2.0621254 -2.3677955 -1.2632383
0002f0 9b 85 fb bf 25 62 6d bf e8 c7 45 3f ca e5 f5 3e
       -1.9650148 -0.9272788 0.7725816 0.48026878
000300 1c 02 c0 bf af 05 14 bf c5 61 9b 3f 0a 51 e3 bf
       -1.5000644 -0.5782117 1.2139212 -1.7759106
000310 f1 8c b9 bf fb 90 4e bf 9b 56 e3 3f 01 ff e8 3f
       -1.4496137 -0.8068997 1.7760805 1.8202821
000320 c1 17 16 40 79 4f 02 40 67 30 f8 3f fe 5a af 3f
       2.3451998 2.0361006 1.9389771 1.3699644
000330 24 16 32 c0 9a 8c 8a 3f f9 d2 1c c0 09 4b da 3f
       -2.7826014 1.0824158 -2.4503767 1.7054149
000340 fb 45 ae bf 40 be 88 bf 76 2b 25 bf 8b d1 1d 40
       -1.3615106 -1.068306 -0.6451944 2.4659145
000350 04 a4 05 40 97 4e 65 3f 0e 17 03 40 ee 27 6b 3f
       2.0881357 0.89573044 2.0482821 0.918578
000360 ea 86 8b 3f 44 e9 c0 bf 9d 0d 0f c0 b7 20 e7 bf
       1.0900548 -1.5071187 -2.235206 -1.8056859
000370 c5 7b cc 3f 4c 7e 66 bf b9 a8 59 bf a1 15 d9 be
       1.5975271 -0.90036464 -0.85023075 -0.42399314
000380 4c bf c4 3f 38 38 a8 bf 4d 9d b6 bf 38 8c 8c 3f
       1.5370879 -1.3142157 -1.4266754 1.0980291
000390 7a 0e c2 3f 0e d7 2d 40 f5 62 e4 bf bd 07 b3 3f
       1.5160668 2.716251 -1.7842699 1.3986737
0003a0 75 e6 f1 bf ad 05 65 bf 17 c3 4e bf c4 ee b3 3f
       -1.8898455 -0.89461786 -0.80766433 1.405724
0003b0 32 f0 66 3f b4 b2 05 40 fc b8 7b 3f 96 1c 50 3f
       0.9021026 2.0890322 0.9832914 0.8129362
0003c0 f2 4a 76 bf 3f 17 2b 40 f3 6d db 3f 2b 01 ef 3f
       -0.9620811 2.6732938 1.7142929 1.8672231
0003d0 54 55 d3 3f ed 2f eb 3f bf dc be bf c2 8c 03 3f
       1.6510415 1.8374001 -1.4911116 0.51386654
0003e0 c6 30 db bf d1 cf fa bf 76 d5 24 3f eb e8 c3 3f
       -1.712426 -1.959467 0.64388216 1.5305456
0003f0 18 c2 c9 3f 7c cf 75 3f 96 14 05 c0 f7 58 de bf
       1.5762358 0.9601972 -2.0793815 -1.73709

net.4.bias f4 [25]
000000 29 0f 9c 3f 5f ec 63 3f 72 a3 4d 3f 54 8a 5d 3f
       1.2192127 0.8903255 0.8032752 0.86539197
000010 23 ed 60 3f 95 c5 c3 3f 6a e1 a2 3f e3 5c a0 3f
       0.8786184 1.5294672 1.2725041 1.2528347
000020 e4 66 b0 3f bf f5 81 3f c4 07 9f 3f 94 46 4f 3f
       1.37814 1.0153121 1.2424245 0.8096707
000030 35 4c af 3f 92 d0 a9 3f 0b 25 af 3f 48 fa e6 3e
       1.3695132 1.3266776 1.368318 0.45112824
000040 46 99 80 3e 6b a5 70 3f 71 0a 4f 3f b4 59 1b 3f
       0.25116938 0.9400241 0.8087531 0.6068375
000050 df 52 6f 3f 80 8b 95 3f 8f b0 39 3f 46 6c 41 3f
       0.93485826 1.1683197 0.7253503 0.7555584
000060 cb df 57 3f
       0.84325856
