lunar_lander_continuous/models/DuelingDQN/quantization_121/model.pth (torch, 202375 bytes, 9 tensors)

fc.weight f4 [128, 8]
000000 f6 f6 46 3d 6b 17 bf be 43 03 01 bf 99 47 53 bf
       0.048575364 -0.37322554 -0.503956 -0.82531124
000010 89 5c 27 3e f7 57 16 bf 64 95 19 3f 3f 45 ad 3f
       0.16343893 -0.58727974 0.59993577 1.3536757
000020 16 54 4a 3d 34 b1 8c be 67 3d 20 be 27 5b 5e bf
       0.049396597 -0.27478945 -0.15648423 -0.8685784
000030 d9 ce 1f bf dc a6 1b bf 82 31 8b 3e fb be 75 3e
       -0.62425 -0.6080148 0.2718621 0.23998635
000040 84 d8 bf 3f a3 4b eb 3e 76 03 b5 3f 69 50 1e 3f
       1.498795 0.45956144 1.4141681 0.61841446
000050 bf 03 0a 3e 40 f1 6f 3f 7e fb 7e bf 86 d1 89 bf
       0.13477992 0.93727493 -0.99602497 -1.0767066
000060 61 44 06 3f c4 7c ea be 5f aa b9 be b8 c7 d8 3d
       0.5244809 -0.45798314 -0.36262795 0.10584968
000070 a8 68 28 3f 36 83 0d be 33 39 e9 be db 9a 3b 3d
       0.6578469 -0.13819584 -0.45551452 0.04580198
000080 3e c8 8c be bf 09 98 3e bb 2e 75 be f6 96 b6 bf
       -0.27496523 0.29694936 -0.23943608 -1.426482
000090 79 59 d9 bd ea 36 90 be 21 0f 07 bf 88 89 66 bf
       -0.10612769 -0.28166896 -0.5275746 -0.90053606
0000a0 aa d3 90 be 87 76 dc be 5f 35 1c 3f f0 8f ce be
       -0.28286487 -0.4305918 0.6101894 -0.4034419
0000b0 fb bb 23 40 31 c4 a1 bf ab 89 38 3f a9 ce f6 be
       2.5583484 -1.2637998 0.72085065 -0.48204544
0000c0 7c be af bf 8a 69 74 be e3 95 79 bf b2 85 51 bf
       -1.3730006 -0.23868385 -0.97494334 -0.8184463
0000d0 44 74 7b 3d 16 1c 12 3e ac 13 0d 40 10 8a 9e 3e
       0.061390176 0.14268526 2.2043257 0.30964708
0000e0 1c 43 41 3f 71 34 fb bd 71 fc 31 be ed 4a 93 3d
       0.75493026 -0.12265862 -0.17381455 0.07192025
0000f0 8f 2c 55 bf 0e d1 88 3f 54 5a 84 bf 9c e3 5a bf
       -0.83271116 1.0688798 -1.0340066 -0.85503554
000100 58 35 9f 3e 85 e6 f4 bb 87 01 4b 3e 28 d5 bf 3e
       0.31095386 -0.007473769 0.19824801 0.37467313
000110 22 2a b9 bd 77 fc 23 bf 48 bf 8a bd ee 4d 04 40
       -0.09041239 -0.64057106 -0.06774765 2.0672565
000120 f0 64 6e 3f d7 9e e1 bd d1 47 f5 be 3f 07 87 3f
       0.9312277 -0.110166244 -0.47906354 1.0549086
000130 2c 93 09 be dd 00 5c 3e 6b 18 1b 3e 39 50 50 3e
       -0.13435048 0.21484704 0.15146033 0.20343103
000140 bd 00 8f 3f fb 68 ee bf c2 bb 6e 3e 65 08 82 be
       1.11721 -1.8625787 0.23313811 -0.2539703
000150 ab 0e 75 be 0b fb b6 3e a8 8f ac bc 66 e0 85 3f
       -0.23931377 0.35738406 -0.021064594 1.0459106
000160 ce 4f 66 be ec 75 cf be 12 27 9d 3f 5d 85 1f 3d
       -0.2249138 -0.40519655 1.2277548 0.038945545
000170 ab 23 08 c0 c6 46 99 3e de 1b 2b bf 43 37 e4 bd
       -2.127177 0.29936808 -0.66839397 -0.11143353
000180 40 f7 9b bf ad c9 0e be 80 95 28 c0 ea ec cd bf
       -1.218483 -0.1394412 -2.6341248 -1.6087925
000190 69 e8 db 3f 57 65 cb 3d 34 33 4d 3e d6 a0 7c bf
       1.7180301 0.099314384 0.20039064 -0.98682916
0001a0 2f 7f 1a 3e f1 0e b3 3e 91 8e b7 3f b8 65 8a 3e
       0.15087579 0.34972337 1.4340383 0.2703073
0001b0 9a f1 b4 c0 eb b0 10 3f da ec 88 3f 3e c9 56 3e
       -5.6544924 0.56519955 1.0697281 0.20975205
0001c0 8d ba 04 bf 44 43 a4 3e 65 96 a9 3e 38 c9 a3 3e
       -0.51847154 0.3208257 0.33122554 0.31989455
0001d0 b5 c8 0c c0 9d ef dc 3e 4e 08 5a 3f 2e 9d 0d 3f
       -2.1997502 0.4315156 0.8516892 0.5531796
0001e0 99 28 98 bf 2b 8d 38 bf 37 a5 14 bf 5b 56 23 3d
       -1.188739 -0.72090405 -0.580646 0.039877277
0001f0 3e 09 6c bf e2 c6 98 bf 38 58 42 bf d6 b9 48 be
       -0.922016 -1.1935694 -0.7591586 -0.19602141
000200 b2 7f 7b 3f 81 39 69 3f 24 a8 fe 3e ec ef 2c bf
       0.9824172 0.9110337 0.49737656 -0.6755359
000210 09 00 93 3f fa f1 2a be 60 9d 24 3f 82 cf ce be
       1.1484386 -0.16693869 0.64302635 -0.4039269
000220 92 a7 7a 3e cc 64 43 3f 2f 1e 3b bf 90 87 38 3f
       0.24477986 0.7632568 -0.7309293 0.7208185
000230 08 bd 24 3f 59 c2 2f 3f 58 b0 dd be 2e 3d 31 be
       0.6435094 0.68655926 -0.43298602 -0.17308494
000240 43 11 c7 be 27 04 31 bd 5c ef b6 be cc 54 ae 3e
       -0.38880357 -0.04321685 -0.35729492 0.3404907
000250 09 d3 8c be 93 ff cc 3f 5c ef 8a 3f 72 20 b9 3f
       -0.27504757 1.6015495 1.0854297 1.4463027
000260 a2 77 0c 3e a8 e7 a4 be 8f 8d 60 3e f6 95 89 bd
       0.13717511 -0.3220799 0.21929 -0.06718056
000270 27 41 92 be d7 79 3d bf 05 75 bb 3e df 13 34 3f
       -0.28565332 -0.7401404 0.36612716 0.7034282
000280 a7 de 80 3f b6 71 cb 3d 6a 8f 82 bd c8 30 3e 3f
       1.0067948 0.09933798 -0.0637501 0.74293184
000290 33 bf f4 3f 4d a2 e4 be fe e5 0e 3f e3 c6 82 bf
       1.9120849 -0.44655076 0.5581969 -1.0216945
0002a0 23 3b dd be 01 3c 80 bf 5b e6 4a bf e7 9b 85 bf
       -0.4320918 -1.0018312 -0.79257745 -1.0438203
0002b0 c7 8d 1c bf 56 aa 08 3f c5 45 1f bf 8c 3b b6 3f
       -0.61153835 0.5338491 -0.62215835 1.4236922
0002c0 b9 4a ae 3e 0a 23 1e bc 44 9b 30 bd 5d 6b 3f bf
       0.34041384 -0.009651909 -0.043116823 -0.747732
0002d0 1a 06 b3 be 27 a5 c1 be f9 1c 33 3f 40 4c dd 3e
       -0.34965593 -0.37821314 0.69966084 0.43222237
0002e0 2d fd 59 bf 44 12 8e 3e 9a 1c 87 bd b9 e2 63 be
       -0.8515194 0.2774831 -0.06597252 -0.22254457
0002f0 f9 61 59 bf 8c b0 aa 3e a2 11 d4 3d 66 89 3a bf
       -0.8491512 0.3333782 0.10354926 -0.72865903
000300 49 2b b8 bd ba e1 c0 be ca 6f d3 be af b2 4e bf
       -0.08992631 -0.37672216 -0.41296226 -0.807414
000310 31 47 ee be 57 cf 31 3f f1 47 8e bf 80 20 37 3f
       -0.4653869 0.69457 -1.1115705 0.71533966
000320 70 da 90 be 82 89 38 3c ad ce 48 bf 23 38 2f 3f
       -0.28291655 0.011263253 -0.7844036 0.6844503
000330 a3 7e 07 bd 09 26 fb bf bd ba f3 bf 97 6f 9a 3f
       -0.033079755 -1.9620982 -1.9041363 1.2065305
000340 c1 87 95 3d 7e 9f fb be 84 fc 4c 3e 58 88 0f bf
       0.07301284 -0.4914512 0.20018202 -0.5606742
000350 26 14 05 bf 9f ad f2 be c3 d0 de bc 22 57 46 3e
       -0.5198387 -0.47398087 -0.027199155 0.19369176
000360 ff 60 7c 3e 46 5f e5 3e 25 78 38 bf 3a d4 8c be
       0.24646376 0.4479925 -0.72058326 -0.27505666
000370 a7 95 4d bf f6 a2 87 3e 08 b3 a0 3d 3d 22 66 bf
       -0.80306476 0.26491517 0.078466475 -0.89895993
000380 97 c2 d9 bb 66 ad 32 3e e8 d4 cf 3e 46 4a 12 bf
       -0.0066455114 0.17448959 0.40592122 -0.5714458
000390 95 cb 5e be cb 3a e7 bf d4 50 f3 bf 50 a5 82 bf
       -0.21757348 -1.8064817 -1.9009042 -1.0206699
0003a0 8d 47 ae bc 84 9f a2 3e 0b 3f 07 3e 16 c6 f3 bd
       -0.021274352 0.31762326 0.13207643 -0.11903016
0003b0 9a e1 c3 be ca 98 8c bf ed 3b 75 bf 6b 6c 12 3f
       -0.38258058 -1.0984128 -0.95794564 0.5719668
0003c0 68 32 64 bf 5c 03 d4 be dc 5e ae be c6 13 4b 3f
       -0.89139414 -0.41408813 -0.34056747 0.79327047
0003d0 85 de 88 3e bb b5 2e c0 c8 de 46 3f 34 e7 18 3f
       0.2673227 -2.729842 0.7768369 0.5972779
0003e0 d9 dd 26 3f fa 72 16 3e e9 e7 fc 3e fa c1 6e bf
       0.6518226 0.14692298 0.49395683 -0.93264735
0003f0 7d f8 df 3f 29 c8 66 be a8 6a ae 3e 55 5b 69 be
       1.7497708 -0.22537293 0.34065747 -0.22788747

fc.bias f4 [128]
000000 23 ef 94 3e b2 0c 53 bf a2 e8 61 3e ad 49 4d 3e
       0.29088697 -0.82441247 0.22061399 0.20047636
000010 cd 1e 90 3e 1a 28 b4 be 11 80 a6 be a4 d8 03 3f
       0.281485 -0.35186845 -0.32519582 0.5150244
000020 84 5b 80 be 7d 2f 05 be 71 b5 f8 3d 66 ed 9b 3f
       -0.2506982 -0.13006397 0.12143982 1.2181823
000030 95 e0 9a 3e e4 6f cf be ca ad 93 3e 9b 29 03 bf
       0.30249467 -0.40515053 0.28843528 -0.5123536
000040 0e 62 e6 3d ad fb 3b 3f 80 5b ed 3d cf 1d c9 be
       0.11249171 0.734309 0.11589718 -0.39280555
000050 60 b7 cc be 6c 87 1a 3e 9c 96 cf 3e 41 8f e0 be
       -0.39983654 0.15090722 0.40544593 -0.43859294
000060 56 f1 17 3d 43 81 a6 3c f8 72 56 bf 8b 49 04 bf
       0.03709539 0.020325309 -0.8376918 -0.5167472
000070 38 72 51 be 8b db 18 3f de 11 3f be 22 8e e2 3e
       -0.20453727 0.59709996 -0.1865916 0.44249064
000080 44 60 83 bd 67 d0 33 3e 83 47 7b bd 81 b7 38 3f
       -0.064148456 0.17559968 -0.061347496 0.72155005
000090 3e 78 b5 3e 84 71 ea bd 1f 6c 36 3d af 62 88 be
       0.354433 -0.11447433 0.044536706 -0.2663779
0000a0 8e 1d e3 be ee e3 90 3d 36 a8 9b 3e 64 6d c2 bd
       -0.44358486 0.07074724 0.30401772 -0.09493521
0000b0 76 73 b9 be cd c3 b9 3e 15 bf c9 be 2d 7c bd 3e
       -0.36220902 0.36282197 -0.39403597 0.370088
0000c0 00 dd a7 3e 91 45 41 be 99 c5 f5 3c 29 d7 a4 be
       0.32785797 -0.18874194 0.030001448 -0.32195404
0000d0 ab 23 c3 be b1 23 0f bf d1 b5 80 be af 9d 61 be
       -0.3811315 -0.55913836 -0.25138715 -0.22032808
0000e0 69 ac 43 bf 00 5f 50 bd 75 d5 c9 bd 03 33 1c be
       -0.7643495 -0.05087185 -0.09855167 -0.15253834
0000f0 7b 17 9e 3e 66 46 d1 3e 82 5c 94 3e 9a b5 1f 3f
       0.3087729 0.40874022 0.28976828 0.62386477
000100 99 7f 86 3e 57 22 90 3d c5 e4 c5 be 8e 3d 16 3f
       0.26269224 0.070378 -0.386511 0.58687675
000110 e7 9b ca be 18 ab a9 bd 72 37 38 3e 30 a8 b8 3e
       -0.3957207 -0.08284587 0.179899 0.36065817
000120 63 c8 27 be 8c e0 86 3e 2a 6d 7d be 71 1d c7 3d
       -0.16385035 0.2634319 -0.24748674 0.097224124
000130 03 18 54 3e 4e 45 45 3f d7 1b 95 3e 50 bf 4c be
       0.20712285 0.77058876 0.29122803 -0.19994855
000140 31 4a bb be 4f 53 86 3e 6f ef b0 3e c5 ed 7c be
       -0.3658004 0.26235434 0.34557673 -0.24700077
000150 69 cf af 3e d8 25 62 be b6 8b 37 be 67 70 d9 3e
       0.3433793 -0.22084749 -0.17924389 0.4246857
000160 2b d3 ca be ee 63 45 3f be d0 59 3e 46 df 9f be
       -0.39614233 0.77105606 0.21271035 -0.31225032
000170 08 9c c7 be a0 c3 c9 bd 1e 98 96 3e f2 f9 c9 be
       -0.3898623 -0.09851766 0.2941293 -0.39448506
000180 c9 cf b8 3e db 0d 04 3f 07 5d 46 3f 94 9b 3c be
       0.36096027 0.5158364 0.774857 -0.18418723
000190 19 df 1e bf 8e 07 fb be 58 c2 93 be 57 a5 15 bf
       -0.6205917 -0.490292 -0.2885921 -0.58455414
0001a0 6a 99 70 be 9a 35 49 3e 77 8c a1 be d1 45 26 be
       -0.23496023 0.19649354 -0.3155248 -0.1623757
0001b0 a8 72 38 3e f0 b8 31 bf c8 6e 3a 3f c0 92 0a bf
       0.18012488 -0.6942282 0.7282529 -0.5413017
0001c0 3c 70 c0 3e 6f d2 cf 3e 27 21 d7 be 29 d6 f1 be
       0.37585628 0.40590236 -0.4201748 -0.47233704
0001d0 dd 28 b9 3e fd 85 8c 3e f6 34 8a be c7 fb c4 be
       0.3616399 0.27445975 -0.2699353 -0.3847334
0001e0 61 c3 c5 3e 41 c5 2e bf 29 dc 3f be c8 81 25 be
       0.38625625 -0.68269736 -0.18736328 -0.16162789
0001f0 87 2e 44 3d e8 d1 69 3f 51 e2 fb 3e 17 a1 9d 3e
       0.047895934 0.91335917 0.49196103 0.30786964

fc_value.weight f4 [128, 128]
000000 a1 00 05 bf 29 c8 c2 3e cb 3a 90 3d 28 64 27 be
       -0.51954085 0.38043335 0.07042464 -0.163468
000010 77 b6 73 3e 56 8a cf 3c 73 7b c5 be 32 ca 34 3e
       0.23800074 0.025334518 -0.38570747 0.17655256
000020 64 42 6e 3e 8d bd f3 be 15 ba 6c 3c 3c 49 64 bf
       0.23267514 -0.47605553 0.014448662 -0.89174247
000030 60 b7 2a 3d ed dc 47 be d9 98 c9 3d 66 82 81 be
       0.041678786 -0.1951787 0.098436065 -0.252948
000040 3e 73 82 3e cb 45 90 be 11 f4 c5 bd 93 58 72 3d
       0.25478548 -0.28178248 -0.096656926 0.059166502
000050 8b 8c 93 bd b6 a6 7f be a8 45 07 be b5 b2 21 bd
       -0.07204541 -0.24965939 -0.13210166 -0.03947707
000060 da 95 6a 3d 4e fd df bc 00 8e b0 3e 22 2f 88 3c
       0.057271816 -0.027342465 0.34483337 0.016624037
000070 ee d3 e0 bc ae 4f 8c be 5e 5f 8c bf bc 84 d6 3e
       -0.027444806 -0.2740454 -1.0966604 0.41898143
000080 71 4a 6d 3d 14 67 68 3e cd 00 64 3d db 00 a5 be
       0.05793232 0.22695571 0.055664826 -0.32227215
000090 04 fd 96 be 6c 97 8b 3e 6f ab 8a 3e d2 cd ca bd
       -0.2948991 0.27263963 0.27083918 -0.09902538
0000a0 20 93 0b 3f a0 59 cf be c4 60 d8 be f4 4e ad 3e
       0.5452137 -0.40498066 -0.42261326 0.338493
0000b0 20 82 0d be a7 44 3a be fd 5f ee bd 0f 6e 03 be
       -0.1381917 -0.18190251 -0.11639402 -0.12834953
0000c0 3f 92 37 3e 2b 3e da 3e bd b0 a9 3e 6f 12 42 bc
       0.17926882 0.42625555 0.33142653 -0.011845215
0000d0 d1 00 6c 3e 82 98 62 3e cd ff 5c 3e f2 ff a6 be
       0.23047186 0.2212849 0.21581955 -0.32617146
0000e0 7b e1 01 3f 35 8c 8d be f4 aa ad 3d f3 21 55 3e
       0.5073468 -0.27646032 0.08479872 0.20813732
0000f0 b0 32 02 bf 84 a7 bf bd 30 36 d3 3d 1d 43 b9 be
       -0.50858593 -0.09358123 0.1031307 -0.36184016
000100 ac 34 c2 3e 7d ca 74 3c 9c 90 88 be 91 25 97 be
       0.3793081 0.014940855 -0.26672828 -0.29520848
000110 dd 3a 46 3f 92 08 99 3e d5 86 65 3e 4f 13 31 3e
       0.7743357 0.2988935 0.22414716 0.17292522
000120 4a 3a 55 3f 80 3b bc be d4 42 2a be 98 36 16 be
       0.8329207 -0.36764145 -0.16627055 -0.14669263
000130 5f d4 31 3e 2f 77 ad bf 03 5e 08 bf fe 9d 2a 3d
       0.1736617 -1.3551997 -0.5326845 0.04165458
000140 12 2b 89 3e b5 b4 63 be 71 e8 05 be 46 c6 59 3d
       0.26790673 -0.22236903 -0.1307695 0.053167604
000150 9c a6 8e 3e 63 cf 7d be c1 e6 ad be 88 51 cb 3d
       0.27861488 -0.24786143 -0.33965114 0.0992766
000160 19 12 86 3c d6 53 1f bf d2 d3 e3 be ad be d6 3e
       0.016366052 -0.622373 -0.44497544 0.4194235
000170 bb 76 c1 be 29 00 c6 bc 46 d4 f1 be 74 56 71 3f
       -0.37785897 -0.024169998 -0.47232264 0.9427254
000180 b6 08 9a 3e a9 da 09 bf 52 a6 5e bf 3a 94 0a 3e
       0.3008477 -0.53849274 -0.86972535 0.13533106
000190 18 d7 87 3e dd 50 67 be c7 72 5a 3e 6f 39 12 3f
       0.2653129 -0.2258944 0.21332847 0.57118887
0001a0 4b 42 3f 3e e1 f2 02 bf 2b 23 21 3e 29 88 14 be
       0.18677633 -0.51151854 0.15736072 -0.14505066
0001b0 82 a2 6c be ba 42 4a 3e 87 bd 1a bf 93 d0 a7 3e
       -0.23108867 0.19752017 -0.60445446 0.32776317
0001c0 95 e8 65 3e 2f 34 f1 be 07 de 4d be 34 05 01 3e
       0.22452004 -0.47110125 -0.20104228 0.12599641
0001d0 07 56 99 bd 51 3e 3d be 2f 9f 3f 3e 95 59 4e 3e
       -0.074871115 -0.18480803 0.18713067 0.2015136
0001e0 ad 7b b4 3b 4d fa 1f 3f 1c 5f 6a be 12 5f 9f 3e
       0.0055079074 0.62491304 -0.22887844 0.3112722
0001f0 ee 58 72 bf 55 d0 3b bf 73 50 ed ba aa de 03 3f
       -0.94666946 -0.73364764 -0.0018105641 0.51511633
000200 b0 37 15 3e a1 98 f3 be dc ee 8c 3e f4 85 ad 3e
       0.14572024 -0.47577384 0.27525985 0.3389126
000210 9e 2e f8 3c 09 3e 4e be f9 a3 19 3e f7 04 ba 3e
       0.030295666 -0.20140852 0.15003957 0.36331913
000220 95 3a 90 be 5e d9 d9 3e 79 4c 38 be cf ac 7d 3e
       -0.28169695 0.4254865 -0.17997922 0.24772952
000230 ae d1 59 3e 88 ce 76 bf 1b 4e d4 be 46 1a 4c 3d
       0.21271393 -0.9640889 -0.4146584 0.049829744
000240 54 e4 8d be d9 00 4e 3f eb 4b 15 bf 3b 40 0c bf
       -0.27713263 0.80470043 -0.58318967 -0.5478551
000250 5b 8c cc 3e 94 b4 64 bd 1b db 1c 3e 50 58 c6 3e
       0.39950833 -0.055836275 0.15317957 0.38739252
000260 2a b3 80 bd 2c f2 b1 3e b7 e4 17 bf 65 2e 49 3f
       -0.06284173 0.34755075 -0.59333366 0.7858642
000270 25 c9 ef 3e fc 8e ab 3e 75 53 fd 3d 22 d1 d2 be
       0.4683315 0.33507526 0.12369434 -0.4117518
000280 60 8c 4c be 52 60 a5 be 10 3b b0 be f9 41 70 3f
       -0.19975424 -0.3230005 -0.3442006 0.93850666
000290 b1 e3 89 3e a2 e0 32 be 90 ec c3 bd 0c 7c 12 bf
       0.26931527 -0.17468503 -0.09566605 -0.5722053
0002a0 dd 80 5e be 7c e4 5e 3e dc 39 b6 3e 82 41 59 3e
       -0.21728845 0.21766847 0.35591018 0.21216395
0002b0 ad 36 e5 3d 97 ed 08 bc 7b f1 85 3d 69 c4 9a 3e
       0.11192069 -0.008357427 0.06540199 0.30227974
0002c0 29 b6 40 bf 77 95 6b be db 16 8d 3e 7c 02 06 bf
       -0.75277954 -0.23006235 0.275565 -0.5234754
0002d0 fa e6 93 be bf e0 4b be c6 36 c0 be 86 01 8c bc
       -0.2888716 -0.19909953 -0.3754179 -0.01709057
0002e0 39 1b db be cb 64 72 be 40 6b 98 3e 3b 62 15 bf
       -0.42794207 -0.23671262 0.29769325 -0.5835301
0002f0 9e 52 14 3e 6c 60 1c bf 97 de a6 bd ad a5 0e 3f
       0.14484641 -0.6108463 -0.081479244 0.5572155
000300 d5 5c d5 bd 28 65 9a 3e 06 5e 53 be e5 01 e9 3e
       -0.10418097 0.301553 -0.20641336 0.45509258
000310 18 d0 f8 bc a9 76 4f 3d 83 fe f6 be 00 dd 9d bd
       -0.030372664 0.050650273 -0.48241052 -0.07708168
000320 47 b3 6c 3d 85 79 20 bd 66 c8 db be a3 3e e1 3e
       0.05778816 -0.03917839 -0.4292633 0.439931
000330 86 43 f9 3d 1e 2c 19 3f 29 5f b8 3e 93 3f 4f be
       0.12171082 0.5983294 0.360101 -0.20239095
000340 cc 6c a5 3d af e3 5f 3e 57 12 27 be 02 0d 18 3f
       0.08077392 0.21864198 -0.1631559 0.5939485
000350 7e 95 ea bd b7 b8 c9 3c e3 1e b8 3e 50 2b 22 be
       -0.114542946 0.024624212 0.35961065 -0.15836835
000360 17 0a e5 be f3 88 5e 3e 27 c4 23 3f 9c f2 95 bd
       -0.4473426 0.2173193 0.6397118 -0.07321665
000370 0d 56 9f 3d 12 de 3a be bd a5 dc be 1a 09 c6 bd
       0.07780085 -0.18248776 -0.43095198 -0.09669705
000380 84 b0 cb 3d 7c 97 5a bc 02 98 6b 3e 48 fc 13 be
       0.09945777 -0.013341781 0.23007205 -0.14451706
000390 55 6d ed be ba 69 9d 3e 04 da a0 3e f1 c5 a0 be
       -0.46372476 0.30744725 0.31416333 -0.31401017
0003a0 ad e4 f6 bd b6 45 07 3f aa da 3d be ec 79 1d bc
       -0.12055335 0.52840745 -0.18540445 -0.009611588
0003b0 34 10 b0 3e 4e 36 70 be ec 5f 2b bc 03 ee 80 be
       0.34387362 -0.23458216 -0.010459881 -0.2518159
0003c0 18 99 f8 3d 40 8a 74 bd 69 08 b4 be 74 65 16 bf
       0.12138575 -0.059702158 -0.35162666 -0.58748555
0003d0 23 cd d5 3e 0e f7 57 3e f9 81 da 3e d2 fa f9 be
       0.4175807 0.21090338 0.42677286 -0.48824173
0003e0 72 ff 44 be a4 b8 8d be 81 4c 8b bc fe 52 46 be
       -0.1923807 -0.27679932 -0.017004253 -0.19367597
0003f0 32 40 3e be bc d3 04 3f 44 55 2e bd 2d dc 08 3d
       -0.18579176 0.5188558 -0.042561784 0.0334131

fc_value.bias f4 [128]
000000 21 1f 3a bd 03 f7 5b 3e 12 c9 f4 3d 6a f5 d8 3d
       -0.045439843 0.21480946 0.119524136 0.10593684
000010 d8 ea a8 3c 17 2e d9 be 56 62 82 be 49 e3 52 bc
       0.020619795 -0.42417976 -0.2546565 -0.012871572
000020 ec cc dd bd eb 43 bf 3d fe 1b c1 bd db de af 3d
       -0.10830101 0.09339126 -0.09429167 0.08587428
000030 03 94 1a 3e 4f b6 dc bd 7c 68 54 bd 75 e4 49 bd
       0.15095524 -0.1077696 -0.051857457 -0.04929014
000040 9a f1 60 3d aa 60 34 3c f4 71 fb bd fe ca f0 bc
       0.05491791 0.011009375 -0.12277594 -0.02939367
000050 b1 98 86 be 1a 96 b7 be a0 f3 26 3e 7d bd b1 bd
       -0.2628837 -0.35856706 0.16303873 -0.0867872
000060 f7 dd e4 bd d7 f0 a4 bd c5 a9 c2 bb 2a c8 ca 3d
       -0.11175149 -0.08053749 -0.0059406483 0.099014595
000070 17 39 47 3d 9d 00 ca 3d 52 c2 a5 3d 23 70 0e 3e
       0.04863843 0.09863398 0.08093704 0.13909964
000080 74 66 f4 3d 94 36 3f 3e f3 10 96 be ef d2 85 3d
       0.11933604 0.18673164 -0.29309806 0.06534373
000090 26 fb f8 bd 1c 08 57 3e 9d af 15 bf 66 00 1e be
       -0.12157278 0.20999187 -0.5847109 -0.1542984
0000a0 e5 8c b2 3d 41 aa 80 bc f1 f1 2b be 32 9a f8 be
       0.0871828 -0.015706183 -0.16791512 -0.48555142
0000b0 d5 76 42 be ca 60 2b bd 00 ea 90 3d 9d f7 ae bd
       -0.18990643 -0.041840352 0.07075882 -0.08543322
0000c0 a5 34 87 be 1d e5 ae 3c 4c 7b 91 3d 50 d5 08 bf
       -0.26407352 0.021349484 0.07103595 -0.5345049
0000d0 f9 b9 52 bd e2 99 58 3d bb ea 75 bd 42 c0 47 be
       -0.05144689 0.05288113 -0.06003831 -0.19506934
0000e0 86 78 06 3f fe 6a c8 3d 57 51 4a 3e 15 5b 3d be
       0.52527654 0.09786032 0.19757591 -0.18491776
0000f0 c8 24 87 bd 92 b6 4e be b0 a8 2a bd f8 12 46 be
       -0.06598812 -0.20186833 -0.04166478 -0.19343174
000100 1d a9 d5 be cf dc 52 3e 6f 8b 77 be d4 92 e1 be
       -0.41730586 0.20592044 -0.24174283 -0.44057333
000110 69 42 5c 3e 88 9b 90 3d 81 84 ba bd 98 e6 9b bd
       0.21509708 0.07060915 -0.09107304 -0.07612342
000120 af 19 16 3d 7c 65 2a be 1c 90 60 3c ee e3 3d 3d
       0.036645588 -0.16640276 0.013706233 0.04635995
000130 05 8c 45 3e 5b c9 5b 3e aa 0d af 3d 0a b8 61 3d
       0.19291694 0.2146353 0.08547528 0.055107154
000140 17 45 12 bc 1d e8 58 be 54 49 c6 bd 43 0e 25 3d
       -0.008927605 -0.21182294 -0.09681955 0.040296804
000150 cb 98 30 3d b0 76 56 bd 1e af f4 bd f1 8a c9 be
       0.043114465 -0.052359283 -0.119474635 -0.39363816
000160 48 e0 bc bd 40 72 0a 3c cd cd 9c bd 36 14 96 3e
       -0.09222466 0.008450091 -0.07656441 0.29312295
000170 e9 87 45 3e 95 6c fb 3d 92 86 bd 3c 7f b3 44 3e
       0.19290127 0.1227657 0.023135457 0.19209097
000180 eb 59 a1 3d ad 12 9b 3d 5e 01 a9 be a4 cb 2f 3e
       0.078784786 0.075719215 -0.33008856 0.17167526
000190 3b ec 83 bd 88 7a b3 bd f6 ca 78 be bf 19 0e 3e
       -0.06441542 -0.08763605 -0.24296173 0.13877009
0001a0 04 45 12 3d 83 c3 b1 bb 74 af b0 3b 12 3a 30 3e
       0.03571035 -0.005424918 0.0053920094 0.17209652
0001b0 d6 53 6e be 8b 67 39 be 65 e4 bb 3d 14 0a 5f be
       -0.23274168 -0.18105905 0.09174422 -0.21781188
0001c0 34 95 9f 3d 1f c2 b7 3d 05 df d0 3c e9 86 d1 bc
       0.0779213 0.089725725 0.025496969 -0.025577025
0001d0 d0 43 50 be b6 0e bb bd c1 38 18 3e c7 1b 38 3e
       -0.20338368 -0.09133665 0.148654 0.17979346
0001e0 6c d4 db 3d 67 15 96 bd 1c 22 08 bd 53 fb bc 3d
       0.10733876 -0.07328301 -0.033235654 0.09227624
0001f0 d6 58 69 3d 65 5e ee bd f1 83 bb 3d c6 6f 26 be
       0.056969486 -0.11639098 0.09156025 -0.16253576

fc_adv.weight f4 [128, 128]
000000 b7 30 3b 3e e0 ad 95 3f fa e5 bf 3c 7f e9 b3 3d
       0.18280302 1.1693687 0.023425091 0.0878477
000010 a6 bb 13 3f 5c db e6 be 95 03 62 bd 83 6d 91 3e
       0.57708204 -0.45089233 -0.055179197 0.28403863
000020 e5 46 9e be cf 61 b3 be d1 46 80 bf 92 0f 9c 3e
       -0.30913463 -0.3503556 -1.0021611 0.3048063
000030 07 6b 35 be 04 18 17 be 99 2c 8d be 85 b7 c2 be
       -0.17716609 -0.14755255 -0.27573088 -0.3803064
000040 7a ed 22 3f 9a 74 e7 be a7 25 85 be 4a 9a 6e be
       0.6364361 -0.45206147 -0.2600529 -0.23301044
000050 ed 5e 6b 3e eb 35 1f be 40 a0 14 3d 8d 36 4e be
       0.2298543 -0.15547912 0.03628564 -0.20137997
000060 6a e0 c4 be 24 97 06 bf 18 d9 70 3d fe fd 10 3e
       -0.38452464 -0.5257437 0.058800787 0.1415939
000070 4c 37 12 bd 86 43 2a 3f 26 91 99 bd 48 1b 2b 3e
       -0.035697266 0.6650928 -0.07498388 0.16709626
000080 45 7c c3 3a b3 0c a0 be 0b 2f 9b bd c0 19 22 3f
       0.0014914355 -0.3125969 -0.07577332 0.6332054
000090 5a 5e 5d 3e 1a 41 ac 3d d6 40 1a 3d 14 50 8d bf
       0.21618024 0.08410855 0.03765949 -1.1040063
0000a0 d8 02 7a bf 67 f4 6c 3e 5d 62 a8 be a1 24 a9 bd
       -0.9766059 0.23140107 -0.32887545 -0.082589395
0000b0 5d b4 c6 be 7f 35 1f 3f d4 af 4b be 5c 66 64 3e
       -0.3880948 0.62191004 -0.19891292 0.22304672
0000c0 46 68 7e bd 33 fd 64 be 2a 1b 47 3d bf c6 aa be
       -0.06211116 -0.22362213 0.04860989 -0.33354756
0000d0 35 0e 8f be 89 90 9e be 6c 82 b2 be e6 ca c8 3e
       -0.27940527 -0.30969647 -0.3486513 0.392173
0000e0 3d 0d 55 bf 6d 08 41 bf 6f 37 13 3e 83 8b 0d bf
       -0.83223325 -0.7540348 0.14376615 -0.55291003
0000f0 f2 23 07 3f 5d b6 9a be 3c 7d f4 3e 2c eb 37 3f
       0.52789223 -0.30217257 0.47751796 0.7184322
000100 95 49 cd 3e 50 ec d5 3d a5 e0 4e 3f 41 d4 22 3f
       0.400952 0.10445464 0.8081153 0.63605124
000110 2a d9 54 be c9 f9 35 bd 5a b5 9e be fa c6 98 bd
       -0.20785967 -0.044427667 -0.30997735 -0.07459827
000120 7e 1f 7d 3f 67 a0 e1 be 0b 3d 53 3e f3 15 d3 3e
       0.9887618 -0.4406769 0.20628755 0.41227683
000130 40 a9 3b 3f 36 f9 a0 bf f2 8e a6 3e b4 4c 1f bf
       0.7330513 -1.2576053 0.32530934 -0.62226415
000140 f9 9f b0 be 8b 3a 9a 3e a1 9e 91 3a 40 8e de bd
       -0.3449705 0.3012279 0.0011109897 -0.10866976
000150 ff c1 ad bb 56 59 8d bd 8b df 1f be 31 d6 01 3f
       -0.005302667 -0.06901805 -0.15612619 0.50717455
000160 67 fc c1 be 86 be 63 3e 9f 97 f8 3e f5 6f ee bd
       -0.3788788 0.22240648 0.48553178 -0.11642448
000170 f2 2e 3d 3e 12 4f c1 bf dc 97 23 3e 18 35 16 be
       0.1847494 -1.5102255 0.15975899 -0.14668691
000180 09 57 45 3e 69 a6 55 bd 85 0d ac 3d 8d 24 ac be
       0.19271483 -0.052160654 0.08401016 -0.33621636
000190 8a 96 a0 3d eb d4 43 bd 32 3d 1b 3f d1 8e 06 bf
       0.07841213 -0.047810476 0.6064025 -0.5256167
0001a0 18 8e 2e be 50 b2 29 be 63 8f 4d be f4 89 f3 3d
       -0.17046392 -0.16571927 -0.20074229 0.11891547
0001b0 af 94 2e bf f4 02 49 bd dc 80 19 be 0c d4 d7 be
       -0.68195623 -0.049075082 -0.14990562 -0.42153966
0001c0 3b 12 87 bd 14 29 c0 3e 99 84 f7 be 12 6a 5e bf
       -0.06595274 0.3753134 -0.4834335 -0.868806
0001d0 64 48 17 3e ed 92 8f 3d bd 2c 25 3c f4 a6 b0 be
       0.14773709 0.07010446 0.010081467 -0.34502375
0001e0 c4 ee d6 3c 52 21 a7 bd b1 d5 be be 09 27 f5 be
       0.0262369 -0.08160652 -0.3727241 -0.47881344
0001f0 26 ef 14 be ff 90 9b bf 17 a1 0a 3f 3d 6f 38 3e
       -0.14544353 -1.2153624 0.54152054 0.18011184
000200 4c f1 2d 3d 27 93 3b 3f e6 1a bf be ed 0f bc 3d
       0.042466447 0.7327141 -0.3732521 0.09182725
000210 56 7a 07 bf 80 14 47 3f 2c 0b 48 3e 1c a0 55 bf
       -0.52921045 0.77765656 0.19535512 -0.8344743
000220 02 61 96 3e d0 7b 5f be df 5c 8c 3d b7 00 a1 be
       0.29370886 -0.21824574 0.06853651 -0.31445858
000230 e6 02 f7 bb 2a 97 27 bd d0 a2 b9 be ca 35 44 3f
       -0.0075381873 -0.040915646 -0.3625703 0.76644576
000240 3e a3 cf bd 51 30 16 bf 51 15 29 3e 8d f3 94 3e
       -0.10138558 -0.58667475 0.16512038 0.29092064
000250 90 af 83 be 3b 73 f4 3d 46 65 b9 bc da f2 2b bd
       -0.2571988 0.11936041 -0.022631299 -0.04197965
000260 e5 f5 6f be f4 93 ec be b2 99 a0 3e 38 18 06 bf
       -0.23433645 -0.4620663 0.3136726 -0.52380705
000270 7e b1 83 be 1b ed 75 be a2 b4 12 be b1 45 89 be
       -0.25721353 -0.2401623 -0.14326718 -0.26810983
000280 76 f4 27 3d f3 bd ec 3d 69 a2 80 be 13 9a 51 bf
       0.04100462 0.115596674 -0.2512391 -0.81875724
000290 0e fe 88 be 76 c0 94 be cc f4 38 3e 82 66 04 3c
       -0.26756328 -0.29053086 0.18062133 0.00808108
0002a0 39 ba 77 bd 8b 7e 37 3f f5 c7 33 3e ad 7f 29 bf
       -0.06048033 0.71677464 0.17556746 -0.6621044
0002b0 b3 27 b1 bd 07 7b e9 3c 4f 81 14 3e 04 59 2a be
       -0.0865015 0.028501047 0.14502452 -0.1663552
0002c0 cb 87 d1 bd 07 f4 82 3d 96 82 f8 be f8 40 27 3f
       -0.102309786 0.06394201 -0.4853713 0.6533351
0002d0 fc 2a 3b 3e b4 a0 60 3f 18 0f f5 bd 36 a3 fc 3e
       0.18278116 0.87745214 -0.119657695 0.4934327
0002e0 94 73 dd 3e 01 7e fc bc 2c 9a 3c bf 3a 26 a3 bd
       0.43252242 -0.030821802 -0.7367275 -0.079662755
0002f0 9c 5f 8d 3e 6a de 3c 3e 84 84 a5 3e 3e 6e 60 be
       0.27612007 0.18444219 0.32327664 -0.21917054
000300 20 98 22 bf 80 17 93 be 1a 9f de 3e f4 89 35 bc
       -0.63513374 -0.28728867 0.4348076 -0.011080254
000310 5f af 33 bf 19 5a ac 3e ed a1 c3 3e 52 15 49 be
       -0.7018947 0.3366249 0.38209477 -0.1963704
000320 0a a0 fa 3b ed 0a 62 3e 2f 57 38 3f b7 c1 f8 be
       0.0076484727 0.2207448 0.7200803 -0.48585293
000330 25 96 cc bd 26 58 3d bc 34 8e f9 3d f7 4a 7a 3d
       -0.09989575 -0.011556661 0.12185326 0.06110665
000340 52 4e 1c bf 8f c1 1c bd 2b 95 ac 3e 15 d7 a8 be
       -0.6105701 -0.03827053 0.33707556 -0.32976595
000350 a7 10 1d bf 00 76 18 3f 67 f1 d3 be f8 dc b9 bc
       -0.61353534 0.59555054 -0.41395113 -0.022688374
000360 34 01 52 bd a7 e4 0f 3e a4 70 69 be c6 66 49 bd
       -0.05127068 0.14052068 -0.22796875 -0.049170278
000370 18 42 a0 3e 92 36 a8 be e4 f5 ea 3e f2 64 9b bd
       0.31300426 -0.32854134 0.45890725 -0.07587613
000380 29 13 c6 be ee 04 0f 3a b8 1d 26 3b 33 5f 46 3f
       -0.38686493 0.00054557517 0.0025347304 0.7748901
000390 1a e7 46 3f 1e 47 e9 3e b6 ea d7 3b 9f a0 dc 3c
       0.77696383 0.4556207 0.006589259 0.026932059
0003a0 d6 f9 2f 3e d5 3c de 3d ad 5a 6e bd 47 0e ab 3d
       0.17185149 0.108514465 -0.058191944 0.083523326
0003b0 e1 5a 5b be c2 09 3f 3e 06 4f a5 3e ac 1e dc bc
       -0.21421386 0.18656066 0.32286853 -0.026870094
0003c0 ec 2b dc be 51 df 18 be a6 08 88 3e 83 ac a6 be
       -0.4300226 -0.14928938 0.26569098 -0.3255349
0003d0 e8 11 83 bd db 0d a7 3d 5f 41 c7 3e 51 7f fc 3e
       -0.063999 0.081569396 0.38917062 0.49315885
0003e0 29 4c 5e 3e a4 34 9a 3d 87 5f 37 3f 98 cd 43 bc
       0.2170874 0.07529572 0.7163014 -0.011950873
0003f0 5d c8 24 3d 2f b2 04 3f 64 06 b8 be 68 de 1b bf
       0.040230144 0.51834387 -0.35942376 -0.6088624

fc_adv.bias f4 [128]
000000 f5 bc e4 3e bd 77 d9 be 57 0b cb be ac a2 b3 3d
       0.44675413 -0.42474166 -0.3965709 0.087712616
000010 61 9f c3 bd 50 0a b2 be 60 53 71 3e 1a 3f 00 3e
       -0.095518835 -0.34773493 0.23566961 0.12524071
000020 ef 91 78 3b d3 78 b3 3d f0 f4 bf be c8 6a 5e 3d
       0.003792878 0.0876328 -0.3749156 0.054301053
000030 7a fa f8 be f8 a2 29 3f 15 bf 2d 3e 84 3b 0f bc
       -0.48628598 0.66264296 0.16967423 -0.008742217
000040 0a 2b 7e be fe 12 0d 3f fd 99 b8 be 72 19 d7 bc
       -0.24821106 0.55107105 -0.36054984 -0.02625725
000050 3a e7 82 bc 7c b8 b3 3e 92 87 f9 3e 4e d9 d5 be
       -0.015979398 0.35101688 0.48736244 -0.41767353
000060 70 ce d3 bb e3 94 64 3e 56 6b b2 3e ca 13 97 3e
       -0.0064638183 0.22322421 0.34847516 0.29507285
000070 30 bc 57 bc cd b1 cd be 88 0a 13 3e 43 c3 41 3c
       -0.013167426 -0.40174714 0.14359486 0.011826339
000080 61 eb 36 be e9 60 04 bd 95 34 d3 bc 6c dc 1b be
       -0.17863227 -0.032318983 -0.025781909 -0.15220803
000090 2b 2c cc be 41 70 3c be 67 a5 f5 3c 70 f5 6f 3d
       -0.39877447 -0.18402196 0.029986097 0.058583677
0000a0 c6 50 98 bd a7 75 fe 3e 96 7a 98 bf f6 54 ed 3e
       -0.07437281 0.49699137 -1.191241 0.46353883
0000b0 4a 31 18 bf 43 83 8b 3e 97 79 80 be 57 57 2a 3e
       -0.5945021 0.27248582 -0.25092766 0.1663488
0000c0 7b 2b ce 3e b6 66 f0 be 70 c7 e5 3c d1 93 6d 3c
       0.40267548 -0.46953362 0.0280492 0.014500574
0000d0 43 25 8c be 1b 1e 38 bf 9c 77 c2 bd 3f 39 9f be
       -0.27372178 -0.7192094 -0.0949547 -0.31098363
0000e0 eb 74 17 bf 07 3a ef bc b4 7b 33 be 8d e4 df 3e
       -0.5916278 -0.029202474 -0.17527658 0.43729058
0000f0 5e b8 31 be c8 af ad be e4 1d fb bd 95 bf 1a be
       -0.17355487 -0.33923173 -0.122615606 -0.15112145
000100 d5 d5 eb be 01 15 b0 3e b1 18 e7 3c 2d e4 24 bd
       -0.46061578 0.34391025 0.028210016 -0.040256668
000110 34 c5 0b bc 58 6a 8e 3c 73 c1 7d 3e c5 35 6c 3d
       -0.008530904 0.017384693 0.24780826 0.057668466
000120 46 2d 27 be 3a e0 23 3e cf a3 12 bf 36 35 8f bd
       -0.16325864 0.16003504 -0.572812 -0.06992571
000130 52 48 e2 3e 02 13 ce 3e ee 84 92 be 90 b3 86 3d
       0.441958 0.40248877 -0.28617042 0.065772176
000140 89 73 60 3e f2 79 11 3f f7 bf da bd dc 6e 60 3d
       0.21919073 0.568267 -0.10681146 0.054793224
000150 27 5f b0 3d 91 47 96 be 9a ac 9c 3e 60 9c 92 bc
       0.08611899 -0.29351476 0.30600435 -0.017896831
000160 ed f2 e6 bd b9 2a 0f 3e bf 9f 15 be c7 09 75 3d
       -0.11276803 0.13981141 -0.1461172 0.059823778
000170 bd 8a 32 3f 80 d4 a0 3e cd 73 e8 3e a2 04 04 bc
       0.6974295 0.31412125 0.4540085 -0.008057745
000180 b6 1e 2d be 44 91 36 3e bc 14 53 be 47 b6 a9 bd
       -0.16906247 0.17828852 -0.20613378 -0.0828672
000190 3e dd 52 be 39 ed 22 3e 40 20 03 bf 4e 63 8d 3e
       -0.2059221 0.15910806 -0.51221085 0.27614826
0001a0 a0 be 12 3c bd d8 1e 3d 62 8b 13 bf ad 5f 48 3e
       0.008956581 0.038780916 -0.57634556 0.19567747
0001b0 f6 db f8 bd 9f 84 0b 3f 67 35 8a 3e 6e 4d 60 be
       -0.12151329 0.5449924 0.26993868 -0.21904537
0001c0 49 84 ae be 79 91 3e 3e 62 d5 59 be f8 b9 75 3e
       -0.340853 0.18610181 -0.21272805 0.23996723
0001d0 6b 9d 44 3d 99 3e 6e be 39 55 8b bd 2e 5d 08 be
       0.048001688 -0.23266067 -0.06803364 -0.13316795
0001e0 71 ba 0f 3e 5d b3 46 3e 66 5b ce bd 05 51 34 be
       0.14035966 0.19404359 -0.100760266 -0.17609031
0001f0 17 b4 34 be 1f 19 20 3d ef af 9d bf a8 43 cc bd
       -0.17646824 0.039086457 -1.2319316 -0.09973842

value.weight f4 [1, 128]
000000 35 7c c8 bf 9d e6 0e 40 1f 3b 19 c0 a7 55 0c c0
       -1.5662905 2.2328255 -2.3942335 -2.1927278
000010 35 3f 06 c0 fc cb 82 3f c0 82 17 40 04 52 e7 bf
       -2.0976079 1.0218501 2.3673553 -1.8071904
000020 87 36 22 40 c7 9f 60 c0 b3 c7 10 40 a5 9d 52 40
       2.534578 -3.509752 2.2621887 3.2908719
000030 96 c4 05 40 10 f7 38 40 c6 b0 05 c0 63 b9 f1 bf
       2.0901237 2.8900795 -2.0889144 -1.88847
000040 32 0c ff 3f 4f d7 09 40 76 62 0c 40 0a ac fc 3f
       1.9925597 2.1537664 2.1935096 1.9740002
000050 d1 51 f9 bf 92 df 0e c0 d4 d4 1f c0 20 dd 3b c0
       -1.9478093 -2.2323956 -2.497365 -2.9353714
000060 c1 f0 0c c0 04 0e 71 c0 17 ea c6 3f f6 d0 f2 3f
       -2.2021945 -3.7664804 1.5540189 1.897002
000070 32 8b 29 c0 56 5a 23 c0 1d 7f 9d 3f 3d 16 84 40
       -2.6491208 -2.5523887 1.2304417 4.1277146
000080 bb 36 df bf 4f f2 3d c0 74 ef 19 c0 a1 9c b5 bf
       -1.7438577 -2.9679143 -2.40524 -1.4188424
000090 99 52 59 40 3b 0f f0 3f 0a 80 f9 bf bd a2 9f 3f
       3.3956664 1.8754648 -1.94922 1.2471539
0000a0 a7 72 0d 40 2c 29 e7 bf c4 5b c5 3f fb 68 00 c0
       2.2101228 -1.805944 1.541863 -2.0064075
0000b0 bf e3 c1 3f 40 0d 1d c0 99 dc 21 c0 d3 ac 83 3f
       1.5147628 -2.4539337 -2.5290892 1.0287117
0000c0 45 b0 76 3f 8a b8 21 c0 4b a5 a5 bf 4b 72 fc bf
       0.96362716 -2.5268884 -1.2941068 -1.972238
0000d0 b6 53 02 40 72 9d db 3f 68 a9 16 40 c8 8f dd 3f
       2.0363593 1.7157423 2.3540897 1.7309504
0000e0 fe 7c 1e 40 a3 19 31 c0 5b c5 e0 bf 4c 4a 18 c0
       2.476379 -2.7671897 -1.7560228 -2.3795347
0000f0 f7 9f f9 bf 5b 31 36 40 50 4e 02 c0 f3 a3 1f 40
       -1.9501942 2.8467624 -2.0360298 2.4943817
000100 6e ed e3 bf 44 a0 0e c0 74 11 51 40 ca e4 0c c0
       -1.7806833 -2.2285318 3.2666903 -2.2014642
000110 bb c0 2b 40 48 87 9e 3f 31 37 21 40 0c 58 e3 3f
       2.6836383 1.2385035 2.5189936 1.7761245
000120 eb d0 29 40 84 c5 8a 3f e7 fe cc 3f f7 3f 2b 40
       2.6533763 1.0841527 1.601529 2.675779
000130 f0 08 a1 bf e8 02 29 c0 35 b4 b0 bf 01 64 f6 bf
       -1.2580853 -2.6408024 -1.3804995 -1.9249269
000140 61 f7 13 40 d5 ce d5 3f f5 52 c0 3f 75 07 d3 3f
       2.3119738 1.6703745 1.5025316 1.6486651
000150 eb fd dc bf de 63 e7 3f 86 ac 2c 40 80 32 0c 40
       -1.726499 1.8077352 2.69803 2.1905823
000160 bb 2b 2b 40 05 8d 25 40 c6 60 2e 40 78 ba fc bf
       2.674544 2.5867321 2.7246566 -1.9744406
000170 f8 07 eb 3f 27 c8 fa bf c7 71 2d 40 f9 aa 41 40
       1.8361807 -1.9592332 2.7100694 3.0260603
000180 6e 36 09 40 a9 a2 25 c0 58 b2 20 c0 10 ab 1d c0
       2.1439471 -2.588053 -2.5108852 -2.4635658
000190 33 e5 31 40 6b 81 2e c0 25 0d ed 3f b4 5d 27 40
       2.7796142 -2.726649 1.8519636 2.6150942
0001a0 ec 35 21 40 af ca ca 3f bf c6 e4 3f 79 20 d8 bf
       2.5189161 1.5843104 1.7873152 -1.688491
0001b0 5b dc 02 c0 df 94 22 c0 96 fd 0e c0 2e b9 13 40
       -2.0446994 -2.5403364 -2.2342277 2.3081775
0001c0 1e 86 38 3f 53 ca 07 c0 6e 9f b2 bf 05 35 0b c0
       0.72079647 -2.121724 -1.3954904 -2.175111
0001d0 0b 97 39 40 f2 f9 1e 40 9f b0 40 40 a5 36 00 c0
       2.899844 2.4840055 3.01078 -2.0033352
0001e0 d8 3d 17 c0 7c 65 b8 3f 70 07 a7 bf 08 ec 17 40
       -2.3631496 1.440597 -1.3049145 2.3737812
0001f0 2f cc 18 c0 53 33 1e 40 bf f9 05 40 59 35 25 40
       -2.3874624 2.4718826 2.0933683 2.581381

adv.weight f4 [121, 128]
000000 ff d9 fd bd ee 6f be 3d b6 a5 f6 bb a1 e4 96 be
       -0.12395095 0.09298693 -0.0075270785 -0.29471305
000010 da f6 98 3e b4 19 39 bd 01 9a 36 3e 7f cc 1b 3f
       0.29875833 -0.045190528 0.17832185 0.6085891
000020 43 00 19 3e 81 fa 80 3e ee 72 7b 3e ec 99 40 bd
       0.14941506 0.2519112 0.24555561 -0.04702179
000030 01 94 9c 3c c1 ea ce 3d 26 14 41 be 79 78 fa 3d
       0.019113543 0.101033695 -0.18855342 0.122300096
000040 f6 0b eb 3d ce 87 0d 3d 04 0c a2 3e 75 ac af be
       0.11476891 0.03455334 0.31649792 -0.34311262
000050 5b 4c 23 3f 54 55 74 be 34 13 b4 3e d4 e9 b1 bd
       0.63788384 -0.23860675 0.351709 -0.08687177
000060 34 7a 5d 3d d6 c8 5b be 35 b4 91 3d f2 65 81 3d
       0.05407162 -0.21463332 0.0711445 0.06318273
000070 fd cd c8 bd 09 9f 05 be 21 23 99 3e 9d 51 85 3d
       -0.09804914 -0.13048948 0.29909614 0.06509707
000080 2a 48 fe bd 39 46 60 be bd 8f 87 be e3 6d 31 3e
       -0.12416108 -0.21901788 -0.2647685 0.17327075
000090 ee 5a 97 bc e1 7e 59 3e df 30 4c be fd 97 a6 bc
       -0.018475976 0.21239807 -0.19940518 -0.020336146
0000a0 eb f9 30 3e c3 16 89 bb 6b 57 54 bd fa ee aa be
       0.17282836 -0.0041836216 -0.05184118 -0.3338545
0000b0 ab 8f b9 3e a9 d7 53 3e ea 6f e5 bd 7e 44 2b bd
       0.36242422 0.20687737 -0.112029865 -0.041813366
0000c0 42 25 4c be a5 8d 12 be 78 cf a3 3e ad 78 b4 3d
       -0.19936088 -0.14311846 0.31994224 0.088120796
0000d0 c2 ef 21 be 5f d0 27 be b4 c2 ce 3c d9 5e 89 3e
       -0.15814117 -0.16388081 0.025239326 0.26830176
0000e0 ab 9e 1f be 9a 13 98 bd 9e 03 91 be 05 f8 a1 bd
       -0.15587871 -0.07425614 -0.28323072 -0.07908634
0000f0 72 94 2d bf 84 db f1 3c 6e 6f 85 3d 74 a2 ce be
       -0.67804635 0.029523619 0.06515394 -0.40358317
000100 35 5c 7b be e9 ef 6f 3e bd 30 90 be 95 e6 dc 3b
       -0.24546893 0.23431362 -0.28162184 0.0067413547
000110 9d 33 10 bd 47 a8 69 be 47 b5 89 be fd 16 07 3f
       -0.035205472 -0.22818099 -0.26896116 0.5276945
000120 1d a1 fa bd 9d 55 ff 3d 07 c8 f0 bd f1 ca 72 bd
       -0.12237761 0.12467501 -0.11756902 -0.05927557
000130 9a 91 f7 bd d4 25 27 bd 7b 14 a4 3e d4 8c f4 be
       -0.12088318 -0.04080756 0.32046875 -0.47763693
000140 5f ef 7e 3c bf a9 fe bb 5f fb 92 3e a1 9e 6c 3e
       0.01556 -0.0077717 0.28707406 0.23107387
000150 c7 42 65 be f5 c8 39 be c5 37 f3 bc 2f 04 f8 3e
       -0.22388755 -0.18143065 -0.029689679 0.48440692
000160 0b 15 65 be a3 a9 90 bd 47 89 10 be d5 a0 ee bd
       -0.22371309 -0.07063606 -0.14114867 -0.1165177
000170 a2 d2 4e 3e 69 1e 9e 3e 84 46 37 3e 8d be ed 3c
       0.20197538 0.30882576 0.17897993 0.029021526
000180 cf 02 9a 3e 73 98 37 3e 4c 3b 49 bd a3 da 34 3e
       0.30080268 0.17929249 -0.049128816 0.17661528
000190 81 16 15 3e b9 d8 8d 3e 69 18 d2 3d 8f 1d 80 3e
       0.14559366 0.2770441 0.10258562 0.2502255
0001a0 3a 07 27 3d fb 4e 40 3e e0 92 07 bd d3 04 27 bd
       0.040778376 0.18780129 -0.033099055 -0.040776085
0001b0 71 f8 2f be e1 36 94 be 0c de df 3c 02 b7 1e bd
       -0.17184617 -0.2894812 0.02732756 -0.03874875
0001c0 f7 39 48 3d 28 78 31 be 0b 28 1f be e5 1c de 3e
       0.048883405 -0.17330992 -0.15542619 0.4338142
0001d0 4c ec 37 3e 1d 3d a4 3e 65 4a 9d be de 78 4d 3c
       0.17961234 0.32077876 -0.3072082 0.012541024
0001e0 73 b4 4b 3c a4 00 04 3e 09 fd e2 be 6b d6 15 be
       0.012433159 0.1289087 -0.44333676 -0.14632575
0001f0 0c 11 42 3e a8 5e 03 3f da b2 00 be 0a cf b0 bc
       0.18951815 0.5131631 -0.12568226 -0.021583099
000200 6c 15 3c be 1f ea a0 3e 13 4f 0c bf 80 12 23 bf
       -0.18367547 0.3142862 -0.5480816 -0.63700104
000210 3d c4 19 3f e6 ab a7 3d 7a 2c 2f bf 8d 02 c1 3e
       0.6006506 0.08187084 -0.6842724 0.3769726
000220 65 eb da 3c 94 b0 94 bd 2f 75 2d bd d3 a8 d6 bd
       0.026723573 -0.07260242 -0.042348083 -0.104814194
000230 74 06 26 bf 5e 44 91 bf f9 51 46 be cc 59 1e be
       -0.64853597 -1.1348989 -0.19367208 -0.15463942
000240 cf 5f ed be 28 2c 38 bf 60 93 03 3f 82 5f 9f be
       -0.4636216 -0.7194238 0.5139675 -0.31127554
000250 0f 57 14 3f 2e 65 00 bf ef e3 0b 3f 28 2d f5 3e
       0.5794534 -0.5015439 0.54644674 0.47886014
000260 3a 33 9d be 8b c4 ad be b3 91 d5 3d 35 ce b6 be
       -0.30703145 -0.33939013 0.104281805 -0.35704198
000270 5c 88 a5 3e a4 9d 72 be d4 4d 38 bd f4 3f 27 bf
       0.32330596 -0.23692948 -0.044996098 -0.6533196
000280 8f 1d 35 3e c6 13 81 be 57 17 66 3c b6 57 28 bf
       0.17687057 -0.25210398 0.014043651 -0.65758836
000290 a2 1c 2d be 07 0f 3e 3e f7 1c fc be b3 80 e2 bd
       -0.16905454 0.1856042 -0.49240848 -0.11059704
0002a0 6c 3d 2d be 4c f0 2c 3f 0d 81 96 3e 3e 9f ea bd
       -0.16917962 0.67554164 0.29395333 -0.11456154
0002b0 96 47 fc be 4f 8f 04 3f 6c f3 3e 3d 0c c4 5a 3e
       -0.49273366 0.5178117 0.046618864 0.21363848
0002c0 c5 d0 0e 3e 54 1f e6 be 9b f6 a3 3e cc 98 b0 3d
       0.13946827 -0.44945776 0.32024083 0.08622894
0002d0 90 59 88 be 6c 56 81 be 71 8e 2d 3d 05 19 91 be
       -0.2663083 -0.25261247 0.04237217 -0.283394
0002e0 a6 dc 3b bd 7f 7f af bd 48 2b 01 3f 2a b5 af be
       -0.045864724 -0.0856924 0.50456667 -0.34317905
0002f0 04 60 03 bf 3f 23 0f 3e 0c 92 ca 3e b8 0c 34 be
       -0.51318383 0.13978289 0.3956455 -0.17582977
000300 ce 9a fa 3e a2 e1 1c 3e 96 82 72 be 26 10 e8 3e
       0.48946232 0.15320447 -0.23682627 0.4532482
000310 a4 9b 63 bc 8b be 62 3e 7f 6f c4 3d 91 a7 56 3e
       -0.013892088 0.22142999 0.09591579 0.20962359
000320 9b 4e d0 bd ad d6 ab be f8 66 f2 3e b4 24 c3 3b
       -0.10171243 -0.33562222 0.47344184 0.005955303
000330 aa ca 1b be 7e 49 ac 3d 2d 8d db 3d 2e 81 6a 3e
       -0.15214029 0.08412455 0.107202865 0.2290084
000340 8a f7 56 3f 79 36 9b be 04 50 af b8 d5 45 df 3d
       0.83971465 -0.30314997 -8.359554e-05 0.10901991
000350 ab c5 f3 be 69 42 bd 3d e2 e0 f3 3d d8 af 16 3f
       -0.47611746 0.09241182 0.11908127 0.58862066
000360 32 f3 a2 be d7 a4 a5 3d 1c 4b ca bd 25 7d 21 3e
       -0.31826168 0.08088081 -0.09877607 0.15770395
000370 82 59 2d 3e eb 3a b6 3e 10 c6 20 3f 2a b1 fe bc
       0.16928676 0.35591826 0.6280222 -0.031090338
000380 b9 61 7e be 25 ae 19 3e b8 e8 ed bd b0 d5 61 be
       -0.24841966 0.15007837 -0.11616653 -0.22054172
000390 26 3c 3b 3e 25 96 42 3f 59 a9 f7 bc 0b cd 76 be
       0.18284664 0.7601035 -0.030232118 -0.24101655
0003a0 55 3b 24 3c 2b 30 ad 3e f3 36 0d 3c 5c ac 9b bc
       0.0100239115 0.33825812 0.008619058 -0.019003086
0003b0 f6 f1 af 3d 1d ff d9 3d a7 26 89 3e 7b 51 80 3e
       0.08591072 0.10644362 0.26787302 0.25062165
0003c0 70 e5 52 3f 20 39 81 be 60 b6 c4 bd e8 c1 75 3d
       0.82381344 -0.25238895 -0.09605098 0.059999377
0003d0 b1 be 2f 3d 44 15 2b 3f 55 ab 52 be f4 ab 74 3d
       0.042906467 0.66829324 -0.2057317 0.0597343
0003e0 38 be 8f ba a1 24 df be f6 dd fa bb 92 ba 13 3e
       -0.0010966724 -0.43582633 -0.0076558543 0.1442664
0003f0 55 16 61 3e e0 9e 2a 3f ab 31 06 3f 4c b7 c7 3e
       0.21981175 0.66648674 0.5241954 0.39007032

adv.bias f4 [121]
000000 94 5d 28 bc 44 de af 3d bc 8d 80 be 94 7d c4 3d
       -0.010276217 0.08587316 -0.25108135 0.095942646
000010 99 b4 e6 bd 46 bb a9 3d 50 cf 53 3e 80 a1 08 3d
       -0.11264915 0.08287673 0.20684552 0.033357143
000020 a2 23 5b be 91 d9 cc 3e 67 c1 d8 bd aa 1b 52 3e
       -0.21400312 0.4000974 -0.105837636 0.20518366
000030 df 00 a3 3e b6 b2 e4 bd 95 10 6b bb d1 43 fb 3c
       0.31836602 -0.11166899 -0.0035868038 0.030671986
000040 6a 8a a7 be 15 78 bf 3e 59 9c a3 3d 94 e0 a6 3e
       -0.3272279 0.37396303 0.07988805 0.32593215
000050 72 17 58 3d 19 ef 2c 3d 80 38 f0 3d 18 96 97 be
       0.052756734 0.04222021 0.117295265 -0.296067
000060 80 b8 7e 3e e5 5a 34 3e 69 6c 90 3e 7c ec 3e 3e
       0.24875069 0.17612799 0.2820771 0.18644899
000070 b9 83 9d 3d 19 ce 71 3e b5 5f fa bd 6b 22 d7 bd
       0.0769114 0.23613776 -0.12225286 -0.105046116
000080 2e b9 b6 3c 1f 88 a1 bd 88 bd 03 be 84 7a 70 3e
       0.022305097 -0.07887291 -0.12865269 0.23484236
000090 ae ce 2f bd a3 36 46 3e c2 24 da bd b4 7c 4f 3e
       -0.042921714 0.1935678 -0.10651542 0.20262414
0000a0 6c 3c 05 3f dc 7b 0b 3e 09 e1 94 3e 4d 04 87 3e
       0.5204532 0.13621467 0.29077938 0.2637047
0000b0 8d 57 17 3e 32 49 5e 3d 17 66 06 3e a4 25 a8 3e
       0.14779492 0.054269023 0.13124882 0.32841218
0000c0 ed 2e 53 bd ee 92 01 3f 61 6b 60 3d 7c 29 03 3d
       -0.051558424 0.5061482 0.054789905 0.032021984
0000d0 58 30 f6 bd 27 1b 30 3e 07 73 f4 3e f0 33 95 be
       -0.120209396 0.17197858 0.4774401 -0.29141188
0000e0 1f a4 9a be 8d 38 eb 3c f9 60 23 3d 6d 79 a2 3d
       -0.3020334 0.028713489 0.039887402 0.079333164
0000f0 79 eb 98 be 3a e9 89 3e 67 48 25 3e 65 e3 ac 3d
       -0.2986715 0.2693575 0.161409 0.084418096
000100 4d 6e 98 bd 64 99 48 3e c0 9b 92 be 23 69 01 3e
       -0.07442913 0.19589764 -0.28634453 0.12637763
000110 45 fe a6 be d7 10 d2 bd 24 b8 9a 3d 01 2d 04 3b
       -0.32615867 -0.10257118 0.07554653 0.0020168426
000120 10 87 cd bd f7 6b 8e bc 72 33 83 be 68 0a 3c 3d
       -0.10035527 -0.017385466 -0.25625187 0.04590836
000130 2d 1a 3c 3e 97 9b 68 bd e0 d8 78 bd 35 ef 1f bd
       0.1836936 -0.056789007 -0.060753703 -0.039046485
000140 86 2b 70 3e 97 25 b8 bd ae 60 82 be d2 0e cd bc
       0.23454103 -0.08991545 -0.25464386 -0.025031481
000150 36 14 44 bd d9 07 21 be 72 dc 66 3c 61 6a 12 bd
       -0.047870837 -0.1572565 0.014090644 -0.035745982
000160 94 2f 8a 3d cd 30 d8 3d b2 2f ac 3d a4 1d 16 3e
       0.06747356 0.10556183 0.08407535 0.14659745
000170 34 ff b0 bd 24 2a f4 bd b6 63 85 3c de 17 05 3d
       -0.08642426 -0.119221 0.016282897 0.032493465
000180 11 48 87 3d 34 78 a1 bd 10 9c 22 be 6a 64 9e be
       0.066055425 -0.07884255 -0.15879846 -0.30935985
000190 de 6c 8d bd 93 28 0e bc 89 e4 10 be dd 04 44 bd
       -0.069055304 -0.008676666 -0.14149679 -0.0478562
0001a0 a4 c8 df bc ce 2f fe bd 42 ee 2e 3c a4 31 01 3c
       -0.027317353 -0.12411462 0.010676922 0.00788537
0001b0 e8 86 cb bd d1 3b 9a bc ce 73 b6 bd 64 f5 0c 3d
       -0.09937841 -0.01882735 -0.08908807 0.03441371
0001c0 7f 9c f8 3d dc 5f 3f bc 16 7f e5 bc d5 f6 d8 3d
       0.12139224 -0.0116805695 -0.0280147 0.105939545
0001d0 f3 c7 85 3d 5b f5 b8 be 5c 1a 05 be f7 37 86 bd
       0.06532278 -0.3612469 -0.12998337 -0.06553643
0001e0 38 12 77 be
       -0.24128044
