lunar_lander_continuous/models/DQN/layers_2/8_128_tanh_169/model.pth (torch, 93279 bytes, 4 tensors)

net.0.weight f4 [128, 8]
0	0x3efe9260	0.4972105
1	0xbbaf86de	-0.0053566536
2	0x3e55bfd8	0.20873964
3	0x3f0ccbab	0.5499827
4	0xbe06ca85	-0.13163193
5	0xc0a38cb9	-5.110928
6	0xc02cc65e	-2.6996074
7	0x40d10fa2	6.5331583
8	0x3fa34e01	1.275818
9	0x40992c4e	4.7866583
10	0x40146949	2.318926
11	0xc04e2266	-3.2208495
12	0x3dec1654	0.11527696
13	0x3f6f51ef	0.93484396
14	0xbfb3471c	-1.4006076
15	0xc12dd83d	-10.865293
16	0x3fcfeaa4	1.6243482
17	0x40603a36	3.503553
18	0x3faa6f07	1.3315133
19	0x3f2158ba	0.6302601
20	0xbfc2cde3	-1.5219082
21	0xc0158372	-2.3361478
22	0x4028a707	2.6351945
23	0x40086f36	2.1317878
24	0x3fcb5efe	1.5888364
25	0x3f978f7b	1.1840662
26	0x3e9626f6	0.293266
27	0x3e083508	0.1330148
28	0x3f083e54	0.53220105
29	0x4023d599	2.559912
30	0xbf99364d	-1.1969696
31	0xc067503c	-3.614272
32	0x3f1af3a6	0.6052803
33	0x3e996fd9	0.29968145
34	0x3f523551	0.82112604
35	0xbf82a2ab	-1.0205892
36	0x3f7d715a	0.99001086
37	0x40b45ad6	5.6360884
38	0x40f840cd	7.7579103
39	0x3ebc6a84	0.36800015
40	0x3eb1b167	0.3470566
41	0x3f787a58	0.9706168
42	0xbf910817	-1.1330594
43	0xbed7d3ce	-0.42153782
44	0xbf706b52	-0.9391376
45	0xc08d3851	-4.4131246
46	0xc09a586c	-4.8232937
47	0x3fe6bf8d	1.8027207
48	0xbe3e11fe	-0.18561551
49	0x3f62e67a	0.8863293
50	0x3ddd1392	0.10794748
51	0x3fb5f4de	1.4215353
52	0x3f11eff3	0.5700676
53	0xc02f9ea8	-2.7440586
54	0xc054490c	-3.3169584
55	0x40a97b84	5.2963276
56	0xc0292dd7	-2.6434228
57	0x3dbaea83	0.09126761
58	0x40914ce7	4.5406375
59	0x40303c35	2.7536747
60	0xbf33b597	-0.7019896
61	0x409ac915	4.837046
62	0x40ce4bf5	6.446772
63	0xbeed634d	-0.46364823
64	0xbe425506	-0.18977746
65	0xbfff9871	-1.9968396
66	0x3ff75899	1.9323913
67	0xc0002c05	-2.0026867
68	0xc03d36d9	-2.9564726
69	0xc0d005b8	-6.500698
70	0xc055088a	-3.3286462
71	0x40108185	2.2579052
72	0x3f9eb4b6	1.2398899
73	0x3f59a433	0.85016173
74	0xbd952e68	-0.07284242
75	0xbf938df6	-1.1527698
76	0xbf89224f	-1.0713595
77	0xbf90152b	-1.125646
78	0xc144e33b	-12.305476
79	0xc119ebe9	-9.620095
80	0x40a088f7	5.0167193
81	0x3fdb50c4	1.7134023
82	0x3f642ef7	0.8913416
83	0xbfcd5c54	-1.6043801
84	0xc0642611	-3.5648234
85	0xbea4142c	-0.3204664
86	0xbe71c1d9	-0.23609103
87	0xbf5044fa	-0.8135525
88	0x4090a157	4.519695
89	0x400697f5	2.1030247
90	0x3f3349f3	0.7003471
91	0xbf981ea3	-1.188435
92	0xbfc1ab00	-1.513031
93	0x3f898ddd	1.0746418
94	0x3f853ce8	1.0409212
95	0x405b8193	3.4297836
96	0x3ecb7558	0.39737964
97	0x3fb9f931	1.4529172
98	0x3eef7c07	0.46774313
99	0x3fc78756	1.5588176
100	0xbe03ad81	-0.12859155
101	0xc05855d6	-3.380239
102	0xc01b80a8	-2.4297276
103	0x40ad1d3d	5.409819
104	0xc0b09e86	-5.519351
105	0x40662f1a	3.5966249
106	0x3fb195dc	1.3873858
107	0xc0070505	-2.1096814
108	0x4080ebec	4.028799
109	0xc06a6695	-3.662511
110	0x3f3925d9	0.72323376
111	0x41062136	8.383108
112	0xbf180265	-0.59378654
113	0xc048aaf0	-3.1354332
114	0xbfdf0aa8	-1.7425127
115	0xbfbab588	-1.4586649
116	0x3feb1d3b	1.8368295
117	0x400e162a	2.2201028
118	0x3f73667c	0.95078254
119	0xc032aaa3	-2.7916648
120	0x3fb799e8	1.4343843
121	0xc06e41b9	-3.7227614
122	0xc00e8ca0	-2.227333
123	0x3fd4ee4d	1.6635224
124	0x3fdb4492	1.7130301
125	0xc02a1206	-2.65735
126	0x405ebc82	3.4802556
127	0x3f162cc4	0.58662057
128	0x3fe01550	1.7506504
129	0x403fdd99	2.9979002
130	0xbec70cbe	-0.3887691
131	0x410f35f3	8.950671
132	0xc023cdda	-2.5594392
133	0xc00b309b	-2.1748416
134	0xc0052598	-2.0804195
135	0xbf670ea0	-0.9025669
136	0xc02bebe2	-2.6862721
137	0x4003e64a	2.0609307
138	0x3ff21c4f	1.8914889
139	0xbe66f018	-0.22552526
140	0xc0a5e5e2	-5.184312
141	0x40afa70b	5.489141
142	0x3fe0463c	1.7521434
143	0x41016112	8.086199
144	0x4041eab0	3.0299492
145	0x3fe669c0	1.8001022
146	0x3f90df97	1.1318234
147	0x40c36474	6.1060123
148	0xc065c344	-3.590043
149	0xbff55632	-1.916693
150	0xc06504c6	-3.5784163
151	0xbfd67383	-1.6754001
152	0xbfda706f	-1.7065562
153	0x3f90fa56	1.1326396
154	0xc049c035	-3.1523564
155	0xc10e6ceb	-8.901591
156	0x3f14f903	0.5819246
157	0x3fbfff28	1.4999743
158	0x40c0d618	6.0261345
159	0x412a9a12	10.662615
160	0xbf822e3c	-1.017036
161	0xc0a99026	-5.2988462
162	0x3f528c91	0.8224574
163	0xc074a2a2	-3.8224263
164	0xbfb8a6a9	-1.4425861
165	0xc00a0d12	-2.1570477
166	0xc02bdd5d	-2.685386
167	0x4007362f	2.112682
168	0x3d82c32a	0.06384881
169	0x40313236	2.7686896
170	0x3ec7d6a7	0.39030954
171	0x3fdb308f	1.7124194
172	0xbd5738a5	-0.052544255
173	0xc0a7cd1c	-5.243788
174	0xc070d0ee	-3.762752
175	0xc0802575	-4.0045724
176	0xc05e9e3f	-3.4784086
177	0xbfba10ad	-1.4536339
178	0x411c668b	9.775035
179	0x408db450	4.428261
180	0x4012961c	2.290412
181	0xc087ab85	-4.2396874
182	0xbf867135	-1.0503298
183	0xc10a1a76	-8.63146
184	0x4046eef1	3.1083338
185	0x3f226487	0.6343464
186	0x3df34bf1	0.11879719
187	0xbf98ad05	-1.1927801
188	0xbf0ddd0c	-0.55415416
189	0x402849fb	2.6295154
190	0x3fa8a9b9	1.3176795
191	0xc0b165f1	-5.543694
192	0x3f5c79b4	0.86123204
193	0x3f41eedb	0.7575509
194	0xbeac04c6	-0.33597392
195	0x3f19172c	0.5980098
196	0xbee753a7	-0.4518101
197	0x4050aa92	3.2604108
198	0xc093d7e2	-4.620103
199	0xc03d1bf9	-2.9548323
200	0xc00f4571	-2.2386134
201	0x3e8f43da	0.27981454
202	0xbf4db256	-0.80350244
203	0xc09f8c14	-4.9858494
204	0x40047e15	2.0701954
205	0x3e4e46fa	0.20144263
206	0xbd598638	-0.053106517
207	0xc153ed01	-13.245362
208	0xc03c910e	-2.9463534
209	0xbe89300f	-0.26794478
210	0xbf9fbe4e	-1.2479951
211	0x3fb30d3e	1.3988416
212	0x3fb42848	1.4074793
213	0x4049dbae	3.1540332
214	0xc0fccab2	-7.899743
215	0xc010e3ca	-2.2639031
216	0x3e0c292c	0.13687581
217	0x3f67a8e1	0.90492064
218	0xc093e1e4	-4.6213245
219	0x40a82db8	5.255581
220	0x400bf8f5	2.1870701
221	0x3f2edb75	0.68303615
222	0xc0ca7800	-6.3271484
223	0xbfd64b98	-1.6741819
224	0xbed59cec	-0.41721284
225	0x400ed212	2.2315717
226	0x3fa66193	1.2998527
227	0x4012d236	2.2940803
228	0xbfb299f1	-1.3953229
229	0xc0695a8e	-3.646152
230	0xbfd970c2	-1.6987536
231	0x40aea04e	5.4570684
232	0x3ca349b1	0.0199326
233	0xbf3ef508	-0.7459264
234	0x3e91d774	0.2848469
235	0xbf43967f	-0.76401514
236	0xbe209675	-0.15682395
237	0x40054492	2.0823102
238	0x404209d9	3.031851
239	0xc09d37f7	-4.9130816
240	0x3e36a738	0.17837226
241	0xbf130954	-0.5743611
242	0xc053902a	-3.305674
243	0x409522bd	4.6604905
244	0xbfab155c	-1.3365893
245	0x407247f5	3.785642
246	0xc0b32b50	-5.599037
247	0xc10728d2	-8.447466
248	0x40efa1fb	7.488523
249	0x403d7fd3	2.9609268
250	0x400bbc40	2.1833649
251	0x3e3996c9	0.18123926
252	0xc0b47ccb	-5.6402335
253	0xbfafd8d4	-1.3738046
254	0x3f2f583c	0.6849401
255	0x3d8eb714	0.06968513

net.0.bias f4 [128]
0	0x4087dd95	4.2457986
1	0xc0436126	-3.0528045
2	0x40837738	4.108303
3	0x4017878b	2.367648
4	0x404715c9	3.1107047
5	0xc098092e	-4.7511206
6	0x4055c82c	3.3403425
7	0xc08f7cf7	-4.4840045
8	0xc047ece4	-3.1238337
9	0x3fe19e6f	1.7626475
10	0x3fa66960	1.3000908
11	0x3f3dfb48	0.7421155
12	0x407a0644	3.9066324
13	0xbf853935	-1.0408083
14	0xc07793e8	-3.8684025
15	0x405bf41a	3.4367738
16	0xc0292604	-2.6429453
17	0xc03b1657	-2.9232385
18	0x3fa7c4e3	1.310696
19	0xc0299c18	-2.6501522
20	0xc059ed09	-3.4050925
21	0x4008bba0	2.1364517
22	0x4020200c	2.501956
23	0x401de175	2.4668858
24	0x401c0895	2.4380238
25	0xc0342783	-2.8149116
26	0xc0884716	-4.2586775
27	0xbd0cb5f9	-0.03435323
28	0x40687945	3.6324017
29	0xc02db4da	-2.7141633
30	0x404d4e4d	3.207904
31	0x3fb91fdb	1.4462847
32	0x408128f6	4.03625
33	0xc044bfd0	-3.0742073
34	0xc001f97e	-2.0308528
35	0x40304a5d	2.7545388
36	0x406d63a2	3.709206
37	0xbff9dd4b	-1.9520658
38	0x3f68cf63	0.90941447
39	0xbff6628a	-1.9248822
40	0x3e5056a9	0.20345558
41	0xc0871931	-4.221825
42	0xc06d3fcd	-3.707019
43	0x40067e66	2.1014647
44	0xbfa680ab	-1.3008016
45	0xbfd23fde	-1.6425741
46	0x40742b22	3.8151326
47	0x40791b1c	3.8922796
48	0xbfac1f3a	-1.344703
49	0xbfbeb8c4	-1.4900136
50	0xbf296bab	-0.66179913
51	0x4061996f	3.5249898
52	0x4045ab3d	3.0885766
53	0xc05df3cb	-3.468005
54	0x4080107e	4.002013
55	0xc02e85d4	-2.7269182
56	0x404bdb26	3.1852508
57	0xc0523a80	-3.2848206
58	0xc06613b2	-3.594952
59	0x40019eca	2.0253167
60	0xc0746370	-3.8185692
61	0x4080ae33	4.0212646
62	0xbd3873f6	-0.045032464
63	0xc07ca3dc	-3.9475012
64	0x4083bc8b	4.1167655
65	0x407b8492	3.9299664
66	0xc07fb83c	-3.9956198
67	0x40409541	3.0091097
68	0xbfc641e4	-1.5488858
69	0x4085b7a0	4.178665
70	0x408d8def	4.423576
71	0xc01607de	-2.3442302
72	0xc057c24c	-3.371234
73	0x404fdf7e	3.2480159
74	0xc01ed22a	-2.4815774
75	0xc01f9b57	-2.4938562
76	0x405488bc	3.3208456
77	0x40806e47	4.0134616
78	0xc03ed7e2	-2.9819264
79	0xc045e646	-3.0921798
80	0x4088edc0	4.279022
81	0x408809d1	4.2511983
82	0x3f840f46	1.0317161
83	0xc04bf827	-3.187021
84	0xbf05fdd7	-0.52340454
85	0x406aae6b	3.6668956
86	0x3faa93e5	1.3326384
87	0x408b1933	4.346826
88	0xbf448ae4	-0.7677443
89	0xc05e2c6d	-3.4714615
90	0x407f7ab4	3.9918642
91	0x3f99af5d	1.2006642
92	0xbfa3bb38	-1.279151
93	0x4074f9e0	3.8277512
94	0x404b0d56	3.172689
95	0x402796da	2.6185822
96	0xbffd0d2c	-1.9769645
97	0xc04c6efb	-3.1942737
98	0xc0106d84	-2.2566843
99	0xbfce6ffd	-1.6127926
100	0x404fa1eb	3.2442577
101	0xc01fa56f	-2.4944723
102	0xc077b5ee	-3.870479
103	0x403cb510	2.9485512
104	0xc05a2320	-3.4083939
105	0x3ff47e44	1.9101033
106	0x401bad71	2.432461
107	0x409a34c6	4.818942
108	0xc06079f4	-3.5074434
109	0x405bb076	3.4326453
110	0x406aed06	3.6707168
111	0xbfba6733	-1.4562744
112	0x4031703d	2.7724755
113	0x405df7c0	3.4682465
114	0x403f946c	2.993434
115	0x40894e91	4.2908406
116	0xc06b0b7a	-3.6725755
117	0xc045b1ac	-3.0889692
118	0xc023dad2	-2.5602307
119	0x4054b406	3.3234878
120	0xc085afe0	-4.177719
121	0xbfff635e	-1.99522
122	0xbf7c6ee0	-0.9860668
123	0x3f9a44b8	1.2052221
124	0xc02a84bb	-2.6643512
125	0x40454d3e	3.0828395
126	0x4030f261	2.7647936
127	0x3f7820a4	0.96924806

net.2.weight f4 [169, 128]
0	0x3fd0701c	1.6284213
1	0x4045fea4	3.093667
2	0x3fb7d7e1	1.4362756
3	0x3fe19308	1.7622995
4	0x3fe48f32	1.78562
5	0xbfcc4ab7	-1.5960301
6	0x3fc0d668	1.5065432
7	0xbf9ac12b	-1.20902
8	0xbfb36f24	-1.4018292
9	0x3fe11a77	1.7586201
10	0x3f9a82cc	1.2071166
11	0x3f986057	1.19044
12	0x3fbf056e	1.4923532
13	0x3fbc78a2	1.4724314
14	0xbfc6cd4c	-1.5531402
15	0xc02827b2	-2.6274228
16	0xbfc8b6dd	-1.5680805
17	0x400b6dcc	2.1785765
18	0xbfb0b053	-1.380381
19	0x3fc44f7c	1.5336757
20	0xbfeb8388	-1.8399515
21	0x3fb06d7c	1.3783412
22	0xbfef7b90	-1.8709583
23	0x3f9fe16a	1.2490666
24	0x3fd1bd18	1.6385832
25	0x3fb524b2	1.4151824
26	0xbfa7b73d	-1.3102795
27	0xbf0c1a61	-0.5472775
28	0x3fe4e5b5	1.7882601
29	0xbf990433	-1.1954406
30	0xbff23472	-1.8922255
31	0x3fd38af6	1.6526783
32	0x3fe2212c	1.7666373
33	0xbfb256c1	-1.3932725
34	0x4027de47	2.6229417
35	0x3f8d2251	1.1026098
36	0x3fc3245a	1.5245469
37	0xbfac0066	-1.3437622
38	0x3ffd7ac2	1.9803088
39	0xbff373c9	-1.901971
40	0xbff2a162	-1.89555
41	0xbf7a7780	-0.9783859
42	0xbfdeb6e7	-1.7399567
43	0x3fe10de1	1.758236
44	0x4007237d	2.111541
45	0x3efd4014	0.4946295
46	0xbff21881	-1.8913728
47	0x3fd79466	1.6842163
48	0xbfcb01ca	-1.5859921
49	0x4011647d	2.2717583
50	0xbff98c09	-1.949586
51	0x3f7ef862	0.9959775
52	0x3f9c62a0	1.2217598
53	0xbf904b70	-1.1273022
54	0x3fa464aa	1.284322
55	0x3f2766c8	0.65391207
56	0x3fd65b30	1.6746578
57	0xbff5ea09	-1.9212047
58	0x4025777a	2.5854173
59	0xc024db7d	-2.5758965
60	0xbfcffc49	-1.6248866
61	0x3fb73c64	1.4315305
62	0x3fcd7ea3	1.6054271
63	0xbfd322f7	-1.6495045
64	0x3fbd04c1	1.4767076
65	0x3fbe63a6	1.487416
66	0xbf937579	-1.1520225
67	0x3fdb683d	1.7141186
68	0x3fc29da2	1.5204356
69	0xc01fbf12	-2.496037
70	0x3fad65bd	1.3546673
71	0xbff3e019	-1.9052764
72	0xbfef6ad6	-1.8704479
73	0x3fc1dc1d	1.5145298
74	0x3f501945	0.8128856
75	0x401d23bc	2.455306
76	0x3fc3d536	1.5299442
77	0x3fb6469c	1.4240298
78	0x4008898b	2.133395
79	0xbfa4fe2f	-1.2890071
80	0xc0302ee6	-2.7528625
81	0xbfc288d9	-1.5198013
82	0xbf4763ee	-0.77886856
83	0xbfaad7cc	-1.3347106
84	0x3f0f1a0b	0.55899113
85	0x3ff39e29	1.9032642
86	0x3fdcac75	1.724013
87	0x3fc16227	1.5108079
88	0xc00650ad	-2.098674
89	0x3fdd12b6	1.7271335
90	0xc008d1d5	-2.1378071
91	0x3fb4bf24	1.4120831
92	0x3fd8e4b1	1.6944791
93	0xbfc678c8	-1.550561
94	0x3fd297f6	1.6452625
95	0xc0527957	-3.288656
96	0x3fede1f8	1.8584585
97	0xbfbb0761	-1.4611627
98	0xbfab050f	-1.3360919
99	0x3ff351e9	1.9009372
100	0x3f997280	1.1988068
101	0xbf9b91fe	-1.2153928
102	0xbfb652d6	-1.424403
103	0x3f815f1b	1.0107149
104	0xbf621906	-0.8831943
105	0xbfa62a81	-1.2981721
106	0xbfc47c51	-1.5350438
107	0x3fd76026	1.6826217
108	0xc0019eea	-2.0253243
109	0x3fb86699	1.440631
110	0x3f991625	1.1959883
111	0x3f92bc1f	1.146366
112	0x3fdb76fc	1.7145686
113	0x3f93cfdc	1.1547809
114	0x3fa0d6f6	1.2565601
115	0x3fda318d	1.7046372
116	0xbf7b971c	-0.9827745
117	0xbfb82dc4	-1.4388967
118	0xbfabcdf8	-1.3422232
119	0x3fdbced2	1.7172492
120	0xbfb1a79d	-1.3879277
121	0x3fc76600	1.5578003
122	0xbf8f06a1	-1.1173898
123	0x3fd4b719	1.6618377
124	0xbf8fd68b	-1.1237348
125	0xc0064316	-2.0978446
126	0x3fa08f2f	1.2543696
127	0x3fc79769	1.5593082
128	0x3f8afda6	1.0858657
129	0x404e7c6f	3.2263448
130	0x3fd517ca	1.6647885
131	0x3fe63bbf	1.7986983
132	0x3fbd2ceb	1.4779333
133	0xbff0f8dc	-1.8825946
134	0x3fa9edf7	1.3275746
135	0xc01f2f0a	-2.487246
136	0xbfa7abfd	-1.3099362
137	0x3fc8e8a1	1.5695993
138	0x4006b10e	2.1045566
139	0x3f8a7208	1.081605
140	0x3f94b0e7	1.1616486
141	0x3fbb4fe2	1.4633753
142	0xbfec1fb1	-1.8447171
143	0xc02dd14f	-2.7159002
144	0xbfb22d36	-1.3920047
145	0x3fafbc37	1.3729314
146	0xbfd451e9	-1.6587497
147	0x3ff8542b	1.9400686
148	0xbfeb703b	-1.8393625
149	0x400ba82c	2.1821394
150	0xbfd70104	-1.6797185
151	0x3fc32539	1.5245734
152	0x3fcd36f3	1.6032394
153	0x3fc79fe5	1.5595671
154	0xbfbfdefc	-1.4989924
155	0xbf328a2d	-0.6974209
156	0x3f8d9ffe	1.1064451
157	0xbf36a7fb	-0.7135007
158	0xbfeeafe2	-1.8647425
159	0x3fcfa5c4	1.6222463
160	0x3fd67b5b	1.6756395
161	0xbf9e32f5	-1.2359301
162	0x4024f7ba	2.57762
163	0x3fcdbaa7	1.6072587
164	0x3faf737f	1.3707122
165	0xc00be689	-2.1859457
166	0x3fdbbfc5	1.7167898
167	0xbfd387a4	-1.6525769
168	0xbfa8db22	-1.3191874
169	0xbf9c20a3	-1.219746
170	0xbfbc2b1f	-1.470066
171	0x3fcfe3fe	1.6241453
172	0x3fe13e69	1.7597171
173	0x3f3a3ea1	0.72751814
174	0xbfcfcda0	-1.6234627
175	0x401ac0ac	2.4180098
176	0xbfddb99f	-1.7322272
177	0x4005d617	2.091192
178	0xc018e531	-2.3889887
179	0x3fd21b36	1.6414554
180	0x3fd524b7	1.665183
181	0xbfa75b8c	-1.3074813
182	0x3fa5298b	1.2903303
183	0x3f8365d0	1.0265446
184	0x3fdc3760	1.7204399
185	0xbfb0fb5a	-1.3826706
186	0x40220f9f	2.5322034
187	0xbff2d751	-1.8971959
188	0xc00d2b60	-2.2057724
189	0x3f73107b	0.9494702
190	0x3fc0d461	1.5064813
191	0xbf995693	-1.1979545
192	0x3f8fd2a3	1.1236156
193	0x3fd3c14a	1.6543362
194	0xbfac00d2	-1.343775
195	0x3fa23a36	1.2674015
196	0x3fa8a3c6	1.317498
197	0xc01c1276	-2.4386268
198	0x4005aaec	2.0885572
199	0xc00713c3	-2.1105812
200	0xbfd02635	-1.626166
201	0x3ff83e90	1.9394093
202	0x3f17840c	0.5918586
203	0x4025a5ff	2.5882566
204	0x3f63df35	0.8901246
205	0x3fa278df	1.2693137
206	0x40192cf4	2.3933687
207	0xbfaf3e46	-1.3690879
208	0xc0556847	-3.3344896
209	0xc0023875	-2.0346959
210	0xc01495cc	-2.3216429
211	0xbfb5f464	-1.4215207
212	0xbc88f664	-0.01671905
213	0x3fd63d82	1.6737521
214	0x3fcdbbfd	1.6072994
215	0x3fb96c85	1.4486243
216	0xc018d44a	-2.387957
217	0x3ff0c373	1.8809646
218	0xc00e2b3c	-2.2213888
219	0x3fead655	1.8346659
220	0x3fa0a4f8	1.2550344
221	0xbfb7c873	-1.4358047
222	0x3faaae92	1.3334525
223	0xc0645a78	-3.5680218
224	0x3ff03929	1.8767444
225	0xbfb5551b	-1.4166597
226	0xbfe58568	-1.7931337
227	0x400d7890	2.2104836
228	0x3f3dff69	0.7421785
229	0xbf760c55	-0.9611257
230	0xbfab1df0	-1.3368511
231	0x3f88550d	1.0650955
232	0xbfa90ba5	-1.3206679
233	0xbf3edeb6	-0.7455858
234	0xbfd2a6d3	-1.6457161
235	0x4006384a	2.0971856
236	0xbfd70017	-1.6796902
237	0x4009bd1a	2.1521668
238	0x3f8ab033	1.0835022
239	0x3fde65cf	1.737482
240	0x3fcc84d7	1.597804
241	0x3fe10151	1.7578527
242	0x3fb77d9a	1.4335206
243	0x3fcd44f3	1.6036667
244	0xbf3d2f62	-0.73900425
245	0xbf5dcd49	-0.86641365
246	0xbfa03203	-1.2515262
247	0x3fb3ac94	1.4037042
248	0xbf84e08f	-1.038103
249	0x3fac7429	1.3472949
250	0xbf642dcb	-0.89132375
251	0x3fc0c73e	1.5060804
252	0xbf7bf5b5	-0.98421794
253	0xc01774bf	-2.3665006
254	0x3fbb837c	1.4649501
255	0x3fb0e7c9	1.3820735

net.2.bias f4 [169]
0	0x3f89d219	1.0767242
1	0x3fa70783	1.3049167
2	0x3f93f6fe	1.1559751
3	0x3f81dc1e	1.01453
4	0x3f9e20e4	1.2353787
5	0x3f90d8bc	1.1316142
6	0x3f9045a2	1.127125
7	0x3f9d6a00	1.2297974
8	0x3fa126a7	1.2589921
9	0x3fa78eb4	1.3090425
10	0x3f35a2af	0.7095136
11	0x3f8a19cc	1.0789123
12	0x3f94de62	1.1630366
13	0x3fa1fbf6	1.2655017
14	0x3fac5e25	1.3466231
15	0x3f9c109b	1.2192568
16	0x3fcc220a	1.5947888
17	0x3f63404b	0.8876998
18	0x3fc78046	1.5586021
19	0x3f8b39db	1.0877031
20	0x3fa3853f	1.2775038
21	0x3f9ab5b0	1.2086697
22	0x3fa1d2b7	1.264243
23	0x3fafebf0	1.3743877
24	0x3fa55adb	1.2918352
25	0x3f9caa0d	1.2239395
26	0x3f836110	1.0263996
27	0x3fb18a35	1.3870302
28	0x3fa4d571	1.2877637
29	0x3f96f478	1.1793356
30	0x3fad31dd	1.3530842
31	0x3f7e223f	0.99271005
32	0x3f85ff65	1.0468565
33	0x3fb776ec	1.4333167
34	0x3f88efd3	1.0698189
35	0x3f86ac47	1.0521325
36	0x3f94f478	1.1637106
37	0x3fb8d23a	1.4439156
38	0x3fd10ee6	1.6332672
39	0x3fa30551	1.2735997
40	0x3f9ff6b2	1.249716
41	0x3fdc34a2	1.7203562
42	0x3faaab83	1.3333591
43	0x3f713c50	0.94232655
44	0x3fae3ad8	1.3611708
45	0x3f0fc075	0.5615304
46	0x3fc4dd7d	1.5380093
47	0x3f8379b4	1.0271516
48	0x3f8e4b17	1.1116666
49	0x3f61320f	0.8796701
50	0x3fee68ba	1.862571
51	0x3fa7356d	1.3063179
52	0x3fa10593	1.2579826
53	0x3f925326	1.1431625
54	0x3f55ccbd	0.8351553
55	0x3f857525	1.0426375
56	0x3fa5aefb	1.2944025
57	0x3fc92a65	1.5716063
58	0x3e8a14d2	0.2696901
59	0x3fa05b78	1.2527914
60	0x3f99f7f6	1.2028797
61	0x3fb30512	1.3985922
62	0x3f9be704	1.2179875
63	0x3f6a0109	0.9140783
64	0x3f897d04	1.0741277
65	0x3fa0a5c7	1.2550591
66	0x3f75e7e3	0.96056956
67	0x3fd60eb1	1.6723233
68	0x3fb2d9e4	1.3972745
69	0x3f9679e4	1.1755948
70	0x3fa8e595	1.3195063
71	0x3faf4f84	1.3696141
72	0x3fc3ceb6	1.5297458
73	0x3fdea948	1.739541
74	0x3f844a04	1.0335088
75	0x3f75dd76	0.9604105
76	0x3fa37ad5	1.277186
77	0x3f8e1d2b	1.1102651
78	0x3f5e6700	0.86875916
79	0x3fefa06d	1.8720833
80	0x3fb44551	1.4083654
81	0x3faa2049	1.3291103
82	0x3f854e28	1.0414476
83	0x3f3389e2	0.7013227
84	0x3f60f741	0.8787728
85	0x3f985cbe	1.1903303
86	0x3f9fc5e6	1.2482269
87	0x3fa586f1	1.2931806
88	0x3fb447c4	1.4084401
89	0x3fa65b9e	1.2996709
90	0x3f956071	1.1670057
91	0x3f88b109	1.0679027
92	0x3f54ea72	0.83170235
93	0x3f7a31c6	0.977322
94	0x3f8ea425	1.1143843
95	0x3f805e1b	1.0028719
96	0x3f887178	1.0659628
97	0x3f3e9275	0.74442226
98	0x3f540e4f	0.82834333
99	0x3f6cef58	0.9255271
100	0x3e2cd998	0.1687988
101	0x3e708a46	0.23490247
102	0x3f8b61e0	1.0889244
103	0x3f7ce472	0.9878608
104	0x3f809bf0	1.0047588
105	0x3f274e12	0.653535
106	0x3f5046ef	0.81358236
107	0x3f311ef9	0.69187886
108	0x3f2a7ecc	0.66599727
109	0x3f9be6e1	1.2179834
110	0x3f8a216c	1.079145
111	0x3ec5e6d6	0.38652676
112	0x3f99e5b1	1.2023221
113	0x3eaf6e8e	0.34264034
114	0x3f8203d6	1.0157421
115	0x3f266640	0.6499977
116	0x3f5c48c9	0.8604856
117	0x3f68f6cb	0.91001576
118	0x3f07f114	0.5310223
119	0x3f5af806	0.85534704
120	0x3f66cb45	0.90153915
121	0x3f7dbfcd	0.9912079
122	0x3f8b28ff	1.0871886
123	0x3f90ae04	1.1303105
124	0x3f5bed40	0.8590889
125	0x3f159998	0.5843749
126	0x3f4fbb26	0.8114494
127	0x3f6731c2	0.903103
128	0x3f82883e	1.0197828
129	0x3fa71cdf	1.3055686
130	0x3f8de2ed	1.1084877
131	0x3f90b4db	1.1305193
132	0x3f3cbeed	0.7372883
133	0x3f1f9ee2	0.6235181
134	0x3ea0289f	0.3128099
135	0x3f9ab339	1.2085944
136	0x3f26fd5b	0.6523034
137	0x3f80016b	1.0000433
138	0x3f863ad0	1.0486698
139	0xbdf8c9d8	-0.12147874
140	0x3f0371c5	0.51345474
141	0x3f5f5eb3	0.87253875
142	0x3f7b1dee	0.98092544
143	0x3f8d9092	1.1059744
144	0x3f470903	0.77748126
145	0x3f7f3d70	0.9970312
146	0x3f1da74e	0.6158341
147	0x3f6bbdd1	0.9208651
148	0x3f55d4eb	0.8352801
149	0x3f78c174	0.97170186
150	0x3f5c0ec2	0.8596002
151	0x3f79205e	0.97315013
152	0x3f4e389b	0.80555123
153	0x3f4dd5bd	0.80404264
154	0x3f5fa67a	0.873634
155	0x3f4ae053	0.7924854
156	0x3fbbdaf1	1.4676191
157	0x3f8b049e	1.0860784
158	0x3f80acad	1.0052696
159	0x3f335407	0.7005009
160	0x3f82ae76	1.0209491
161	0x3f31f721	0.69517714
162	0x3f98aac4	1.1927114
163	0x3f45bb59	0.77238995
164	0x3f80c230	1.0059261
165	0x3f93ba01	1.1541139
166	0x3f4b7a84	0.7948382
167	0x3f9b3d0f	1.2128009
168	0x3fa76628	1.3078051
