lunar_lander_continuous/models/DQN/layers_2/8_128_tanh_81/model.pth (torch, 47903 bytes, 4 tensors)

net.0.weight f4 [128, 8]
-3.0481184 0.517323 -9.245545 -3.325523 3.2333138 0.2464752 -3.8867006 -5.0746193
-3.5030422 0.7955339 3.0375211 0.122185856 -9.904457 -1.3450614 0.633499 -1.3914651
1.5297937 -1.2630669 1.1978849 -0.7461604 -1.3361334 -4.7101493 -5.6712737 -0.43874654
0.1280323 -2.0626488 0.9281281 1.0830263 0.7255162 4.4941463 6.205517 -2.6787963
0.35830656 -2.484076 -0.4273555 -0.17836945 -1.9772594 -1.02658 1.0942758 12.355835
-1.7548702 2.7764158 -0.90116686 2.331367 1.4517747 5.3765025 4.1110263 -1.8650216
-1.7581129 3.463112 -1.021314 3.0475013 1.3137933 3.643115 5.8842545 -1.4045925
1.4455401 0.9626317 -0.49942195 -0.44351366 -2.1616604 -2.7693372 -3.5885315 4.1436543
1.3010223 -1.3707591 0.16137497 -0.2578761 0.05285337 -1.4033436 5.4138336 1.8549662
-0.548936 -2.8081024 -2.0384634 -1.5398657 -0.26832476 4.177304 2.5822449 -4.9344215
-2.8275788 1.7546271 -0.7064896 -0.16444558 20.995092 2.00423 -7.405454 0.014887057
0.31162772 -1.6681439 0.5948878 -0.16917938 1.7314944 0.58140284 9.927087 0.7912443
0.66801906 -0.8967896 -1.0854249 1.86567 15.038341 -0.38554186 -11.18876 -2.9229643
1.7291775 -2.2442791 2.4591367 -1.020946 -0.6966538 -2.6302106 -2.1466117 -2.1013026
1.633702 2.4162102 1.7215431 4.8876624 -0.82461965 1.4377195 -0.5503074 -1.2134633
-0.3741355 -0.8283587 2.1509347 -0.5474125 -0.4239363 -5.5308437 5.6503224 0.618973
-3.7178915 1.0170779 -5.37761 4.668502 1.684587 -4.3953185 1.588551 -1.5057799
0.92795193 -4.6672535 -0.5283127 -1.6302361 2.9777582 5.652794 0.8403074 -2.867176
0.7531792 2.7871063 2.5327308 0.6972534 -3.115475 -5.0973167 -1.6892209 1.6794541
-0.13151318 -1.4852866 -1.3637214 0.15732762 4.1332183 4.8848805 -0.34021083 1.2053511
-0.3192694 0.083124354 -3.7322242 -12.739782 4.7734156 -1.0020721 -8.628935 -3.2754197
-1.8106574 3.084409 -2.5601723 8.142031 1.2223166 2.3461957 -5.509689 -0.5977278
-0.50084865 1.1203158 -0.6239575 0.27235308 0.9950194 2.3481019 1.5006789 2.0184796
2.7703347 -0.8985629 1.3283314 1.3494976 2.370482 0.66375774 -0.39061755 1.8921973
0.27907133 -0.14410114 14.066277 -5.6652746 -0.5734759 -1.3607563 -0.9129642 0.49135
1.1157026 -1.49347 0.3364243 -1.2168751 -3.860828 -8.678032 -2.8602757 0.6695697
-0.5518112 1.5106792 0.47433072 -0.20469218 1.4986018 1.0858437 -0.8850977 -11.458855
-2.6674628 4.052316 0.039444327 -3.097323 -0.33852434 -2.5081565 5.785917 4.2827663
2.121543 -2.801133 2.7533352 -1.2273017 -0.3825832 -2.525008 -2.4601989 -1.579507
2.7380707 -0.07870774 4.704164 -6.6414332 -4.0754747 -0.13320194 1.7929993 -2.141231
-2.4329324 2.132913 -0.7171417 10.179023 1.0493109 3.0247068 -7.12633 -1.2293464
-1.5304618 1.6838578 1.0914246 -0.26868194 1.9169457 5.079488 1.5602173 -6.5570655
00000000: 5f14 43c0 486f 043f c1ed 13c1 5ed5 54c0
00000010: 9dee 4e40 ff63 7c3e b4bf 78c0 4863 a2c0
00000020: d831 60c0 1ca8 4b3f bf66 4240 943c fa3d
00000030: a878 1ec1 f92a acbf fe2c 223f 871b b2bf
00000040: 48d0 c33f 2dac a1bf 4b54 993f 5e04 3fbf
00000050: 6b06 abbf 8bb9 96c0 137b b5c0 63a3 e0be
00000060: e61a 033e 7002 04c0 ce99 6d3f 9ba0 8a3f
00000070: 6ebb 393f 0cd0 8f40 9893 c640 6671 2bc0
00000080: f573 b73e 1afb 1ec0 57ce dabe 7ba6 36be
00000090: d616 fdbf f966 83bf 3b11 8c3f 80b1 4541
000000a0: 969f e0bf ccb0 3140 dfb2 66bf 1e35 1540
000000b0: c1d3 b93f 4f0c ac40 878d 8340 07b9 eebf
000000c0: d809 e1bf a1a3 5d40 6bba 82bf 430a 4340
000000d0: 612a a83f cc28 6940 d04b bc40 b0c9 b3bf
000000e0: 7507 b93f 086f 763f 3cb4 ffbe 3914 e3be
000000f0: a558 0ac0 d23c 31c0 80aa 65c0 d198 8440
00000100: e687 a63f 0975 afbf 7b3f 253e 5608 84be
00000110: c67c 583d c3a0 b3bf 203e ad40 886f ed3f
00000120: 1287 0cbf f3b7 33c0 2f76 02c0 521a c5bf
00000130: dd61 89be 79ac 8540 8043 2540 c8e6 9dc0
00000140: 0df7 34c0 9f97 e03f 81dc 34bf 6c64 28be
00000150: f3f5 a741 4e45 0040 7bf9 ecc0 d8e8 733c
00000160: ab8d 9f3e bd85 d5bf 914a 183f 5c3d 2dbe
00000170: 9ca1 dd3f d1d6 143f 59d5 1e41 fd8e 4a3f
00000180: 4c03 2b3f 0194 65bf 34ef 8abf 46ce ee3f
00000190: 0b9d 7041 be65 c5be 2905 33c1 d911 3bc0
000001a0: b055 dd3f 45a2 0fc0 7f62 1d40 5cae 82bf
000001b0: e757 32bf 5f55 28c0 1662 09c0 be7b 06c0
000001c0: 261d d13f 30a3 1a40 865b dc3f bb67 9c40
000001d0: 461a 53bf 3107 b83f f2e0 0cbf c452 9bbf
000001e0: b08e bfbe 510f 54bf eaa8 0940 3a23 0cbf
000001f0: 2e0e d9be acfc b0c0 71cf b440 0475 1e3f
00000200: eff1 6dc0 9c2f 823f 6215 acc0 5e64 9540
00000210: 8ca0 d73f 73a6 8cc0 a455 cb3f 65bd c0bf
00000220: 428e 6d3f 245a 95c0 803f 07bf 94ab d0bf
00000230: 9793 3e40 b0e3 b440 631e 573f d07f 37c0
00000240: 5ad0 403f f35f 3240 4318 2240 337f 323f
00000250: f163 47c0 381d a3c0 6438 d8bf 5af8 d63f
00000260: 64ab 06be df1d bebf 6c8e aebf 7e1a 213e
00000270: 5343 8440 f150 9c40 1d30 aebe f248 9a3f
00000280: 4777 a3be 1a3d aa3d c3dc 6ec0 26d6 4bc1
00000290: d2bf 9840 e643 80bf 1e10 0ac1 7aa0 51c0
000002a0: 9fc3 e7bf f566 4540 ddd9 23c0 c245 0241
000002b0: df74 9c3f 1228 1640 5f4f b0c0 b004 19bf
000002c0: 9e37 00bf 8266 8f3f aebb 1fbf dd71 8b3e
000002d0: 97b9 7e3f 4d47 1640 3f16 c03f c52e 0140
000002e0: 2a4d 3140 3808 66bf c306 aa3f 56bc ac3f
000002f0: fab5 1740 07ec 293f 06ff c7be 8533 f23f
00000300: 70e2 8e3e 408f 13be 780f 6141 ee49 b5c0
00000310: 51cf 12bf 432d aebf 06b8 69bf 3a92 fb3e
00000320: 58cf 8e3f 062a bfbf ce3f ac3e 90c2 9bbf
00000330: ce17 77c0 38d9 0ac1 c20e 37c0 eb68 2b3f
00000340: 8043 0dbf f05d c13f 7adb f23e d49a 51be
00000350: 2fd2 bf3f edfc 8a3f c395 62bf 7857 37c1
00000360: b6b7 2ac0 93ac 8140 6090 213d 8a3a 46c0
00000370: 1053 adbe a385 20c0 3b26 b940 6c0c 8940
00000380: 5cc7 0740 c345 33c0 a536 3040 3918 9dbf
00000390: f2e1 c3be bb99 21c0 e673 1dc0 492d cabf
000003a0: 8d3c 2f40 8631 a1bd 8388 9640 9f86 d4c0
000003b0: 4a6a 82c0 1766 08be 0081 e53f ee09 09c0
000003c0: 2ab5 1bc0 a681 0840 9996 37bf 47dd 2241
000003d0: d24f 863f cc94 4140 e50a e4c0 395b 9dbf
000003e0: 2ce6 c3bf a788 d73f cdb3 8b3f ae90 89be
000003f0: 7a5e f53f 2a8b a240 33b5 c73f 7bd3 d1c0

net.0.bias f4 [128]
-1.7439258 -2.1682057 -3.723455 4.35438 -3.075461 3.0833805 2.5152972 2.7414966
-1.9765959 -3.5729709 -3.794678 -2.0311248 2.9409802 -3.5894878 -1.0384412 -2.8149266
1.3943539 -1.2212121 3.1061049 -2.5521684 0.896352 -2.692643 3.2780702 -0.2668575
-1.4339819 -2.071321 2.3842115 -2.602276 -3.4713426 -1.3397114 -1.1872013 -3.9690382
-3.7467644 -3.375633 2.6476555 2.7777343 2.4755914 -1.7331059 -1.4201252 -4.6502037
1.7611555 3.4523392 2.3175232 3.1251087 -1.9069018 1.3231877 -1.741117 1.3123739
-0.5291939 -3.0687392 -3.5262215 1.5051988 2.4005013 -4.4469624 3.533686 -2.3416138
-4.374113 -0.34097004 -0.6497205 -3.5486946 0.11740941 1.5124329 0.24158475 0.29087803
-2.5006266 3.8834865 -2.519483 -2.749752 3.2924798 0.43347517 -0.12197404 3.6606977
0.054259732 0.14375319 3.0193293 -2.8838077 0.47832102 2.7411983 -1.1510235 0.8029266
-1.2078022 3.0212696 1.2510492 3.5442202 -3.3757188 3.2597895 -2.5527415 2.200935
-0.79724693 -2.6973245 -3.7724886 2.5959423 4.1398287 1.7013414 0.8204234 1.0653741
3.064915 0.29541284 4.55475 -3.4056554 3.1482704 -0.29922733 2.4223228 0.196467
-3.1429539 -0.109864034 -3.829952 0.4937242 2.8308327 -3.393694 4.0708103 -0.38720128
3.8630946 1.139393 -2.4374611 -2.3413293 -2.2527237 -2.9984365 0.3400554 -1.5703267
1.2162588 -3.3485022 -1.1302828 2.758932 -1.7596039 4.118501 -2.0229335 2.5574956
00000000: f638 dfbf e2c3 0ac0 164d 6ec0 1557 8b40
00000010: 5ad4 44c0 1b56 4540 a1fa 2040 ae74 2f40
00000020: 1801 fdbf 8eab 64c0 01dc 72c0 f3fd 01c0
00000030: 0539 3c40 2bba 65c0 a4eb 84bf c227 34c0
00000040: 307a b23f ae50 9cbf 6cca 4640 ba56 23c0
00000050: 5377 653f 4354 2cc0 e7cb 5140 8ca1 88be
00000060: b88c b7bf 8690 04c0 ec96 1840 b18b 26c0
00000070: 7a2a 5ec0 aa7b abbf 36f6 97bf b904 7ec0
00000080: fdca 6fc0 5f0a 58c0 3073 2940 66c6 3140
00000090: 1770 1e40 6ad6 ddbf aac6 b5bf 78ce 94c0
000000a0: 8b6d e13f 20f3 5c40 4d52 1440 c801 4840
000000b0: 5c15 f4bf 375e a93f ecdc debf defb a73f
000000c0: 4079 07bf 3966 44c0 9dad 61c0 5baa c03f
000000d0: d0a1 1940 844d 8ec0 e927 6240 00dd 15c0
000000e0: bcf8 8bc0 a093 aebe 1554 26bf d01d 63c0
000000f0: 5874 f03d 6797 c13f fe61 773e f7ed 943e
00000100: 440a 20c0 0b8b 7840 363f 21c0 f0fb 2fc0
00000110: fdb7 5240 75f0 dd3e 87cd f9bd df48 6a40
00000120: 743f 5e3d 0934 133e b13c 4140 4e90 38c0
00000130: 7ee6 f43e cb6f 2f40 bd54 93bf 998c 4d3f
00000140: 4399 9abf 7b5c 4140 6122 a03f 81d4 6240
00000150: c70b 58c0 64a0 5040 1e60 23c0 1edc 0c40
00000160: 6018 4cbf f7a0 2cc0 7470 71c0 eb23 2640
00000170: 7a79 8440 8ec5 d93f 4507 523f 2e5e 883f
00000180: 9127 4440 5a40 973e 83c0 9140 42f6 59c0
00000190: 437d 4940 5334 99be 5607 1b40 a52e 493e
000001a0: 2826 49c0 6500 e1bd ef1d 75c0 6bc9 fc3e
000001b0: 5d2c 3540 4832 59c0 1444 8240 3f3f c6be
000001c0: f13c 7740 a1d7 913f 5dff 1bc0 57d8 15c0
000001d0: a02c 10c0 62e6 3fc0 be1b ae3e 7700 c9bf
000001e0: 5eae 9b3f dc4d 56c0 1bad 90bf 5892 3040
000001f0: b33a e1bf c3ca 8340 be77 01c0 02ae 2340

net.2.weight f4 [81, 128]
2.6935132 2.5471306 -1.8430662 2.1591084 -1.5165983 2.1044436 1.6122793 1.5033233
-1.3922886 -1.7706939 3.9880307 -1.2698697 -2.5166647 -1.4214023 -1.8622605 -0.98195094
-1.7359272 -2.2202218 1.7634345 -1.7550628 -1.932886 -1.3921795 1.699909 -0.5165327
2.5144033 -1.804383 1.7834214 2.1904085 -1.5848311 2.2014008 -2.12777 -1.9684432
2.9925196 -1.6488112 1.7716233 -2.0714943 1.2123342 -0.5972805 -0.7661598 2.2172277
-1.6539116 -2.7954311 -1.698799 1.7202125 -1.0043117 1.1082865 -1.5170575 -1.9612142
-1.706487 -0.8859867 -0.9078636 0.931164 1.4807134 2.0177662 1.4956144 2.0157056
2.683742 -1.5972731 -1.8389207 -1.6025127 1.6648667 1.2773458 1.5368309 -1.8193815
-2.056193 1.5419323 1.4620516 2.2546225 2.2518814 1.7917279 1.4526902 1.6733067
-1.5000242 1.4224337 1.464385 -0.99999195 1.975711 1.691264 1.1913773 1.9890661
2.6567705 1.8293428 1.827082 1.5370754 -1.6144437 2.1530058 1.8652738 1.676433
-0.16042665 -1.4733891 1.9454403 -2.2234015 1.9536604 0.9413392 -1.9351585 -0.6455065
-2.0152907 -2.6098084 2.3963656 -2.080551 1.8084931 -1.0110023 1.369987 1.894091
-0.9063036 -1.3295468 -2.6647518 -2.9987516 1.738922 -1.8753237 2.058128 -1.5600047
-2.6627417 1.8492124 1.0159917 -0.752763 -1.8436338 -1.4047353 1.5666853 1.3731493
1.3841 2.6014779 1.9843107 1.52848 1.8951122 1.6371082 -0.4502287 1.1748418
2.8705711 2.3950875 -1.9784684 2.3187222 -2.175689 1.9127178 1.6409477 1.4723661
-1.2833587 -1.8251244 3.8304217 -0.8433333 -2.549339 -1.7353776 -1.4882853 -0.8831615
-1.8844216 -2.1421602 1.992624 -1.6177258 -2.4200912 -1.811688 1.6636633 -0.69892406
2.682865 -1.6005449 2.0431983 2.1098707 -1.6502317 1.7630179 -1.8149806 -1.8629446
3.2643402 -1.1281044 1.6135828 -2.2505736 1.7501135 -1.3538008 -0.7030825 2.2594602
-1.7025907 -2.829733 -1.9835336 2.0391204 -1.220397 1.641147 -1.9428095 -2.1830864
-1.8427804 -1.2378501 -0.8179289 2.3286479 0.9294199 2.1652334 1.578208 1.8436538
2.9966686 -1.53479 -1.6893669 -1.347526 1.9260432 1.49527 1.4891703 -2.1236112
-2.2850304 2.0081105 1.2009108 2.2679217 1.3511455 1.728022 1.4357289 2.046244
-1.6426687 1.7733655 1.276739 -1.8010172 1.9242592 1.4061034 1.3616387 2.0564234
2.413096 1.8290212 1.7330623 1.3434618 -1.7483252 1.3966292 1.7650641 1.6211646
-0.40585014 -1.294061 2.0048964 -2.3081844 1.8895711 1.227502 -1.8938314 -0.62248313
-2.1928325 -2.6786027 2.2457666 -1.5742103 1.6152295 -1.0498955 2.133887 1.8586669
-0.76220274 -1.4508573 -2.189233 -3.4966645 1.6981027 -1.9888146 1.8304267 -1.8456217
-2.5175226 1.0671932 1.1166047 -0.21098769 -1.6863868 -1.7620693 1.6567323 1.6420692
1.074177 2.3093605 1.7167354 1.545726 1.9943454 1.500689 -0.910513 1.197052
00000000: 8562 2c40 3004 2340 98e9 ebbf d52e 0a40
00000010: e51f c2bf 34af 0640 2b5f ce3f e66c c03f
00000020: 8336 b2bf 19a6 e2bf e53b 7f40 178b a2bf
00000030: 0911 21c0 83f0 b5bf 8d5e eebf 2361 7bbf
00000040: dd32 debf 1d18 0ec0 39b8 e13f e6a5 e0bf
00000050: cf68 f7bf f032 b2bf 9e96 d93f 7d3b 04bf
00000060: fceb 2040 06f6 e6bf 2747 e43f a72f 0c40
00000070: bfdb cabf c0e3 0c40 622d 08c0 f2f5 fbbf
00000080: 7185 3f40 3f0c d3bf 8dc4 e23f 5d93 04c0
00000090: c42d 9b3f 60e7 18bf 0c23 44bf 0fe7 0d40
000000a0: 60b3 d3bf 58e8 32c0 3f72 d9bf ec2f dc3f
000000b0: 498d 80bf 55dc 8d3f f12e c2bf 1109 fbbf
000000c0: 2b6e dabf 06d0 62bf c069 68bf c460 6e3f
000000d0: 0488 bd3f 1523 0140 4b70 bf3f 5201 0140
000000e0: 6ec2 2b40 7273 ccbf c161 ebbf 231f cdbf
000000f0: 5a1a d53f 1180 a33f e0b6 c43f 7ee1 e8bf
00000100: ab98 03c0 0a5e c53f 8224 bb3f bc4b 1040
00000110: d31e 1040 5757 e53f c1f1 b93f ea2e d63f
00000120: cb00 c0bf 4f12 b63f f870 bb3f 79ff 7fbf
00000130: 19e4 fc3f 577b d83f 0d7f 983f b899 fe3f
00000140: 8708 2a40 e827 ea3f d3dd e93f e3be c43f
00000150: 17a6 cebf d9ca 0940 4bc1 ee3f 5b95 d63f
00000160: e246 24be 0498 bcbf 3004 f93f 364c 0ec0
00000170: 8b11 fa3f 9bfb 703f 46b3 f7bf ea3f 25bf
00000180: 86fa 00c0 1a07 27c0 0e5e 1940 bf27 05c0
00000190: b47c e73f 8668 81bf bc5b af3f 9371 f23f
000001a0: 8303 68bf 972e aabf 4b8b 2ac0 8ceb 3fc0
000001b0: ff94 de3f 9b0a f0bf 5fb8 0340 3cae c7bf
000001c0: 5c6a 2ac0 feb2 ec3f 040c 823f 13b5 40bf
000001d0: 31fc ebbf 5ece b3bf 2589 c83f 5bc3 af3f
000001e0: 302a b13f 9d7e 2640 e5fd fd3f 3ca5 c33f
000001f0: 0993 f23f c38c d13f 6084 e6be 3761 963f
00000200: 70b7 3740 1d49 1940 743e fdbf f265 1440
00000210: 7d3e 0bc0 f0d3 f43f 930a d23f 7e76 bc3f
00000220: 1945 a4bf ad9d e9bf a125 7540 b1e4 57bf
00000230: 5f28 23c0 da20 debf 2280 bebf df16 62bf
00000240: ba34 f1bf 2719 09c0 4e0e ff3f a411 cfbf
00000250: c6e2 1ac0 64e5 e7bf ebf2 d43f b0ec 32bf
00000260: 0fb4 2b40 a8de ccbf c3c3 0240 1f08 0740
00000270: cb3a d3bf 92aa e13f 4951 e8bf f874 eebf
00000280: f3ea 5040 ba65 90bf e289 ce3f 6609 10c0
00000290: b803 e03f 5849 adbf 37fd 33bf ff9a 1040
000002a0: 7eee d9bf 581a 35c0 6ee4 fdbf f380 0240
000002b0: f835 9cbf 1b11 d23f fbad f8bf b0b7 0bc0
000002c0: 3ae0 ebbf df71 9ebf ca63 51bf 9108 1540
000002d0: 76ee 6d3f 2f93 0a40 b802 ca3f d9fc eb3f
000002e0: 6bc9 3f40 0074 c4bf 2d3d d8bf bb7b acbf
000002f0: 9588 f63f 0265 bf3f 229d be3f 3fe9 07c0
00000300: f03d 12c0 e284 0040 72b7 993f a125 1140
00000310: 56f2 ac3f d32f dd3f f7c5 b73f a9f5 0240
00000320: f842 d2bf a4fd e23f 2f6c a33f bb87 e6bf
00000330: 204e f63f 32fb b33f 2d4a ae3f 719c 0340
00000340: 2a70 1a40 5e1d ea3f fcd4 dd3f 8ef6 ab3f
00000350: 1fc9 dfbf bfc4 b23f 9fed e13f 5282 cf3f
00000360: 97cb cfbe caa3 a5bf 3950 0040 4bb9 13c0
00000370: 77dd f13f c91e 9d3f 1169 f2bf 0e5b 1fbf
00000380: 5e57 0cc0 3a6e 2bc0 a4ba 0f40 b97f c9bf
00000390: d7bf ce3f fa62 86bf 9b91 0840 cce8 ed3f
000003a0: b81f 43bf b1b5 b9bf 651c 0cc0 5ac9 5fc0
000003b0: 6e5b d93f 7a91 febf 6c4b ea3f 553d ecbf
000003c0: 171f 21c0 c999 883f e7ec 8e3f 280d 58be
000003d0: 86db d7bf 7d8b e1bf ce0f d43f 532f d23f
000003e0: a27e 893f 90cc 1340 fcbd db3f 59da c53f
000003f0: b646 ff3f 9416 c03f 6117 69bf 0039 993f

net.2.bias f4 [81]
0.8796585 0.61847585 1.4269762 0.70274204 0.9808823 1.274889 1.2477838 1.054497
0.774125 0.96439326 1.1687161 0.9030947 0.9619483 0.8836062 0.9138309 0.68455356
0.915676 0.91853815 0.9580328 0.20920552 1.2205553 0.8297075 0.51110786 0.5500803
0.72529185 1.22396 1.002295 1.7277496 1.285519 0.9037862 0.81619877 1.0630673
1.1609274 0.849508 1.41907 0.65340614 0.8805013 0.95043385 1.0556519 1.0070714
1.0564317 1.081763 1.1507413 1.1564149 1.2227538 1.0276437 0.86080813 0.74192935
0.096394345 0.6368375 0.7540844 0.6606415 0.96505636 0.7910911 0.74389493 0.55616146
0.8013539 0.6380272 0.6011288 0.6514972 0.39714438 0.99399763 1.0497638 0.96481806
0.47447807 0.62831485 0.5250789 0.55703837 0.74440193 0.6894302 0.57975495 0.21636835
0.20441929 0.7350574 0.50598294 0.39595202 0.9328506 0.8681527 0.74892914 1.0436839
0.72859985
00000000: 4d31 613f 6f54 1e3f 28a7 b63f e7e6 333f
00000010: 1a1b 7b3f 902f a33f 61b7 9f3f c2f9 863f
00000020: 0e2d 463f 7ae2 763f 7d98 953f 3731 673f
00000030: 3e42 763f 0434 623f d2f0 693f e73e 2f3f
00000040: be69 6a3f 5125 6b3f a341 753f f939 563e
00000050: 283b 9c3f b667 543f f7d7 023f 10d2 0c3f
00000060: baac 393f b9aa 9c3f 344b 803f e626 dd3f
00000070: e38b a43f 885e 673f 67f2 503f 9712 883f
00000080: 4599 943f 5b79 593f 16a4 b53f a045 273f
00000090: 8868 613f a24f 733f 9a1f 873f b7e7 803f
000000a0: 2739 873f 3677 8a3f 7e4b 933f 6705 943f
000000b0: 3283 9c3f d489 833f ec5d 5c3f 15ef 3d3f
000000c0: 666a c53d c807 233f ad0b 413f cd1f 293f
000000d0: ef0d 773f f284 4a3f e66f 3e3f 9960 0e3f
000000e0: 8725 4d3f c055 233f 94e3 193f 85c8 263f
000000f0: 8256 cb3e a176 7e3f a95e 863f 51fe 763f
00000100: caee f23e 3ed9 203f 926b 063f 119a 0e3f
00000110: 2091 3e3f 7f7e 303f d26a 143f aa8f 5d3e
00000120: 4a53 513e b92c 3c3f 1988 013f 39ba ca3e
00000130: 4ccf 6e3f 413f 5e3f d2b9 3f3f 6f97 853f
00000140: 8585 3a3f
