lunar_lander_continuous/models/DQN/layers_4/8_128_tanh_128_tanh_128_tanh_25/model.pth (torch, 151887 bytes, 8 tensors)

net.0.weight f4 [128, 8]
000000 17 d2 44 be ff 26 95 3e 36 10 b0 bf 3b 54 af 3e
       -0.19220768 0.29131314 -1.3754947 0.3424395
000010 20 cc f8 be bf 08 a6 3e 8c 4e 59 40 18 43 8d 3f
       -0.48593235 0.32428548 3.3954191 1.10361
000020 d5 84 b7 be 63 48 e4 3e 05 e6 b2 3e 33 5f c7 3e
       -0.3584353 0.44586477 0.34941116 0.3893982
000030 6c 90 13 3f 8b 75 a3 bd 9f 2b 90 3d c0 2d 49 3e
       0.57642245 -0.07981404 0.0703957 0.19646358
000040 87 02 a0 be 62 ae 36 bf 9f 2b be 3e 8e 2f 35 bf
       -0.31251928 -0.7135984 0.37142655 -0.7077569
000050 f4 92 95 be 32 c5 f7 3d ae b4 77 3e 58 f0 e2 3e
       -0.2921368 0.12098159 0.24190018 0.44323993
000060 a0 af 4c bb 2a f0 4a 3f 0e 1a e3 3e 66 a4 1c 3f
       -0.003123261 0.7927271 0.44355816 0.6118835
000070 58 b2 04 bf 90 57 c1 be a8 89 5a bd 04 e0 1b be
       -0.5183463 -0.37762117 -0.053353935 -0.15222174
000080 00 de e0 3e 7a a8 ea 3f 8d e2 72 be ac ef e2 3e
       0.43919373 1.8332665 -0.23719235 0.4432348
000090 61 36 19 be b8 57 a2 3e 60 d5 4b be 6d 06 b2 3e
       -0.1496215 0.3170755 -0.19905615 0.34770527
0000a0 f3 e8 09 3f 8b 23 42 be df 86 69 3e 00 8a 1f bf
       0.5387108 -0.18958871 0.22805355 -0.62319946
0000b0 2f 79 32 be 66 7c 5b bf da 3a f7 3d cb 58 b8 3f
       -0.1742904 -0.8573669 0.12071772 1.4402097
0000c0 4c 78 a0 3d fc 14 d2 3e 0e 39 03 be 19 cd 32 3f
       0.07835445 0.41031635 -0.12814733 0.69844204
0000d0 2b 2a 72 be 7d eb 2c be 9b 3a 1c 3f 9e bc 09 be
       -0.23648898 -0.16886707 0.61026925 -0.13450858
0000e0 69 53 57 bf 47 f0 02 be 8e 26 35 3f 73 6a fa 3e
       -0.8411165 -0.12786971 0.70761955 0.4890934
0000f0 fd a2 22 3f 23 ab a7 be b1 c2 09 be 7a a0 13 bf
       0.6352995 -0.32747754 -0.13453175 -0.5766674
000100 6d 77 bd 3c 43 18 17 3e 95 f2 77 be 8a 5b 0f bf
       0.023128236 0.14755349 -0.24213631 -0.5599905
000110 55 c7 0e bf b8 ac a6 be 80 0b de be 7f d2 99 3e
       -0.55772907 -0.3255365 -0.4336815 0.30043408
000120 35 d4 4e be 0f e5 95 be b3 67 1f 3e 9c 1a ed bd
       -0.20198138 -0.2927632 0.15566902 -0.11577341
000130 74 87 3b be 43 7c b6 bc 64 9b b0 bd 9e 1b 1b be
       -0.1831339 -0.02227605 -0.086233884 -0.15147254
000140 fc 7b 73 3d d4 e8 1a bf f1 f0 30 be 3e f1 71 3e
       0.059444413 -0.6051152 -0.17279412 0.23627183
000150 70 bc 47 bf bc 31 61 3c 89 e8 1f bf 72 be 2f be
       -0.7802191 0.013744768 -0.62464195 -0.17162493
000160 47 03 56 3e 6f df b5 be ee 00 22 bf 77 ca 5c be
       0.20899688 -0.3552203 -0.6328267 -0.21561609
000170 ea d5 77 3f 64 55 2b 3f 47 a5 a8 be 42 d8 84 3f
       0.9681078 0.6692717 -0.32938597 1.0378497
000180 5d d6 13 3f 6f f8 81 3e 20 4d e7 be 82 56 97 3e
       0.5774897 0.25384852 -0.4517603 0.29558188
000190 e7 e4 66 bf b6 94 53 3e 61 79 0e bd 5d 88 7a 3f
       -0.9019303 0.20662197 -0.034783725 0.97864324
0001a0 e8 e8 22 3f 98 19 a3 be 81 8d 1c bf 59 a3 ab be
       0.63636637 -0.31855464 -0.6115342 -0.33523062
0001b0 cf d3 4f bf 34 37 f2 3d 83 25 22 3e f8 33 61 be
       -0.8118257 0.118269354 0.15834622 -0.21992481
0001c0 4a 4c 45 bf 12 5e 9a 3e 13 c9 02 3e 3b d8 2b be
       -0.7706953 0.30149895 0.12772016 -0.16781704
0001d0 9b 54 00 3e 23 0f 7c 3f 89 a4 40 bf 32 6a 97 bf
       0.12532274 0.98460597 -0.7525106 -1.1829283
0001e0 ce 6d 43 3f a8 47 6e 3d 91 c2 1a 3f 7c 8c 39 bf
       0.76339424 0.058173805 0.60453135 -0.7247999
0001f0 75 ee 01 3f 26 20 8d 3f 0a 66 20 3f 1f fd 7e 3f
       0.5075448 1.1025436 0.626557 0.9960498
000200 1e 9c 72 3e bc be 2a 3e e9 05 b5 3e 9a f8 d7 3e
       0.23692366 0.16674322 0.35356072 0.42181855
000210 05 98 c9 be 57 9b 98 be 75 e6 45 3e 0f 3f 07 3f
       -0.39373794 -0.29806015 0.19326194 0.52830595
000220 86 d1 41 3e 22 ee f5 bc 32 f9 a1 3e fc 80 bb be
       0.18927583 -0.030020777 0.31635433 -0.36621845
000230 8f 35 44 3f 47 e6 9f 3f f9 5b 9b 3f 0f 7e c0 bd
       0.76644224 1.249215 1.2137443 -0.09399044
000240 9a 55 df 3d ad 7e a1 3e 0f 71 72 be b0 d7 7c 3e
       0.10904999 0.31541958 -0.23675941 0.24691653
000250 44 bc 06 bf c8 1b 96 3f 08 d5 0b bf af e1 13 3f
       -0.5263102 1.1727228 -0.54621935 0.5776624
000260 7f 59 d7 3c 1f 8e aa bd eb df c5 3e 28 51 fa bd
       0.026287792 -0.08327889 0.38647398 -0.122225106
000270 c0 df 7b bf ea 73 78 bf 31 ce 62 bf 28 ad 0b 3e
       -0.9838829 -0.9705187 -0.88595873 0.13640273
000280 b4 f7 8f 3f 98 ce d8 bd cd 96 02 40 93 fb bf 3e
       1.1247468 -0.1058628 2.0404541 0.37496623
000290 fd 98 ad bf 34 d9 8b 3f f0 b4 8b 3e 26 4a 5f be
       -1.3562313 1.092566 0.27286482 -0.21805629
0002a0 b7 32 9f be 58 59 d4 be 50 98 00 3f 65 4b 3e be
       -0.3109338 -0.41474414 0.5023241 -0.18583448
0002b0 1c 24 3f be 7a be 8d bf ea 74 15 be c8 1b 03 3f
       -0.18666118 -1.1073754 -0.1459538 0.51214266
0002c0 82 ce 33 3f ad 49 f4 3e 17 c3 22 3e b1 2b 36 bf
       0.7023698 0.4771246 0.15894733 -0.7116042
0002d0 3d 4f 23 bf 42 96 cf be 77 73 8b 3e 27 9f af be
       -0.63792783 -0.40544325 0.2723653 -0.3430111
0002e0 b6 2b 1c 3e a9 90 92 3e 15 da 53 bd c8 af 09 be
       0.1525105 0.28625992 -0.05172165 -0.13445961
0002f0 20 12 27 3f d0 12 0b 3f ef 1e c6 be 3b b2 61 be
       0.6526203 0.5432558 -0.38695475 -0.22040646
000300 5d 8e fa 3e 8a 75 00 bf c3 78 53 3e 31 aa 64 be
       0.4893674 -0.5017935 0.20651536 -0.22330548
000310 35 da 26 3f 8d f1 07 3f c6 25 6b 3e e8 70 0a bf
       0.6517671 0.5310295 0.22963628 -0.5407853
000320 f9 06 1c bd 3e fb 6d 3e 50 89 aa bd d1 a9 f4 bd
       -0.038092587 0.23240373 -0.083269715 -0.119464524
000330 10 0a 38 bc 44 31 8a 3f 7c a7 29 bf 7e 4d 54 bf
       -0.011232868 1.0796285 -0.66271186 -0.82930744
000340 6e 04 18 3f de 48 31 3d f3 be 17 bf f6 89 e1 3e
       0.5938176 0.043282382 -0.5927574 0.44050568
000350 2d f2 54 bd 1f ea 36 bf fe be c5 bf 0c 3c 64 3f
       -0.05198877 -0.7145099 -1.5448911 0.89154124
000360 5d 3b cb 3e e9 9f f2 bd 43 1e 7d be 13 2e a7 be
       0.39693728 -0.11846907 -0.24718575 -0.3265234
000370 ae 23 24 3f 6d 65 b7 be 5b 82 f3 3e 9a 17 07 bf
       0.6411694 -0.3581957 0.4756039 -0.5277039
000380 c7 0a aa 3d 4c e4 1a 3e 8f a2 ab 3e d6 1c f6 be
       0.08302837 0.15126151 0.3352246 -0.48068875
000390 df 33 80 3f 15 1a 23 40 2f cc 06 bf c9 e6 96 3f
       1.001583 2.548467 -0.5265531 1.178918
0003a0 41 ed 6f be 41 f2 7e 3d 50 01 02 bf bf 34 43 be
       -0.23430349 0.06224275 -0.5078325 -0.1906309
0003b0 e2 d9 1a 40 b6 0a d6 3f f3 e7 b3 3e 51 17 95 3e
       2.4195485 1.6722019 0.351379 0.29119352
0003c0 56 4e 9f be 38 96 65 be c2 5b 59 3e b7 59 12 3e
       -0.31114453 -0.22420585 0.21226409 0.14292036
0003d0 7a e8 60 be 81 8e 27 40 01 65 c0 3f cd 7b 8d 3f
       -0.21963683 2.6180727 1.5030824 1.1053406
0003e0 f6 4e 83 bd 7a 28 00 bf 90 54 0c 3e 66 98 61 3e
       -0.06411545 -0.5006176 0.13704133 0.22030792
0003f0 a0 da f9 3c a1 bf 48 3e b3 96 da 3e 3d c6 28 bc
       0.030499756 0.1960435 0.426931 -0.01030117

net.0.bias f4 [128]
000000 43 81 87 3d 08 03 05 be 44 28 9b be ad 2e fd 3e
       0.066164516 -0.12989438 -0.30304158 0.49449673
000010 a8 91 3d 3e b2 30 25 bb 58 fd 76 3e f2 c4 b7 3e
       0.18512595 -0.0025206027 0.2412008 0.35892445
000020 49 f5 b8 be c5 fc 4c 3d 5b 52 0a 3f 28 4f d1 be
       -0.36124638 0.050045747 0.54031914 -0.40880704
000030 dd 48 a4 be 2b 27 1b 3c 2d 8e d6 be 28 a3 80 3d
       -0.3208684 0.009469788 -0.41905347 0.062811196
000040 18 88 bb be 76 75 60 3e 2c 89 8e be d9 33 0e be
       -0.3662727 0.21919808 -0.2783903 -0.13886966
000050 c3 a8 fd be bb 29 fa bd eb 43 d3 be c5 18 69 be
       -0.49542817 -0.12214991 -0.41262755 -0.22763355
000060 ca 89 bd 3e 35 a3 44 be 34 f1 15 3d c7 3a db 3b
       0.37019187 -0.19202884 0.036606982 0.0066903564
000070 ec 41 73 be 09 ab 41 be 1f 0a 98 3e 34 56 b5 3e
       -0.23755616 -0.18912901 0.29695222 0.3541733
000080 00 3e ee be 2a a4 ce be 37 86 38 3e 3a 37 77 be
       -0.46531677 -0.40359622 0.18019949 -0.24142161
000090 f6 ac 16 be 92 81 82 3e de 9d eb 3d d4 cd 8c be
       -0.14714417 0.2548948 0.1150472 -0.27500784
0000a0 1b 57 7a 3e 93 dd 94 be 02 18 8c be 70 43 0a 3f
       0.2444729 -0.29075298 -0.27362067 0.5400915
0000b0 7f d7 f8 be 45 0b 45 3c 16 70 5f be f3 14 54 be
       -0.4860191 0.012026613 -0.21820101 -0.20711116
0000c0 01 49 f8 be 58 90 65 be 44 9d ca 3e 5d 09 2b bd
       -0.48493198 -0.22418344 0.3957311 -0.041756976
0000d0 43 2d 6e bd e0 15 6e 3e ff d7 50 3d 23 98 3c bf
       -0.058148634 0.23250532 0.05098724 -0.7366964
0000e0 4a 5f ef be 2d 27 54 be 14 3d 13 3e be 99 bd be
       -0.46752387 -0.2071807 0.14378768 -0.37031358
0000f0 d4 ff 8b bc 0c ea 25 be 8d 96 e8 be 18 98 51 3f
       -0.017089762 -0.16202563 -0.4542736 0.818727
000100 7f d2 17 3e 3c bf a5 3e c6 ad e8 be b6 a9 10 3d
       0.14826392 0.32372463 -0.4544508 0.0353181
000110 9a ee 3d 3f bf a0 4b 3c 03 39 57 3e e9 75 ae 3d
       0.741922 0.012428462 0.21017842 0.08518583
000120 f7 cd 67 bd 42 18 8a 3d 07 ad 53 be cf 22 15 3e
       -0.056592908 0.06742908 -0.20671473 0.1456406
000130 79 5c 1a be de 88 05 bf ef 26 8a be 49 a8 d0 be
       -0.15074338 -0.5216197 -0.2698283 -0.4075339
000140 2b 2b b4 3c 8e 24 ce be 5e 5a e1 be 69 65 25 be
       0.02199324 -0.40262264 -0.44014257 -0.16151966
000150 d3 4d 63 3d 24 5c 04 3e 3e 37 91 be 2a 5d 12 be
       0.05549414 0.12925774 -0.2836246 -0.14293352
000160 0d 0a b4 3d 06 97 9e 3e 3b 31 ac 3d db b8 4f 3e
       0.087909795 0.30974597 0.084078275 0.2028536
000170 7d 54 c1 be 9c b7 49 bd 53 c4 9b 3e bc 33 8c 3e
       -0.37759772 -0.04924737 0.3042322 0.2738322
000180 67 4e 14 bc 0a 29 15 be 7c 5f c5 be 3e d8 da be
       -0.009051896 -0.14566436 -0.3854941 -0.42743105
000190 77 f8 b3 3e 4b 04 e7 3e bc 6e ca be 9a 9e 6e 3d
       0.351505 0.45120463 -0.3953761 0.058256723
0001a0 34 10 31 bd 95 88 75 be c0 85 b1 3e e1 21 4e bd
       -0.043228343 -0.23977883 0.34672356 -0.05032528
0001b0 4d 56 86 be 0b 19 d9 3e 12 19 1e bf 1e 64 80 bd
       -0.26237717 0.4240192 -0.61757004 -0.06269096
0001c0 e1 39 db 3e 60 c2 c7 3d b2 c4 04 3f 4c dc d6 3d
       0.42817596 0.09753871 0.51862633 0.10491237
0001d0 23 4a ee bd 25 c9 89 3c d6 bb e0 3e a1 45 ab 3e
       -0.11635234 0.016819546 0.43893307 0.3345156
0001e0 5c 1e de bd 1c d0 80 bd f3 12 11 bf 41 8a e3 3e
       -0.10845634 -0.06289694 -0.5666954 0.44441417
0001f0 47 24 9f be d6 e0 36 3e e6 4a 2d bd a2 14 fb 3e
       -0.31082365 0.17859206 -0.042307757 0.4903918

net.2.weight f4 [128, 128]
000000 f6 0b 28 3e 18 9a ca be c0 79 b2 3e e1 f8 81 3e
       0.16410813 -0.3957069 0.34858513 0.25385192
000010 1d f2 85 be 45 f4 d9 3d 11 64 c5 bc 6d 27 e7 3b
       -0.2616128 0.10642294 -0.024095567 0.0070542605
000020 23 4c 31 3e 32 ae d7 3b 3d fd 8d 3f eb 32 d7 bd
       0.173142 0.006582045 1.1092907 -0.10507759
000030 81 a8 1c bd 50 fc 2e 3e d7 f0 05 3e 50 b2 ad 3d
       -0.038246635 0.17088437 0.13080154 0.08481276
000040 2f ee d7 3c ac 46 6e 3e 9d df e2 be 2a 7c e5 3d
       0.026358692 0.23269147 -0.44311228 0.11205323
000050 a4 87 b6 be 06 b4 03 3f c0 3e 9c 3e dc e2 ba be
       -0.3565036 0.5144657 0.30516624 -0.36501205
000060 07 e3 f8 3d f9 f1 cd bd 5d 67 14 3f d8 45 0a 3e
       0.12152677 -0.10055918 0.5797022 0.13503206
000070 ce 20 d9 3e 2b af 0c 3f 98 75 78 3e f5 20 7e 3d
       0.4240784 0.54954785 0.24263608 0.06204315
000080 c3 de 6f be d4 0f b1 bd 07 26 3d 3e a1 d6 15 3d
       -0.2342482 -0.08645597 0.18471538 0.03658164
000090 b3 1e b4 be 4e a8 c7 3e 16 66 9c 3e 22 85 f5 be
       -0.35179672 0.38995594 0.30546635 -0.47953135
0000a0 e5 c5 00 bf 6c 51 8d 3c 63 97 6c 3e a3 3e c8 3c
       -0.50301963 0.017250739 0.23104624 0.02444393
0000b0 df c5 4f be 4c b2 92 3e c7 06 23 3e 14 f1 0a bf
       -0.20290326 0.28651655 0.15920554 -0.54274106
0000c0 1f 02 08 be bb dd 09 bf cc 22 05 3e fb e1 19 3f
       -0.13282059 -0.5385396 0.13001555 0.60110444
0000d0 58 6f 87 be 8d 80 d3 3d 14 d1 8a bd c0 ec 74 3d
       -0.26452136 0.103272535 -0.0677816 0.059796095
0000e0 99 fa 07 3f 5e 39 57 3e 05 e0 55 3e c4 6d 24 bd
       0.53116757 0.21017978 0.20886238 -0.040143743
0000f0 68 eb e7 bd cb dd 17 bf 79 53 aa bd 94 ee cb 3e
       -0.11324197 -0.59322804 -0.083167024 0.39830458
000100 9e 17 a1 3e 71 03 27 3f 68 88 6f 3d 80 1c d9 be
       0.3146333 0.65239626 0.058479697 -0.42404556
000110 1b a3 63 3f 8b 75 cc bd a0 c4 d5 3e 13 6a 10 bd
       0.88920754 -0.09983357 0.41751575 -0.03525741
000120 60 87 29 3e 1d 68 9e 3e 39 59 55 be 94 05 68 3e
       0.16555548 0.30938807 -0.20834817 0.22658378
000130 90 16 ef 3d 17 33 84 be 4a 84 23 3e d7 6a 47 3b
       0.11674225 -0.25820228 0.15968433 0.0030428672
000140 f8 f0 9d 3e 34 57 34 3d 39 2b 46 be 80 3c ac be
       0.30847907 0.044028476 -0.19352426 -0.33639908
000150 8c ed 6e 3d 8b 40 ba 3e c2 7f 38 3d 6d 85 09 3e
       0.05833201 0.36377367 0.045043714 0.13429804
000160 61 32 7b 3e c4 3f 0f bd db 4d c1 bb d6 8a 11 bd
       0.24530937 -0.03497292 -0.0058991737 -0.035532795
000170 a9 2a 22 be 1f 30 d0 3e 07 0e 27 bb 63 4c f2 3c
       -0.15836586 0.40661713 -0.0025490539 0.02957744
000180 7d 6d 99 3e c4 13 6c bf d4 53 9f 3e bd 55 a8 3d
       0.29966345 -0.9221766 0.31118643 0.08219478
000190 b9 10 e7 3d f4 81 32 3f b2 cc 0f be cc e9 ff bd
       0.112824865 0.6972954 -0.14042929 -0.12495765
0001a0 03 51 d4 bd 6b ab 93 3d 0a 9b ff 3e 1c 4e 74 be
       -0.10367014 0.0721043 0.49922973 -0.23857921
0001b0 ae 92 94 3e 3b 0c f0 bd ab 94 35 3c 93 ce 77 be
       0.29018158 -0.11721083 0.0110828085 -0.24199896
0001c0 d4 f1 a4 3d fe e9 1f 3d da 3b e2 3e 66 02 19 3f
       0.080539376 0.03904151 0.44186288 0.59769285
0001d0 d2 12 ac be 92 fb 3f bf 0a 18 c5 3e ac ca 9d 3e
       -0.3360811 -0.7499324 0.38494903 0.3081869
0001e0 8f 76 17 be f6 9a d7 3d e1 09 fb bd a4 9f e9 be
       -0.1479132 0.10527603 -0.122577436 -0.4562961
0001f0 eb fd 82 3e a3 9b 07 3d 9d 0a 64 3e 91 9e a1 3e
       0.2558435 0.03310741 0.22269674 0.3156629
000200 34 00 0c 3f 0a 2c 67 3e 41 ae 8b be 18 03 79 3e
       0.5468781 0.22575393 -0.27281383 0.24317586
000210 72 0d a3 3d da ec 6f be 36 53 d0 3e e7 73 21 bd
       0.07961549 -0.23430195 0.40688485 -0.039417174
000220 87 1a 89 3e ca db 2e be bc 79 b4 3e ff 71 7a 3e
       0.2677805 -0.1707603 0.35249126 0.24457549
000230 87 95 d2 3c cc 79 17 be 0e d4 05 bf f1 30 9f be
       0.025706066 -0.14792556 -0.52276695 -0.31092027
000240 98 0d 07 be f7 3a a1 3e e6 95 63 3e 40 d8 07 bf
       -0.1318878 0.314903 0.2222515 -0.53064346
000250 9a ad 85 be 19 fa dc bd 7c 2f e7 bd 2d bf cc bc
       -0.2610901 -0.1078989 -0.11288354 -0.024993503
000260 ce ed ae be e8 da ba bd 47 11 18 3e d4 93 84 3e
       -0.34165806 -0.09123784 0.14850341 0.25894034
000270 87 8b e6 3e ad 9a 3e 3f a2 99 76 3f ac a6 b1 3e
       0.45028326 0.74454767 0.96328175 0.34697473
000280 9e c0 94 be 9a 34 48 38 77 7e b5 3e f5 28 64 3e
       -0.29053205 4.7732705e-05 0.35448048 0.22281249
000290 ee 1d 8d 3e c7 16 d5 3e 72 10 a6 3d 0c 47 2c be
       0.27561897 0.4161894 0.081086054 -0.16823977
0002a0 e5 f9 60 3e 25 c3 54 be ae d1 33 3d 02 3a 1c 3e
       0.21970327 -0.20777567 0.043901138 0.15256503
0002b0 57 05 39 bd 7e 5a 99 3e f8 1f 6b 3c cf b5 f4 be
       -0.045171108 0.29951853 0.014350884 -0.4779496
0002c0 20 3f 2e bf f5 30 fb 3d 69 11 02 3f d9 39 d3 be
       -0.6806507 0.12265197 0.50807816 -0.41255072
0002d0 43 b3 2b 3d 25 6c bd 3e b0 36 27 be 96 5e f2 bd
       0.041919004 0.3699657 -0.16329455 -0.11834447
0002e0 55 f1 bc 3c 09 be 95 be cd 9f 2c 3f a8 bf f0 3d
       0.023064295 -0.29246548 0.67431337 0.117553055
0002f0 74 c8 68 3e 99 83 65 bd 8d f2 0c 3f a4 5f 86 be
       0.22732717 -0.056033704 0.55057603 -0.26244843
000300 97 38 48 bd 1a f0 c6 3e 0c f3 69 3c 31 06 08 be
       -0.048882093 0.38855058 0.014279138 -0.13283612
000310 84 1d 3f 3d 13 2f 8b bd c6 6f bd bc 44 91 36 3e
       0.046659008 -0.06796088 -0.023124587 0.17828852
000320 70 4a 03 3f 16 1b 79 3d 4f ec 5d 3c b8 af d1 3c
       0.5128546 0.060816847 0.01354511 0.025596485
000330 72 f5 11 3f 78 62 e6 bd 81 34 26 be 69 a7 e4 bc
       0.57015145 -0.1124925 -0.16230966 -0.027911859
000340 ba f8 1a 3f 88 f3 b8 bd 2f b9 a1 bd f7 aa b5 be
       0.60535777 -0.09030825 -0.07896649 -0.35481998
000350 0f a4 8d be cd 1e e2 3e c4 05 e5 be 25 74 a0 be
       -0.2766423 0.44164124 -0.4473096 -0.3133861
000360 7f 42 26 bd a1 c0 34 3e 79 9e b5 be 84 9f 38 3c
       -0.04059076 0.17651607 -0.35472468 0.0112685
000370 53 71 13 3e a9 d6 31 3c f0 e1 71 bb 83 21 9e 3d
       0.14398699 0.010854402 -0.003690835 0.077212356
000380 0d 51 c4 be 13 a1 da be a7 e4 4c 3e 02 6c 38 be
       -0.38343087 -0.42701015 0.20009099 -0.18009952
000390 13 c6 85 3e cf 5a bd bc 4a fb 97 be a4 14 dd 3e
       0.2612768 -0.02311459 -0.29683906 0.4317981
0003a0 c0 87 df be e2 ee 16 3d 4f 66 eb bb c1 c4 41 bf
       -0.43658257 0.03684891 -0.007183827 -0.7569085
0003b0 df 56 0d 3d a7 4d f9 3d 3a a5 10 3e da 92 31 be
       0.034506675 0.12173014 0.14125529 -0.17341176
0003c0 08 16 3d 3f e7 fd c0 3e 12 23 89 3d 14 d0 82 be
       0.7386174 0.37693712 0.06696142 -0.25549376
0003d0 4d 01 65 be 0f ad 06 bf 94 73 91 3e 43 a6 79 3e
       -0.22363777 -0.52607816 0.28408492 0.2437983
0003e0 f7 43 10 3e 6d 9a 18 3d 89 01 0c 3e ae c4 73 3e
       0.14088427 0.037256647 0.1367246 0.23805496
0003f0 ec f5 0f be 64 16 99 bd a6 0d 54 be 5f 0d 63 3e
       -0.14058656 -0.07474974 -0.20708331 0.2217307

net.2.bias f4 [128]
000000 a5 99 1e 3e ec c8 84 3e 7e ed d9 3d cf b7 fd 3d
       0.15488298 0.2593454 0.10641001 0.12388574
000010 4c 07 84 3e db e3 81 3e 3b dd 05 3e 2e 40 22 bc
       0.25786817 0.25369152 0.13072674 -0.009902997
000020 5a c3 8e bc 0f 86 75 3e 80 f6 04 bf ca 2b cf bc
       -0.017427135 0.2397692 -0.5193863 -0.025289435
000030 8b c9 42 3d 10 ce cf bd 53 00 7b bd b5 d7 70 be
       0.047555488 -0.10146725 -0.061279606 -0.23519786
000040 6f 27 62 3e 42 b3 f7 be a9 c9 c9 bd 26 8c 8b bd
       0.22085355 -0.4837895 -0.09852917 -0.068138406
000050 5a 29 87 be 0e f8 3a bd 62 53 08 be bf aa 38 be
       -0.26398736 -0.04564672 -0.13313058 -0.18033884
000060 6b bd d9 3c e9 34 fb be 88 fd b0 be 2d 02 a7 be
       0.02657958 -0.49063805 -0.3456843 -0.32618847
000070 3b 15 5c 3e ed 7b 86 be aa 14 09 3f 09 be 8b 3e
       0.21492474 -0.26266423 0.53547156 0.27293423
000080 12 fa cb bc 1d b2 c7 bd c1 87 1c be e7 1b ee ba
       -0.024899516 -0.09750769 -0.15286161 -0.0018166275
000090 88 57 87 3c ae 66 66 bd d6 a0 85 3e e7 d2 dc be
       0.01652123 -0.056250267 0.2609927 -0.43129656
0000a0 8e 75 1e 3e 58 6f 36 be 70 bf 07 be 47 1e 14 be
       0.15474531 -0.17815912 -0.13256621 -0.14464675
0000b0 f4 6b c4 3d 3b 66 5e 3e 37 d4 ec 3e dc da 7a 3d
       0.09590903 0.21718685 0.46255657 0.061243877
0000c0 12 67 be be 8a 42 e5 bd f2 86 a3 3e 68 af 45 bf
       -0.3718801 -0.11194332 0.31938893 -0.77220774
0000d0 9c 0e 82 3d 81 2f d4 bd 82 b5 47 be 20 c3 17 be
       0.06350443 -0.10360623 -0.19502833 -0.14820528
0000e0 37 c0 fc bd db 63 96 bd e8 7b 03 3c a9 26 93 be
       -0.123413496 -0.07343265 0.008025147 -0.28740433
0000f0 c5 e9 3a 3e cb ae 24 be f7 61 eb bd 98 7e a2 be
       0.18253238 -0.16082303 -0.11493295 -0.31737208
000100 1c 74 cd 3d 5e 23 94 3e 60 3a 07 bf 53 3a 3d be
       0.10031912 0.28933233 -0.5282345 -0.1847928
000110 c0 03 f1 3d f1 e6 b5 3d ea 56 fb 3b 73 6e 83 3d
       0.117682934 0.08881939 0.007670273 0.06417551
000120 9e a4 12 3e 9a d4 ec bd 23 d3 20 be e0 a0 b7 bd
       0.14320609 -0.11563988 -0.15705542 -0.08966231
000130 26 d0 eb be 0f 94 10 be d2 1d 22 be 5f 04 16 bf
       -0.46057242 -0.1411898 -0.15831688 -0.5860042
000140 97 cf d9 be d6 1f ae 3e 48 22 2d bd eb 12 99 3d
       -0.4254119 0.34008664 -0.04226902 0.074743114
000150 de 79 9f be 5a 88 d9 bb 75 c8 e6 3d 2b 5a 0d be
       -0.31147665 -0.006638569 0.11268703 -0.13803928
000160 cd 67 a7 bc e4 88 23 3e d5 ec dc be 4d 9d 42 3e
       -0.020435238 0.15970188 -0.43149439 0.19005318
000170 ac 84 30 bc bf 57 1a be 26 b9 6b 3d 77 f8 0b bf
       -0.010773819 -0.15072535 0.05754962 -0.54676
000180 60 57 b3 3d 7e 1f 89 3d 3b 0d 8b 3e 65 5e 7d 3e
       0.087569 0.0669546 0.27158532 0.2474304
000190 bb 89 b4 3d 9d aa 1e be 32 4b e0 be 0a 54 57 3d
       0.088153325 -0.15494771 -0.4380737 0.05257038
0001a0 3a ef e2 3c d8 ee 63 3e 42 26 29 3e 6d 6a da 3d
       0.027701963 0.2225908 0.165185 0.1066483
0001b0 1b 86 4c 3b b2 50 64 3d 8d 1d 35 3e 77 87 29 3e
       0.0031207863 0.05574102 0.17687054 0.16555582
0001c0 8b a3 d8 bd 81 7c 87 3e 69 c5 05 bf c3 1e 38 be
       -0.10578068 0.26462176 -0.5225435 -0.17980485
0001d0 66 71 ca 3d b8 f7 40 bd 04 2d 76 be 44 08 9b bd
       0.0988491 -0.047111243 -0.2404061 -0.07569936
0001e0 63 83 ac 3c 77 0a 40 bd ed cb 82 3e 4f 2b 8b 3e
       0.021058744 -0.04688498 0.25546208 0.2718148
0001f0 ee cd 39 3e ae d4 6a 3e 16 a5 0e be a9 4e 8e 3e
       0.18144962 0.22932693 -0.13930163 0.27794388

net.4.weight f4 [128, 128]
000000 2a f3 55 3e 59 8b 07 3f bb cf 25 bd 05 14 22 be
       0.20893541 0.52947 -0.04048131 -0.1582795
000010 01 bb 28 bf 54 00 ca 3b 44 35 82 be 48 95 21 3f
       -0.65910345 0.00616459 -0.25431263 0.6311841
000020 2b 26 47 bd 5c 27 90 be 1a d6 12 bf 25 84 f6 bd
       -0.048620384 -0.2815503 -0.57357943 -0.12036923
000030 6c 76 24 be b9 d6 0c 3e 66 6e b1 be aa 44 76 3e
       -0.160608 0.13753785 -0.3465454 0.24049631
000040 d3 4f 5e be e7 b1 0d bd d7 c9 0c 3e 41 39 3b be
       -0.21710138 -0.03459349 0.13748871 -0.1828356
000050 a6 7d 8b be fe f1 03 be e2 e0 b5 be da 52 b2 3e
       -0.272443 -0.12885281 -0.35523134 0.34828836
000060 7c 6d 06 3f 3a fe 17 be 0e b4 84 be 67 b9 ed 3d
       0.5251081 -0.14843073 -0.2591862 0.11607628
000070 59 8e 37 bc bb 40 26 bc f6 3c 0b 3f 94 30 86 3e
       -0.011203372 -0.010147269 0.54389894 0.26208937
000080 ab a5 fe be 31 39 08 bf 6b 87 e9 3e d1 23 e7 be
       -0.4973577 -0.5321227 0.45611128 -0.45144513
000090 74 7c 10 3e 10 52 a8 be 30 c4 87 3e 1f 18 5a be
       0.14109975 -0.3287511 0.26516867 -0.21298264
0000a0 57 ae e3 be 28 b6 45 3f d9 37 63 3e 8b 2c 19 3f
       -0.44468948 0.77231073 0.22189273 0.5983359
0000b0 e2 5b 02 3f b2 9c 17 bf 39 6d 23 3e 5e 3d c8 3e
       0.5092145 -0.59223473 0.15959634 0.3910932
0000c0 d9 82 9a 3e d5 53 c0 3e 66 79 1d 3f df 84 04 bf
       0.30177954 0.3756396 0.61513364 -0.51765245
0000d0 67 91 78 3e 88 75 81 3e 54 57 9e 3e ad 61 a8 3e
       0.24274217 0.25284982 0.30926 0.3288702
0000e0 d8 52 c9 bd 7d 7e 22 bc 80 ab 90 b6 52 d4 65 be
       -0.09830254 -0.0099178525 -4.3114997e-06 -0.22444275
0000f0 ed b1 84 be a1 d5 05 be c9 9f 54 3e 43 e8 5e 3f
       -0.25916997 -0.13069774 0.20764078 0.87073153
000100 4f 42 26 bf b8 eb 49 bd 31 0f 84 bc b7 e2 c0 bd
       -0.6494493 -0.049297065 -0.016120525 -0.094182424
000110 6a 07 64 3c 8b 5f 40 3f 4e 46 f0 3e 1a 1c 54 3e
       0.013917783 0.75145787 0.46928638 0.20713845
000120 9c 1f f8 3d bc 47 96 3d 05 93 7c be ac c3 02 3e
       0.12115404 0.07337901 -0.24665459 0.12769955
000130 15 6b 23 be 9d c1 a2 3d 58 60 1a bf 34 7c 08 be
       -0.15958817 0.07947085 -0.6030326 -0.1332863
000140 90 35 f5 3d b3 7f 27 3f f4 7b bb bd f7 80 80 3e
       0.11973107 0.6542923 -0.091545016 0.25098392
000150 e9 75 81 bf e7 f3 b3 3d 9e 6a 7e 3d 71 e3 7c be
       -1.0114108 0.08786755 0.062113397 -0.24696137
000160 2e e4 35 bf 8a 06 a2 be c6 32 01 3f d7 01 2a 3f
       -0.710513 -0.31645614 0.504681 0.6640906
000170 72 b7 a6 3e bd 59 0f bd 56 6a 63 3d 07 79 71 be
       0.32561833 -0.03499769 0.05552133 -0.23581325
000180 1b e8 84 be a8 54 53 be fc b3 e4 3e 0d d6 f7 be
       -0.25958332 -0.20637763 0.44668567 -0.48405495
000190 ca 50 8c be c9 a3 35 be 58 d7 d2 be 62 5a 98 be
       -0.27405387 -0.1773826 -0.4117992 -0.29756457
0001a0 b9 6d 13 3f 1a b9 79 be a3 64 d3 be 3d 58 1e be
       0.575893 -0.24387017 -0.41287717 -0.15463348
0001b0 24 1a 18 bf 9d c5 c4 3e bb c4 0a 3e de 4d f7 be
       -0.5941489 0.38432017 0.13551609 -0.48301595
0001c0 ef 09 43 3e 7b df e0 be 72 c8 17 3f ae 36 a0 be
       0.19046758 -0.43920502 0.5929023 -0.31291717
0001d0 20 f3 ef 3e ae 90 08 3f 5f 6f c6 3e 60 57 da be
       0.46865177 0.53345764 0.38756844 -0.42644787
0001e0 0e 4d c7 bd db d2 09 be 9a a5 d2 be a6 9e 71 be
       -0.09731494 -0.13459341 -0.4114197 -0.23595676
0001f0 bc 21 ae be 49 f7 65 3e 6a 80 90 be 0d 26 d4 be
       -0.34010112 0.22457613 -0.28222972 -0.4143528
000200 16 65 ae bd 43 11 6f be 90 8a 0b 3d fb 87 16 3f
       -0.08515374 -0.23346429 0.03406769 0.5880124
000210 1b af 08 3f db d8 25 bd c0 e9 dd bd 59 84 a3 3c
       0.5339219 -0.040490013 -0.108356 0.01996057
000220 dc d2 c2 be 0a fc 9e be 7d b5 33 3e 6b a7 5d 3d
       -0.38051498 -0.31051666 0.17549701 0.05411474
000230 26 c9 57 be ea 72 33 be 08 a0 59 be df 5e 93 3e
       -0.21072826 -0.17524305 -0.21252453 0.28783318
000240 3d 80 24 bc 43 ef 8d bc 62 4b f8 3c 9d 19 7d 3d
       -0.01004034 -0.017326003 0.030309383 0.061792005
000250 3b 33 10 3e 54 dd 28 3d d2 c6 53 3e 19 b3 99 be
       0.14082043 0.0412267 0.20681313 -0.30019453
000260 e1 a9 94 bd 9a f4 9b bd 26 79 61 3e 1c cf 40 be
       -0.07258964 -0.076150134 0.2201887 -0.18829006
000270 d3 f1 be 3d e8 e8 3c 3f 7c 78 8c be 4e 38 73 bc
       0.09323468 0.73792887 -0.27435672 -0.014844967
000280 a4 12 54 be dd 63 af be 00 ff 09 bf 31 3c 0a 3e
       -0.20710236 -0.34255877 -0.53904724 0.13499524
000290 e1 b8 1f be cc 98 a0 3e 81 79 4b 3e c6 f0 b7 3d
       -0.1559787 0.31366575 0.19870569 0.08981471
0002a0 df 4a 97 bd 52 0f e2 be a3 2b 12 3d ef 63 fb 3d
       -0.073873274 -0.44152313 0.035686146 0.1227492
0002b0 72 92 5b bc f7 62 47 be a8 77 8a be 60 54 a6 be
       -0.0134016145 -0.19471346 -0.27044415 -0.32486248
0002c0 7a a3 de bc 72 bf 39 be 92 bb 0e 3f e3 f1 af 3d
       -0.027177561 -0.18139437 0.5575496 0.08591058
0002d0 91 90 42 be 62 1c 16 3f 12 e6 91 be ed 44 a8 bd
       -0.1900046 0.5863706 -0.28495842 -0.082162715
0002e0 0a e0 d5 3c 63 67 10 3e a5 b8 7e be 8f 5d f7 3e
       0.026107807 0.14101939 -0.24875124 0.48313567
0002f0 d8 b9 e4 3d 2a 23 cf be 46 25 ab 3e 40 cf 4d 3c
       0.111682594 -0.40456516 0.33426875 0.012561619
000300 3c d5 b1 3e d8 57 99 be 1e 4d 97 3e 40 1e 16 bd
       0.34732997 -0.29949832 0.29551023 -0.036649942
000310 35 69 a0 be 14 2f ec 3e 20 f3 a3 3e 35 ec 0a bf
       -0.31330267 0.46129668 0.32021427 -0.54266673
000320 fb de 60 be 1a 19 72 3e f1 19 33 bd 96 bd 26 3e
       -0.2196006 0.23642388 -0.04372591 0.16283259
000330 66 ee 66 3e 51 f7 8e 3c 69 c8 d8 3e 0a 2b cc 3d
       0.2255188 0.017451914 0.423404 0.099691465
000340 b7 6a 28 3e 03 0d 6c 3d 8c 15 28 be 6f b4 da 3e
       0.16446958 0.057629596 -0.1641447 0.42715785
000350 d2 b3 81 3d 3c 49 c6 be 95 64 1b be a5 6e aa be
       0.06333126 -0.38727748 -0.15175088 -0.3328754
000360 7a 56 e3 be dc f7 09 bf f8 7e e0 be c1 f6 a6 bd
       -0.44401914 -0.5389383 -0.4384687 -0.08152533
000370 0d 81 1a 3b 5c ed d0 3e 02 b5 8f 3c b4 d9 15 bd
       0.0023575455 0.4080609 0.017542366 -0.03658457
000380 50 ee 91 3e 67 09 0a bf 19 93 9f be b8 94 c3 be
       0.2850213 -0.53920597 -0.31166914 -0.381994
000390 b4 04 06 bd 31 0d 5d bc 16 0e 3b 3e 7a 5c 13 3e
       -0.03271933 -0.013491915 0.18267092 0.14390746
0003a0 c4 91 7a 3d a2 af 30 bd f4 82 fd 3e c3 1d 03 be
       0.06117417 -0.043136247 0.49513972 -0.12804322
0003b0 1c 44 db bd 0b 35 f5 3e ce b0 20 be 32 1c 1d 3d
       -0.1070635 0.4789203 -0.15692446 0.038356967
0003c0 e8 95 bc 3e 21 bc 87 3d c3 b8 a1 be 24 d6 1b 3d
       0.3683312 0.066276796 -0.31586275 0.038046017
0003d0 5d 53 2c be 9d b4 3a 3e 80 dc 30 3e f4 d3 7c 3e
       -0.16828676 0.18232961 0.17271614 0.24690229
0003e0 d2 ff a7 be ff ae dc 3e d5 2e 0c 3e 60 19 47 be
       -0.32812363 0.4310226 0.1368974 -0.19443274
0003f0 5f b9 06 be 43 e0 ec 3d 06 84 87 be 1b 3c 94 be
       -0.13156651 0.11566212 -0.26467913 -0.28952107

net.4.bias f4 [128]
000000 e7 bc d6 3d b3 ea 9e 3e 23 37 24 bd a0 80 08 bd
       0.10485249 0.31038436 -0.040091645 -0.03332579
000010 df 38 1a 3e 5b f8 88 be c8 79 60 be 88 f5 39 be
       0.15060757 -0.2675198 -0.21921456 -0.18160069
000020 0a 53 ac 3e 18 68 0a 3e 2f 38 4b 3e 42 c4 48 be
       0.33657104 0.13516271 0.19845651 -0.19606116
000030 69 8a 2c 3e f1 04 4b 3e 92 9b 27 3d 11 8c 1a be
       0.16849674 0.19826104 0.040919848 -0.15092494
000040 82 25 9e be 1e 63 3d 3e e3 d4 d1 3d 08 3f c7 bd
       -0.3088799 0.18494841 0.10245683 -0.09728819
000050 f3 14 09 3e 83 a7 82 3d cf a1 f7 bd 1a 00 bb bd
       0.13386898 0.063796066 -0.120914094 -0.09130879
000060 e3 70 96 be 97 c1 21 be 22 b5 82 bd 45 15 80 3e
       -0.29383 -0.15796505 -0.063822046 0.25016227
000070 0a 28 ad be 6f 34 94 be 9b f0 02 be f9 a5 0d 3e
       -0.3381961 -0.28946254 -0.12787096 0.13832845
000080 06 bf 28 be b5 32 90 be 27 cc 16 bd c0 29 00 bd
       -0.1647912 -0.28163686 -0.03681579 -0.031289816
000090 b8 9e cd be 45 80 63 3f 47 bc bf 3e f9 60 aa 3e
       -0.40160155 0.888676 0.37448332 0.3327711
0000a0 8b f7 19 be 4a f0 60 3e 2c 99 c6 be 74 3b 95 bd
       -0.15035836 0.21966663 -0.38788736 -0.072867304
0000b0 70 d8 cb 3d b0 fd 49 be f7 8e 22 3e 08 09 2c 3e
       0.099533916 -0.1972568 0.1587485 0.1680032
0000c0 20 b3 68 3e e9 6b b4 bb 39 2d 69 3e 4e b8 4a 3b
       0.22724581 -0.005506028 0.22771157 0.0030932608
0000d0 88 be 29 3e 6f db 1c 3e a6 68 cb 3d 27 c5 bc be
       0.16576588 0.15318082 0.099320695 -0.36869165
0000e0 00 84 3a 3e c9 93 b0 3d eb 61 35 be ce 00 8b bd
       0.18214417 0.08621938 -0.17713134 -0.06787263
0000f0 2b 97 b3 3d 9d 68 34 be f5 bb b4 3d 1d e9 f9 bd
       0.087690674 -0.17618032 0.088249125 -0.12202666
000100 7e 63 12 be 98 83 8f 3e 2f b2 87 be ee 16 3f be
       -0.14295766 0.28030086 -0.2650313 -0.1866109
000110 8e e5 ca 3d ec 06 56 3e a5 41 be 3e 0d d7 04 3c
       0.09907065 0.20901078 0.37159458 0.008107913
000120 c6 71 bb 3d 89 fc 0f 3d 3f 35 9e 3e 85 72 de 3c
       0.0915256 0.035152946 0.309 0.027154217
000130 0b c2 49 3e 36 d9 8a bb 73 79 e6 bd be c3 75 3e
       0.19702928 -0.0042373193 -0.11253633 0.24000451
000140 8c 59 6d be 1f 8e b8 3e 50 bc e9 bd f6 09 dd bd
       -0.2317869 0.3604593 -0.11412871 -0.107929155
000150 1d e6 8c bd 9e 6c 0e 3e 77 d6 0b 3e 23 12 ef 3c
       -0.06879828 0.13908622 0.1365603 0.029183453
000160 18 fd 8e be ff 04 85 be 2e fb 3f 3e a1 ff 0c be
       -0.2792747 -0.25980374 0.18748161 -0.1376939
000170 3e 8f 73 be 89 ba 58 be 40 04 a9 be f5 3f db be
       -0.23785111 -0.21164908 -0.33011055 -0.42822233
000180 ac 83 65 3d 9d 1b 46 bd 24 40 26 be 8a 0e db bd
       0.056033775 -0.048366178 -0.16235405 -0.106961325
000190 fc c1 1a be 38 54 9c be 63 79 18 be 38 e9 a7 3e
       -0.15113062 -0.30533004 -0.14890055 0.3279512
0001a0 b9 79 26 3e 75 74 4a bd 34 1d cc 3e 0c 07 ec 3e
       0.16257371 -0.04942747 0.3986603 0.46099126
0001b0 69 50 48 bd a1 59 03 3e ac fe 0f 3e 9f 59 69 bd
       -0.04890481 0.1282716 0.14061993 -0.056970235
0001c0 54 72 3a be e5 d1 a1 3d ed 88 8b 3e 98 fb 0f be
       -0.18207675 0.07901362 0.27252904 -0.14060819
0001d0 8e eb 95 bc 46 43 e2 bd 25 da 05 be 1b 19 96 3e
       -0.018300798 -0.11047988 -0.13071497 0.2931603
0001e0 fe 44 d6 3e 86 29 25 be 94 3f a7 be d4 0c 03 be
       0.41849512 -0.16129121 -0.32665694 -0.12797862
0001f0 df 1c 07 3d 80 dc 08 bd c3 4c c9 3d 26 7c 68 be
       0.032986518 -0.03341341 0.09829094 -0.22703609

net.6.weight f4 [25, 128]
000000 15 2a bf bf ce b0 dd 3f 1c ae d5 bf fd 77 12 40
       -1.4934717 1.7319582 -1.6693759 2.2885735
000010 38 8f c9 3f 51 d2 da 3f bc 0b df bf 43 4b dc bf
       1.5746832 1.7095433 -1.7425456 -1.7210468
000020 69 d3 0a 40 8d 3c b3 3f c2 c5 b7 3f f8 76 e1 bf
       2.1691535 1.4002854 1.4357226 -1.7614431
000030 47 ca cf 3f 72 9c c8 3f 44 8f e1 3f 58 fe 09 c0
       1.6233605 1.5672743 1.7621846 -2.156149
000040 da 39 bc bf 1b b4 ee 3f ff 73 71 3f ff 35 8a bf
       -1.4705155 1.8648714 0.9431762 -1.0797728
000050 4f b8 a9 3f cf b3 0e 3e 40 a8 ee bf a6 7f cd 3f
       1.3259372 0.13935779 -1.8645096 1.605458
000060 92 b8 d1 bf f1 6b 0c 3f 4a 74 27 3f 68 08 04 40
       -1.6384451 0.54852206 0.6541182 2.063013
000070 06 4c dc bf 6f e0 b9 bf 56 04 af 3f 7d 28 ce bf
       -1.72107 -1.4521617 1.3673198 -1.6106106
000080 89 88 d6 bf 9b 93 c9 bf c3 b8 b1 bf 6b 90 90 bf
       -1.6760417 -1.5748171 -1.388451 -1.1294073
000090 ae 6f 9d bf 9b 01 ca 3f a1 1e cd 3f 5e a7 d9 3f
       -1.2299707 1.578174 1.6024972 1.7004201
0000a0 28 e0 aa bf d0 4e b4 bf 1f 49 a2 bf 6c 69 ca 3e
       -1.3349657 -1.4086552 -1.2678565 0.39533556
0000b0 43 ce c8 3f 5e 85 f9 bf 44 42 df bf d8 a6 c2 3f
       1.5687946 -1.9493825 -1.7442098 1.5207167
0000c0 12 6d f7 be ad 97 10 bf bd fb 5c 3f a7 6e f2 3e
       -0.48325402 -0.5648144 0.8632162 0.47350046
0000d0 d4 a4 06 40 8d 0e f8 3e 29 ec 94 bf 7b eb 9c 3e
       2.1038103 0.484486 -1.163457 0.30648407
0000e0 ba a5 03 40 f7 2d d0 3f e4 6e 46 3f 56 5e 9b bf
       2.0569901 1.6264027 0.77512956 -1.2138164
0000f0 33 61 e8 be 28 87 d1 bf 23 84 5b 3f df 99 67 be
       -0.45386657 -1.6369371 0.857485 -0.22617291
000100 f4 dd 93 bf 07 3c 8f 3f 55 db cd bf 9c b3 d6 bf
       -1.155211 1.1190194 -1.608256 -1.6773562
000110 1e 58 b4 bf e3 8c e5 3f eb d9 c9 3f 7d 46 a9 be
       -1.4089391 1.793362 1.5769628 -0.3306159
000120 8e 94 ee 3f 42 79 9e bf 72 18 d7 3f e2 fb 09 40
       1.8639085 -1.2380755 1.6804335 2.1559987
000130 b9 0d b9 3f c4 f4 1d 3c fa b1 3e bf a1 ef e1 3f
       1.4457313 0.009640876 -0.7449032 1.7651254
000140 c3 ef fe bf b2 b7 a4 3f 37 01 e4 bf b5 2e db bf
       -1.991692 1.2868559 -1.7812871 -1.7123629
000150 76 18 95 3c e8 e6 cd 3f 3e 28 d8 3f 35 46 0f c0
       0.01820014 1.6086092 1.6887281 -2.23866
000160 cd 97 fb bf c4 10 a5 bf 9e 44 a6 3f 1f d6 d1 bf
       -1.9655701 -1.2895741 1.298969 -1.639347
000170 55 a9 95 3e e6 53 ea bf da b9 ad bf 31 73 05 be
       0.29230753 -1.8306854 -1.3572342 -0.13032223
000180 6b c9 07 bf 35 23 ed 3f 8f 5f c9 bf 3f 04 cb be
       -0.53041714 1.8526369 -1.5732287 -0.39651677
000190 c0 7f 70 bf 71 7f bc bf d0 0e 9b bf c4 f4 8b 3f
       -0.9394493 -1.4726392 -1.2113895 1.0934072
0001a0 3e f7 bf 3f 05 a1 02 3e 3f e3 61 bf 13 f8 7d 3f
       1.4997327 0.12756737 -0.88237375 0.99206656
0001b0 ff d7 12 40 3b 73 bd 3f 32 33 1b 40 e6 3d d1 bf
       2.2944334 1.480079 2.4249997 -1.6347015
0001c0 2a db ca bd 4b e3 c3 3f fc 53 ce 3f 5b 53 26 40
       -0.099050835 1.5303739 1.611938 2.5988376
0001d0 ff 95 ee bf a6 85 a0 be 20 cd aa bf 0f b9 14 bf
       -1.8639525 -0.31351966 -1.3343849 -0.58094877
0001e0 87 f5 fc 3f 23 e4 06 bf 4c 35 eb be bf a3 16 c0
       1.9762429 -0.5269186 -0.459391 -2.3537443
0001f0 a4 64 a3 3f 0a c9 56 3e 98 0b 01 40 12 b9 2a c0
       1.2765088 0.20975128 2.0163326 -2.6675458
000200 5b 1d f4 bf 8d 6b cf 3f d4 66 e4 bf 3b 0a e6 3f
       -1.9071459 1.6204697 -1.7843881 1.7971872
000210 fb 90 a3 3f 16 db da 3f cc ff cd bf ed 86 d3 bf
       1.277862 1.709811 -1.6093688 -1.6525551
000220 29 bd fc 3f a7 53 6d 3f f9 71 cf 3f 90 62 dc bf
       1.9745227 0.9270577 1.6206657 -1.7217579
000230 8a 9d c2 3f 19 af d7 3f 6c df c7 3f 50 96 f9 bf
       1.5204327 1.685031 1.5615058 -1.9498997
000240 13 15 c5 bf d8 7a dc 3f ba 15 9f 3f 32 7e 8b bf
       -1.5397056 1.7224989 1.2428505 -1.0897887
000250 1f 29 96 3f 0b 7c 18 3e 84 27 cf bf 7c e0 c9 3f
       1.1731299 0.14891069 -1.6183934 1.5771632
000260 70 46 d9 bf d9 f6 1f 3f da ec 66 3f 29 40 0a 40
       -1.6974621 0.62486035 0.90205157 2.160166
000270 c8 eb d2 bf 34 f5 a6 bf 87 de 96 3f 3d e1 ef bf
       -1.6478205 -1.304358 1.178666 -1.8740612
000280 64 4b de bf f2 99 de bf a1 33 f1 bf e3 f1 49 bf
       -1.7366757 -1.739073 -1.8843881 -0.78884715
000290 85 8e a6 bf 53 ae bf 3f 2e 69 be 3f 1a 2e d4 3f
       -1.3012244 1.4975075 1.4875848 1.6576569
0002a0 9d cc b5 bf dc 96 b2 bf e2 c5 b3 bf 0b 7a d2 3e
       -1.4203068 -1.3952289 -1.4044764 0.41108736
0002b0 3a e3 c6 3f e8 ba f7 bf ee dc dc bf a3 f0 e7 3f
       1.5538094 -1.9353914 -1.7254922 1.8120311
0002c0 88 9f 10 bf f9 91 a3 be 2a 28 8e bd d3 2e df 3e
       -0.56493425 -0.31947306 -0.069412544 0.43590412
0002d0 e3 39 04 40 11 f6 3a 3f ce 51 96 bf 6b d9 c4 3e
       2.0660331 0.7303172 -1.1743715 0.38447127
0002e0 0a 44 c8 3f 0b b7 fb 3f 90 a1 0b 3f 10 87 af bf
       1.5645764 1.9665235 0.545434 -1.3713093
0002f0 6c 57 cc be 75 5b c3 bf bf e2 bf 3f 78 6d 3d 3e
       -0.39910448 -1.5262285 1.4991072 0.1849879
000300 d8 14 36 bf 3e c4 b2 3f 07 02 c0 bf dd 75 c8 bf
       -0.71125555 1.3966138 -1.5000619 -1.5660969
000310 1a 51 fb bf 9e e6 ed 3f c8 eb 01 40 af 59 c1 3d
       -1.9634125 1.8586004 2.030016 0.09440934
000320 0f 1f 8c 3f 38 db 88 bf 48 17 f7 3f f6 e8 ff 3f
       1.0946978 -1.06919 1.930398 1.9992969
000330 8b 0f ed 3f 84 99 98 3e d5 ee 3d bf 85 dc e3 3f
       1.8520368 0.29804623 -0.74192554 1.7801672
000340 14 8d 00 c0 f3 1a a6 3f 9d 02 fa bf 92 13 d4 bf
       -2.0086107 1.2976974 -1.9532048 -1.6568472
000350 28 0a 40 3d b7 6b d3 3f c9 67 d3 3f 6b 77 ef bf
       0.046884686 1.6517247 1.6516048 -1.8708318
000360 11 3f e7 bf 02 16 bc bf 34 6e af 3f ea 76 f1 bf
       -1.8066121 -1.4694216 1.3705506 -1.8864415
000370 ac e8 a8 3e e2 22 c7 bf c3 c8 bf bf fa 48 9a be
       0.32990015 -1.555752 -1.4983143 -0.30133802
000380 6d dd ac 3d 18 62 87 3f 0e f9 de bf 0c 50 61 3e
       0.08440671 1.0576811 -1.7419755 0.22003192
000390 35 ce 65 bf 61 66 c4 bf 2c 66 a9 bf 13 74 b1 3f
       -0.8976777 -1.5343744 -1.3234305 1.3863548
0003a0 76 17 c7 3f e5 7d 00 3f 4b 60 31 bf c8 db 93 3f
       1.5554035 0.501921 -0.69287556 1.1551447
0003b0 b0 e0 0c 40 ad 12 b8 3f 69 77 da 3f b0 e9 bd bf
       2.2012138 1.4380699 1.7067691 -1.4836941
0003c0 f4 b1 67 3d dd 5e ce 3f ff c6 07 40 4b ee ff 3f
       0.056566194 1.61227 2.1215208 1.9994596
0003d0 31 4d cd bf 99 d7 58 be f1 49 ad bf 7d e9 85 be
       -1.6039182 -0.21175994 -1.353819 -0.261547
0003e0 16 39 23 40 ed 75 f7 be f7 88 98 be 4a fa 05 c0
       2.5503592 -0.48332158 -0.29791996 -2.0934014
0003f0 2b af d7 3f a4 aa 9d 3e 5e dd e3 3f 0d e1 15 c0
       1.6850332 0.3079425 1.7801931 -2.341861

net.6.bias f4 [25]
000000 34 d9 88 3f 89 b7 51 3f 16 2a 4b 3f 3f 04 81 3f
       1.0691285 0.8192068 0.79361093 1.0079421
000010 90 fa 48 3f b8 66 fb 3e 80 8d cb 3d d5 e8 55 3f
       0.7850733 0.49101806 0.09939098 0.835584
000020 7c 7c 5b 3f d6 5b 62 3f d9 72 1e 3f 9f f5 84 3e
       0.85736823 0.8842138 0.61893994 0.25968644
000030 b9 8a 0a 3f a8 e9 2c 3f c6 c6 41 3f 6b d5 6b 3f
       0.54117924 0.6754403 0.7569393 0.92122525
000040 de bd ae 3e cb 97 17 3f d0 a7 b5 3e ef a8 05 3f
       0.34129232 0.5921599 0.35479593 0.522109
000050 80 a7 5e 3e 5a 0f 78 3e 81 7c 15 3f 45 11 34 3f
       0.21743584 0.24224606 0.583931 0.7033885
000060 c1 d0 87 3f
       1.0610582
