lunar_lander_continuous/models/DQN/layers_3/8_128_tanh_128_tanh_121/model.pth (torch, 134935 bytes, 6 tensors)

net.0.weight f4 [128, 8]
0	0xbef0a675	-0.47001997
1	0xbf03053e	-0.51179874
2	0xbf9534e6	-1.1656768
3	0xbf2ae274	-0.6675179
4	0xc01311e0	-2.297966
5	0xc08385c3	-4.1100783
6	0x3f08b4a9	0.53400666
7	0xbf4814d1	-0.78156763
8	0xbde1ba1a	-0.11021824
9	0x3e6385ba	0.22218981
10	0xbed78c3a	-0.42099172
11	0x3e7f4dd3	0.24932031
12	0xc04acd07	-3.1687639
13	0x3fb71b8d	1.4305283
14	0x3dc683ba	0.096930936
15	0xbd36c7d7	-0.044624176
16	0x3f810bb5	1.0081698
17	0x3e5561c8	0.20838082
18	0x3eadd181	0.339489
19	0xbf19a7bc	-0.6002157
20	0xbf065af4	-0.52482533
21	0xbe6bf6a4	-0.23043305
22	0xc00502cb	-2.0782955
23	0xbf514645	-0.8174785
24	0x3f23865f	0.6387691
25	0xbfda8eb3	-1.7074798
26	0xbe1727ae	-0.1476123
27	0xbf63310e	-0.88746727
28	0x3e455e1b	0.1927418
29	0x3e286873	0.16446094
30	0x3f331a36	0.6996187
31	0xbda8cde0	-0.082423925
32	0xbed51fcf	-0.4162583
33	0x3e4e56e7	0.20150338
34	0xbecc4ac8	-0.39900804
35	0x3f4611bc	0.7737081
36	0x3f197741	0.5994759
37	0x3f35c918	0.7100997
38	0xc005266e	-2.0804706
39	0xbf868b2a	-1.051122
40	0x3f0777f3	0.52917403
41	0xbefbb8c7	-0.4916441
42	0x3e7ea928	0.24869215
43	0xbf972da9	-1.1810809
44	0xc05e9d54	-3.4783525
45	0x3e8af486	0.27139682
46	0x3e15c0e2	0.1462436
47	0x3cd72af1	0.026265593
48	0x3f644d0d	0.8918007
49	0xbc8b1653	-0.016978418
50	0x40230d33	2.5476806
51	0xbfd48073	-1.66017
52	0xbf9d4d6d	-1.2289253
53	0x4000fc13	2.0153854
54	0x3ef59ea3	0.47972593
55	0x3f811475	1.0084368
56	0x3e3f4623	0.18679099
57	0x3ee9210b	0.45533022
58	0x3ece9bd9	0.40353277
59	0x3e4bc4a2	0.19899228
60	0x402e4fb4	2.7236147
61	0xbe8e7c5e	-0.2782926
62	0x4081e4af	4.0591655
63	0xbf6b83d6	-0.9199804
64	0xbe22215c	-0.15833038
65	0xbee8325c	-0.4535092
66	0x3fde0e07	1.7348031
67	0x402e7198	2.7256832
68	0xbe7ec1ba	-0.24878588
69	0xbf0a27cd	-0.5396698
70	0x3f729f4f	0.94774336
71	0x3f687ee9	0.9081865
72	0xbd94f7d6	-0.072738335
73	0x3e74cc0b	0.23905961
74	0xbd1a7766	-0.037711523
75	0x3edd296f	0.43195674
76	0x406b9b38	3.6813488
77	0xbf5b27dd	-0.856077
78	0x3f130a37	0.5743746
79	0x3ea746cc	0.326712
80	0x3e4a1fed	0.19738741
81	0xbea9dede	-0.33177847
82	0xbeff45a8	-0.4985783
83	0x3f6b41a1	0.91897017
84	0xbe0f705f	-0.1400771
85	0x3dec9592	0.11551966
86	0xc021064b	-2.516009
87	0xbf92dd9b	-1.1473879
88	0xbe0b70ba	-0.1361722
89	0xbd8af6e8	-0.06785375
90	0x3fbea443	1.4893879
91	0xbf6ba229	-0.9204431
92	0xbf830daa	-1.0238545
93	0x3d4f0876	0.05054518
94	0xbf80a0fd	-1.004913
95	0x3ebe3ae7	0.37154314
96	0x3f0a4e64	0.54025865
97	0xbe67efa7	-0.22650014
98	0x3e0a61a9	0.13513817
99	0x3f459109	0.7717443
100	0x401c2275	2.439603
101	0x3fd0405f	1.6269644
102	0xbfa9c6a0	-1.326374
103	0x3e49d055	0.19708379
104	0x3fc53efa	1.5409844
105	0x3f11a76e	0.568961
106	0x403bb680	2.933014
107	0x3f39e4c6	0.72614706
108	0x3eaffd7d	0.34373084
109	0xbfeb6ec5	-1.8393179
110	0x3f5d5d42	0.86470425
111	0xc009287a	-2.1430955
112	0x3e8af0ba	0.27136785
113	0x3eda65aa	0.4265569
114	0x3ef2ef00	0.47447968
115	0xbe2bfa46	-0.1679469
116	0xbf69feca	-0.914044
117	0xbf02ce4f	-0.5109605
118	0x3e1cda23	0.15317588
119	0x3f366bc1	0.7125817
120	0xbdca7f5f	-0.09887575
121	0xbee04164	-0.4379989
122	0xbf49ceef	-0.7883138
123	0xbf923eb3	-1.1425384
124	0x3c86abb7	0.016439302
125	0x3fbace2a	1.4594166
126	0x3f109428	0.5647607
127	0xbf57061d	-0.83993703
128	0x3dbcd0a1	0.0921948
129	0x3e11b188	0.14227879
130	0x3d21534b	0.039386075
131	0xbf0f981a	-0.56091464
132	0x3f2d6a55	0.67740375
133	0x401d6f86	2.4599319
134	0x3f7030be	0.93824375
135	0xbf2345a6	-0.6377815
136	0x3e911ffa	0.2834471
137	0xbe041179	-0.1289729
138	0xbf4da03b	-0.8032262
139	0xbdc00f0e	-0.093778715
140	0xc0225b97	-2.5368402
141	0x3ff1bf68	1.8886538
142	0xbe96bd4a	-0.2944129
143	0x3fb8fa5f	1.4451407
144	0x3f39bd5f	0.7255458
145	0x3e5d6527	0.21620618
146	0x3eb19a5f	0.34688088
147	0xbd25d5a9	-0.040486965
148	0x3fb2f38c	1.3980575
149	0xbf388221	-0.7207356
150	0x4028338a	2.6281457
151	0x3f798e4b	0.97482747
152	0x3ee667ca	0.4500106
153	0xbb09e185	-0.002103896
154	0x3ef75c18	0.4831245
155	0x3f84e50b	1.0382398
156	0xbfa6f889	-1.3044597
157	0x3dd6aa91	0.10481752
158	0xbf896235	-1.0733095
159	0x3d2896c0	0.04115939
160	0x3ec774a3	0.38956174
161	0xbeb2f0c7	-0.34949324
162	0xbed70564	-0.419963
163	0x3a753307	0.0009353612
164	0x3f633fcb	0.88769215
165	0x3f88e651	1.0695287
166	0x3ec31776	0.38103837
167	0x403a1618	2.9075985
168	0x3eb6ba85	0.35689178
169	0xbed345e6	-0.41264266
170	0x3d36120f	0.044450816
171	0x3e3677b1	0.17819096
172	0xbec5f255	-0.38661447
173	0xbf681b3f	-0.90666574
174	0xbf8dc1f7	-1.1074818
175	0xc004cf14	-2.075139
176	0x3f8ed7d3	1.1159614
177	0xbee49d95	-0.44651476
178	0x3f3b3724	0.7313101
179	0x3d5f48d6	0.05451282
180	0xbf1151a7	-0.56765217
181	0xbfa44851	-1.2834569
182	0x3de1ba09	0.110218115
183	0xbef99a26	-0.48750418
184	0x3fb6bf49	1.4277126
185	0xbf031c79	-0.5121532
186	0xbf102481	-0.563057
187	0x40236177	2.5528238
188	0x3f96035e	1.1719778
189	0xbe7de1e2	-0.24793199
190	0x3f3d85e1	0.7403241
191	0x3fd37d0a	1.6522534
192	0x3f09474b	0.5362441
193	0xbd34f516	-0.044179045
194	0x3f10488b	0.5636069
195	0xbf620bf1	-0.8829947
196	0xbf9a3779	-1.2048179
197	0xbef34f8a	-0.4752162
198	0xbfb1c66a	-1.3888676
199	0xbfad2ad5	-1.3528696
200	0x3e92a8ce	0.28644413
201	0x3e2a198e	0.16611311
202	0x3eac5c31	0.33664086
203	0xbf0395fe	-0.51400745
204	0xbf7569fb	-0.9586484
205	0xbfe82607	-1.8136605
206	0xbf4e3d0e	-0.8056191
207	0x3fc2b094	1.5210137
208	0x3d1e0440	0.038578272
209	0xbc00ea2d	-0.007868332
210	0x3fe0721a	1.7534821
211	0xc087daad	-4.245444
212	0xbf9c1ce5	-1.2196318
213	0x3f9ecb51	1.2405797
214	0xbf3a49ed	-0.7276905
215	0x3f6f8e04	0.93576074
216	0x3fb058a7	1.3777055
217	0x3f1cc7a6	0.6124214
218	0xbfeba0de	-1.8408468
219	0xbfeb724b	-1.8394254
220	0x4048c5b6	3.1370673
221	0x3d1fd77c	0.03902386
222	0xbca8bd31	-0.020598026
223	0xbe662c87	-0.22477923
224	0x3f2dfd35	0.6796449
225	0xbf925b26	-1.1434066
226	0xbf23121e	-0.6369952
227	0xbe11630e	-0.14197943
228	0xbe092f76	-0.13397011
229	0x3e27fb89	0.16404547
230	0x3f7e024b	0.9922225
231	0xbe795fc6	-0.24352941
232	0xbf7a11eb	-0.9768359
233	0xbee1ec70	-0.441257
234	0xbf2ff312	-0.6873027
235	0x3e484ed4	0.1956132
236	0xbfc541f4	-1.5410752
237	0x3f1771ec	0.59158206
238	0xbf71e1cd	-0.9448517
239	0xc06ab2c9	-3.6671622
240	0xbf85346a	-1.040662
241	0x3e93546a	0.2877534
242	0x3fc6db31	1.5535642
243	0xbed47217	-0.41493294
244	0xbf90d7af	-1.1315821
245	0x3df5c6f2	0.120008364
246	0xbfa7b42f	-1.3101863
247	0x3f2d0f34	0.67601323
248	0xbfa837f4	-1.3142076
249	0x3e930aae	0.28719085
250	0x3f30c610	0.6905222
251	0x3d696138	0.05697748
252	0xbfa44383	-1.2833103
253	0x3f07e613	0.5308544
254	0xc03f19a0	-2.985939
255	0xbf59d93e	-0.8509711

net.0.bias f4 [128]
0	0x3e95fca1	0.29294303
1	0xbf4894b7	-0.7835192
2	0x3c9452d0	0.018105894
3	0xbec77dfe	-0.38963312
4	0xbec8b8c1	-0.39203456
5	0xbf283bdf	-0.65716356
6	0x3ede7165	0.43445888
7	0x3e98d6b8	0.29851317
8	0xbd6363a5	-0.05551495
9	0xbf5b27dc	-0.85607696
10	0xbde69ebd	-0.11260746
11	0xbc9e9bf8	-0.019361481
12	0xbc687251	-0.014187411
13	0x3dc10ae7	0.094259076
14	0x3f54e2a2	0.83158314
15	0xbd293c7c	-0.041317448
16	0xbe9ae0ae	-0.30249542
17	0x3f155925	0.5833915
18	0x3edf3867	0.4359772
19	0xbd81b900	-0.06334114
20	0xbe72d0ce	-0.23712465
21	0xbe0b11ab	-0.13580959
22	0xbf290dc4	-0.6603663
23	0xbc5d89c2	-0.013521614
24	0xbe3f6372	-0.18690279
25	0xbe8363e9	-0.25662163
26	0x3efd8d67	0.49521944
27	0xbf38b98d	-0.7215813
28	0x3df94aa9	0.121724434
29	0xbf5af1ac	-0.8552501
30	0xbc120d72	-0.008914338
31	0xbf1d4311	-0.6143046
32	0xbf241560	-0.64095116
33	0xbcc088d4	-0.023502745
34	0xbee318f8	-0.44354987
35	0xbf090f48	-0.5353894
36	0xb983d462	-0.00025144505
37	0x3eccc10c	0.39991033
38	0xbeb31109	-0.34973934
39	0x3c8935b1	0.016749235
40	0x3eac2991	0.33625463
41	0xbf9c439b	-1.2208132
42	0x3f27cceb	0.65547055
43	0xbe3b3368	-0.18281329
44	0xbebb2f69	-0.3655961
45	0x3f5f2d8e	0.87178886
46	0xbf436c41	-0.7633706
47	0xbf582c3d	-0.844425
48	0xbef3b01e	-0.47595304
49	0xbf0ebe46	-0.55759084
50	0x3e94d641	0.29069713
51	0xbe02cbc0	-0.12773037
52	0xbea0ff9e	-0.3144502
53	0xbedea6a4	-0.43486512
54	0xbf31da3c	-0.69473624
55	0x3e295fdf	0.16540478
56	0x3ec63565	0.38712612
57	0x3edb964d	0.42888108
58	0xbe2d11a1	-0.16901256
59	0x3e93b39d	0.28847972
60	0x3f941921	1.1570169
61	0xbcca38cf	-0.024685292
62	0xbf8823fe	-1.0635984
63	0x3f245a98	0.64200735
64	0x3e63714d	0.2221119
65	0x3e61cb8b	0.22050302
66	0xbe68088d	-0.22659512
67	0xbed1d362	-0.40981585
68	0xbd15f99b	-0.036614995
69	0x3e10e9a8	0.14151633
70	0x3ec9e589	0.39432934
71	0x3e9d8e9a	0.3077286
72	0xbf0b19c4	-0.5433619
73	0x3f6311ef	0.8869924
74	0xbeb80913	-0.35944423
75	0xbf252605	-0.6451114
76	0x3d492797	0.04911002
77	0xbcb1b6bb	-0.021693578
78	0x3f0569f8	0.5211482
79	0xbf813372	-1.0093825
80	0x3d5edaa0	0.054407716
81	0xbdabedaa	-0.0839494
82	0x3f856ef2	1.0424483
83	0x3cdd6d00	0.027029514
84	0xbd79c982	-0.06098319
85	0x3de60c69	0.11232836
86	0xbf47d7f0	-0.7806387
87	0xbe9ffaa9	-0.31245926
88	0x3f4503c7	0.7695889
89	0x3f2f2c01	0.6842652
90	0xbf06a67a	-0.52597773
91	0xbfec6d8e	-1.8470933
92	0xbe548395	-0.2075332
93	0xbcca33cd	-0.024682904
94	0x3ed60954	0.41803992
95	0x3d4ae354	0.049533203
96	0xbf74f068	-0.9567933
97	0xbd914f96	-0.07095258
98	0x3e1f5f76	0.15563759
99	0xbea86176	-0.32886857
100	0x3fb91d90	1.4462147
101	0xbeca3c41	-0.39499095
102	0xbea7a324	-0.32741654
103	0x3f5759f3	0.84121627
104	0x3f033402	0.5125123
105	0x3ed09a45	0.40742698
106	0xbf4d7dea	-0.80270255
107	0xbef72036	-0.48266762
108	0xbd95766c	-0.07297978
109	0x3f4bfe8b	0.79685277
110	0x3f1362a3	0.5757238
111	0xbf2d8368	-0.67778635
112	0x3f7e0d2f	0.99238867
113	0x3ebc7146	0.3680517
114	0xbf742ab2	-0.9537765
115	0x3e9831da	0.29725534
116	0xbe828ff0	-0.2550044
117	0xbee79aab	-0.4523519
118	0x3ef2b0e8	0.47400594
119	0x3ebea5bf	0.3723583
120	0x3fbb401a	1.4628937
121	0xbead3e18	-0.33836436
122	0xbe0b57f6	-0.13607773
123	0x3f177601	0.59164435
124	0xbe9a10c1	-0.30090907
125	0x3eefa610	0.46806383
126	0x3f29fbb3	0.6639969
127	0xbeec6aea	-0.4617532

net.2.weight f4 [128, 128]
0	0x3f04c74e	0.51866615
1	0xbf07d7e4	-0.530638
2	0xbdb2722f	-0.08713185
3	0x3e7dc8c1	0.24783613
4	0xbe523ec6	-0.20531759
5	0xbef7a27b	-0.4836615
6	0xbc26cb12	-0.010180252
7	0x3eb0311e	0.34412473
8	0x3e9c49bc	0.30525005
9	0xbdd66797	-0.10468977
10	0xbe89d384	-0.26919186
11	0x3cb8837d	0.022523636
12	0xbf1ee533	-0.6206848
13	0x3e523080	0.20526314
14	0xbeb4cc1e	-0.3531198
15	0x3dd92001	0.106018074
16	0xbe6da815	-0.2320865
17	0x3ef23ef0	0.47313643
18	0x3eddebb5	0.43343893
19	0x3ebf35f4	0.3734585
20	0x3de9031c	0.11377546
21	0xbe928bf1	-0.28622392
22	0x3e3bd3b3	0.18342476
23	0xbebeedfa	-0.37290937
24	0xbe411f74	-0.18859655
25	0x3da8188d	0.08207808
26	0x3ed9d11f	0.4254236
27	0x3ea1b14b	0.31580576
28	0x3e10b965	0.14133222
29	0xbe388dba	-0.18022814
30	0xbf0036e1	-0.5008374
31	0xbe70a1c3	-0.23499207
32	0x3e5b2105	0.21399315
33	0xbd46da95	-0.0485483
34	0xbd9e0211	-0.07715238
35	0x3e903cda	0.28171426
36	0xbdc779ac	-0.09740004
37	0xbe58ce79	-0.21172513
38	0x3f1b5dd7	0.60690063
39	0xbdf117f5	-0.117721476
40	0x3f3491d1	0.70535
41	0x3f056b99	0.52117306
42	0xbeab65d2	-0.3347612
43	0x3db34693	0.08753695
44	0xbe985f90	-0.29760408
45	0xbdd534f8	-0.104104936
46	0xbf51232b	-0.8169429
47	0x3e47c813	0.19509916
48	0x3f19ddde	0.6010417
49	0xbd9b7c6c	-0.07592091
50	0xbd3c9548	-0.046040803
51	0x3e9c49a6	0.3052494
52	0x3ea08d42	0.3135777
53	0xbf1ccfb0	-0.61254406
54	0xbd4ac42b	-0.049503487
55	0x3bb6c1c2	0.005577297
56	0xbe31c766	-0.1736122
57	0x3e3c86ec	0.18410844
58	0x3e4fded8	0.20299852
59	0x3eeb5d2e	0.45969528
60	0xbe8065e4	-0.25077736
61	0xbefaf95f	-0.4901838
62	0x3ed1e2f4	0.40993464
63	0xbed1bda3	-0.40964994
64	0xbf261e02	-0.6488954
65	0x3d6618a5	0.056175847
66	0xbeebb4d4	-0.46036398
67	0x3dff8de0	0.124782324
68	0x3e2d4ff5	0.16925032
69	0x3f150011	0.58203226
70	0xbe5abac3	-0.21360306
71	0x3f27944d	0.65460664
72	0x3d9262ec	0.07147774
73	0xbe2398a2	-0.15976194
74	0xbe63c305	-0.22242363
75	0x3e3040ab	0.17212169
76	0x3b9be0b0	0.0047570094
77	0xbd850d3f	-0.06496667
78	0xbe709ec1	-0.2349806
79	0x3eb49cc7	0.35275862
80	0x3d749b73	0.05971856
81	0x3f1c0f60	0.6096096
82	0xbef0c080	-0.47021866
83	0xbe50ddf5	-0.2039717
84	0x3e4b9348	0.19880402
85	0xbf225143	-0.63405246
86	0x3f0657e3	0.52477854
87	0x3e9602c0	0.29298973
88	0x3e893069	0.26794747
89	0x3f0a38b9	0.539928
90	0x3ecd2aac	0.4007162
91	0x3d2417ed	0.04006188
92	0xbe1dbc2f	-0.15403818
93	0x3eec52cb	0.46156916
94	0x3ab13360	0.0013519339
95	0x3ef0bb63	0.47017965
96	0x3e01d905	0.12680443
97	0x3f18569e	0.5950717
98	0xbdf253d1	-0.11832393
99	0x3ef3afe8	0.47595143
100	0xbe06da6f	-0.13169263
101	0x3baf8526	0.0053564487
102	0x3eb18e71	0.34678987
103	0xbf0f724b	-0.5603377
104	0x3f004b6f	0.501151
105	0xbe0d3d9c	-0.13793033
106	0x3ea6fd98	0.32615352
107	0xbd7a1cde	-0.061062686
108	0x3e7d8415	0.24757417
109	0xbe8a231b	-0.26979908
110	0x3e36fbe3	0.17869525
111	0x3ee4fcc4	0.44724095
112	0xbe2f0a09	-0.17093672
113	0xbee8a418	-0.45437694
114	0x3e9ef9c8	0.31049943
115	0x3f2f31bf	0.6843528
116	0x3dc96c69	0.09835131
117	0xbe68f28e	-0.22748777
118	0x3ed92053	0.42407474
119	0x3e763697	0.24044262
120	0xbe11ea95	-0.14249642
121	0x3e36fb02	0.1786919
122	0xbe3bce3b	-0.1834039
123	0xbd3c5ff1	-0.045989934
124	0x3f1c2f9b	0.6101014
125	0xbd8e5d2f	-0.06951367
126	0x3d4f8bdb	0.050670486
127	0xbe1af91f	-0.15134095
128	0x3e9a283a	0.30108815
129	0x3f255466	0.64581907
130	0x3ee9d075	0.45666853
131	0xbb1d0e80	-0.0023964942
132	0xbefd3fdd	-0.49462786
133	0x3e942101	0.2893143
134	0x3ccfa3bc	0.02534663
135	0xbe4b38fa	-0.19845954
136	0x3bcf1f8a	0.0063208984
137	0x3e96dcc7	0.29465315
138	0xbee8d061	-0.4547148
139	0x3ed6125f	0.4181089
140	0x3d417fa5	0.047240872
141	0xbf0cbe23	-0.54977626
142	0x3ddd615f	0.10809588
143	0x3f4913d7	0.785459
144	0x3f0e2de9	0.55538803
145	0xbf13f674	-0.5779793
146	0xbd51aa49	-0.051187787
147	0xbe13e20a	-0.14441696
148	0xbd3f4e48	-0.046705514
149	0xbd82cdc3	-0.06386902
150	0x3d8e13eb	0.06937393
151	0xbf01458f	-0.50496763
152	0x3eb85a1b	0.36006245
153	0x3e8ecf25	0.27892414
154	0xbd19ddff	-0.037565228
155	0x3f0feab4	0.56217504
156	0xbde0b7ec	-0.1097258
157	0xbe23f84a	-0.16012684
158	0x3f22138f	0.63311094
159	0x3dd189e9	0.102313824
160	0x3e63226d	0.22181101
161	0xbe86c7db	-0.26324353
162	0x3ebb09e1	0.36530975
163	0x3eafe603	0.34355173
164	0xbd092372	-0.03348107
165	0x3e8995bd	0.26872054
166	0x3eb05aae	0.34444183
167	0xbf18a65c	-0.59628844
168	0xbe37d10c	-0.17950839
169	0xbe441f66	-0.19152603
170	0xbdf2d0a2	-0.118562
171	0x3e2e3d03	0.17015462
172	0xbe69fbf8	-0.22850025
173	0x3e16eed5	0.14739545
174	0x3d435798	0.047690958
175	0x3e9cd8ec	0.30634248
176	0xbedd2914	-0.43195403
177	0x3dfda68e	0.123852834
178	0x3eed2fac	0.46325433
179	0x3efa6cfb	0.4891127
180	0xbe3b5abf	-0.18296336
181	0x3e86b37c	0.2630881
182	0xbe70e285	-0.2352391
183	0x3ebef3f4	0.37295496
184	0xbe0b5f9a	-0.13610688
185	0x3e21b9b6	0.157935
186	0xbcfa5bc8	-0.030561343
187	0x3d8d1b6b	0.06889995
188	0xba1396f6	-0.00056301
189	0x3de3d654	0.11124864
190	0xbea0ed7a	-0.3143118
191	0x3e71fede	0.2363238
192	0x3c0baed8	0.008525573
193	0x3da34511	0.07972158
194	0xbe3e9292	-0.186106
195	0xbdf9d7f6	-0.121993944
196	0x3d902be0	0.070396185
197	0xbf18b00d	-0.5964363
198	0x3c822bf6	0.015890103
199	0x3ddfb73c	0.10923621
200	0x3ef94ec1	0.48692897
201	0x3ef7022c	0.48243845
202	0x3ea3b389	0.31972912
203	0xbcaba220	-0.02095133
204	0xbe39cd54	-0.18144733
205	0xbf1e7f92	-0.61913407
206	0x3e0bc742	0.1365023
207	0xbd5a67bb	-0.05332158
208	0xbe82eba9	-0.2557042
209	0xbeaf4add	-0.34236804
210	0x3d9c2331	0.076239
211	0xbe4cdf57	-0.20007072
212	0xbdb3ea8d	-0.087849714
213	0xbea49d4d	-0.3215126
214	0xbdd47ca0	-0.10375333
215	0xbeb652c1	-0.3561001
216	0x3bc4e905	0.0060092234
217	0xbe2782c0	-0.16358471
218	0x3e8a9099	0.27063444
219	0xbe1a5141	-0.15070058
220	0xbed60ac4	-0.4180509
221	0xbe6b5112	-0.22980145
222	0xbc199afc	-0.00937533
223	0xbd98083d	-0.07423446
224	0x3da2396e	0.0792111
225	0xbee22d01	-0.4417496
226	0x3e163fa0	0.14672709
227	0xbdf45a78	-0.11931318
228	0x3d92e957	0.07173412
229	0xbee34e35	-0.44395605
230	0xbdbc5a03	-0.09196856
231	0x3dbf2747	0.093336634
232	0xbe759bad	-0.23985167
233	0xbeb71536	-0.3575837
234	0x3e05b25e	0.13056323
235	0x3f9ae37a	1.210067
236	0xbd647543	-0.055775892
237	0xbda295ee	-0.07938753
238	0x3e69799e	0.228003
239	0xbdd6c0e7	-0.10486012
240	0x3d5e9f83	0.05435134
241	0xbf0c4989	-0.54799706
242	0xbdcb4252	-0.09924759
243	0xbf064865	-0.52454215
244	0xbdfbd9a3	-0.1229737
245	0x3f14203c	0.57861686
246	0x3e41b956	0.18918356
247	0xbf139f31	-0.5766478
248	0x3de8a296	0.11359136
249	0xbe8b274e	-0.27178425
250	0x3e3939a2	0.18088391
251	0x3eb2ffa8	0.34960675
252	0xbed5a273	-0.417255
253	0xbf07221c	-0.5278642
254	0x3e2f1871	0.17099167
255	0xbcf7c9c4	-0.030247577

net.2.bias f4 [128]
0	0xbd562754	-0.0522836
1	0x3e82e417	0.25564644
2	0xbe1e1e89	-0.15441336
3	0xbee7ac64	-0.4524871
4	0x3e56fce9	0.20994915
5	0x3ec698c5	0.3878843
6	0xbe60f6f0	-0.21969199
7	0x3ef606f3	0.48052177
8	0xbd917207	-0.07101827
9	0xbdfab309	-0.122411795
10	0xbddad833	-0.10685768
11	0x3e19dda0	0.1502595
12	0x3ea439f2	0.3207546
13	0xbe4026fc	-0.18764871
14	0x3ed00412	0.40628105
15	0x3dd9e9b0	0.106402755
16	0x3e0fee48	0.14055741
17	0x3e2e18a0	0.17001581
18	0xbbc66426	-0.006054419
19	0x3e321fc4	0.1739493
20	0x3eb71f88	0.35766244
21	0x3e0f67f8	0.14004505
22	0x3e684b45	0.22684963
23	0xbe78b8b9	-0.24289216
24	0x3e33e1bb	0.17566578
25	0xbe909d89	-0.2824519
26	0x3f02563d	0.5091284
27	0xbda14c2d	-0.078758575
28	0x3c712340	0.014717877
29	0x3e874db7	0.2642648
30	0xbe80d4da	-0.25162393
31	0x3e3f90e7	0.1870762
32	0xbda05407	-0.07828527
33	0xbe20f6b5	-0.15719111
34	0xbe8f8671	-0.28032258
35	0x3e38a439	0.18031396
36	0x3e269214	0.16266662
37	0xbe986e0d	-0.29771462
38	0xbe3138a5	-0.17306764
39	0x3d6c473a	0.057685114
40	0xbe317020	-0.17327929
41	0xbccea597	-0.025225444
42	0xb8e2a762	-0.00010807697
43	0xbe47a8ec	-0.19498032
44	0xbedd2fe7	-0.4320061
45	0xbe7bbe03	-0.24584202
46	0xbed99051	-0.42492917
47	0xbe68b275	-0.22724326
48	0x3e00adf5	0.1256636
49	0x3e7a987b	0.24472229
50	0xbce08d0f	-0.027411012
51	0x3e396489	0.18104757
52	0xbe9c495d	-0.30524722
53	0x3ec1b385	0.37832275
54	0x3d864b4d	0.06557331
55	0xbe4df3e1	-0.20112564
56	0x3dc0cb5d	0.094137885
57	0x3e264c22	0.1623998
58	0xbe4434c1	-0.19160749
59	0xbe152713	-0.14565687
60	0x3e95c6b1	0.29253152
61	0xbecce8da	-0.40021402
62	0x3bf07923	0.0073386594
63	0xbe4f1905	-0.20224388
64	0x3df74abb	0.120748006
65	0xbe6c2634	-0.23061448
66	0xbe6f0ddd	-0.23345132
67	0x3eb6bbf4	0.35690272
68	0x3dd70dc8	0.105006754
69	0xbd75b160	-0.05998361
70	0xbda94b9c	-0.082663745
71	0x3d643e20	0.05572331
72	0xbe22aa80	-0.15885353
73	0xbe1ef907	-0.15524684
74	0x3ed2db48	0.41182923
75	0x3d9b5655	0.07584826
76	0x3aadc05c	0.001325618
77	0x3e5d2299	0.21595229
78	0x3e2eadfb	0.17058556
79	0x3ea674dc	0.32511032
80	0xbe17b697	-0.14815746
81	0xbeb9f830	-0.36322165
82	0x3dcf5a1e	0.1012461
83	0x3e6cb5d9	0.23116244
84	0x3da90f9e	0.08254932
85	0xbe0c2da8	-0.13689291
86	0xbedabcdb	-0.4272221
87	0x3e59e0ea	0.21277204
88	0xbee3394f	-0.4437966
89	0x3ecd1e22	0.40062052
90	0x3d6debe2	0.058086284
91	0x3ee7f4fe	0.45304102
92	0xbeedb10a	-0.46424133
93	0xbe2f820d	-0.17139454
94	0x3e5af740	0.21383381
95	0x3ea12ca3	0.31479368
96	0x3f20158a	0.62532866
97	0x3e0af46e	0.13569805
98	0xbbe8ab75	-0.0071005174
99	0x3e89768c	0.26848257
100	0xbe82955c	-0.25504577
101	0x3e5f66ec	0.21816605
102	0x3d531605	0.05153467
103	0x3eb8af5d	0.36071292
104	0x3e8f0087	0.2793009
105	0xbcf6cab0	-0.030125946
106	0xbe50b63c	-0.20382017
107	0x3dfd9a16	0.12382905
108	0xbed9b0de	-0.4251775
109	0x3e879323	0.26479444
110	0xbdc4ce8d	-0.09609709
111	0x3e508ac1	0.2036543
112	0xbd1ebbf9	-0.038753483
113	0x3e5326db	0.20620291
114	0xbe3bc9d5	-0.18338712
115	0x3e8b560c	0.27214086
116	0x3ecbae65	0.3978149
117	0x3e94b050	0.29040766
118	0x3be0811e	0.0068513295
119	0xbe62fc28	-0.22166502
120	0xbe8d4348	-0.27590394
121	0xbe9cb963	-0.3061019
122	0x3e193ebd	0.14965339
123	0x3c01358f	0.0078863045
124	0x3e9a4a5b	0.30134854
125	0xbe9e25a5	-0.30888095
126	0xbe174b77	-0.14774881
127	0x3e8a379b	0.2699555

net.4.weight f4 [121, 128]
0	0xbf48c3eb	-0.7842395
1	0x3f955785	1.1667334
2	0x3f95e6e6	1.171109
3	0xbf987755	-1.1911417
4	0xbf677820	-0.9041767
5	0x3f9b9c66	1.2157104
6	0x3fafd9ab	1.3738302
7	0xbe0383c8	-0.1284324
8	0xbf75b550	-0.95979786
9	0x3f8dd998	1.1082029
10	0x3e614cab	0.22001903
11	0x3f8c1644	1.0944295
12	0x3fa97c43	1.3241047
13	0xbe4d0b79	-0.20023908
14	0x3f792313	0.97319144
15	0xbf7f6560	-0.9976406
16	0xbfba122a	-1.4536793
17	0x3f7263af	0.94683355
18	0xbf8b2549	-1.0870754
19	0xbfb7d73e	-1.4362562
20	0x3f6e96de	0.93198955
21	0xbf51bab0	-0.8192549
22	0x3f7c844f	0.98639387
23	0xbf7148d7	-0.9425177
24	0x3f3db18d	0.74099046
25	0xbf87c0a4	-1.0605664
26	0x3f8a0c50	1.0785007
27	0x3f35521e	0.70828426
28	0x3f8b5aeb	1.0887121
29	0x3fa0a5ea	1.2550633
30	0xbf840b63	-1.0315975
31	0x3f9ed03a	1.2407296
32	0x3eed972f	0.46404406
33	0x3fb6ed69	1.4291202
34	0xbf54d391	-0.83135325
35	0x3f819ed8	1.01266
36	0xbe8f88e4	-0.28034127
37	0x3f0c7403	0.5486452
38	0xbd3147ad	-0.043281246
39	0x3f98d186	1.1938941
40	0xbf886a6c	-1.0657477
41	0xbfb445bb	-1.408378
42	0x3f94feca	1.1640255
43	0xbf9c8fc2	-1.2231371
44	0xbfa74d6c	-1.3070502
45	0xbf584535	-0.844806
46	0xbf4b5cbc	-0.79438376
47	0x3f42d138	0.7610049
48	0x3f9d16e6	1.2272613
49	0x3f428ec7	0.7599911
50	0xbf9be09e	-1.2177923
51	0x3fa55c77	1.2918843
52	0xbfc84d88	-1.5648661
53	0x3f7d362e	0.98910797
54	0x3f328871	0.69739443
55	0xbf663d65	-0.8993743
56	0x3fa54779	1.2912437
57	0x3fb22219	1.3916656
58	0xbf8a6b18	-1.0813932
59	0xbf92c34b	-1.1465849
60	0x3fd943d3	1.6973823
61	0xbf984659	-1.1896468
62	0xbf7ad477	-0.97980446
63	0x3ea0c507	0.3140032
64	0x3f869237	1.0513371
65	0xbfd0f526	-1.6324813
66	0xbfaa3eca	-1.3300412
67	0x3f930f3c	1.1489024
68	0x3fc85f2a	1.5654042
69	0xbf9f6de1	-1.2455407
70	0x3f9c40d7	1.2207288
71	0x3f6fc938	0.9366641
72	0xbf893829	-1.0720264
73	0x3fa5863c	1.293159
74	0x3f28857f	0.658287
75	0x3fa95823	1.3230022
76	0xbf063c57	-0.5243582
77	0x3f522435	0.820865
78	0xbfcbf35d	-1.5933644
79	0x3fa22e67	1.2670411
80	0xbfba1525	-1.4537703
81	0xbfa209c6	-1.2659233
82	0x3fbbc502	1.4669497
83	0xbfda8575	-1.7071978
84	0xbf885f90	-1.0654163
85	0xbf755b30	-0.95842266
86	0x3f761dcd	0.9613922
87	0xbeb15665	-0.34636226
88	0x3eba99b7	0.364454
89	0x3fa76fd6	1.3081005
90	0xbfbba465	-1.4659544
91	0xbfdb3235	-1.7124697
92	0x3f5465ae	0.8296765
93	0xbf9f3334	-1.2437501
94	0xbf8df19b	-1.1089357
95	0x3f5af3e7	0.85528415
96	0x3fb72e77	1.4311055
97	0x3f881ab6	1.0633152
98	0xbf7352d1	-0.9504824
99	0xbf8acec9	-1.0844356
100	0x3fc7eb04	1.5618596
101	0xbf9842fe	-1.1895444
102	0x3f9b067d	1.2111355
103	0xbf917980	-1.1365204
104	0x3fb46698	1.4093809
105	0xbfa3acd9	-1.2787124
106	0x3fba9ee1	1.4579736
107	0xbfcb9d2b	-1.5907339
108	0x3f8e1382	1.1099703
109	0x3fcc0d5d	1.5941578
110	0xbfa5dd6d	-1.2958199
111	0x3f485b6e	0.7826451
112	0x3fb90b8e	1.4456651
113	0x3f1a6ad9	0.60319287
114	0xbf629343	-0.88505954
115	0xbfc2e42d	-1.5225884
116	0xbf57ffe6	-0.84374845
117	0x3f977bc9	1.1834651
118	0x3e726037	0.23669516
119	0xbfc75b43	-1.5574726
120	0x3fb290e5	1.3950468
121	0x3fa9cc1a	1.3265412
122	0x3f7b70dc	0.98219085
123	0x3fb5b495	1.4195734
124	0x3fb79f3b	1.4345468
125	0xbfb1f6f7	-1.3903493
126	0xbf246054	-0.64209485
127	0x3f945a4c	1.1590056
128	0xbf723b02	-0.9462129
129	0x3f83b325	1.0289046
130	0x3fa0dd3e	1.2567518
131	0xbf8c4143	-1.0957416
132	0xbfa948ef	-1.3225383
133	0x3f903c76	1.1268451
134	0x3f91ae62	1.1381342
135	0xbf43c3ef	-0.76470846
136	0xbf8a509c	-1.080585
137	0x3f82a03e	1.0205152
138	0x3ea96017	0.33081123
139	0x3f5cf8a0	0.8631687
140	0x3f95bb73	1.169783
141	0x3eb1a842	0.34698683
142	0x3faa317f	1.3296355
143	0xbf9b8059	-1.2148544
144	0xbfc1c358	-1.5137739
145	0x3f7f3451	0.99689204
146	0xbf9eebbd	-1.2415692
147	0xbfaf84dd	-1.3712422
148	0x3f5da6d7	0.865827
149	0xbf62a047	-0.88525814
150	0x3f9418b5	1.157004
151	0xbfa00863	-1.250256
152	0x3f61d688	0.88217974
153	0xbfb3e645	-1.4054648
154	0x3f783a8c	0.96964335
155	0x3ea2badb	0.31783184
156	0x3f95a775	1.1691729
157	0x3f78a2c7	0.9712338
158	0xbf8bfaeb	-1.0935949
159	0x3fb6e6ad	1.4289147
160	0x3f08a545	0.5337718
161	0x3f9b6e81	1.2143098
162	0xbf5cbb81	-0.8622361
163	0x3f799c1f	0.97503847
164	0xbea32f47	-0.31872007
165	0x3f341650	0.70346546
166	0x3e804838	0.250551
167	0x3f9dc7b6	1.2326572
168	0xbf99266a	-1.1964848
169	0xbf80358f	-1.0016345
170	0x3f845db9	1.0341102
171	0xbf8ee93f	-1.1164931
172	0xbfc16867	-1.5109986
173	0xbf2a4a2d	-0.66519433
174	0xbf87d076	-1.0610492
175	0x3f809356	1.0044963
176	0x3f88e98f	1.0696276
177	0x3f8981be	1.0742719
178	0xbfd28985	-1.6448218
179	0x3fc4d643	1.5377887
180	0xbfaf5f33	-1.3700927
181	0x3f8fa337	1.1221684
182	0x3f4c7d61	0.79878813
183	0xbf275a64	-0.653723
184	0x3f6ddb5a	0.9291283
185	0x3f919bc3	1.137566
186	0xbf9fc01f	-1.2480506
187	0xbf6a5d5d	-0.9154871
188	0x3fce52d5	1.6119028
189	0xbfaf47bd	-1.3693768
190	0xbf80695f	-1.0032157
191	0x3eb567c1	0.3543072
192	0x3f7d49c0	0.9894066
193	0xbfce6bc3	-1.6126636
194	0xbfb2dab0	-1.3972988
195	0x3f93592b	1.1511587
196	0x3fae229c	1.3604312
197	0xbfa5c89e	-1.2951849
198	0x3f9c9a6c	1.2234626
199	0x3f776135	0.966327
200	0xbf5f725b	-0.8728387
201	0x3fc6a4c8	1.5519037
202	0x3f5028a4	0.8131201
203	0x3f43e8c5	0.76527053
204	0xbf3591d3	-0.70925635
205	0x3f58a061	0.8461972
206	0xbfa60839	-1.2971259
207	0x3f90c219	1.1309234
208	0xbf847d25	-1.0350691
209	0xbf8b8f4c	-1.0903106
210	0x3fd56ef7	1.6674489
211	0xbfad4508	-1.3536692
212	0xbf88ad21	-1.0677835
213	0xbfb93efa	-1.4472344
214	0x3f913ded	1.1347023
215	0xbef085f6	-0.46977204
216	0x3e1ae92f	0.15128015
217	0x3f8dd9d9	1.1082107
218	0xbf93ef10	-1.1557331
219	0xbfe3093a	-1.7737191
220	0x3f9d9f37	1.2314214
221	0xbf91c011	-1.1386739
222	0xbf8a304b	-1.0795988
223	0x3f347c4b	0.70502156
224	0x3f96d0af	1.1782435
225	0x3fa06eca	1.253381
226	0xbf9425f3	-1.1574081
227	0xbfc2615d	-1.5185963
228	0x3fbc1670	1.4694347
229	0xbfb78f9a	-1.4340699
230	0x3f7332c1	0.9499932
231	0xbfa5cf2e	-1.2953851
232	0x3f9a8556	1.2071941
233	0xbf90ae9c	-1.1303287
234	0x3fbca1cd	1.4736878
235	0xbff1d8b3	-1.8894256
236	0x3f8e1bf0	1.1102276
237	0x3f911b3e	1.1336439
238	0xbf470507	-0.77742046
239	0x3f5202af	0.82035345
240	0x3fcd14f4	1.6022019
241	0x3f1e60f2	0.61866677
242	0xbf6b373d	-0.9188116
243	0xbfbde784	-1.4836278
244	0xbfbeedf9	-1.4916373
245	0x3f9b7d0d	1.2147537
246	0x3e3e7a39	0.18601312
247	0xbfb6cb33	-1.4280761
248	0x3fda8be1	1.7073938
249	0x3fe6f530	1.8043575
250	0x3f735353	0.9504902
251	0x3fbb0d86	1.4613502
252	0x3fc5dbf2	1.5457747
253	0xbf8f6ea4	-1.120564
254	0xbf8b258c	-1.0870833
255	0x3f8c774b	1.0973905

net.4.bias f4 [121]
0	0x3f90dfb9	1.1318275
1	0x3f5038bf	0.8133659
2	0x3f392648	0.7232404
3	0xbb27385f	-0.0025515778
4	0x3f5d6174	0.86476827
5	0x3df33f88	0.11877352
6	0x3f680658	0.9063468
7	0x3f3a49bf	0.7276878
8	0x3f2e6aef	0.6813192
9	0x3ef9021d	0.48634425
10	0x3f84ef65	1.0385557
11	0x3edec3cf	0.43508765
12	0x3f351400	0.7073364
13	0x3f5fa83f	0.873661
14	0x3f0f8afa	0.56071436
15	0x3f9b6386	1.2139747
16	0x3f2e6039	0.68115574
17	0x3fab2bce	1.3372743
18	0x3f4d1047	0.8010296
19	0x3f395d39	0.7240787
20	0x3f9a4f62	1.2055476
21	0x3f616962	0.88051426
22	0x3f821893	1.016375
23	0x3f98c7b7	1.1935948
24	0x3f83b9cf	1.0291079
25	0x3f5568c0	0.8336296
26	0x3fa64683	1.2990268
27	0x3f1cad2a	0.6120173
28	0x3f339205	0.70144683
29	0x3f6bc148	0.920918
30	0x3f622e02	0.8835145
31	0x3f6fb81b	0.936403
32	0x3f9596ad	1.1686608
33	0x3fa8497f	1.3147429
34	0x3eabd6a0	0.33562183
35	0x3f2668d1	0.6500369
36	0x3f843aa9	1.0330402
37	0x3f825c2f	1.0184382
38	0x3dd181e8	0.10229856
39	0x3f76b9d4	0.963773
40	0x3f7ca94c	0.98695827
41	0x3f50709e	0.8142184
42	0x3f06580f	0.52478117
43	0x3ee66ca5	0.45004764
44	0x3f90e7e3	1.1320766
45	0x3f9c38fa	1.2204888
46	0x3f551dff	0.83248895
47	0x3f39e721	0.726183
48	0x3f2b57df	0.66930956
49	0x3f836a87	1.0266885
50	0x3f7fa980	0.9986801
51	0x3f8ff66b	1.1247076
52	0x3f217d53	0.63081855
53	0x3f2cffb7	0.6757769
54	0x3f3d4b3a	0.7394291
55	0x3f83fcec	1.0311561
56	0x3f8136f1	1.0094892
57	0x3f840439	1.0313789
58	0x3ed77343	0.42080125
59	0x3f639294	0.88895535
60	0x3f30d769	0.6907869
61	0x3fb616e9	1.4225742
62	0x3f11299a	0.56704104
63	0x3f50be2b	0.81540173
64	0x3f2d1f98	0.67626333
65	0x3f9754cc	1.1822753
66	0x3e577666	0.21041259
67	0x3f0ba78d	0.5455254
68	0x3e3b1e0a	0.18273178
69	0x3effadfb	0.49937424
70	0x3ee39d21	0.44455817
71	0x3f2aaf3a	0.66673625
72	0x3f292efe	0.6608733
73	0x3f13c3ea	0.57720816
74	0x3ed9e16c	0.42554796
75	0x3e4a26c4	0.1974135
76	0x3f03409e	0.51270473
77	0x3f1adfed	0.60497934
78	0x3f5c3a5d	0.86026555
79	0x3f29b9d2	0.66299164
80	0x3f1d8283	0.6152727
81	0x3f801704	1.0007024
82	0x3e58f490	0.21187043
83	0x3edd2765	0.43194118
84	0x3f28f2ff	0.6599578
85	0x3f6214f7	0.8831324
86	0x3ef203c2	0.47268492
87	0x3e94b362	0.29043108
88	0x3f5342d5	0.8252385
89	0x3f0e8add	0.5568064
90	0x3edf460f	0.43608138
91	0x3f4b9e21	0.7953816
92	0x3f2495cf	0.6429109
93	0x3e711aa5	0.2354532
94	0x3f0bcd7a	0.5461041
95	0x3f387691	0.7205592
96	0x3ef8c328	0.48586392
97	0x3f1c4b77	0.6105265
98	0x3e99503d	0.2994403
99	0x3ef623c9	0.48074177
100	0x3f4cb966	0.79970396
101	0x3f3938fd	0.7235258
102	0x3ec584f3	0.38577995
103	0x3f5946d7	0.8487372
104	0x3f010527	0.50398487
105	0x3f0cbeb9	0.5497852
106	0x3f2eddea	0.68307364
107	0x3e84849e	0.2588243
108	0x3f4bfdce	0.7968415
109	0x3f4ab58a	0.79183257
110	0x3f29c3da	0.6631447
111	0x3ef0ced3	0.47032794
112	0x3ee20dcc	0.4415115
113	0x3edde397	0.433377
114	0x3ece95a7	0.4034855
115	0x3f2178b2	0.6307479
116	0x3f085de2	0.53268254
117	0x3f1762cf	0.59135145
118	0x3f201d21	0.6254445
119	0x3f20ce5a	0.6281487
120	0x3e93d94b	0.2887672
