lunar_lander_continuous/models/SAC/_actor_240_208.pth (torch, 278863 bytes, 8 tensors)

linear1.weight f4 [256, 8]
0	0x3ecce675	0.40019575
1	0x3d9b3409	0.07578284
2	0x3f03064e	0.51181495
3	0xbf7a471f	-0.9776477
4	0x3f4449a5	0.7667487
5	0xbf2fa74b	-0.68614644
6	0xbe7819f5	-0.24228652
7	0x3e10a002	0.14123538
8	0xbeaa5e0d	-0.3327488
9	0xbe6205c4	-0.22072512
10	0xbe1391ee	-0.14411137
11	0x3e4c8fe1	0.1997676
12	0xbe5a117a	-0.2129573
13	0xbe800698	-0.2500503
14	0xbce4f94b	-0.027950903
15	0xbcffe4f6	-0.031237107
16	0x3eaad90b	0.33368716
17	0x3eb69c3a	0.35666066
18	0xbeec24e9	-0.4612191
19	0xbe5f1641	-0.21785833
20	0x3ef993be	0.4874553
21	0xbd4d8d06	-0.05018332
22	0xbe569e27	-0.20958768
23	0x3eaace19	0.33360365
24	0x3de99993	0.11406245
25	0xbe4c507f	-0.19952582
26	0x3e074e1d	0.13213392
27	0x3e680bd9	0.2266077
28	0x3eeb55a2	0.4596377
29	0x3e8f2723	0.27959546
30	0xbe8b09d7	-0.27155945
31	0x3e8cc9ba	0.27497655
32	0xbf11bf46	-0.56932485
33	0x3e04e195	0.12976678
34	0x3e92492b	0.28571448
35	0xbda9f29b	-0.082982264
36	0xbe6ca2d1	-0.23108985
37	0x3ef5ca89	0.48006085
38	0x3e30669e	0.17226645
39	0x3e7f2e36	0.24919972
40	0xbc8f6852	-0.017505798
41	0xbe983ee7	-0.2973549
42	0x3e2cf853	0.16891603
43	0x3f36f6e6	0.7147049
44	0xbddfcd8f	-0.10927879
45	0x3e58e4ec	0.21181077
46	0xbeda415a	-0.42627984
47	0xbeb935b1	-0.36173776
48	0xbefe3a4e	-0.49653858
49	0x3d30078c	0.042975947
50	0x3d05f2e1	0.03270233
51	0xbe6272cf	-0.22114109
52	0xbf299168	-0.662375
53	0x3e0eb9cd	0.13938065
54	0x3da6565e	0.08121942
55	0x3d987f8c	0.07446203
56	0xbea28a9a	-0.3174637
57	0xbee936f6	-0.45549744
58	0xbd7f0fcc	-0.062270924
59	0xbe5c030c	-0.21485537
60	0x3ee42bdd	0.44564715
61	0xbc52bccd	-0.012862396
62	0x3e2a3e8d	0.16625424
63	0xbd9a3827	-0.075302415
64	0xbe3d62b3	-0.18494682
65	0xbe0973d6	-0.13423094
66	0xbee01c8b	-0.43771777
67	0x3f971018	1.1801786
68	0x3efaedec	0.49009645
69	0x3baeb452	0.0053315545
70	0x3ea70959	0.3262432
71	0x3cfaf720	0.030635417
72	0xbeac0282	-0.33595663
73	0xbe8b7afd	-0.2724227
74	0x3ec5d591	0.386395
75	0x3f3bf8a1	0.7342625
76	0x3f205ed9	0.62644726
77	0xbe099bf5	-0.13438399
78	0xbe9d3c0c	-0.30709875
79	0xbe881ffd	-0.26586905
80	0xbeb7479e	-0.35796827
81	0x3dd413bc	0.103553265
82	0x3e9bc955	0.30427042
83	0x3e032d95	0.12810357
84	0xbec46f47	-0.38366148
85	0xbefd0a18	-0.49421763
86	0x3e06bcaf	0.13157915
87	0x3e2ca58c	0.16860026
88	0x3e752c96	0.2394279
89	0x3ea9c71f	0.3315973
90	0x3ee56b1c	0.4480828
91	0x3e786225	0.24256189
92	0x3f2aca21	0.66714674
93	0xbddc0e18	-0.10744876
94	0x3e9dcc82	0.3082009
95	0x3efb12cf	0.49037787
96	0x3d039b8b	0.03213076
97	0xba5011d2	-0.0007937226
98	0x3f07a23f	0.5298194
99	0xbe75ddb9	-0.24010362
100	0xbf9081d7	-1.1289624
101	0xbe91d118	-0.28479838
102	0xbe1ef304	-0.1552239
103	0x3e8abf3b	0.27099022
104	0xbeb80864	-0.35943902
105	0x3dd50c2d	0.10402713
106	0xbd356257	-0.044283237
107	0xbf07126e	-0.52762496
108	0xbf4e3dde	-0.8056315
109	0x3b3c4b19	0.0028731285
110	0xbd9ee3a9	-0.077582665
111	0xbbe40560	-0.0069586486
112	0xbe8ff7e3	-0.2811881
113	0xbe1de43a	-0.15419093
114	0xbece922c	-0.40345895
115	0x3e21943b	0.15779202
116	0x3da07db0	0.07836473
117	0xbf14ae65	-0.58078605
118	0x3ea3da6c	0.3200258
119	0x3e18d6e7	0.14925729
120	0xbe1db7f1	-0.154022
121	0xbe6bcd47	-0.23027526
122	0xbe89bf01	-0.26903537
123	0x3f4491e0	0.7678509
124	0x3e87dbcd	0.26534882
125	0xbef31429	-0.47476318
126	0xbdd64cb9	-0.104638524
127	0x3e48aed8	0.19597948
128	0x3d147e39	0.036253188
129	0xbeda059c	-0.42582405
130	0x3e879c91	0.26486638
131	0xbf35ac00	-0.70965576
132	0x3ec50a47	0.38484403
133	0xbe66d61e	-0.22542617
134	0xbe0cb7d9	-0.13742007
135	0x3e827b02	0.25484473
136	0x3e515637	0.20443045
137	0x3e6c7da5	0.23094805
138	0xbf5918e5	-0.8480361
139	0x3ed9c3d4	0.42532218
140	0x3eb6a1b7	0.35670254
141	0xbed6113b	-0.4181002
142	0xbe400a78	-0.18753994
143	0x3d09b15c	0.03361641
144	0x3d8b10d2	0.067903176
145	0x3ec6162b	0.38688788
146	0xbe8e44fd	-0.2778701
147	0xbe823da2	-0.25437647
148	0x3f2d03bc	0.67583823
149	0xbe1feafe	-0.15616986
150	0xbe9f0732	-0.31060177
151	0xbf06e632	-0.52695
152	0xbd4641dd	-0.048402656
153	0xbdd70ea5	-0.1050084
154	0xbeaf9374	-0.34292185
155	0xbe352ec9	-0.17693628
156	0xbe6b42d2	-0.22974709
157	0x3e4038f0	0.1877172
158	0xbe8f60a1	-0.2800341
159	0x3c7ec39d	0.0155495675
160	0x3e06a09d	0.13147207
161	0x3e97f175	0.29676405
162	0x3ec4bbd7	0.3842456
163	0x3f2a6130	0.66554546
164	0xbebff5e0	-0.37492275
165	0xbe5de87b	-0.21670716
166	0x3e07f070	0.13275313
167	0x3da9306f	0.08261191
168	0x3ea94a75	0.3306462
169	0xbc9ff16b	-0.019524297
170	0x3eccc47b	0.39993653
171	0xbe53c85d	-0.20681901
172	0xbe00c5fe	-0.12575528
173	0xbeda87c2	-0.426817
174	0xbe7418ef	-0.23837636
175	0x3ea7c4c6	0.32767314
176	0xbe26e80a	-0.16299453
177	0xbe2159ea	-0.15756956
178	0x3e90ac8b	0.2825664
179	0xbe836a4b	-0.25667033
180	0x3f756001	0.95849615
181	0x3e6577a5	0.22408922
182	0xbdcc3e44	-0.09972814
183	0x3e868779	0.26275232
184	0xbea7d219	-0.3277748
185	0x3e82fe04	0.25584424
186	0xbeb2f552	-0.3495279
187	0x3e21bd89	0.15794958
188	0x3e20dc47	0.15709029
189	0x3d568313	0.052371096
190	0xbe447a88	-0.19187367
191	0x3e64b112	0.22333172
192	0x3ee4ed09	0.44712093
193	0xbc9288df	-0.01788753
194	0xbeee31af	-0.4652228
195	0x3f53ecfc	0.82783484
196	0x3e1bd70c	0.15218753
197	0x3e32f6b0	0.17476916
198	0x3e438079	0.19091977
199	0xbe94756b	-0.28995833
200	0x3ec9228c	0.3928417
201	0x3e063a06	0.13108072
202	0x3e655b04	0.22398001
203	0xbdbb1c0f	-0.09136211
204	0xbf1e263b	-0.61777085
205	0xbf1df850	-0.6170702
206	0xbec46e26	-0.38365287
207	0xbe8dd45a	-0.27701074
208	0xbcc90c9f	-0.024542151
209	0xbe65656a	-0.22401968
210	0x3f08e868	0.53479624
211	0xbed367b7	-0.41290066
212	0xbe367330	-0.17817378
213	0xbd57f6c4	-0.05272557
214	0xbdbdf93d	-0.09276054
215	0x3e4292d5	0.19001324
216	0x3d8dd839	0.06926007
217	0xbce2c46c	-0.027681552
218	0x3ee7d95c	0.4528302
219	0x3eebe050	0.46069574
220	0x3f2279e6	0.6346725
221	0xbe9991a2	-0.29993922
222	0xbda1128b	-0.07864865
223	0x3e8dc60b	0.27690157
224	0xbebe3e74	-0.37157023
225	0xbea58fd9	-0.3233631
226	0xbea7b947	-0.32758543
227	0xbf229fe6	-0.63525236
228	0x3d9e8778	0.07740682
229	0x3aace188	0.0013189772
230	0x3e3d9190	0.18512559
231	0xbea7c62b	-0.32768378
232	0x3e148b49	0.14506258
233	0x3ecfa0e6	0.40552443
234	0xbe8a3223	-0.26991376
235	0xbecbded2	-0.39818436
236	0x3c06be72	0.008224117
237	0xbed7adac	-0.4212469
238	0x3ea256a8	0.31706738
239	0x3de5c91b	0.112199984
240	0xbdb6a42f	-0.08918034
241	0x3e9db690	0.30803347
242	0x3e4a0e58	0.19732034
243	0xbf4a0b06	-0.7892307
244	0x3e0af253	0.13569002
245	0xbdd2be4c	-0.102902025
246	0x3ecc9c56	0.39963025
247	0xbe8c49c0	-0.27400017
248	0x3e19f14a	0.1503345
249	0xbec51aaf	-0.3849692
250	0xbe9aa39f	-0.30202958
251	0xbf23495c	-0.6378381
252	0x3e4c0121	0.19922306
253	0xbe6c4c02	-0.2307587
254	0x3e82b327	0.25527307
255	0xbd5f6094	-0.054535463

linear1.bias f4 [256]
0	0xbdd91e10	-0.10601437
1	0x3ea34137	0.31885692
2	0xbc0212ab	-0.007939021
3	0x3df2a86e	0.11848532
4	0x3b1eb3c5	0.0024216038
5	0x3e8cfb3a	0.2753542
6	0x3d10181e	0.03517925
7	0x3e8f6f95	0.28014818
8	0x3d8c962d	0.06864581
9	0x3ead7ba8	0.33883405
10	0xbcb626c6	-0.022235285
11	0xbe406aff	-0.18790816
12	0xbd617299	-0.05504093
13	0xbd5b2c36	-0.05350896
14	0x3e3d5eb4	0.18493158
15	0x3e882b99	0.26595762
16	0x3e8a856d	0.2705492
17	0x3d1434db	0.03618322
18	0xbe2014b4	-0.15632898
19	0x3dad0018	0.084472835
20	0xbe3df7c4	-0.18551546
21	0x3b2b531f	0.0026142073
22	0x3e16f24d	0.14740868
23	0xbdbef7d2	-0.09324612
24	0xbd37a7ea	-0.04483787
25	0xbd71a721	-0.058997277
26	0x3e6d541e	0.2317662
27	0x3dd7b71d	0.10532973
28	0x3e523c39	0.20530786
29	0xbe478d9f	-0.19487618
30	0xbe2d3129	-0.16913284
31	0x3db688e7	0.08912831
32	0xbc2c235b	-0.010506476
33	0xbe1a6858	-0.15078866
34	0x3d20cbe0	0.03925693
35	0xbdacc079	-0.08435149
36	0xbd21b724	-0.039481297
37	0xbd415aff	-0.04720592
38	0xbd0c5d65	-0.034268755
39	0xbdbddc9c	-0.092705935
40	0xbe37ce41	-0.17949773
41	0xbda3bb72	-0.07994737
42	0xbd1432fc	-0.036181435
43	0x3d234edb	0.039870124
44	0x3e80e6f7	0.25176212
45	0xbe57d9e1	-0.21079208
46	0xbc8cd016	-0.017189067
47	0x3d8ad266	0.067784116
48	0xbd9fdb85	-0.07805542
49	0xbe34103d	-0.1758432
50	0xbdc68192	-0.09692682
51	0x3e5655a1	0.20931102
52	0xbbf2abd1	-0.007405736
53	0xbdfd2ff1	-0.1236266
54	0x3d5a48c1	0.05329204
55	0x3e1c95f1	0.15291573
56	0x3dff5f96	0.124694034
57	0x3e47ecb8	0.19523895
58	0x3d59b6ce	0.05315285
59	0xbe8e34fe	-0.27774805
60	0xbd18e6db	-0.037329536
61	0xbcb3d117	-0.021950288
62	0xbcd697e9	-0.026195483
63	0x3e6dd8fc	0.23227304
64	0x3df3ad50	0.11898291
65	0x3d6eb291	0.058275763
66	0x3e20bf99	0.15698089
67	0x3e20a5e6	0.15688285
68	0x3e60e3ce	0.219619
69	0xbccefb9e	-0.025266465
70	0xbcbb1d32	-0.02284107
71	0x3e6491f5	0.22321303
72	0xbeaae33e	-0.33376497
73	0x3e23fb33	0.16013794
74	0x3d9a8954	0.075457245
75	0xbd9ba4e9	-0.075998135
76	0x3dfad6d6	0.12248008
77	0x3e4af5c5	0.19820316
78	0x3e30c0f7	0.1726111
79	0xbe63f098	-0.22259748
80	0xbe20e4e4	-0.15712315
81	0xbe0c7d1c	-0.137196
82	0xbde1be41	-0.11022616
83	0x3cf854c1	0.030313851
84	0x3ddff89c	0.1093609
85	0x3e2ab076	0.16668877
86	0xbe1708a7	-0.14749394
87	0x3d02d4f0	0.031941354
88	0xbdb6b9ea	-0.08922179
89	0x3e25d2da	0.16193715
90	0xbdf318bb	-0.11869951
91	0xbdb86415	-0.09003464
92	0xbe0fecd2	-0.14055184
93	0xbde91de4	-0.11382654
94	0x3e462d5f	0.19353245
95	0x3d763561	0.0601095
96	0xbd86459b	-0.06556245
97	0x3e26cc34	0.16288835
98	0xbd61f6a5	-0.05516686
99	0x3de08eed	0.10964761
100	0xbdf053f1	-0.117347606
101	0x3d17ce10	0.03706175
102	0xbcd69f16	-0.026198905
103	0x3e21447b	0.1574878
104	0xbd91801d	-0.07104514
105	0x3e1fa265	0.15589292
106	0xbd380efb	-0.04493616
107	0x3db97ccf	0.090570085
108	0x3dedc69d	0.11610148
109	0xbe4cb088	-0.19989216
110	0x3d9395cc	0.07206306
111	0xbe3b8b5c	-0.1831488
112	0xbe867363	-0.26259908
113	0x3da0ab7f	0.0784521
114	0x3c631fec	0.013862591
115	0x3de6db88	0.11272341
116	0xbc02d940	-0.007986367
117	0xbe07f725	-0.13277872
118	0x3d4c08c6	0.049813055
119	0x3d8c1d27	0.06841498
120	0xbb2fa6b5	-0.0026802246
121	0xbe05f1e6	-0.13080558
122	0x3eab10bc	0.33411205
123	0xbc8aa304	-0.016923435
124	0xbd5795ff	-0.05263328
125	0x3dc4a4ea	0.09601767
126	0xbc0e0869	-0.008668997
127	0x3e27b960	0.16379309
128	0x3d0cfba9	0.03441969
129	0xbe38448a	-0.17994896
130	0x3d73e944	0.05954863
131	0x3e0475d5	0.12935574
132	0xbe47a0f2	-0.1949499
133	0x3e82fd07	0.2558367
134	0x3b69088f	0.003555808
135	0xbe4f8919	-0.20267142
136	0x3e1ea0a3	0.15490966
137	0xbcaea6ea	-0.021319825
138	0x3e5b37a9	0.21407951
139	0x3de75df2	0.112972155
140	0xbc2d0567	-0.01056037
141	0x3d175252	0.03694374
142	0xbe34f158	-0.1767019
143	0xbe6931d9	-0.22772922
144	0xbe47ed7f	-0.19524191
145	0x3e36cf7b	0.17852585
146	0x3d52f154	0.05149968
147	0xbe164b69	-0.14677204
148	0x3e3620ce	0.17785951
149	0xbe3efa79	-0.18650235
150	0xbd7fe2f2	-0.06247229
151	0x3db84951	0.08998359
152	0x3df3f3e5	0.119117536
153	0xbe10cd40	-0.14140797
154	0x3d8fdd8f	0.07024681
155	0x3dc8868d	0.097912885
156	0x3d3801dd	0.044923652
157	0x3d47f7e1	0.04882038
158	0x3e7640d3	0.24048166
159	0xbc5403e9	-0.012940385
160	0xbe1f7738	-0.15572822
161	0x3d566363	0.052340876
162	0x3c8fcae9	0.01755281
163	0xbc6e6507	-0.014550454
164	0xbe2a468f	-0.16628478
165	0x3ea32483	0.31863794
166	0x3da6c22d	0.08142505
167	0x3d81f80d	0.0634614
168	0x3dbf302e	0.093353614
169	0x3de30fe5	0.11087016
170	0x3e204cfb	0.15654366
171	0xbdab458f	-0.083628766
172	0x3e3392e8	0.17536509
173	0xbd63e041	-0.055633787
174	0xbe3a7db0	-0.18212008
175	0xbdc95149	-0.09829957
176	0x3e88b611	0.26701406
177	0xbe23849f	-0.1596856
178	0x3debac30	0.115074515
179	0xbcc00a13	-0.023442304
180	0x3ddd48cd	0.10804901
181	0x3d9aed06	0.0756474
182	0x3e39ae84	0.18132979
183	0xbe086228	-0.13318694
184	0x3ce9536e	0.028482165
185	0x3e36852c	0.17824239
186	0x3e066a8f	0.13126586
187	0x3deb3fa0	0.11486745
188	0x3da003f9	0.07813258
189	0x3e490624	0.19631249
190	0x3e8be0ed	0.27320042
191	0xbe53c934	-0.20682222
192	0x3de492ac	0.11160788
193	0x3e068158	0.13135278
194	0x3e1fd5e4	0.15608937
195	0xbe22fc97	-0.15916668
196	0xbde373fd	-0.111061074
197	0x3e975224	0.29554856
198	0x3e2338fa	0.15939704
199	0xbe04c109	-0.12964262
200	0xbc7fedad	-0.015620631
201	0x3dc3755e	0.095438704
202	0xbc03b611	-0.0080390135
203	0x3e445974	0.19174749
204	0x3c0119c2	0.007879676
205	0x3e8769e9	0.2644799
206	0xbd871c8d	-0.065972425
207	0x3d049831	0.032371704
208	0x3ea46f1e	0.32116026
209	0xb9f80fa8	-0.0004731391
210	0xbcd16292	-0.025559697
211	0xbdae6a5b	-0.085163794
212	0x3e7edce5	0.24888952
213	0xbe0c597c	-0.1370601
214	0xbe3e18c2	-0.18564132
215	0x3ddfedc4	0.10934022
216	0x3d189b49	0.037257466
217	0xbe38fcc2	-0.1806517
218	0xbe645e31	-0.22301556
219	0x3e10eeb0	0.14153552
220	0x3e57ae69	0.21062626
221	0x3c82fad5	0.015988747
222	0x3e1a5c27	0.15074216
223	0x3dba9071	0.09109581
224	0x3e27b371	0.16377045
225	0x3e21cf23	0.15801673
226	0xbe2f2e62	-0.17107537
227	0x3d81058b	0.06299885
228	0x3dd804a6	0.105477616
229	0x3c9d1721	0.019176068
230	0x3cf11975	0.029431084
231	0x3b988a78	0.0046551786
232	0x3e3930ba	0.18084994
233	0xbda98e74	-0.08279124
234	0xbe1daa85	-0.1539708
235	0x3e744ee1	0.23858215
236	0x3e7fa34f	0.24964641
237	0x3df33439	0.11875195
238	0x3e59ca9c	0.21268696
239	0xbbc114e8	-0.005892385
240	0x3daa024c	0.08301219
241	0x3d74ff90	0.059814036
242	0x3e46367b	0.1935672
243	0x3c9f8025	0.019470284
244	0xbd77238c	-0.060336635
245	0x3e0bf4b4	0.13667566
246	0xbe26728c	-0.16254634
247	0x3db761b8	0.08954185
248	0x3da5e712	0.08100714
249	0x3ddbc0b9	0.10730118
250	0x3d1ab217	0.037767496
251	0x3e7ff09c	0.24994129
252	0x3dae5420	0.08512139
253	0xbd49d90d	-0.04927926
254	0x3e3dc64a	0.18532673
255	0x3b489265	0.0030604836

linear2.weight f4 [256, 256]
0	0xbec27260	-0.37977886
1	0x3e397a9c	0.18113178
2	0x3c446a19	0.011988186
3	0xbe98ad5c	-0.29819763
4	0x3e2e0597	0.1699432
5	0xbbb2b265	-0.005453395
6	0x3cdf0ec6	0.027228724
7	0xbe6ac936	-0.22928318
8	0x3c064e23	0.00819734
9	0xbe37f343	-0.1796389
10	0xbe58276c	-0.21108788
11	0xbd0f061f	-0.034917947
12	0xbf18319a	-0.59450686
13	0xbe784e51	-0.24248625
14	0x3dcac139	0.099001355
15	0xbee73dfe	-0.45164484
16	0xbd8f6547	-0.07001739
17	0xbe85713d	-0.26062956
18	0x3d8d02a7	0.068852715
19	0x3da18826	0.078872964
20	0xbe40b1af	-0.18817781
21	0xbe0671d5	-0.13129361
22	0x3cf1c884	0.029514559
23	0xbe2edf5a	-0.1707739
24	0x3e4894b6	0.19587979
25	0xbe154efa	-0.14580908
26	0xbe18fdd8	-0.14940584
27	0xbe7762d3	-0.24158792
28	0xbb31a47f	-0.0027106104
29	0xbc5e4201	-0.013565541
30	0x3e329a2c	0.17441624
31	0x3e605244	0.21906382
32	0xbdbf00c1	-0.09326316
33	0x3dd88ba9	0.10573513
34	0x3d982888	0.07429606
35	0xbdb6c21f	-0.089237444
36	0x3d559a11	0.052148882
37	0x3d180b6e	0.037120275
38	0x3ebd98da	0.3703068
39	0xbcebf403	-0.028802877
40	0x3cc975b5	0.02459226
41	0xbbf63289	-0.0075133485
42	0xbe090984	-0.13382536
43	0xbdb28b19	-0.08717937
44	0xbe2bc7a3	-0.16775374
45	0xbe452609	-0.1925279
46	0x3e991e95	0.29906145
47	0xbc420cd4	-0.011843879
48	0xbea650e5	-0.32483593
49	0xbd9673bd	-0.07346294
50	0x3cb1ba12	0.02169517
51	0xbea0ae60	-0.31383038
52	0xbce6876f	-0.028140752
53	0xbe8ab6da	-0.2709263
54	0xbc90c70b	-0.017673036
55	0x3e017e1e	0.12645766
56	0xbe5382a4	-0.20655304
57	0x3c8386d2	0.016055498
58	0x3e30816c	0.1723687
59	0xbbc0c007	-0.0058822664
60	0xbf0f9041	-0.5607949
61	0xbe1a88fd	-0.1509132
62	0x3da866fc	0.08222768
63	0x3d9a1bc4	0.07524827
64	0xbd95bf31	-0.073118575
65	0x3dc1e8a9	0.094682045
66	0x3d603ed0	0.054747403
67	0xbe81b891	-0.25336125
68	0x3daea55c	0.085276335
69	0xbea8d09f	-0.32971665
70	0xbe7785a8	-0.2417208
71	0xbe5e714a	-0.21722904
72	0xbd7f0aa1	-0.062265996
73	0x3d9bd7ba	0.07609506
74	0xbdf28bbb	-0.11843058
75	0x3d05440c	0.032535598
76	0xbd02d1d5	-0.031938393
77	0xbe0df540	-0.13863087
78	0xbf1d8ac6	-0.61539876
79	0xbda4ee94	-0.08053318
80	0x3d02924f	0.031877812
81	0xbd57707b	-0.052597504
82	0xbee171ca	-0.44032127
83	0x3d83eca1	0.06441618
84	0x3d51e792	0.051246233
85	0xbc81495d	-0.015782053
86	0xbca72b9e	-0.02040654
87	0x3d66a190	0.05630642
88	0x3e49057c	0.19630998
89	0x3e1a3dd4	0.15062648
90	0x3e1b2196	0.15149531
91	0xbea28266	-0.3174011
92	0x3d90c41b	0.07068654
93	0xbe075c10	-0.13218713
94	0x3c988723	0.018619126
95	0xbd79a121	-0.06094468
96	0xbeba40ad	-0.3637747
97	0x3e144e1d	0.14482923
98	0x3d4ab255	0.049486477
99	0xbdbe2511	-0.092844136
100	0x3e022e40	0.12712955
101	0x3c192617	0.00934746
102	0x3e680928	0.22659743
103	0xbce97f78	-0.028503165
104	0xbf018369	-0.5059114
105	0x3d41f622	0.04735387
106	0xbd036bfb	-0.0320854
107	0xbd794a3d	-0.060861815
108	0xbe248e4b	-0.16069905
109	0x3d9e0c13	0.07717147
110	0xbd753936	-0.059869014
111	0xbe117b1a	-0.14207116
112	0xbe99bb6a	-0.30025798
113	0x3e24c54d	0.1609089
114	0xbe0566c7	-0.13027488
115	0xbdba8c77	-0.09108823
116	0x3dc6ed06	0.097131774
117	0xbe02963b	-0.12752621
118	0xbe76651f	-0.24062012
119	0xbe9be1ae	-0.30445617
120	0x3c3d763e	0.011563836
121	0xbd380a31	-0.044931594
122	0xbe3c2682	-0.18374065
123	0x3d93f4ea	0.07224448
124	0xbee0e2a8	-0.43922925
125	0x3d710fc2	0.05885292
126	0x3c6a5b5a	0.0143040065
127	0xbdfb4db0	-0.12270677
128	0xbe087792	-0.13326862
129	0x3d48e56a	0.04904691
130	0xbeac483c	-0.3364886
131	0xbd1e509f	-0.038651105
132	0x3e4f5154	0.20245868
133	0xbf2266b9	-0.6343799
134	0x3da56a1f	0.080768816
135	0xbe81c481	-0.25345233
136	0x3d6b4c32	0.057445712
137	0x3d561d3a	0.052273966
138	0x3c92f171	0.017937394
139	0x3ca32197	0.019913478
140	0xbd070476	-0.03296324
141	0xbe88b638	-0.26701522
142	0x3e29b4f4	0.16572934
143	0xbe5413a2	-0.20710614
144	0x3c95732a	0.018243391
145	0xbd40d9cf	-0.04708272
146	0xbe1576ac	-0.14596051
147	0x3e93ead3	0.28890094
148	0x3d94adb8	0.07259697
149	0xbe795fba	-0.24352923
150	0x3e0545f7	0.1301497
151	0x3de1121e	0.10989784
152	0xbed84754	-0.4224192
153	0xbcdf72ee	-0.027276482
154	0x3d990ca8	0.07473117
155	0x3cc701e7	0.0242929
156	0xbdf7659e	-0.12079929
157	0x3d2d317f	0.04228353
158	0xbef1cfc5	-0.47228828
159	0xbd1b9a7c	-0.037989125
160	0xbd542cf9	-0.0518007
161	0xbea7b961	-0.3275862
162	0x3ddfb7e5	0.10923747
163	0xbe82440c	-0.2544254
164	0xbe2c874e	-0.1684849
165	0x3e2299b2	0.15878943
166	0xbc5c6164	-0.013450954
167	0xbea2b07e	-0.31775278
168	0x3ce60809	0.028080003
169	0x3b619be9	0.0034425205
170	0x3d752dda	0.05985818
171	0xbea2f1ef	-0.31825206
172	0x3d5bbf86	0.053649448
173	0xbe8d18e2	-0.27558047
174	0xbc8c1b7c	-0.01710295
175	0x3c0c7aa9	0.008574166
176	0xbd0390e3	-0.032120597
177	0x3e0dfa6c	0.1386506
178	0x3caf80ec	0.02142378
179	0xbe63d417	-0.22248875
180	0x3d9ec996	0.07753293
181	0x3d120bde	0.03565585
182	0x3c8696a7	0.016429259
183	0xbe3e9e68	-0.18615115
184	0x3b6e3392	0.0036346656
185	0xbec7c38e	-0.39016384
186	0x3d45e1c3	0.048311006
187	0xbeecab15	-0.46224275
188	0x3d6b933d	0.057513464
189	0xbd575731	-0.052573387
190	0xb9d70166	-0.00041009038
191	0xbeade905	-0.33966842
192	0xbdaa92a2	-0.08328749
193	0xbe3bda07	-0.1834489
194	0x3db72980	0.08943462
195	0xbb2948f2	-0.0025830832
196	0x3d8f3768	0.0699299
197	0x3e3fbc66	0.18724212
198	0x3d2d54c5	0.04231717
199	0xbc39c94e	-0.011339499
200	0x3d81b1b6	0.06332724
201	0xbe01043d	-0.12599273
202	0x3ecc83c4	0.3994428
203	0xbbdb7e01	-0.0066983704
204	0xbede8056	-0.43457288
205	0xbd7f92cd	-0.06239586
206	0x3de4b4d0	0.111673
207	0x3aa60448	0.0012666071
208	0xbed6841d	-0.4189767
209	0x3d1725af	0.036901172
210	0xbeb30133	-0.34961852
211	0xbeec14b7	-0.46109554
212	0xbd383374	-0.044970945
213	0xbd81ca0e	-0.06337367
214	0xbe4ba835	-0.19888385
215	0x3bcdc564	0.0062796343
216	0xbe4b1014	-0.19830352
217	0xbe9e94e0	-0.30972958
218	0x3e676b3c	0.225995
219	0x3d467f62	0.048461325
220	0xbe754d87	-0.23955356
221	0x3c0990f3	0.008396375
222	0xbeb76051	-0.3581567
223	0x3debd85a	0.11515875
224	0xbd846aed	-0.06465707
225	0xbd1123ef	-0.03543466
226	0x3d8940a5	0.06701783
227	0x3e11a2c2	0.14222243
228	0x3d4c6fc3	0.04991127
229	0x3d74f7a0	0.059806466
230	0x3decdc70	0.115654826
231	0x3b22ea9e	0.002485908
232	0xbbd65cca	-0.006541823
233	0xbe97f35e	-0.29677862
234	0xbefb0738	-0.49028945
235	0xbf81a954	-1.01298
236	0xbd6db977	-0.0580382
237	0x3ded8625	0.11597852
238	0xbf12910a	-0.5725256
239	0x3dd3de21	0.10345102
240	0xbc3524cb	-0.011056135
241	0x3dd399e9	0.103320904
242	0x3dac04d4	0.083993584
243	0xbdf79443	-0.120888256
244	0xbe98c29b	-0.29835972
245	0x3d3fcce5	0.046826262
246	0xbeac144e	-0.3360924
247	0x3b84d2dd	0.004053457
248	0xbf196172	-0.59914315
249	0x3bc9f687	0.0061634216
250	0x3de91abf	0.113820545
251	0xbdbdb6c3	-0.09263375
252	0x3d1fe527	0.039036896
253	0xbee77c6b	-0.4521211
254	0x3d8ea941	0.06965876
255	0x3c95411c	0.018219523

linear2.bias f4 [256]
0	0x3d0ec7bd	0.034858454
1	0x3c424b75	0.011858811
2	0x3d1c732e	0.03819578
3	0xbc1f4b2c	-0.009722512
4	0x3de22c63	0.11043622
5	0xbd8f0100	-0.069826126
6	0xbd31f581	-0.04344702
7	0xbd275166	-0.040849112
8	0x3e1f2326	0.15540752
9	0x3d19037e	0.037356846
10	0x3d1a92a5	0.037737507
11	0xbb559804	-0.003259183
12	0x3d4ba4f4	0.04971786
13	0xbc3e220b	-0.011604796
14	0xbcb8033f	-0.022462485
15	0xbd0f83dd	-0.035037864
16	0x3de05163	0.10953023
17	0x3dc9ba9a	0.098500445
18	0x3c64829c	0.013947155
19	0xbd4ae128	-0.049531132
20	0xbd8d41f5	-0.06897346
21	0xbd135fe8	-0.035980135
22	0x3bc59e26	0.0060308157
23	0x3cc9d40b	0.024637243
24	0x3dfa602c	0.122253746
25	0xbca0d3ce	-0.019632246
26	0x3dfc0cfe	0.123071656
27	0xbdd6fae3	-0.104970716
28	0x3d9a1c6d	0.07524953
29	0x3e139e3c	0.1441583
30	0x3d29c8b5	0.041451175
31	0xbd38a0a7	-0.045075085
32	0x3d359f6d	0.044341493
33	0x3c80e744	0.015735276
34	0x3d65bbff	0.05608749
35	0xbc1a68ac	-0.00942437
36	0x3d69eaf0	0.05710882
37	0xbbec4cac	-0.0072112884
38	0x3d411483	0.047138702
39	0x3dbd221c	0.092350215
40	0x3ce9983b	0.028514972
41	0xbc83170f	-0.016002206
42	0xbc74b770	-0.014936313
43	0x3d9be67b	0.0761232
44	0x3cfbc7d5	0.030734936
45	0xbc800c36	-0.015630823
46	0xbda8c8c8	-0.08241421
47	0xbdab3480	-0.08359623
48	0xbd2d5b7f	-0.042323586
49	0xbd66350c	-0.056202933
50	0xbcb790ee	-0.022407975
51	0xbc23d159	-0.009998643
52	0x3d4387ba	0.04773686
53	0xbce5f2fa	-0.028069962
54	0xbd1dc628	-0.038519055
55	0x3c648837	0.013948492
56	0x3ce5ed4e	0.028067257
57	0xbd13d1c5	-0.036088724
58	0xbcdb6600	-0.026782036
59	0xbc4f673c	-0.01265889
60	0x3d5c66ab	0.05380885
61	0xbd9624d3	-0.073312424
62	0x3cbaf5bb	0.022822252
63	0x3d434a20	0.047678113
64	0x3de82bb1	0.113364585
65	0x3c1da5a7	0.009622014
66	0x3d8067bb	0.06269785
67	0x3c6c071f	0.014405995
68	0x3dd40895	0.103531994
69	0xbcd1da09	-0.025616663
70	0xbc49b0f8	-0.012310259
71	0xbc938ccb	-0.018011471
72	0x3dc19b6e	0.09453474
73	0x3ce0d55b	0.027445486
74	0xbd52c145	-0.051453847
75	0x3c93b200	0.018029213
76	0xbda6fba6	-0.08153467
77	0x3c8fd746	0.017558705
78	0x3ced5eef	0.028975932
79	0x3d9661de	0.073428854
80	0x3b60f5f6	0.0034326292
81	0xbbd6f04c	-0.0065594073
82	0xbd210e6e	-0.0393204
83	0xbc21d876	-0.009878268
84	0x3d5f8e40	0.05457902
85	0xbc8ca84d	-0.017170096
86	0x3d405a76	0.04696127
87	0x3dab33c5	0.08359484
88	0x3cdff1f6	0.027337056
89	0x3be13cc2	0.006873698
90	0xbd073349	-0.033007894
91	0xbc817830	-0.01580438
92	0x3c3e9d22	0.011634143
93	0x3c82be2f	0.015959827
94	0xbcee4274	-0.029084422
95	0x3cb8626b	0.022507867
96	0x3c257ed3	0.010101038
97	0xbc2f3ffa	-0.010696406
98	0x3d967323	0.07346179
99	0x3d38885d	0.04505192
100	0x3d307601	0.043081287
101	0xbca1d3b8	-0.019754276
102	0xbd6c3284	-0.057665363
103	0xbacd67a0	-0.0015671141
104	0x3df026d5	0.117261566
105	0xbc2aeea4	-0.010432873
106	0x3d65c320	0.05609429
107	0xbc951a95	-0.018201152
108	0x3da19f73	0.07891741
109	0xbcb12a3b	-0.021626582
110	0x3c74b721	0.014936239
111	0xbb1ede7e	-0.0024241502
112	0xbd205975	-0.039147813
113	0xb938f42a	-0.00017638566
114	0xbd30cb6e	-0.043162756
115	0xbd7ae075	-0.061249215
116	0xbdb04e39	-0.0860867
117	0x3da06b52	0.0783297
118	0x3cb00437	0.021486385
119	0x3ddc967f	0.10770892
120	0xbca1a678	-0.019732699
121	0xbc0eac01	-0.008708001
122	0x3d02ba4a	0.03191594
123	0x3c46083c	0.012086924
124	0xbd600bc9	-0.05469874
125	0x3dc3fcfb	0.095697366
126	0xbd5c4f64	-0.05378665
127	0x3dbe78fd	0.093004204
128	0x3d7b4b75	0.06135126
129	0xbcce3fcd	-0.025176907
130	0xbcfd4fca	-0.030921835
131	0xbcf849d8	-0.030308649
132	0x3cc1654e	0.023607876
133	0x3d80a46a	0.062813595
134	0xbc1883c3	-0.009308758
135	0xba0e8a84	-0.00054375106
136	0xbd889bc4	-0.06670335
137	0xbb49c6be	-0.0030788626
138	0x3d4ed7b1	0.050498668
139	0x3d9460b8	0.0724501
140	0xbca5ff6e	-0.0202634
141	0x3d4822a4	0.04886116
142	0xbd5f016c	-0.054444715
143	0xbcdf834f	-0.027284293
144	0x3c9e854c	0.01935067
145	0x3e068a6d	0.13138743
146	0x3df68546	0.12037139
147	0xbd199543	-0.037495863
148	0x3d8d48f2	0.06898679
149	0x3df5a94c	0.119951814
150	0x3d9c4035	0.07629434
151	0x3d137d40	0.03600812
152	0x3d074442	0.03302408
153	0x3d4198c1	0.047264818
154	0x3be053d1	0.006845929
155	0x3b5f6d58	0.0034092274
156	0xbd96037a	-0.07324882
157	0x3b1febae	0.002440195
158	0x3d045df4	0.032316163
159	0xbd1b92fe	-0.03798198
160	0x3bb10252	0.005401888
161	0x3d5a00bb	0.053223353
162	0xbe130679	-0.14357938
163	0xbaed52ab	-0.0018106302
164	0xbcb5aaec	-0.022176228
165	0x3a856dac	0.001017978
166	0xbcbb209f	-0.022842703
167	0xbbb4673d	-0.005505471
168	0x3d0c1aeb	0.03420536
169	0x3cfe084c	0.031009816
170	0xbda48401	-0.0803299
171	0x3cc88876	0.024479132
172	0x3d8ae1a2	0.06781317
173	0xbd87bc11	-0.06627668
174	0xbd6246a3	-0.055243146
175	0xbc9140b1	-0.017731043
176	0x3d44c5a1	0.048040036
177	0x3da04e03	0.078273796
178	0x3d6f3012	0.058395453
179	0x3e1e0359	0.15430965
180	0x3b6fcab4	0.0036589326
181	0xbd2b1a6f	-0.041773256
182	0xbda85083	-0.082184814
183	0xbd06d86d	-0.032921243
184	0xbd8c13a1	-0.068396814
185	0xbc237e97	-0.009978912
186	0x3cd93125	0.026512692
187	0x3c4dd6cf	0.012563421
188	0xbd818d5c	-0.0632579
189	0x3d58812b	0.05285756
190	0xbcfc82c6	-0.030824076
191	0x3daa60dc	0.08319256
192	0xbaa6ced1	-0.0012726431
193	0xbcd2a35c	-0.025712661
194	0xbd0b8ec8	-0.034071714
195	0x3d963472	0.07334222
196	0xbd91555b	-0.070963584
197	0xbda28ea5	-0.079373635
198	0xbcd5134d	-0.02601018
199	0xbb8f6fef	-0.004377357
200	0xbb978092	-0.004623481
201	0xbcb86a5e	-0.022511657
202	0xbd4c6986	-0.049905322
203	0x3de26b07	0.1105557
204	0xbd945e24	-0.072445184
205	0x3d1a79eb	0.037713926
206	0xbd762818	-0.06009683
207	0xbc1ae244	-0.00945336
208	0x3d456e5b	0.048200946
209	0x3ce41de0	0.027846277
210	0xbcf17b85	-0.029477844
211	0x3d0de6fa	0.034644105
212	0xbd4d3d4d	-0.05010729
213	0xbd623065	-0.055221934
214	0x3d50df7f	0.050994392
215	0x3d41a3b4	0.04727526
216	0xbd5c15bf	-0.053731676
217	0x3d6cbe4a	0.05779866
218	0xbc34596a	-0.011007646
219	0x3c185b9c	0.009299185
220	0x3c215e4f	0.009849145
221	0x3d8a6492	0.067574635
222	0x3d231ced	0.039822508
223	0x3cb478c7	0.022030247
224	0x3cf174da	0.029474664
225	0xbc134621	-0.008988888
226	0x3d2bf933	0.0419857
227	0xbd18f967	-0.037347224
228	0xbd21d7c5	-0.039512414
229	0x3c9ea6ca	0.01936664
230	0x3c340d6e	0.01098953
231	0xbd8cb188	-0.06869799
232	0xbd58548a	-0.052814998
233	0x3d60c500	0.054875374
234	0x3d7a550b	0.06111626
235	0xbc6c1e2f	-0.014411493
236	0xbc6cdee0	-0.014457434
237	0xbda40c41	-0.0801015
238	0xbdbf1f56	-0.09332149
239	0x3d82a50c	0.063791364
240	0xbdb07212	-0.08615507
241	0x3cdd0723	0.026980942
242	0xbdaa07dc	-0.0830228
243	0xbd4f7ece	-0.05065804
244	0x3d85e1c6	0.065372035
245	0xbc1c7e35	-0.0095515745
246	0x3cd64110	0.026154071
247	0x3acc1789	0.0015570979
248	0x3d9fe61e	0.07807563
249	0x3d66bf2e	0.056334667
250	0xbdad2bea	-0.084556416
251	0xbb1b025d	-0.0023652532
252	0x3dd0a244	0.101872
253	0x3dc10ed7	0.094266586
254	0xbd68643e	-0.056736223
255	0x3d7f77fb	0.06237028

mean_linear.weight f4 [2, 256]
0	0x3d463b4a	0.048396386
1	0x3ea8b394	0.32949507
2	0x3eed9d22	0.46408945
3	0x3b7f087d	0.0038914972
4	0x3be598eb	0.0070067546
5	0xbf9b18bc	-1.2116923
6	0x3ddb0359	0.10693998
7	0xbd760c60	-0.060070395
8	0x3b54ad38	0.003245188
9	0xbc73d37c	-0.014881965
10	0x3e89837a	0.2685812
11	0x3e0027b2	0.12515143
12	0xbb222040	-0.002473846
13	0xbc604676	-0.013688674
14	0x3d08af33	0.033370208
15	0x3e2a1e02	0.1661301
16	0xbea73783	-0.3265954
17	0xbe10b234	-0.14130479
18	0x3d1f47b4	0.03888674
19	0x3c585942	0.0132048745
20	0xbf827408	-1.019166
21	0x3d0797e6	0.033103846
22	0x3d5a7763	0.053336512
23	0x3d06a193	0.032868933
24	0xbcaf6a13	-0.021412885
25	0x3d221805	0.039573688
26	0xbc82696c	-0.01591941
27	0x3e4d79b8	0.20065963
28	0x3e70a1ea	0.23499265
29	0x3b1954f2	0.0023396579
30	0x3da53dc9	0.08068425
31	0x3e632399	0.22181548
32	0x3d14b30d	0.03630357
33	0x3e948d85	0.2901422
34	0xbdd8ab67	-0.105795674
35	0x3e42b789	0.19015326
36	0x3d9e8e1e	0.077419505
37	0xbcebbc7e	-0.028776404
38	0xbc363645	-0.011121337
39	0xbf3066e9	-0.6890703
40	0xbeac748e	-0.33682674
41	0xbe289e34	-0.164666
42	0x3e13a366	0.144178
43	0xbd5d5b80	-0.05404234
44	0x3e639d45	0.22227962
45	0xbd62cd10	-0.055371344
46	0x3d6c98ca	0.0577629
47	0xbf72404a	-0.9462935
48	0x3db73245	0.08945135
49	0x3d5f1cf5	0.054470975
50	0xbd35fd84	-0.044431224
51	0xbe8f2bd1	-0.27963117
52	0xba8e3cde	-0.001085188
53	0xbf1ab589	-0.6043325
54	0x3bd7631f	0.0065730955
55	0xbeceff51	-0.40429166
56	0xbb606a21	-0.0034242945
57	0xbca9db59	-0.020734476
58	0x3eeb790d	0.45990792
59	0xbad30f98	-0.001610267
60	0xbddbafb3	-0.10726871
61	0x3d83c6c2	0.064343944
62	0x3db0a20b	0.08624657
63	0x3ebf1ab8	0.37325072
64	0x3ece3654	0.40275824
65	0xbd23ca7c	-0.039988026
66	0x3d2be1e0	0.041963458
67	0x3f183c2a	0.59466803
68	0x3e4e3211	0.20136286
69	0x3ec6dfc8	0.38842607
70	0xbbbaafb7	-0.0056972164
71	0xbd8c9f2a	-0.06866296
72	0x3e4a3256	0.19745764
73	0x3d2d549e	0.042317025
74	0xbe6abc41	-0.22923376
75	0x3cb2d500	0.021830082
76	0x3e18bee4	0.14916569
77	0xbe5fc61e	-0.2185292
78	0x3e6ac0e2	0.22925141
79	0xbef83341	-0.48476604
80	0xbd1cb7d8	-0.038261265
81	0xbd7f7730	-0.062369525
82	0x3eaaf969	0.3339341
83	0xbcfda58f	-0.030962734
84	0xbe75981a	-0.23983803
85	0xbc5bdef3	-0.013419854
86	0xbf202205	-0.6255191
87	0xbd7f5fc5	-0.062347192
88	0xbd2633aa	-0.040576614
89	0x3da3f512	0.08005728
90	0xbf09529a	-0.53641665
91	0xbd4677ec	-0.04845421
92	0xbe4b2216	-0.19837222
93	0x3eede415	0.46463075
94	0x3d8884e3	0.06665971
95	0x3f80afb7	1.0053624
96	0xbf084b93	-0.5324032
97	0x3e259f17	0.16173969
98	0xbe9eab25	-0.30989948
99	0xbee12b36	-0.4397828
100	0x3eb84339	0.35988787
101	0x3deacfde	0.11465429
102	0xbdf7babb	-0.12096163
103	0xbc64f6df	-0.013974874
104	0x3e0f5e1d	0.14000745
105	0x3ebe04fd	0.3711318
106	0xbc432c7f	-0.011912464
107	0x3ea42c60	0.32065105
108	0xbe7a7626	-0.24459133
109	0xbdc898d7	-0.09794777
110	0xbdc27236	-0.0949444
111	0xbdc612ad	-0.09671531
112	0xbf65821d	-0.8965166
113	0xbcff3be7	-0.031156493
114	0x3ddd62b6	0.10809843
115	0x3e054388	0.13014042
116	0x3edb1c7b	0.42795166
117	0x3e641903	0.22275166
118	0x3da260e2	0.07928635
119	0x3e8d8bea	0.27645808
120	0x3d5088c2	0.050911672
121	0x3d768be3	0.060192
122	0xbea36cac	-0.31918848
123	0x3e269cb4	0.16270715
124	0x3cb11de1	0.021620693
125	0xbc3e3247	-0.011608667
126	0x3d24b74f	0.04021388
127	0x3d9fd3ce	0.078040704
128	0x3c88dece	0.016707804
129	0xbc37a00f	-0.011207595
130	0xbdb2cdca	-0.087306574
131	0xbf327061	-0.69702727
132	0xbd031a1b	-0.032007318
133	0xbf0a5cbb	-0.54047745
134	0xbf35e8f2	-0.7105857
135	0x3ec2ae60	0.38023663
136	0xbcbf827c	-0.02337765
137	0x3ac2c335	0.0014859202
138	0xbeea298e	-0.4573483
139	0x3ef9893f	0.48737523
140	0x3cc78d6c	0.024359427
141	0x3e858a7b	0.26082215
142	0xbf99f214	-1.2027001
143	0x3d78e5bb	0.060765963
144	0x3ceb1b82	0.02869964
145	0xbeadeab9	-0.33968142
146	0x3b044138	0.0020180475
147	0x3e9161aa	0.28394824
148	0x3d90328c	0.07040891
149	0x3e388c03	0.1802216
150	0xbd3be770	-0.045875013
151	0x3e9c1fb5	0.3049294
152	0x3d09ca47	0.033640172
153	0x3e33eeca	0.1757156
154	0xbd524aa5	-0.051340718
155	0x3d0f7f46	0.035033487
156	0xbd51805c	-0.051147804
157	0xbe04d03d	-0.12970062
158	0x3f159181	0.58425146
159	0x3ba22124	0.0049477983
160	0xbe027bae	-0.12742493
161	0xbb382b4b	-0.0028101976
162	0x3e3e394d	0.18576546
163	0x3db6bf64	0.089232236
164	0x3da616f4	0.08109847
165	0xbceefc89	-0.029173153
166	0xbc3b31cd	-0.011425448
167	0xbd12d9e2	-0.03585232
168	0x3bbdc637	0.0057914513
169	0xbd9d28a5	-0.07673768
170	0xbf3f4abf	-0.7472343
171	0xbd652597	-0.05594405
172	0xbd6e7bc2	-0.058223493
173	0x3def18bc	0.116746396
174	0xbecf57af	-0.40496585
175	0x3e53c155	0.20679219
176	0xbeed87c8	-0.46392655
177	0xbb1e443d	-0.002414956
178	0xbe58bd36	-0.21165928
179	0x3b7e53d4	0.003880729
180	0xbf2e38e8	-0.6805558
181	0xbd46ccef	-0.048535284
182	0xbe995e35	-0.29954687
183	0x3e82920d	0.25502053
184	0x3c8c46a1	0.017123522
185	0x3e9ac1aa	0.3022588
186	0x3eda4a5d	0.4263486
187	0x3e2b013e	0.16699693
188	0xbe930052	-0.28711182
189	0x3e3cd188	0.18439305
190	0x3cd3481d	0.025791222
191	0xbe01118f	-0.12604354
192	0xbf3a9467	-0.72882694
193	0xbe9df414	-0.3085028
194	0xbe36c4c3	-0.17848496
195	0x3d489d40	0.04897809
196	0xbe86a651	-0.26298764
197	0xbe9c2199	-0.30494383
198	0x3d899ec5	0.06719736
199	0xbe532367	-0.20618974
200	0x3f2dbac5	0.6786311
201	0xbe3b608f	-0.18298553
202	0xbea666c0	-0.32500267
203	0xbe15292a	-0.14566484
204	0xbcbc8bcb	-0.023015877
205	0xbe4423fc	-0.19154352
206	0xbf57d148	-0.8430371
207	0xbf79540c	-0.9739387
208	0x3d373668	0.04472962
209	0x3eebd001	0.46057132
210	0xbcfdbdfb	-0.030974379
211	0xbbdc84e2	-0.006729708
212	0xbd72394d	-0.059136678
213	0x3d147ce1	0.036251906
214	0xbf5cb03e	-0.86206424
215	0xbbded992	-0.0068008387
216	0x3cee939b	0.029123118
217	0x3e12d5c0	0.14339352
218	0x3d0aa652	0.03385002
219	0x3e88fc8d	0.2675518
220	0x3e10be20	0.14135027
221	0xbebde8f5	-0.37091795
222	0x3ea95c00	0.33078003
223	0xbe37a795	-0.17935021
224	0xbf776064	-0.96631455
225	0x3e4d22f7	0.2003287
226	0xbea0c011	-0.31396535
227	0xbc58c70b	-0.013231049
228	0x3d14a067	0.036285784
229	0x3cdd0310	0.026979
230	0x3cb38c40	0.021917462
231	0x3d172f24	0.03691019
232	0x3d9d466c	0.076794475
233	0x3f7da028	0.99072504
234	0x3e143165	0.14471968
235	0xbd1dcc02	-0.038524635
236	0x3e9be2a9	0.30446365
237	0x3e50496b	0.20340507
238	0x3e9a929e	0.30189985
239	0x3f3b82b5	0.7324632
240	0xbdb9271a	-0.09040661
241	0xbdd54775	-0.1041402
242	0xbc8dcdc8	-0.017310038
243	0x3d8b6533	0.068064116
244	0x3e814518	0.25248027
245	0x3dcef97b	0.101061784
246	0x3cb4324a	0.021996636
247	0x3f0e317d	0.55544263
248	0xbe55d08c	-0.20880336
249	0xbda9dceb	-0.0829409
250	0xbe99fd26	-0.3007595
251	0x3c0fff8f	0.008788957
252	0xbd281a14	-0.041040495
253	0x3d2a7b48	0.041621476
254	0xbe62e0b7	-0.22156034
255	0xbe4ce3e4	-0.20008808

mean_linear.bias f4 [2]
0	0xbc131a47	-0.008978433
1	0xbd0c3065	-0.03422584

log_std_linear.weight f4 [2, 256]
0	0xbe13d4a2	-0.14436582
1	0x3d895d1b	0.067072116
2	0x3e07ab12	0.13248852
3	0x3e3fcbc3	0.18730073
4	0xbe8c7e38	-0.27440047
5	0x3ecd9f33	0.40160522
6	0xbd5fd2f1	-0.05464453
7	0xbd92d1c8	-0.07168919
8	0xbd47657b	-0.048680764
9	0xbcc203f2	-0.023683522
10	0x3dc660d5	0.09686438
11	0x3d0f2703	0.034949314
12	0xbd8cd3d4	-0.068763405
13	0xbd484e96	-0.04890307
14	0x3d63a761	0.055579547
15	0x3da632fb	0.081151925
16	0x3cc6833b	0.024232497
17	0xbafb9a06	-0.0019195683
18	0x3bf364cb	0.007427787
19	0x3d70ab0d	0.058756877
20	0x3e5b531d	0.21418424
21	0x3d1bfa4b	0.038080495
22	0xbdb54927	-0.08851843
23	0x3b9ddfdc	0.004817946
24	0x3cc55d30	0.024092287
25	0xbd6589c2	-0.05603958
26	0xbee07408	-0.43838525
27	0x3eaf121e	0.3419351
28	0x3de6267f	0.11237811
29	0xbe8fb51b	-0.2806786
30	0xbeaa26ef	-0.3323283
31	0x3e10242f	0.14076303
32	0x3d4b2b49	0.049601827
33	0xbc632020	-0.01386264
34	0xbd4b6c82	-0.049664028
35	0x3e40746f	0.18794416
36	0xbe3ef474	-0.18647939
37	0xbe849c5e	-0.2590055
38	0xbd3b7423	-0.045765053
39	0x3eaf5f21	0.34252265
40	0x3e11de60	0.14244986
41	0x3ce09ae5	0.02741761
42	0x3c9143e1	0.017732562
43	0xbe4bb0b0	-0.1989162
44	0x3e013b2b	0.12620227
45	0xbcacc1cc	-0.021088503
46	0x3d85c170	0.06531036
47	0x3e78a8c0	0.24283123
48	0xbd76bb0f	-0.060236987
49	0x3cb40dbd	0.021979207
50	0xbd1b0d22	-0.03785432
51	0x3d982b0a	0.07430084
52	0xbe692b77	-0.22770487
53	0x3e614775	0.21999915
54	0xbd09e55e	-0.033666007
55	0xbccdf78a	-0.02514245
56	0x3df8ef21	0.12154985
57	0x3cffec0a	0.031240482
58	0x3dde7447	0.10862022
59	0xbc08148b	-0.008305679
60	0xbdfd016f	-0.12353789
61	0x3e6b8504	0.2299996
62	0x3da322e0	0.07965636
63	0xbdf5332a	-0.119726494
64	0x3d3397e5	0.04384603
65	0xbd4db84f	-0.0502246
66	0xbe29452f	-0.16530298
67	0x3e1a737d	0.15083118
68	0xbda74a66	-0.08168487
69	0x3d6797ba	0.056541182
70	0xbcd33bd9	-0.025785374
71	0x3d98d38e	0.07462226
72	0xbe0c5403	-0.13703923
73	0xbe1c9a82	-0.15293315
74	0x3e3fc0f9	0.18725957
75	0x3d0475be	0.03233885
76	0x3e85bb97	0.26119682
77	0x3df599c9	0.11992223
78	0x3da7ca94	0.081929356
79	0x3d599bf9	0.053127263
80	0x3e1dfcd4	0.15428478
81	0x3df700eb	0.12060722
82	0x3e825eba	0.25462896
83	0xbc8d4b24	-0.017247744
84	0x3d5606f7	0.052252736
85	0x3d26fac7	0.040766504
86	0x3e577bbf	0.21043299
87	0xbec3acda	-0.38217813
88	0x3d919250	0.07107985
89	0xbdc38ba7	-0.09548121
90	0x3dea6685	0.11445335
91	0x3c71bf73	0.014755118
92	0xbd026fa6	-0.031844757
93	0x3ed5fb34	0.41793215
94	0x3c3658ca	0.011129567
95	0x3e27af79	0.16375531
96	0x3e05900f	0.13043235
97	0x3c028c58	0.007968031
98	0x3d7aa36f	0.06119102
99	0x3df42bdd	0.11922429
100	0x3dce805a	0.10083075
101	0xbdc422c4	-0.095769435
102	0xbd3753ad	-0.044757534
103	0x3e01edc1	0.12688352
104	0x3e3001c4	0.17188174
105	0x3d86e824	0.06587246
106	0xbe157f74	-0.14599401
107	0x3cbe69fa	0.023243893
108	0x3cd5188c	0.026012681
109	0x3d3d126a	0.04616014
110	0xbe4a7be4	-0.19773823
111	0xbe05c7bb	-0.13064472
112	0x3e9190f3	0.284309
113	0xbd7f5839	-0.062339995
114	0xba34bad6	-0.0006894296
115	0xbcd2b274	-0.025719859
116	0x3e075d78	0.13219249
117	0xbcdbd642	-0.026835565
118	0x3d30e0fa	0.043183304
119	0x3bbc512d	0.0057469816
120	0xbd384060	-0.044983268
121	0xbda22cbd	-0.079186894
122	0xbcf1caa6	-0.029515576
123	0xbdee34ed	-0.116311885
124	0x3c01c335	0.007920076
125	0xbea3d6ed	-0.31999913
126	0x3c380046	0.011230534
127	0xbec16c7a	-0.37778074
128	0xbe8033fb	-0.25039658
129	0x3cd1a6c5	0.025592217
130	0x3e2a0cb2	0.16606405
131	0x3e505bdf	0.20347546
132	0xbd61433b	-0.054995757
133	0xbd9cb787	-0.076521926
134	0x3e85963a	0.26091176
135	0x3e051aa1	0.1299844
136	0x3d2aa18f	0.04165798
137	0x3ceb7e28	0.02874668
138	0x3d883898	0.066514194
139	0xbe6f2758	-0.23354852
140	0x3cade0dd	0.021225387
141	0x3d672d6c	0.056439802
142	0x3ec01a31	0.37519982
143	0xbddbe26e	-0.107365474
144	0xbbafe600	-0.0053679943
145	0x3eb718e6	0.35761184
146	0xbe6e5f61	-0.23278572
147	0x3e84c559	0.25931814
148	0xbd268861	-0.040657405
149	0xbdb9c7df	-0.090713255
150	0xbcc4b35f	-0.024011312
151	0x3d9fd04f	0.078034036
152	0xbde0c9b9	-0.109759755
153	0xbd327ccf	-0.043576058
154	0xbd51538e	-0.051105075
155	0xbd07a32c	-0.033114597
156	0x3ca8bef4	0.020598866
157	0x3be8d485	0.0071054124
158	0x3eafb80f	0.34320113
159	0xbdf31c56	-0.11870639
160	0xbc064160	-0.008194298
161	0xbe80afeb	-0.25134215
162	0x3e59cd67	0.21269761
163	0xbe15192a	-0.1456038
164	0x3e584e43	0.21123604
165	0xbcf6f94e	-0.030148175
166	0x3d4ba6e2	0.0497197
167	0xbe1a1ef5	-0.15050872
168	0xbb8ef411	-0.004362591
169	0xbdae1f3f	-0.085020535
170	0x3e391f61	0.18078376
171	0x3c088e87	0.008334762
172	0xbddc886a	-0.107682064
173	0x3c8214f5	0.015879134
174	0x3de8f84b	0.11375483
175	0x3e11429c	0.14185566
176	0x3d348842	0.044075258
177	0x3d1364ce	0.035984807
178	0xbd8acafe	-0.06776999
179	0xbe7fc572	-0.24977663
180	0x3e489e64	0.19591671
181	0x3ca7412a	0.020416815
182	0x3e4046ac	0.18776959
183	0x3db79a3b	0.08964964
184	0x3d4d0fe8	0.050063998
185	0xbb4164d2	-0.0029509556
186	0x3e851c54	0.25998175
187	0x3eb8db25	0.36104694
188	0x3d040d50	0.03223926
189	0x3dc5c0e4	0.096559316
190	0x3d103a88	0.03521207
191	0x3c3f4b59	0.011675679
192	0x3e3caba6	0.18424854
193	0xbc620a8f	-0.013796463
194	0xbdbc58d3	-0.091966294
195	0xbe72d11b	-0.2371258
196	0x3e93d6b6	0.2887475
197	0x3e176608	0.14785016
198	0xbdb8422b	-0.089969955
199	0xbdd2be7a	-0.10290237
200	0x3f1004ec	0.5625751
201	0xbe3d330b	-0.18476503
202	0x3dc205ba	0.094737485
203	0xbe01bf5a	-0.12670651
204	0x3d6c8a5f	0.05774915
205	0x3d4a86ce	0.049444966
206	0x3ea0edda	0.31431466
207	0x3e871d15	0.26389375
208	0xbceb925a	-0.02875631
209	0xbbfb15bd	-0.0076625035
210	0xbeb09205	-0.34486404
211	0x3d86317b	0.065524064
212	0xbd926755	-0.07148615
213	0xbcf20d00	-0.029547215
214	0x3e920007	0.28515646
215	0xbd0fcea6	-0.035109185
216	0xbd621fce	-0.055206113
217	0xbd345ff5	-0.044036824
218	0x3ce252b0	0.02762732
219	0xbb75750a	-0.0037453794
220	0xbd8f2393	-0.06989207
221	0x3ef15fb3	0.47143325
222	0x3d93ac64	0.07210615
223	0x3d00c61f	0.031438943
224	0x3e9781b9	0.29591158
225	0x3c94df5c	0.018172912
226	0xbb9d34a8	-0.004797537
227	0xbd4e4d68	-0.05036679
228	0xbc35cf29	-0.011096754
229	0x3d470463	0.048588168
230	0x3d59b675	0.05315252
231	0xbd514233	-0.051088523
232	0xbde1ba2b	-0.11021837
233	0x3e47f335	0.1952637
234	0xbde7acca	-0.11312254
235	0xbcb26ef3	-0.02178142
236	0x3e0a70d0	0.13519597
237	0x3d608017	0.054809656
238	0xbde95721	-0.11393572
239	0x3ea3c320	0.31984806
240	0x3e4892b8	0.19587219
241	0xbe1a7f86	-0.15087709
242	0x3d596fcf	0.053085145
243	0xbcaf267a	-0.021380652
244	0x39bcd6a7	0.00036018083
245	0xbe15c970	-0.14627624
246	0xbc896a09	-0.016774194
247	0x3e80190f	0.25019118
248	0x3e4c0911	0.19925334
249	0x3d1feeba	0.039046027
250	0x3e034f98	0.12823331
251	0x3cab8eee	0.020942178
252	0xbdee3992	-0.116320744
253	0xbea6da27	-0.32588312
254	0x3d990548	0.074717104
255	0xbe00237b	-0.12513535

log_std_linear.bias f4 [2]
0	0xbea41cf6	-0.32053345
1	0xbdb0eb18	-0.086385906
