lunar_lander_continuous/models/SAC/_q2_240_208.pth (torch, 277335 bytes, 5 tensors)

linear1.weight f4 [256, 10]
0.008010118 -0.10366587 -0.16045986 0.09291587 -0.17086688 0.3903778 -0.13832328 0.07635789
0.017914014 -0.38358796 -0.33738357 0.3808759 -0.053558644 0.48875487 0.2527315 0.0314645
-0.44164905 0.14236781 -0.041238356 0.2981344 0.70514697 0.19660126 -0.5079816 0.7894212
0.118619226 -0.35242182 -0.70023 -0.22546439 0.41519076 0.061650038 0.3778229 -0.20806754
0.107451156 1.5245541 -0.12157034 -0.40078294 0.28020048 -0.050397124 0.24759421 0.05224159
0.7459704 -0.2745975 -0.12062417 0.109365225 -0.17857866 -0.19049202 -0.27515495 -0.6183198
-0.011704543 0.08536176 -0.33975425 0.117066294 -0.46555293 -0.079537906 0.2375191 0.48379087
-0.37535477 -0.26833934 0.0398209 -0.14724092 0.43517026 0.20908818 0.24074568 0.39840913
-0.10601745 0.18496466 0.3257385 -0.12111864 -0.2862817 -0.1650002 -0.16021375 -0.010577157
0.36828834 0.28319788 -0.11465018 0.29015836 0.03715748 0.1109594 0.07066799 -0.6392579
0.012948951 0.027189378 -0.13669926 0.058326557 0.5048462 0.54949343 -0.5557444 -0.2289878
0.055090617 -0.1422613 0.12889788 0.11682985 -0.23467149 -0.3361363 0.04031487 -0.56278574
-0.122206874 0.30906814 -0.026821641 0.2852667 0.17283544 0.25531036 0.09560669 -0.48950514
0.24021208 0.13475162 -0.31223997 -0.057492346 0.21628356 0.17199723 -0.7194039 -0.081819355
-0.37700415 -0.28430662 0.53926367 0.042974215 0.21927516 0.108490855 -0.0063802586 -0.0006518666
-0.43247855 -0.011850699 -0.9270137 0.37500885 0.25072378 0.5064396 0.15800896 -0.23439151
0.047218136 -0.09052907 -0.28048182 0.28498736 0.26351735 -0.39560148 -0.7066284 0.3540036
-0.48209074 0.016421529 -0.18949379 -0.3166632 0.43080395 0.30076355 0.05162685 0.6977259
-0.40847448 -0.42510933 -0.37954456 -0.49377957 0.037994664 0.05836525 -0.05684821 -0.7250832
0.15174003 -0.4571202 0.1466559 0.8380352 -0.033001956 -0.23286864 0.15109491 -0.2111468
-0.42257142 -0.34621826 0.06989758 0.068179235 0.70699614 -0.2444892 0.08122628 -0.15397573
-0.17918213 0.15260191 0.21660016 -0.80049616 0.5883051 -0.6033125 -0.294617 0.039498787
-0.77664864 0.39115772 -0.028223967 0.061024334 0.48815513 -0.6880035 -0.9490772 0.8752114
-0.09174421 0.13604103 -0.24349615 0.4424684 -0.034651008 -0.00059297925 0.32340536 -0.27020815
0.76058227 -0.47553328 -0.14540343 -0.2952366 -0.31977117 0.36912197 0.07718506 -0.10958309
-0.11117751 0.28079012 0.22675848 0.61357665 0.055251855 0.15341954 0.3188369 -0.45229068
0.18007341 0.014320252 0.20053422 -0.30259162 -1.4764206 0.5399205 -0.03046874 -0.07437588
0.25757873 0.23886535 0.045214593 -0.0075105014 -0.417325 0.33296072 -0.5098067 1.175605
0.48254675 0.29692474 0.36838832 0.028456192 0.02055755 0.035347074 -0.10838809 -0.54088044
0.61918896 -0.5308546 0.38063 0.28095514 0.31503984 -0.088277414 0.22259676 0.22181614
-0.096864305 0.035383075 -0.32965547 0.09601574 -0.14744234 0.55779004 0.30744487 -0.39142376
-0.09727181 0.018628607 -0.33842325 0.15946409 0.47252548 -0.60296315 -0.16696338 0.390929
00000000: df3c 033c c64e d4bd 974f 24be ad4a be3d
00000010: baf7 2ebe 99df c73e 9ea4 0dbe 8761 9c3d
00000020: 69c0 923c a465 c4be 8abd acbe 2a02 c33e
00000030: 4f60 5bbd 143e fa3e 0666 813e ebe0 003d
00000040: d31f e2be dec8 113e 8de9 28bd 12a5 983e
00000050: 8384 343f d751 493e 150b 02bf 8217 4a3f
00000060: a3ee f23d a270 b4be 4642 33bf 23e0 66be
00000070: e293 d43e c084 7c3d 0172 c13e a80f 55be
00000080: 5a0f dc3d 9724 c33f dff9 f8bd 6c33 cdbe
00000090: 7076 8f3e 376d 4ebd 5689 7d3e 47fb 553d
000000a0: ebf7 3e3f 0b98 8cbe ce09 f7bd e0fa df3d
000000b0: 53dd 36be 5710 43be 1ce1 8cbe 354a 1ebf
000000c0: 69c4 3fbc 25d2 ae3d 45f4 adbe 74c0 ef3d
000000d0: f45c eebe c5e4 a2bd 3538 733e 70b3 f73e
000000e0: 802e c0be c663 89be 3d1b 233d 53c6 16be
000000f0: a3ce de3e 361b 563e 0986 763e 48fc cb3e
00000100: ad1f d9bd 6067 3d3e 32c7 a63e 0d0d f8bd
00000110: 8493 92be d0f5 28be 130f 24be d04b 2dbc
00000120: 4a90 bc3e 50ff 903e b7cd eabd a38f 943e
00000130: 7132 183d af3e e33d 61ba 903d 68a6 23bf
00000140: d627 543c 42bc de3c e4fa 0bbe d4e7 6e3d
00000150: 9a3d 013f 9aab 0c3f 4445 0ebf c77b 6abe
00000160: b3a6 613d f2ac 11be cefd 033e 7d44 ef3d
00000170: b94d 70be 0f1a acbe 3521 253d ba12 10bf
00000180: 9947 fabd 2e3e 9e3e 0fb9 dbbc 7a0e 923e
00000190: c6fb 303e 0ab8 823e 71cd c33d 6ba0 fabe
000001a0: 28fa 753e 54fc 093e ebdd 9fbe 187d 6bbd
000001b0: 7079 5d3e 0b20 303e db2a 38bf e890 a7bd
000001c0: b006 c1be a390 91be 2f0d 0a3f bb05 303d
000001d0: ab89 603e 7430 de3d 7d11 d1bb 07e2 2aba
000001e0: d46d ddbe 6f29 42bc c550 6dbf 2901 c03e
000001f0: de5e 803e 07a6 013f 1acd 213e 5404 70be
00000200: ce67 413d 4e67 b9bd 509b 8fbe dde9 913e
00000210: bfeb 863e 478c cabe 99e5 34bf f63f b53e
00000220: 99d4 f6be 7186 863c a90a 42be ae21 a2be
00000230: 5692 dc3e aefd 993e ad76 533d 2a9e 323f
00000240: 9123 d1be eea7 d9be aa53 c2be add0 fcbe
00000250: 4ba0 1b3d 6610 6f3d abd9 68bd 0d9f 39bf
00000260: bd61 1b3e a90b eabe f72c 163e 7a89 563f
00000270: 0f2d 07bd 1e75 6ebe a0b8 1a3e de36 58be
00000280: 485b d8be 8543 b1be 7626 8f3d 8ea1 8b3d
00000290: b3fd 343f 605b 7abe f759 a63d d0ab 1dbe
000002a0: 857b 37be ad43 1c3e 6fcc 5d3e 51ed 4cbf
000002b0: 2a9b 163f b072 1abf 0ad8 96be 7bc9 213d
000002c0: 72d2 46bf d345 c83e f335 e7bc a7f4 793d
000002d0: 78ef f93e ff20 30bf b9f6 72bf db0d 603f
000002e0: 63e4 bbbd 574e 0b3e 0e57 79be 388b e23e
000002f0: 37ee 0dbd 2a72 1bba 6395 a53e b958 8abe
00000300: 85b5 423f 1979 f3be a3e4 14be 4029 97be
00000310: 0cb9 a3be 8efd bc3e 3313 9e3d 196d e0bd
00000320: 09b1 e3bd b9c3 8f3e 6033 683e 5c13 1d3f
00000330: c54f 623d 031a 1d3e 973e a33e a592 e7be
00000340: 2a65 383e 7e9f 6a3c d858 4d3e 4aed 9abe
00000350: 5afb bcbf 3b38 0a3f 9499 f9bc 6252 98bd
00000360: 5ce1 833e 1e99 743e f032 393d a71a f6bb
00000370: 9fab d5be d479 aa3e b182 02bf 3a7a 963f
00000380: 5e10 f73e 8506 983e 659d bc3e f61c e93c
00000390: 4f68 a83c 18c8 103d 93fa ddbd 2477 0abf
000003a0: 2b83 1e3f 16e6 07bf efe1 c23e 5ad9 8f3e
000003b0: e74c a13e caca b4bd 68f0 633e c523 633e
000003c0: cb60 c6bd d8ed 103d 9ac8 a8be e6a3 c43d
000003d0: 20fb 16be 54cb 0e3f 6a69 9d3e b268 c8be
000003e0: 7136 c7bd 059b 983c d045 adbe 8e4a 233e
000003f0: dcee f13e cb5b 1abf 73f8 2abe d927 c83e

linear1.bias f4 [256]
0.07596057 0.23444147 -0.152975 -0.119973965 0.37071633 -0.55462396 0.44386667 0.037437946
0.35157523 -0.07327932 -0.38997295 -0.3516875 0.37478563 -0.018776137 -0.035715368 -0.24315155
-0.14463666 0.35373378 -0.056623243 0.24529007 0.10424448 -0.069065005 0.09203454 0.44044045
-0.13802162 -0.10195592 -0.2273327 0.21627021 0.31630296 -0.094859295 0.16319299 -0.28170756
0.13060755 0.059025045 0.03470257 0.23071955 -0.41765234 -0.12451909 -0.46971485 0.021205356
-0.18836534 -0.3497568 0.05335761 -0.18812002 -0.15486293 0.092426114 -0.23359387 0.2700379
0.15230243 0.15907021 0.4592541 0.31373018 0.23273559 -0.32886234 -0.25230378 -0.18800469
-0.30287483 -0.0054804482 0.07595166 0.11496061 0.13831136 -0.21550313 -0.089310475 -0.02539872
0.017709587 0.14861055 0.08817259 0.0854152 0.23542866 0.014084174 -0.10645788 0.04448771
0.31230283 0.19622758 0.12879233 0.42087683 -0.06828117 -0.24267143 -0.07089193 0.25156614
-0.22980519 0.22877 0.09712149 0.44350627 0.296634 0.3317727 -0.36631817 0.22356436
-0.13555618 0.2710222 0.1999376 0.12103669 -0.012070576 -0.19293481 -0.1283043 0.33601815
0.4993271 0.22211291 -0.31311247 -0.19209114 -0.10328854 -0.14294493 -0.09339697 0.09472329
0.22313575 0.067958035 0.16719247 -0.20220166 0.17928839 -0.49521616 0.100051664 0.23557928
-0.0438969 -0.29490265 0.33913288 0.058320653 0.115214586 -0.34442362 -0.027612505 0.044395544
0.4576019 -0.16571409 0.115630664 0.3269125 0.049902957 0.118668884 -0.041828353 0.19797193
0.1338749 -0.055617586 -0.061096705 0.25495315 0.0022824914 -0.17921656 0.34222674 0.007511633
-0.12209675 0.4253771 0.19955188 -0.14018355 0.3176742 0.20015973 -0.24906538 -0.058674667
0.3428202 -0.08508425 0.24791594 -0.21653585 0.22469391 -0.31428358 0.30133536 -0.10322671
-0.07945143 -0.38631123 -0.22293523 -0.21026418 -0.059221637 -0.15877964 -0.3235705 0.12900685
0.12599121 -0.29013753 0.25580755 -0.03652184 0.30353427 -0.22026657 0.042810235 -0.38453588
0.36279243 -0.0530606 -0.14637166 0.17720996 0.033092946 -0.18582937 0.27066562 0.257473
-0.055872418 -0.31565738 0.29398194 0.17019466 0.3811348 0.3142891 0.034583166 0.06859646
-0.116787165 0.038159028 0.430632 0.108152345 0.03428355 -0.14417933 0.025046835 -0.21655303
0.15657374 0.04310881 -0.14031368 0.0932833 0.29043993 0.253943 -0.14473039 -0.14422779
-0.26726755 0.30797625 0.068351276 0.1568422 0.1699351 0.25697997 0.21983688 -0.09911463
0.29331267 -0.43501824 -0.23973078 0.3124789 -0.021117445 -0.2939244 0.28806806 -0.2669121
-0.20932524 0.13087383 -0.18606843 0.14093453 -0.38436097 0.34624255 0.3044902 0.39742348
-0.2525183 0.118460394 -0.03264785 0.30491388 0.06722605 -0.39004198 0.24275939 0.14673355
0.23549834 -0.098147936 0.24377747 -0.0058123847 -0.38670263 0.05650369 -0.49122494 0.31355032
-0.23239504 0.37790713 0.05377223 -0.24086231 0.064726755 0.17272602 0.24415025 0.2576364
0.1946063 -0.15978119 0.0890255 -0.15511322 -0.4205057 -0.31765327 0.047738798 0.27195206
00000000: 3791 9b3d 6d11 703e 7aa5 1cbe e9b4 f5bd
00000010: 88ce bd3e d6fb 0dbf 7e42 e33e 8858 193d
00000020: ab01 b43e 7813 96bd 89aa c7be 6210 b4be
00000030: e7e3 bf3e 6ad0 99bc 474a 12bd b8fc 78be
00000040: a21b 14be 981c b53e c6ed 67bd 522d 7b3e
00000050: 217e d53d f471 8dbd 9b7c bc3d 6981 e13e
00000060: 8a55 0dbe 44ce d0bd e7c9 68be f075 5d3e
00000070: 76f2 a13e 9745 c2bd 101c 273e f93b 90be
00000080: fcbd 053e 3fc4 713d 4824 0e3d bf41 6c3e
00000090: 87d6 d5be dd03 ffbd 777e f0be dbb6 ad3c
000000a0: d8e2 40be 5313 b3be 828d 5a3d 89a2 40be
000000b0: 6394 1ebe e749 bd3d 3b33 6fbe 6842 8a3e
000000c0: 2bf5 1b3e 4de3 223e 5a23 eb3e 3ea1 a03e
000000d0: 3d52 6e3e a560 a8be f62d 81be 4d84 40be
000000e0: 6912 9bbe 5595 b3bb 8b8c 9b3d 7870 eb3d
000000f0: 7ea1 0d3e daac 5cbe 69e8 b6bd fa10 d0bc
00000100: b213 913c 5d2d 183e d593 b43d 2aee ae3d
00000110: 3614 713e 4fc1 663c 9706 dabd bf38 363d
00000120: 28e6 9f3e e2ef 483e 23e2 033e 2b7d d73e
00000130: 00d7 8bbd dc7e 78be ca2f 91bd 47cd 803e
00000140: 0d52 6bbe af42 6a3e a2e7 c63d 4113 e33e
00000150: 69e0 973e 1dde a93e 0e8e bbbe 0eee 643e
00000160: 3dcf 0abe 6cc3 8a3e 71bc 4c3e 16e2 f73d
00000170: aac3 45bc b490 45be 3462 03be 920a ac3e
00000180: cda7 ff3e 9171 633e 4750 a0be 8ab3 44be
00000190: f188 d3bd 2860 12be e946 bfbd 49fe c13d
000001a0: b37d 643e 952d 8b3d 8134 2b3e f40d 4fbe
000001b0: 6097 373e f98c fdbe e3e7 cc3d b23b 713e
000001c0: 3ccd 33bd 7bfd 96be d3a2 ad3e a3e1 6e3d
000001d0: a0f5 eb3d 4b58 b0be 9f33 e2bc 1ad8 353d
000001e0: cc4a ea3e f4b0 29be c5cf ec3d 1361 a73e
000001f0: 0b67 4c3d ac08 f33d 3554 2bbd 27b9 4a3e
00000200: 8016 093e 44cf 63bd 8a40 7abd 3889 823e
00000210: da95 153b 8c84 37be 5838 af3e 2524 f63b
00000220: dc0d fabd 07cb d93e 5457 4c3e 478c 0fbe
00000230: 31a6 a23e acf6 4c3e ff0a 7fbe d954 70bd
00000240: 2186 af3e a740 aebd addd 7d3e 93bb 5dbe
00000250: 2916 663e c7e9 a0be a148 9a3e 8668 d3bd
00000260: 6eb7 a2bd 96ca c5be 2249 64be 7e4f 57be
00000270: 6392 72bd 2197 22be 08ab a5be 5f1a 043e
00000280: d703 013e e88c 94be 35f9 823e ed97 15bd
00000290: d868 9b3e 8f8d 61be c959 2f3d e3e1 c4be
000002a0: eebf b93e 1256 59bd 74e2 15be 8776 353e
000002b0: 788c 073d 0e4a 3ebe af94 8a3e 80d3 833e
000002c0: 7ada 64bd d89d a1be cd84 963e 8247 2e3e
000002d0: 1a24 c33e 80ea a03e 14a7 0d3d 4d7c 8c3d
000002e0: 1c2e efbd a44c 1c3d cc7b dc3e fa7e dd3d
000002f0: e86c 0c3d bfa3 13be 052f cd3c 14c0 5dbe
00000300: de54 203e dd92 303d 64ae 0fbe 510b bf3d
00000310: 8bb4 943e d104 823e 3434 14be 73b0 13be
00000320: 4bd7 88be 10af 9d3e c1fb 8b3d 3e9b 203e
00000330: 7803 2e3e e192 833e eb1c 613e 9cfc cabd
00000340: 142d 963e b6ba debe fc7b 75be 3cfd 9f3e
00000350: 7efe acbc 427d 96be a87d 933e b4a8 88be
00000360: 5b59 56be ca03 063e b988 3ebe 2451 103e
00000370: f6ca c4be b446 b13e 24e6 9b3e 177b cb3e
00000380: 144a 81be 5d9b f23d c1b9 05bd ac1d 9c3e
00000390: d0ad 893d 95b3 c7be eb95 783e 5241 163e
000003a0: 7a26 713e c901 c9bd cda0 793e d175 bebb
000003b0: e3fd c5be 6a70 673d d681 fbbe ab89 a03e
000003c0: f7f8 6dbe 0b7d c13e 4540 5c3d 9ca4 76be
000003d0: 768f 843d 17df 303e 8602 7a3e ebe8 833e
000003e0: e046 473e ae9d 23be 0053 b63d 00d6 1ebe
000003f0: 864c d7be 73a3 a2be c289 433d 4d3d 8b3e

linear2.weight f4 [256, 256]
0.17067635 -0.00073011906 -0.11994021 -0.09657459 0.09012525 -0.11350718 0.118935995 0.003778453
0.12519994 0.14745387 0.026742086 -0.46893626 -0.0066457754 -0.073621504 0.07419562 0.37355456
0.50825036 0.5140521 0.14984648 0.07339773 -0.048293244 0.47582257 -0.20612253 0.13699786
-0.25261447 0.034714784 0.0024947294 -0.07771277 0.11964496 -0.34519154 -0.102600336 -0.4571166
0.047142435 -0.009248758 -0.16635102 0.15967895 -0.06488104 0.22606057 -0.4276671 0.14937435
0.35897356 -0.6676479 0.042325206 -0.056503884 -0.18244167 -0.010261944 -0.19463192 0.06464207
0.02028289 0.15434287 0.0685393 0.059529223 0.09387368 -0.6915189 -0.72767776 -0.09971496
-0.28710437 -0.03773712 0.11976928 0.123818025 0.08101046 -0.4469221 0.14576234 0.16623208
-0.03132103 0.20962326 -0.078250535 0.24202673 0.08813754 -0.29453242 0.121682145 0.05034179
0.098912545 0.39264637 0.32706293 0.12938419 0.23688923 -0.32106036 0.27041367 0.107724145
-0.11244727 0.028221963 0.331475 0.23744144 0.10037365 0.1498464 -0.2869247 -0.0807605
-0.07592281 0.14263178 -0.15814076 -0.03754225 -0.031068446 -0.4067674 0.2293602 0.09496984
0.046517476 0.11437248 0.64404494 0.015589518 0.1648507 -0.3421607 0.06140682 0.38523912
0.009186744 -0.057649918 0.0912777 0.3416354 0.051634986 -0.37147146 0.008754263 -0.042376433
0.092038095 -0.17648219 0.076969706 0.006771667 -0.032767013 0.12548965 0.14044473 0.223832
0.095499255 0.086123705 0.06838044 0.09353696 0.09303641 -0.021554532 0.40850073 0.35177
0.17145051 0.04369652 -0.21133503 0.014691519 -0.17947786 -0.21677385 0.08496564 -0.055058017
-0.28346732 0.14840433 0.049094673 -0.35133666 0.39384553 -0.07792554 0.35528457 0.75816256
0.15766239 -0.10887433 -0.063989185 0.3936808 0.10550702 -0.337746 0.03672679 -0.42890593
0.015536242 0.3972842 0.42147923 0.22822534 0.12593192 -0.5148473 -0.813026 0.09627011
0.15272954 0.30877608 0.14583808 0.19333623 0.44967073 -0.43346694 0.16914037 -0.65232813
0.077952355 0.14003873 0.014454271 0.08865603 -0.16510376 -0.347345 -0.073416576 0.024953242
-0.14179249 -0.5581947 0.2396458 0.01160708 0.06661059 0.1557681 -0.03229542 0.023353707
0.06895056 -0.121616304 0.030462168 0.0759797 -0.12791488 -0.2458439 0.105093926 -0.21846384
0.19071324 0.01131172 0.328349 -0.06913761 0.13567656 0.022492759 -0.27012253 0.12602086
-0.22399186 0.13587941 0.14317968 0.1268677 0.15548912 -0.04036253 -0.04737812 -0.099849544
0.14490227 -0.7051991 -0.4095962 -0.09259413 0.26813394 0.37727827 0.073817216 -0.012746195
-0.016500764 0.011148067 0.01534087 0.14533643 0.5946164 0.17348577 -0.026155997 0.0039482517
-0.17404269 0.12241188 -0.017178426 -0.08625263 0.16035697 -0.35550493 0.07707042 0.1156522
0.0007255233 0.22716449 0.018418232 -0.51108265 -0.20846464 0.098330304 0.28851143 0.15061809
-0.34061235 0.23232421 0.33563286 -0.018879952 0.18294016 0.27585477 0.04067676 0.35270944
0.15586841 0.23545496 0.025285097 -0.39290825 -0.7700865 -0.15783265 -0.09460846 0.10206962
00000000: c8c5 2e3e 7665 3fba 36a3 f5bd e6c8 c5bd
00000010: 9693 b83d 7476 e8bd b794 f33d ec9f 773b
00000020: 6a34 003e 26fe 163e 3812 db3c 6a18 f0be
00000030: cec4 d9bb dfc6 96bd e0f3 973d 8b42 bf3e
00000040: b21c 023f eb98 033f 5b71 193e 8d51 963d
00000050: 23cf 45bd 049f f33e c911 53be 2b49 0c3e
00000060: af56 81be 1731 0e3d 9d7e 233b df27 9fbd
00000070: 6b08 f53d f2bc b0be 2020 d2bd 300b eabe
00000080: 6d18 413d 1a88 17bc ec57 2abe e182 233e
00000090: 5ae0 84bd 6c7c 673e 2ff7 dabe 97f5 183e
000000a0: 62cb b73e f9ea 2abf 325d 2d3d 9e70 67bd
000000b0: fdd1 3abe b621 28bc 974d 47be 1063 843d
000000c0: 4e28 a63c 0f0c 1e3e 555e 8c3d ead4 733d
000000d0: d840 c03d 6207 31bf 1749 3abf 5b37 ccbd
000000e0: 58ff 92be 3d92 1abd 9949 f53d 4e94 fd3d
000000f0: d0e8 a53d f9d2 e4be b942 153e be38 2a3e
00000100: 7b4a 00bd 7ba7 563e d141 a0bd dbd5 773e
00000110: 7481 b43d f4cc 96be 7d34 f93d 3133 4e3d
00000120: a992 ca3d f208 c93e cb74 a73e 4a7d 043e
00000130: 1793 723e 0662 a4be a973 8a3e 7a9e dc3d
00000140: c14a e6bd bf31 e73c 17b7 a93e d923 733e
00000150: b390 cd3d 5671 193e cbe7 92be c365 a5bd
00000160: 6b7d 9bbd 110e 123e a7ef 21be e7c5 19bd
00000170: 4183 febc d143 d0be 66dd 6a3e 8c7f c23d
00000180: 1c89 3e3d 1e3c ea3d 21e0 243f 2d6b 7f3c
00000190: 9fce 283e b02f afbe b885 7b3d 103e c53e
000001a0: ff83 163c 5222 6cbd ceef ba3d d6ea ae3e
000001b0: 357f 533d 8231 bebe 0a6e 0f3c e992 2dbd
000001c0: 787e bc3d bfb7 34be 4ba2 9d3d dce4 dd3b
000001d0: b436 06bd 5c80 003e bed0 0f3e 3734 653e
000001e0: 1d95 c33d a061 b03d 0b0b 8c3d 4e90 bf3d
000001f0: e089 be3d 2193 b0bc 0227 d13e 331b b43e
00000200: b990 2f3e 1ffb 323d 3668 58be b2b4 703c
00000210: 0bc9 37be f7f9 5dbe 7702 ae3d 8484 61bd
00000220: a122 91be 4ef7 173e 7f17 493d 66e2 b3be
00000230: 1fa6 c93e 6d97 9fbd dce7 b53e f116 423f
00000240: 4072 213e 81f9 debd c30c 83bd 8890 c93e
00000250: 1114 d83d 0bed acbe d56e 163d 8f99 dbbe
00000260: b98b 7e3c d668 cb3e 20cc d73e e7b3 693e
00000270: 4cf4 003e 08cd 03bf 7922 50bf 4329 c53d
00000280: 2265 1c3e e617 9e3e 9456 153e eff9 453e
00000290: 3e3b e63e 61ef ddbe 2233 2d3e fafe 26bf
000002a0: 7ca5 9f3d 5066 0f3e 9bd1 6c3c 4b91 b53d
000002b0: f610 29be 34d7 b1be 6e5b 96bd be6a cc3c
000002c0: 0d32 11be d9e5 0ebf b565 753e 9f2b 3e3c
000002d0: 226b 883d ac81 1f3e 3448 04bd 4650 bf3c
000002e0: f435 8d3d f811 f9bd cc8b f93c 3f9b 9b3d
000002f0: 1efc 02be 81be 7bbe 7c3b d73d fcb4 5fbe
00000300: 554a 433e cb54 393c 5c1d a83e 0598 8dbd
00000310: ccee 0a3e bc42 b83c 804d 8abe 9d0b 013e
00000320: 1f5e 65be f923 0b3e b29d 123e 9be9 013e
00000330: 8a38 1f3e 2e53 25bd 8f0f 42bd eb7d ccbd
00000340: 4361 143e ee87 34bf 98b6 d1be fea1 bdbd
00000350: da48 893e 9e2a c13e 7b2d 973d 6bd5 50bc
00000360: 9c2c 87bc 62a6 363c 4658 7b3c 13d3 143e
00000370: c838 183f 41a6 313e 1a45 d6bc 5660 813b
00000380: 3f38 32be 14b3 fa3d c5b9 8cbc 38a5 b0bd
00000390: 9e34 243e be04 b6be 19d7 9d3d 10db ec3d
000003a0: 0b31 3e3a cf9d 683e d5e1 963c 50d6 02bf
000003b0: c177 55be 6661 c93d c5b7 933e a13b 1a3e
000003c0: be64 aebe 66e6 6d3e 12d8 ab3e 21aa 9abc
000003d0: aa54 3b3e d63c 8d3e ad9c 263d 5596 b43e
000003e0: f89b 1f3e 1b1b 713e b122 cf3c 452b c9be
000003f0: 6424 45bf e29e 21be 15c2 c1bd e009 d13d

linear2.bias f4 [256]
0.12585661 0.16308942 -0.061114736 0.03048288 0.13889368 -0.01915201 -0.026197357 -0.028196156
0.06869908 0.16360998 -0.00874756 0.067263246 0.0551074 0.024478918 -0.07143736 0.15507376
-0.006868435 -0.04036811 0.052493934 0.15140991 -0.0448424 0.13427018 -0.035119288 0.009876329
-0.044881623 -0.03037113 0.0046011154 0.08223247 0.0004926757 -0.028344983 0.059594125 -0.022095295
-0.0056300014 0.20816381 0.11349397 -0.015010819 0.025912154 0.047589052 0.118453905 0.032050297
0.108906075 0.08475316 0.05774729 -0.0036889163 0.047349975 0.09184961 0.038338028 0.027491244
0.019078556 0.13714279 -0.022769233 0.023080701 0.04405958 0.04986692 0.12909612 0.18986544
0.08044198 -0.02231021 0.101168014 -0.05002226 0.023440896 0.007656537 0.07020128 0.07518656
-0.016930439 0.16793644 0.1581946 0.011405108 0.0037007085 0.042083662 -0.062146552 0.16739264
-0.010433647 0.071940675 0.05416641 -0.0404489 0.08638649 0.062517434 0.075601205 0.03234017
0.0070551424 0.12009836 0.10193307 0.038270645 0.14741123 0.11473686 0.03979091 -0.0077960184
-0.013550199 0.13297948 -0.029397374 0.21081729 0.11678673 0.09140954 0.06988193 0.07315213
0.07309588 -0.012942836 0.18508454 0.027330508 -0.024874147 -0.03950077 0.14310975 0.11084104
0.043818723 -0.07044637 0.02055855 0.09005524 0.049010534 0.063593134 0.10538503 0.060373325
0.093318306 -0.081583776 -0.09879285 0.063889876 0.023227857 0.038732525 0.023828732 0.009670984
0.100457415 -0.03870757 0.012981095 -0.032156203 -0.061297063 0.028020145 -0.021551652 0.13154721
0.031624578 -0.022162428 0.01990134 0.12585531 -0.029717822 0.17536904 0.20346771 0.10579928
-0.016691832 -0.061414316 -0.05459886 -0.0067004273 0.11810836 -0.055909183 0.06843415 0.05048748
0.12766019 0.06976607 0.062101677 0.039246697 0.048859637 0.087668404 -0.033367176 0.16110776
-0.010812961 0.081787534 0.12537523 0.117812745 0.06096766 0.053456016 0.060845546 0.013292534
0.015443062 -0.035839677 0.0054411073 0.14524165 -0.22127713 0.10463513 0.088010415 0.12672345
0.18009338 0.03326091 0.22520816 -0.07740152 0.104548536 0.06731684 -0.078408025 0.15305342
-0.04050489 0.15791431 0.13512138 0.11462372 0.043478478 0.07367836 0.049769625 -0.015405578
-0.055217814 0.10153566 -0.23570135 0.07859894 -0.039958365 0.027622376 0.17420794 -0.031983286
0.040430263 0.11077336 -0.06592596 0.0037925874 0.1633273 0.06711978 0.05909252 0.049651947
0.12906249 0.0004365341 0.023926586 -0.037425734 -0.033173487 -0.020528428 0.18761414 0.002631109
0.14198081 0.0629492 0.19336541 0.076689266 0.05094723 0.0190447 0.20457646 -0.046055447
-0.039807774 0.14655799 0.08720573 0.07961338 0.090645425 0.066161945 0.075208165 0.027601203
-0.021042071 -0.050239176 0.1394174 0.06753379 0.16284248 0.07660526 -0.00470022 -0.012835429
0.08005565 -0.057083305 0.051268946 0.00082493044 -0.0037110397 0.032095753 -0.025188293 0.0025365867
0.016489029 0.13445674 0.06837357 0.0646749 0.014283586 -0.0011213382 0.1737307 0.05250023
-0.06414478 -0.007919486 0.10104066 0.16847946 -0.043209277 0.04268762 0.028626885 0.057112407
00000000: 8ee0 003e ea00 273e 7253 7abd 3cb7 f93c
00000010: 253a 0e3e ade4 9cbc d79b d6bc a0fb e6bc
00000020: 1ab2 8c3d 6089 273e ed51 0fbc 50c1 893d
00000030: 4cb8 613d 0388 c83c c04d 92bd a8cb 1e3e
00000040: 9c10 e1bb 0859 25bd e103 573d 330b 1b3e
00000050: aaac 37bd 1f7e 093e 3ed9 0fbd 54d0 213c
00000060: cbd5 37bd e0cc f8bc f4c4 963b 7f69 a83d
00000070: e826 013a bd33 e8bc f818 743d 3101 b5bc
00000080: e07b b8bb e528 553e 876f e83d f0ef 75bc
00000090: ba45 d43c bdec 423d f697 f23d 2c47 033d
000000a0: 260a df3d 1193 ad3d 6c88 6c3d bfc1 71bb
000000b0: 0cf2 413d a61b bc3d 5608 1d3d 5135 e13c
000000c0: a24a 9c3c 296f 0c3e 8b86 babc bd13 bd3c
000000d0: d177 343d 4141 4c3d c631 043e 166c 423e
000000e0: c4be a43d e7c3 b6bc 2d31 cf3d 24e4 4cbd
000000f0: 1f07 c03c b0e3 fa3b b0c5 8f3d 69fb 993d
00000100: b4b1 8abc 88f7 2b3e c4fd 213e 7ddc 3a3c
00000110: 9687 723b eb5f 2c3d 628d 7ebd fa68 2b3e
00000120: e3f1 2abc a255 933d 99dd 5d3d bfad 25bd
00000130: 66eb b03d 2409 803d ced4 9a3d 2077 043d
00000140: d32e e73b 21f6 f53d 49c2 d03d aec1 1c3d
00000150: f8f2 163e 29fb ea3d cbfb 223d be75 ffbb
00000160: a701 5ebc c62b 083e c3d2 f0bc 7de0 573e
00000170: e22d ef3d ed34 bb3d 421e 8f3d c9d0 953d
00000180: 4bb3 953d 300e 54bc cd86 3d3e 3be4 df3c
00000190: dec4 cbbc 8fcb 21bd 5d8b 123e a100 e33d
000001a0: 437b 333d 3046 90bd 676a a83c e26e b83d
000001b0: 45bf 483d 1e3d 823d 1bd4 d73d 054a 773d
000001c0: ab1d bf3d 6515 a7bd e853 cabd b2d8 823d
000001d0: 5948 be3c ffa5 1e3d 7934 c33c 0c73 1e3c
000001e0: 9ebc cd3d d48b 1ebd a9ae 543c 39b6 03bd
000001f0: a112 7bbd 818a e53c 178d b0bc 50b4 063e
00000200: c688 013d fb8d b5bc 2308 a33c 37e0 003e
00000210: ca72 f3bc f193 333e d759 503e 4bad d83d
00000220: 4fbd 88bc 948d 7bbd 0ea3 5fbd 428f dbbb
00000230: cce2 f13d 0701 65bd 3427 8c3d f6cb 4e3d
00000240: 5ab9 023e 83e1 8e3d 545e 7e3d 25c1 203d
00000250: 0b21 483d 7e8b b33d 05ac 08bd 6ff9 243e
00000260: d828 31bc 3980 a73d 5d62 003e cf47 f13d
00000270: 3ab9 793d b2f4 5a3d 2e39 793d eec8 593c
00000280: e604 7d3c a0cc 12bd 514b b23b 3aba 143e
00000290: 7996 62be f14a d63d ce3e b43d cbc3 013e
000002a0: 666a 383e 983c 083d f89c 663e b084 9ebd
000002b0: 8b1d d63d 69dd 893d 6394 a0bd 09ba 1c3e
000002c0: 75e8 25bd 4ab4 213e 425d 0a3e d7bf ea3d
000002d0: 7d16 323d aee4 963d 3cdb 4b3d ad67 7cbc
000002e0: 132c 62bd eef1 cf3d b25b 71be 7bf8 a03d
000002f0: 62ab 23bd 5248 e23c 9163 323e e800 03bd
00000300: 349a 253d 25dd e23d 3104 87bd 0f8d 783b
00000310: 463f 273e 1876 893d 000b 723d d75f 4b3d
00000320: f528 043e 9dde e439 b001 c43c ba4b 19bd
00000330: ece0 07bd 3c2b a8bc ec1d 403e af6e 2c3b
00000340: 6b63 113e 83eb 803d 9501 463e 430f 9d3d
00000350: 0bae 503d a103 9c3c 7e7c 513e a3a4 3cbd
00000360: 7a0d 23bd 4c13 163e eb98 b23d 570c a33d
00000370: 4fa4 b93d ea7f 873d bd06 9a3d eb1b e23c
00000380: 6c60 acbc 98c7 4dbd 6fc3 0e3e 284f 8a3d
00000390: 2ec0 263e 38e3 9c3d 4e04 9abb b14b 52bc
000003a0: 37f4 a33d 2fd0 69bd 63ff 513d 2540 583a
000003b0: ea34 73bb d676 033d ae57 cebc dd3c 263b
000003c0: 0014 873c 07af 093e 7107 8c3d 4674 843d
000003d0: b405 6a3c def9 92ba 76e6 313e 7b0a 573d
000003e0: 575e 83bd bbc0 01bc 68ee ce3d e185 2c3e
000003f0: 36fc 30bd 37d9 2e3d ee82 ea3c b3ee 693d

linear3.weight f4 [1, 256]
0.36354008 0.43779394 -0.021377025 0.61773926 0.6390829 -0.23601177 -0.25697792 -0.86664313
-0.8465362 0.43659812 -0.8561747 -0.28834414 -0.22654569 0.56323516 0.025159094 0.4095252
-0.58518887 0.6891826 -0.20075011 0.46400598 0.023729587 0.4513218 -0.23363303 -0.21853584
0.6010952 -0.37274647 0.055507187 0.26306155 -0.890654 -0.23933251 -0.21474445 0.037780188
-0.37203848 -0.5252529 0.42868382 -0.05256156 -0.017099487 -0.6216961 0.5970095 -0.19623071
0.43720132 -0.21003409 -0.21649337 -0.18103969 -0.22135189 0.4315083 -0.18735972 0.5265801
0.6147398 0.40178746 -0.23852453 -0.25084227 -0.19900176 -0.23985466 -0.25735962 0.4144117
-0.1811286 -0.9042644 -0.3249064 -1.4677677 -0.21200915 -0.20296775 -0.8976887 -0.30769742
-0.20314115 0.46183386 0.40574288 -0.019456653 -0.40708888 0.5449533 1.0093971 0.41359693
1.7710735 -0.22528015 -0.21364017 1.3083668 -0.21934271 0.8719575 0.39995986 -0.8920084
-0.4650809 1.6858613 0.41061726 -0.037911125 0.41033322 -0.2380453 0.3925698 -0.045705393
-0.0068312073 0.5153466 0.008727999 -1.0191423 0.46081564 0.38606998 -0.20733607 -0.18396704
-0.2561116 -0.0071442374 1.2844812 -0.05161595 -0.21208684 -1.7139044 0.47677276 -0.2562512
-0.19358629 -0.92341584 -0.01143204 0.4317131 -0.24093953 0.65815103 0.4839813 -0.23546106
0.47694787 0.7940124 -0.3760934 0.48462245 0.77317685 0.8065667 -0.21956018 -0.35739836
0.37654787 -0.031246662 -0.19473237 -0.19672333 0.55219895 0.44270828 -0.2198049 0.4666099
-0.33684373 -0.21610084 0.53832895 0.4319122 0.5268712 0.42883658 0.4065573 0.39093962
-0.7578062 1.336004 -0.27032962 -0.7053713 0.4975919 0.0015279917 0.44572482 -0.21970698
0.44438994 -0.21204343 1.4822019 0.98245573 -0.22320428 -0.30181986 -0.7884599 0.41121012
-0.20753749 0.4527754 0.45957997 0.39272776 0.48345053 0.45326394 -0.22896343 -0.040001594
-0.20622495 0.5429756 -0.19729069 0.4689028 -0.48743168 0.61811715 0.40848047 0.4294132
0.38478392 -0.20148906 0.7136403 1.5825157 -0.7942991 -0.2259084 0.95925915 0.3790062
-0.21000046 0.38691512 -1.7874941 0.43828216 -0.18364505 -0.2236328 0.39169207 0.028695475
0.83663255 0.3789057 -0.783372 -1.1593089 -0.2307831 0.46604693 0.4655315 -0.040426422
-0.19292855 -0.26846373 0.036489677 0.3967765 0.71055514 -0.19231105 -0.6740603 0.67846054
0.4731852 -0.0044769896 -0.28098455 -0.4802207 -0.03264018 1.4819285 0.43621084 0.99306977
0.40408635 -0.33349216 -1.8863068 0.40851337 -0.19071226 -0.23525739 -0.8574996 1.1402423
-0.73352623 -0.2540566 -0.32710424 0.38717726 0.4060834 -0.19034025 0.48380616 1.5978975
0.023850832 -1.1572365 0.41374004 -0.26782143 0.36088374 0.438582 0.58436835 -0.24096458
0.5516288 -0.42093056 -0.4674578 -0.20821624 -0.041767202 -0.2296387 -0.24679421 -0.19810988
-0.1814165 0.42962185 -1.0155754 -0.27751467 -0.2365535 0.62956667 0.4855842 -0.2245231
0.0019953444 -0.5593057 0.43795738 0.42409313 0.7192752 -0.2737386 -0.7309348 -0.22642443
00000000: ed21 ba3e 8726 e03e df1e afbc 2924 1e3f
00000010: f09a 233f 12ad 71be 9c92 83be 53dc 5dbf
00000020: 99b6 58bf ca89 df3e 442e 5bbf d8a1 93be
00000030: 98fb 67be 2e30 103f 721a ce3c 49ad d13e
00000040: f0ce 15bf 456e 303f 7091 4dbe 3192 ed3e
00000050: 8d64 c23c a713 e73e 7f3d 6fbe dcc7 5fbe
00000060: 60e1 193f a0d8 bebe 815b 633d 01b0 863e
00000070: e701 64bf 9513 75be f8e5 5bbe 66bf 1a3d
00000080: d47b bebe f976 06bf 727c db3e ca4a 57bd
00000090: 3914 8cbc 7a27 1fbf 9dd5 183f b4f0 48be
000000a0: dad8 df3e 2d13 57be 70b0 5dbe 7862 39be
000000b0: 12aa 62be a8ee dc3e 3adb 3fbe f4cd 063f
000000c0: 965f 1d3f 16b7 cd3e c63f 74be 666e 80be
000000d0: 1ec7 4bbe 769c 75be a4c4 83be c52d d43e
000000e0: c779 39be df7d 67bf 225a a6be d0df bbbf
000000f0: ed18 59be c7d6 4fbe edce 65bf 848a 9dbe
00000100: 3c04 50be 7d75 ec3e 88bd cf3e 8f63 9fbc
00000110: f46d d0be 0f82 0b3f ed33 813f fac2 d33e
00000120: 89b2 e23f d7af 66be 7dc4 5abe 9078 a73f
00000130: 609b 60be 9b38 5f3f 8ac7 cc3e aa5a 64bf
00000140: 151f eebe 4eca d73f 6d3c d23e b248 1bbd
00000150: 3217 d23e 26c2 73be e9fe c83e 9435 3bbd
00000160: 52d8 dfbb c1ed 033f e2ff 0e3c 4173 82bf
00000170: 07f0 eb3e f7aa c53e e84f 54be db61 3cbe
00000180: 0f21 83be 351a eabb e169 a43f 3f6b 53bd
00000190: 4b2d 59be 3861 dbbf 8f1b f43e 5b33 83be
000001a0: 7c3b 46be fb64 6cbf 734d 3bbc 8009 dd3e
000001b0: dab8 76be 967c 283f 66cc f73e b41c 71be
000001c0: 8332 f43e 6644 4b3f 508f c0be 6f20 f83e
000001d0: ebee 453f 287b 4e3f 62d4 60be ebfc b6be
000001e0: e2ca c03e 00f9 ffbc ec67 47be d771 49be
000001f0: e95c 0d3f a9aa e23e 8914 61be 7ee7 ee3e
00000200: c876 acbe 8a49 5dbe edcf 093f 9923 dd3e
00000210: 08e1 063f 7890 db3e 4728 d03e 3d29 c83e
00000220: 96ff 41bf 2e02 ab3f a568 8abe 3793 34bf
00000230: 5ec4 fe3e e546 c83a 0b36 e43e defa 60be
00000240: 1487 e33e ea21 59be cbb8 bd3f 3882 7b3f
00000250: aa8f 64be 2288 9abe 82d8 49bf 228a d23e
00000260: b584 54be 2dd2 e73e 114e eb3e 9d13 c93e
00000270: d486 f73e 3612 e83e 6475 6abe b6d8 23bd
00000280: a22c 53be 7300 0b3f 9206 4abe 0714 f03e
00000290: a590 f9be ed3c 1e3f 5a24 d13e 0cdc db3e
000002a0: 6602 c53e 2653 4ebe 21b1 363f e08f ca3f
000002b0: 3057 4bbf 8854 67be 0292 753f 1a0d c23e
000002c0: 5c0a 57be bd19 c63e 9bcc e4bf 8566 e03e
000002d0: 730d 3cbe ffff 64be dd8b c83e c612 eb3c
000002e0: 8d2d 563f eeff c13e 118b 48bf 3c64 94bf
000002f0: 6852 6cbe b49d ee3e 255a ee3e 2d96 25bd
00000300: 108f 45be 1474 89be 3376 153d 4a26 cb3e
00000310: f1e6 353f 30ed 44be 378f 2cbf 97af 2d3f
00000320: 5545 f23e b6b3 92bb 35dd 8fbe 7ddf f5be
00000330: b6b1 05bd d5af bd3f 0757 df3e d239 7e3f
00000340: 68e4 ce3e 7cbf aabe 8072 f1bf aa28 d13e
00000350: 134a 43be 50e7 70be 1885 5bbf 76f3 913f
00000360: 60c8 3bbf b513 82be 357a a7be 193c c63e
00000370: 2aea cf3e 8ee8 42be 71b5 f73e e887 cc3f
00000380: d262 c33c 5320 94bf bcd5 d33e e41f 89be
00000390: c1c5 b83e d28d e03e 2a99 153f 6bbf 76be
000003a0: 8c37 0d3f 3684 d7be a156 efbe a336 55be
000003b0: 1614 2bbd 6826 6bbe 9fb7 7cbe 51dd 4abe
000003c0: 3fc5 39be 65f7 db3e 60fe 81bf 6716 8ebe
000003d0: 153b 72be 482b 213f 7e9e f83e 62e9 65be
000003e0: 53c4 023b a92e 0fbf f33b e03e bc22 d93e
000003f0: 6b22 383f 7727 8cbe 8b1e 3bbf cedb 67be
