lunar_lander_continuous/models/SAC/actor_234_202.pth (torch, 278991 bytes, 8 tensors)

net_fc.0.weight f4 [256, 8]
0	0x3e2b1bf3	0.1670988
1	0x3c815c62	0.015791122
2	0x3e62c6cc	0.22146147
3	0xbf07d7d9	-0.5306373
4	0xbf5d3fe6	-0.86425626
5	0xbe89a53f	-0.26883885
6	0xbd855b46	-0.0651155
7	0x3d80f000	0.06295776
8	0x3e34e2e7	0.17664681
9	0xbf3d9486	-0.74054754
10	0x3ed9531c	0.4244622
11	0x3fa8e730	1.3195553
12	0xbf563ca4	-0.8368628
13	0xbe13db13	-0.14439039
14	0xbd5f9489	-0.054585014
15	0xbe1a0261	-0.1503997
16	0xbf6676d5	-0.90025073
17	0x3eb75166	0.3580429
18	0x3f16c7e3	0.5889875
19	0x3e88dcee	0.26731056
20	0xbf0ca070	-0.5493231
21	0xbeb795a0	-0.35856342
22	0xbec637e1	-0.38714507
23	0x3d0757e0	0.03304279
24	0x3dd6784b	0.10472163
25	0xbdeb825e	-0.11499475
26	0x3e8ccb33	0.2749878
27	0xbe0929de	-0.13394877
28	0xbdf15231	-0.11783255
29	0xbf68ab96	-0.9088682
30	0xbedaac34	-0.42709506
31	0x3cd3e1cd	0.025864506
32	0x3e78fc3d	0.24314971
33	0xbdd96c6f	-0.10616385
34	0xbf0de849	-0.55432564
35	0xbdc73360	-0.09726596
36	0xbe24d335	-0.16096194
37	0xbe889e84	-0.26683438
38	0x3e014d11	0.12627055
39	0xbcde9e15	-0.027174989
40	0xbe81f011	-0.2537847
41	0xbeb43cfe	-0.35202783
42	0x3ebd2a66	0.3694641
43	0x3f687e02	0.9081727
44	0x3f2da2fc	0.6782682
45	0x3e886b32	0.26644284
46	0x3e17226e	0.14759228
47	0x3e9994b8	0.29996276
48	0x3dfc067e	0.12305926
49	0xbc1bee11	-0.009517209
50	0xbe91c173	-0.28467903
51	0xbefc24d1	-0.4924684
52	0x3f6064e7	0.87653965
53	0x3dcbd3bb	0.09952494
54	0xbc91a60b	-0.01777937
55	0xbe0edc7e	-0.13951299
56	0x3e977498	0.2958114
57	0x3d2fb648	0.042898446
58	0xbd484ddd	-0.04890238
59	0xbec4eace	-0.38460392
60	0x3f37e7bc	0.71837974
61	0xbe896307	-0.26833364
62	0xbe6fa301	-0.23402025
63	0xbef19d02	-0.471901
64	0x3eb31c81	0.34982684
65	0xbeb80639	-0.35942248
66	0x3f0e60f9	0.5561672
67	0x3ef9b6bf	0.48772237
68	0x3e37f29a	0.17963639
69	0x3ed917f1	0.42401078
70	0x3debf9e3	0.115222715
71	0x3dbae51b	0.0912573
72	0x3ee357a6	0.44402808
73	0xbdebe009	-0.11517341
74	0x3f3fcdd2	0.7492343
75	0x3e76f1cc	0.24115676
76	0x3eba59e1	0.36396697
77	0x3e07e04a	0.13269153
78	0x3e57d659	0.21077861
79	0xbec8c143	-0.39209947
80	0xbdc50195	-0.096194424
81	0x3e8817a7	0.26580545
82	0x3daebe63	0.08532407
83	0xbe3d8cdb	-0.18510763
84	0x3f1ab02f	0.60425085
85	0x3ec4935e	0.38393682
86	0x3e615161	0.220037
87	0xbd9f620f	-0.07782375
88	0xbe8f34da	-0.2797001
89	0xbe349266	-0.17633972
90	0xbd846bda	-0.064658836
91	0x3eb8719d	0.3602418
92	0xbed8d97d	-0.4235343
93	0x3ea596a1	0.32341483
94	0xbe9d9a19	-0.3078163
95	0xbd58a373	-0.052890252
96	0xbeeafaa4	-0.4589435
97	0xbe928a19	-0.28620985
98	0xbd22ad34	-0.03971596
99	0xbe80375e	-0.25042242
100	0xbf44feee	-0.7695149
101	0xbf52f2ec	-0.8240192
102	0x3e84cc7e	0.25937265
103	0x3e6c56ee	0.23080036
104	0xbdf721f5	-0.12067024
105	0xbeba7c38	-0.36422896
106	0xbe149860	-0.14511251
107	0x3ecfc398	0.40578914
108	0xbe1a1b68	-0.15049517
109	0x3d2b8f23	0.041884553
110	0xbe253777	-0.1613444
111	0x3dafa76d	0.08576856
112	0x3e54d56c	0.20784539
113	0xbec5e2d7	-0.38649628
114	0x3e83f5ea	0.25773555
115	0xbdd2ad82	-0.10287
116	0x3ee64eac	0.44981897
117	0x3e89ecf2	0.26938587
118	0xbe4f9ca7	-0.20274602
119	0xbefcc124	-0.49366105
120	0x3daac2d0	0.08337939
121	0x3d5b5ab5	0.0535533
122	0xbea1098c	-0.31452596
123	0x3ef9d3f8	0.48794532
124	0x3f1d4a3e	0.6144141
125	0x3e607e5a	0.219232
126	0xbde3de74	-0.11126414
127	0x3e8074b8	0.2508905
128	0x3d365690	0.044516146
129	0x3e49dbb9	0.19712724
130	0x3dc51a2b	0.09624132
131	0xbf1b5dfb	-0.6069028
132	0xbf3a5a76	-0.7279428
133	0xbaa3c930	-0.0012495872
134	0x3eec23b4	0.4612099
135	0xbedf38e5	-0.43598095
136	0x3dec5bff	0.11540984
137	0xbe91a5af	-0.2844672
138	0x3c2fd2f7	0.01073145
139	0xbe42966d	-0.19002695
140	0xbee28d07	-0.4424822
141	0x3e504a71	0.20340897
142	0xbc6c93de	-0.014439551
143	0xbddbb931	-0.10728682
144	0x3e2cf320	0.1688962
145	0xbe104132	-0.1408737
146	0xbedd2ea6	-0.43199652
147	0x3f4e7acf	0.8065614
148	0x3df81bb3	0.12114658
149	0x3eb708ac	0.35748804
150	0x3defbcfc	0.11705968
151	0x3cb205a3	0.021731203
152	0xbe0d19ea	-0.13779417
153	0xbde54e67	-0.11196595
154	0xbed2fd82	-0.41209036
155	0x3e6a27db	0.22866766
156	0xbf164473	-0.58698195
157	0xbea72043	-0.326418
158	0x3e4e8fb3	0.20172004
159	0xbdd3302f	-0.10311925
160	0x3e174c8d	0.14775296
161	0x3e30dafb	0.17271034
162	0xbf45c663	-0.7725584
163	0x3f9a38eb	1.204862
164	0xbf4ac587	-0.7920765
165	0xbeab0263	-0.33400258
166	0x3e8a0ce7	0.2696297
167	0x3e04866b	0.12941901
168	0xbeb6e532	-0.35721737
169	0xbe58968d	-0.2115118
170	0xbdef31b2	-0.116794005
171	0xbe51ab27	-0.20475446
172	0xbf668afc	-0.90055823
173	0xbe7ddf49	-0.24792208
174	0xbe80fe36	-0.25193948
175	0xbbd5f5d0	-0.0065295473
176	0x3e6c22f1	0.23060204
177	0xbf3cd7b2	-0.73766625
178	0xbea00f5c	-0.31261718
179	0x3eeecdbc	0.46641338
180	0xbeee780a	-0.46575958
181	0xbb67a86b	-0.0035348188
182	0xbe95f57c	-0.29288852
183	0xbdb3172f	-0.08744656
184	0xbe1b5cbb	-0.15172093
185	0x3dfdf96c	0.12401089
186	0x3dda8689	0.10670192
187	0x3ed29a41	0.4113331
188	0xbf3afdcb	-0.7304351
189	0x3f07d12c	0.53053546
190	0xbe2ad7d9	-0.16683902
191	0x3e887bba	0.26656896
192	0x3ea009a0	0.31257343
193	0xbe0f8449	-0.14015307
194	0x3e460831	0.19339062
195	0xbf0001a8	-0.5000253
196	0xbf85fe15	-1.0468165
197	0xbf391a72	-0.7230598
198	0xbe2a29e3	-0.16617541
199	0x3ec04630	0.3755355
200	0xbeea87bb	-0.4580668
201	0xbde41df3	-0.11138525
202	0xbd643d2c	-0.0557224
203	0x3f909b69	1.1297427
204	0x3f0d1a83	0.5511858
205	0xbde68e56	-0.11257617
206	0xbe71eb88	-0.23625004
207	0x3db2bcb9	0.08727402
208	0x3e679069	0.22613682
209	0x3e618270	0.22022414
210	0x3e620627	0.2207266
211	0x3e5ca321	0.21546604
212	0xbf79dcb3	-0.97602385
213	0xbe91b36e	-0.28457206
214	0x3d146dac	0.036237404
215	0x3ecb6e59	0.39732626
216	0x3d2ed2ef	0.04268163
217	0x3c6a05b6	0.014283588
218	0x3f68c900	0.909317
219	0x3fbea941	1.4895402
220	0xbda39f25	-0.07989339
221	0xbe630911	-0.22171427
222	0x3d150259	0.036379192
223	0x3e196d32	0.14983061
224	0xbd89afe7	-0.06723004
225	0xbe01002f	-0.12597726
226	0xbf939370	-1.1529369
227	0x3f1bef55	0.60912067
228	0x3dd3ace0	0.10335708
229	0x3e540b06	0.2070733
230	0x3e4fe45a	0.20301953
231	0xbee357db	-0.44402966
232	0x3e93c0ed	0.28858128
233	0xbececd21	-0.40390876
234	0xbd439afe	-0.047755234
235	0xbe99bb48	-0.30025697
236	0x3ed33219	0.4124916
237	0xbe2993aa	-0.16560236
238	0xbe8d602a	-0.2761243
239	0xbd46e5be	-0.048558943
240	0xbe9c1a59	-0.30488852
241	0x3ebea559	0.37235525
242	0xbf288048	-0.6582074
243	0xbe3ebb51	-0.18626143
244	0x3dfca034	0.12335244
245	0x3f149cb9	0.5805164
246	0xbea15211	-0.31507924
247	0x3e95c384	0.2925073
248	0xbe8fea92	-0.2810865
249	0xbe4e94b7	-0.20173918
250	0xbf4b4abe	-0.7941092
251	0x3ecc3c5c	0.398898
252	0x3f31ccd3	0.6945316
253	0xbf0fb758	-0.56139135
254	0x3d2d59b6	0.042321883
255	0x3dea2645	0.114330806

net_fc.0.bias f4 [256]
0	0xbd53dd1b	-0.051724534
1	0x3e4c9019	0.19976844
2	0xbbb2ca2c	-0.0054562297
3	0x3e4356c4	0.19076067
4	0xbd9597f8	-0.07304376
5	0x3dd37c81	0.103264816
6	0xbd37bce6	-0.044857882
7	0xbe3a863b	-0.18215267
8	0xbdb5ba9c	-0.088734835
9	0x3cdad0ac	0.02671083
10	0xbd423868	-0.047417074
11	0x3e6a71f4	0.22895032
12	0xbe62ce83	-0.2214909
13	0x3d8a1f43	0.06744244
14	0x3da96356	0.082709
15	0x3d1c62d0	0.038180172
16	0xbd793018	-0.06083688
17	0x3e02b824	0.12765557
18	0x3e5e8806	0.21731576
19	0xbda19e3d	-0.0789151
20	0xbddcbf28	-0.10778648
21	0x3e08145d	0.13289018
22	0x3d0cca66	0.03437271
23	0x3a3bdb99	0.00071662065
24	0xbeab950a	-0.33512145
25	0x3e271ede	0.16320369
26	0xbe528b90	-0.20561051
27	0xbcd0cc61	-0.02548808
28	0x3d20113e	0.039078943
29	0x3e4df737	0.20113836
30	0xbdc99ee8	-0.09844762
31	0xbde5e4be	-0.1122527
32	0x3da825b2	0.08210315
33	0xbc6594e3	-0.014012548
34	0x3ded3583	0.11582472
35	0x3cb503de	0.02209657
36	0xbe167ea9	-0.14696755
37	0xbd5cd222	-0.053911336
38	0x3cb9d22b	0.022683224
39	0xbca1b70f	-0.01974061
40	0x3ca9e631	0.020739647
41	0xbd403b84	-0.04693176
42	0xbd0b174a	-0.033957757
43	0xbe7d640e	-0.24745199
44	0xbede1333	-0.43374023
45	0xbe9ffa96	-0.3124587
46	0x3cd8c608	0.026461616
47	0xbe27a763	-0.16372447
48	0x3e67b1bd	0.22626396
49	0xbe88df6a	-0.2673295
50	0xbdc3d932	-0.09562911
51	0xbdf56449	-0.119820185
52	0x3c60138c	0.013676535
53	0xbace11e1	-0.0015721881
54	0x3d9c4cb7	0.0763182
55	0xba079f38	-0.0005173567
56	0xbe0b6f7c	-0.13616747
57	0xbe8c20f1	-0.27368882
58	0xbdc12afb	-0.09432026
59	0xbe8faff7	-0.28063938
60	0x3c9ae9c6	0.0189103
61	0x3e251b5d	0.1612372
62	0x3cabeb40	0.0209862
63	0x3d1b3cee	0.037899904
64	0x3e9a2895	0.30109087
65	0xbe380da1	-0.17973949
66	0x3c7f7ae8	0.015593268
67	0xbddf419b	-0.10901185
68	0x3e8e872e	0.2783751
69	0x3cb1a5b8	0.021685466
70	0xbd8d83df	-0.06909918
71	0xbc223c00	-0.009902
72	0xbcbb8644	-0.022891171
73	0x3e2cbe1a	0.16869393
74	0xbd9936b9	-0.07481141
75	0x3d976063	0.07391431
76	0x3e758a34	0.23978502
77	0x3dac44ca	0.08411558
78	0x3cbc225e	0.022965606
79	0xbe1f99c7	-0.15586005
80	0x3d85e757	0.06538265
81	0xbe41e3f5	-0.18934615
82	0xbdcf71d8	-0.10129136
83	0x3daa7891	0.083237775
84	0x3d9621da	0.073306754
85	0x3dbacf9d	0.0912163
86	0x3c0272d2	0.007961946
87	0x3d2bf970	0.04198593
88	0x3e1c066f	0.15236829
89	0xbe4e8da7	-0.20171224
90	0x3cd41bb6	0.02589212
91	0xbbf723a3	-0.00754209
92	0xbe2024c1	-0.1563902
93	0xbe39b336	-0.1813477
94	0xbd2e0fe9	-0.04249564
95	0xbdb7547b	-0.0895166
96	0xbd7f3778	-0.06230876
97	0x3e5e4b47	0.21708404
98	0x3e1e041d	0.15431257
99	0x3a728fba	0.00092529843
100	0xbe00a716	-0.12563738
101	0xbe40cc30	-0.18827891
102	0xbe15c92d	-0.14627524
103	0xbcd14775	-0.025546769
104	0xbd64f360	-0.055896163
105	0x3df7ecd9	0.12105722
106	0xbe1fe08c	-0.15613002
107	0x3dc0baad	0.094106056
108	0xbb52f6a1	-0.003219046
109	0x3e891bb6	0.26778954
110	0x3d8622c9	0.065496035
111	0xbe20e352	-0.15711716
112	0xbdaf8a03	-0.085712455
113	0x3cc36eac	0.023856483
114	0xbe707d40	-0.23485279
115	0x3e678757	0.22610222
116	0x3dfd4557	0.12366741
117	0xbd2a8170	-0.041627347
118	0x3c7b79e7	0.015348888
119	0xbdbb4c6c	-0.09145436
120	0x3bceb231	0.006307863
121	0xbe868a5c	-0.26277435
122	0xbd74df4a	-0.059783258
123	0xbe0149ee	-0.12625858
124	0x3e08cb6f	0.13358854
125	0xbdb57fc1	-0.08862258
126	0x3b4796b8	0.0030454826
127	0x3d8899f3	0.066699885
128	0xbe172136	-0.14758763
129	0xbca84a2c	-0.02054318
130	0xbcdc7837	-0.026912792
131	0xbdbae389	-0.0912543
132	0x3de1b32e	0.11020504
133	0x3e0bc1b4	0.1364811
134	0x3e0faf9a	0.1403183
135	0xbcddffb1	-0.027099462
136	0x3d157b8c	0.036494777
137	0x3c4da58c	0.0125516765
138	0x3c0caf37	0.008586696
139	0x3c645cef	0.013938173
140	0x3cfbef37	0.030753715
141	0xbd99700e	-0.07492076
142	0xbc94a7d0	-0.018146425
143	0xbe5ddb20	-0.21665621
144	0x3d5b4a11	0.053537432
145	0x3d32615e	0.043549888
146	0xbe4a26e4	-0.19741398
147	0xbcc26204	-0.023728378
148	0x3cde276c	0.027118407
149	0xbdd7bb73	-0.105338
150	0xbbaf9154	-0.0053579006
151	0x3dce0021	0.10058618
152	0x3e2ce4f4	0.16884214
153	0x3ba94823	0.00516607
154	0xbe19643b	-0.14979641
155	0x3e79be3e	0.24388978
156	0x3dad9f94	0.08477703
157	0x3d62b504	0.05534841
158	0x3c9abc40	0.018888593
159	0xbe8d7291	-0.2762647
160	0xbd7b6218	-0.061372846
161	0xbe65520b	-0.22394578
162	0xbd272c16	-0.040813528
163	0x3e19aa6b	0.15006416
164	0xbd26c210	-0.040712416
165	0xbe7c461c	-0.2463612
166	0x3cbbea0a	0.022938747
167	0x3e15f81d	0.14645429
168	0xbd60efc8	-0.054916173
169	0x3cabd1ca	0.020974059
170	0x3e0c4cb2	0.13701132
171	0x3d193fd1	0.037414376
172	0xbc107b52	-0.008818464
173	0xbe545b92	-0.20738056
174	0xbdfe943b	-0.124306165
175	0xbe98c4ab	-0.29837546
176	0xbe711bb1	-0.2354572
177	0xbe10fec1	-0.14159681
178	0xbe06ec46	-0.13176069
179	0x3e0edff2	0.13952616
180	0xbda50ea1	-0.08059431
181	0xbdfaca24	-0.122455865
182	0x3e0599d8	0.13046968
183	0xbbc2b02b	-0.005941411
184	0x3e049752	0.12948349
185	0xbe0599dd	-0.13046975
186	0xbf040125	-0.51564246
187	0x3d6f87ce	0.058479123
188	0xbe3a5946	-0.18198118
189	0x3c1c6dea	0.00954769
190	0x3ccf81b7	0.025330408
191	0xbe1f30e6	-0.15545997
192	0xbe67b88b	-0.22628991
193	0x3e30737c	0.17231554
194	0x3ddf567a	0.10905166
195	0x3c4e759a	0.012601281
196	0x3dd8c935	0.10585252
197	0x3c64c7a9	0.013963618
198	0xbd4a1561	-0.049336795
199	0x3d4a3327	0.04936519
200	0x3d094bce	0.03351956
201	0xbdc27767	-0.094954304
202	0xbc996ad3	-0.018727696
203	0xbd58c64a	-0.05292348
204	0xbd1bc97a	-0.03803394
205	0xbdebca83	-0.115132354
206	0xbe670a3c	-0.22562498
207	0x3e414865	0.18875273
208	0xbcd78b71	-0.026311608
209	0xbe22af6b	-0.15887229
210	0x3d1e268a	0.038610972
211	0x3dd05754	0.101729065
212	0xbcb3ee27	-0.021964146
213	0xbe160686	-0.14650926
214	0xbe7070e6	-0.23480567
215	0xbe191597	-0.14949642
216	0xbbca0471	-0.0061650802
217	0xbc239a3e	-0.009985505
218	0x3dce973d	0.1008744
219	0xbe500445	-0.20314129
220	0x3c6debeb	0.014521579
221	0x3dffdf1c	0.124937266
222	0x3c4e6f96	0.012599846
223	0x3e0492f1	0.12946679
224	0x3e1b888d	0.15188809
225	0xbe941386	-0.28921145
226	0x3e034843	0.12820534
227	0xbe8ef35f	-0.27920052
228	0x3bd60982	0.006531895
229	0x3df5563a	0.11979337
230	0x3d5c4032	0.05377216
231	0xbcee2f37	-0.029075248
232	0x3e45c51e	0.19313475
233	0x3e0f5f99	0.14001311
234	0xbd84118b	-0.064486586
235	0xbdef964a	-0.11698587
236	0x3e24ddc8	0.16100228
237	0xbd9b6ad1	-0.07588733
238	0x3d7f93fe	0.062396996
239	0xbe2c329f	-0.16816185
240	0xbe3bc4a7	-0.18336736
241	0xbe637514	-0.2221263
242	0xbd2fd3fd	-0.042926777
243	0xbdc04ed3	-0.093900345
244	0x3db782a0	0.089604616
245	0xbe33fd64	-0.1757713
246	0xbda59b7d	-0.08086298
247	0x3cdb1f67	0.026748372
248	0x3d82f189	0.063937254
249	0xbe25398d	-0.16135235
250	0x3bbfe466	0.0058560846
251	0xbdb6d186	-0.08926682
252	0x3dc5a5cb	0.09650763
253	0x3c30e5fb	0.010797019
254	0xbdf32231	-0.11871756
255	0x3c8986cb	0.016787907

net_fc.2.weight f4 [256, 256]
0	0xbea11493	-0.3146101
1	0x3e7f3bfc	0.24925226
2	0x3e1927e3	0.14956622
3	0x3e7bb1cd	0.24579544
4	0xbee567a0	-0.44805622
5	0x3d687484	0.056751743
6	0x3c2a26d2	0.010385232
7	0x3d9f3150	0.077730775
8	0xbdd664ee	-0.104684696
9	0x3d8e9299	0.06961555
10	0x3d314264	0.043276206
11	0x3e034d87	0.12822543
12	0xbeac618f	-0.3366818
13	0x3d0b7918	0.03405103
14	0xbdc4f812	-0.09617628
15	0x3de70755	0.11280695
16	0xbdfd9172	-0.12381257
17	0xbe0af072	-0.13568285
18	0x3d6ca99a	0.057778932
19	0xbdc9699b	-0.09834596
20	0xbe3b40c1	-0.1828642
21	0xbdf8c686	-0.1214724
22	0x3b9d055e	0.0047918996
23	0xbe533378	-0.20625103
24	0xbe15790e	-0.1459696
25	0x3dac9c88	0.084282935
26	0xbe93c48a	-0.28860885
27	0x3cb92142	0.022598866
28	0xbe062995	-0.131018
29	0x3e1748b3	0.14773826
30	0xbe02f77e	-0.12789723
31	0xbd1a11c9	-0.037614617
32	0x3d034f04	0.032057777
33	0xbe6bfd52	-0.23045853
34	0x3d2a6baa	0.041606583
35	0x3e379851	0.17929198
36	0x3d3e834f	0.046511944
37	0xbae6fd50	-0.00176231
38	0xbe06c906	-0.13162622
39	0xbeacd89a	-0.33759004
40	0x3e3f85a7	0.18703328
41	0x3df865bf	0.121287815
42	0x3de6a350	0.11261618
43	0x3dcc852c	0.09986338
44	0xbe8e262f	-0.27763507
45	0x3e2a644a	0.1663982
46	0xbe2e668a	-0.17031303
47	0x3e17b391	0.14814593
48	0xbd0710fe	-0.03297519
49	0xbe7638f0	-0.24045157
50	0x3e324b6d	0.17411585
51	0x3d15700d	0.036483813
52	0x3e91a805	0.284485
53	0x3d05f001	0.03269959
54	0x3d5f830c	0.054568335
55	0xbd9c79c4	-0.076404124
56	0xbeb783ab	-0.35842642
57	0xbe4b5286	-0.19855699
58	0x3d08b34e	0.033374123
59	0x3e84c282	0.25929648
60	0x3d25ff34	0.040526584
61	0xbe5eb135	-0.21747287
62	0x3e0009d4	0.12503749
63	0xbe6c5292	-0.23078373
64	0xbda399cd	-0.079883195
65	0x3da14b61	0.078757055
66	0xbe8f7965	-0.28022304
67	0x3e188489	0.14894308
68	0x3d4e5409	0.05037311
69	0x3c87110d	0.016487623
70	0x3db38dca	0.087672785
71	0xbd19d45a	-0.03755603
72	0xbdb21b96	-0.08696668
73	0x3dc9c535	0.098520674
74	0xbe377f85	-0.17919739
75	0xbda7704f	-0.08175718
76	0x3e0fcce3	0.14043002
77	0x3e07f6cd	0.13277741
78	0x3cfec851	0.031101378
79	0xbe6c2fdf	-0.23065136
80	0x3d37b7aa	0.04485289
81	0xbdd3ef8a	-0.10348423
82	0xbda94dc5	-0.082667865
83	0x3e08c88f	0.13357757
84	0xbcb2667f	-0.02177739
85	0xbe9f5dda	-0.3112629
86	0xbd6d441e	-0.05792629
87	0xbec2fe56	-0.38084668
88	0xbc8f7d71	-0.01751587
89	0xbd3f3071	-0.046677057
90	0x3d79f0de	0.061020724
91	0xbc3ea312	-0.011635559
92	0x3cd43162	0.025902454
93	0x3e1a9741	0.15096761
94	0xbe85362a	-0.26017886
95	0xbe349727	-0.17635785
96	0xbe489ac0	-0.19590282
97	0x3cd5c5b2	0.026095245
98	0xbd174165	-0.0369276
99	0xbe6f4400	-0.23365784
100	0xbd82b319	-0.063818164
101	0xbe27e320	-0.16395235
102	0xbf4419aa	-0.7660166
103	0x3c1a1abf	0.009405791
104	0x3dcaedc5	0.09908632
105	0xbde924ee	-0.11383997
106	0xbd178770	-0.036994398
107	0x3c2a8067	0.01040659
108	0x3e11b823	0.14230399
109	0xbd54a9e4	-0.051919833
110	0xbe6c5876	-0.2308062
111	0xbccc8b3c	-0.024968736
112	0xbd892723	-0.06696918
113	0x3d906e6c	0.07052311
114	0xbe89f9e1	-0.26948455
115	0xbc1617be	-0.009160934
116	0x3d7357ee	0.05941003
117	0xbe429c21	-0.19004871
118	0x3dd3ae38	0.10335964
119	0xbdde0f68	-0.10842782
120	0x3bfad1a4	0.0076543856
121	0xbf300feb	-0.6877429
122	0xbee87768	-0.454036
123	0xbe3b59ab	-0.18295924
124	0xbe647624	-0.22310692
125	0xbcd3feac	-0.025878273
126	0x3c359d3c	0.011084851
127	0x3e021500	0.12703323
128	0xbe2b3988	-0.16721165
129	0x3df72406	0.12067418
130	0xbdf1dc3e	-0.11809586
131	0xbe8edcd8	-0.27902865
132	0x3d494d1e	0.04914581
133	0x3dc86dea	0.097865894
134	0x3e7fb3fe	0.24971005
135	0x3dae5726	0.08512716
136	0xbde0c51d	-0.109750964
137	0x3e766c5a	0.2406477
138	0xbdbb9b87	-0.09160524
139	0xbde5e6e8	-0.112256825
140	0xbd25eaf5	-0.040507276
141	0x3d7c58bf	0.061608072
142	0x3df80502	0.1211033
143	0xbe25df11	-0.16198374
144	0xbdd8d06e	-0.1058663
145	0xbe9c5b6a	-0.30538493
146	0xbd8bd0f8	-0.06826967
147	0xbe7ee084	-0.24890333
148	0x3d8a8597	0.067637615
149	0xbdc02c1a	-0.09383412
150	0xbb9278e8	-0.0044699796
151	0xbd1f5774	-0.03890176
152	0xbd55731d	-0.052111734
153	0xbe97e55e	-0.2966718
154	0xbcc4bcea	-0.024015862
155	0xbe315542	-0.1731768
156	0xbba4667e	-0.005017101
157	0xbdac02d3	-0.08398976
158	0xbaad020b	-0.0013199461
159	0xbe2988b4	-0.16556054
160	0xbeaa3c1e	-0.3324899
161	0x3e7659b5	0.24057658
162	0xbd1c4195	-0.03814848
163	0x3e60d682	0.21956828
164	0xbd6de373	-0.05807824
165	0xbd71e2d5	-0.059054215
166	0x3e7d4c7c	0.24736208
167	0x3e38a300	0.1803093
168	0xbea5d8ef	-0.3239207
169	0x3ccf805f	0.025329767
170	0x3e1bdbb9	0.15220536
171	0x3e86aacd	0.26302186
172	0xbee1453d	-0.43998137
173	0xbd995c1b	-0.07488271
174	0x3dd489f0	0.10377872
175	0xbec79010	-0.38977098
176	0xbde4cf2e	-0.11172329
177	0x3c63b591	0.013898269
178	0xbe591d0e	-0.2120249
179	0x3e70a2cd	0.23499604
180	0xbe773153	-0.2413991
181	0xbed44c7d	-0.41464606
182	0x3e4e976e	0.20174953
183	0x3d24844c	0.04016523
184	0x3d49a540	0.04922986
185	0x3ceb58d4	0.02872888
186	0xbea730b6	-0.3265435
187	0xbda38517	-0.07984369
188	0x3b9d5118	0.004800927
189	0x3df81916	0.1211416
190	0xbe26596d	-0.1624505
191	0x3d1e8407	0.03870013
192	0x3e51a620	0.20473528
193	0x3e36b9c4	0.17844301
194	0xbddb5737	-0.10709994
195	0x3da6b2be	0.08139561
196	0xbec58f49	-0.3858588
197	0x3d26c64d	0.040716458
198	0xbe6a92ed	-0.2290761
199	0xbd414ed4	-0.047194317
200	0xbe1023be	-0.14076135
201	0xbe3cc536	-0.18434605
202	0xbf6e4322	-0.93071187
203	0xbe810fe3	-0.25207433
204	0xbcd3f4e7	-0.025873614
205	0x3d7bc9b3	0.061471652
206	0x3e3af323	0.18256812
207	0x3d2a8452	0.041630097
208	0x3ea27904	0.31732953
209	0xbd83eee7	-0.064420514
210	0x3c881149	0.016609805
211	0x3e5e5ae3	0.21714358
212	0xbe35c4af	-0.1775081
213	0x3dab1ed9	0.08355493
214	0x3e4d657b	0.20058243
215	0xbe2437f2	-0.16036966
216	0x3e25dd51	0.16197707
217	0x3d1aa595	0.037755568
218	0xbc1de124	-0.009636197
219	0xbe070b04	-0.13187796
220	0xbe63bebc	-0.22240728
221	0x3de54ea5	0.11196641
222	0xbf0454e9	-0.5169206
223	0xbd2d2376	-0.042270146
224	0xbcb4be4b	-0.022063395
225	0xbe3003c4	-0.17188936
226	0xbda8d909	-0.08244521
227	0xbf14621c	-0.57962203
228	0xbceb2b50	-0.028707176
229	0xbe78a095	-0.24280007
230	0x3d5075e5	0.050893683
231	0x3d7552fe	0.0598936
232	0xbe926ca6	-0.28598517
233	0xbdaeb896	-0.08531301
234	0xbd38e4d4	-0.045140103
235	0xbdba64d8	-0.09101266
236	0xbc2bac20	-0.0104780495
237	0x3e49c9d6	0.197059
238	0xbdb4f601	-0.08835984
239	0xbe50a679	-0.20376004
240	0xbf2d4efc	-0.67698646
241	0xbe9df3c3	-0.30850038
242	0xbea9baf1	-0.33150437
243	0x3d413ca1	0.04717696
244	0x3dbb4eeb	0.09145912
245	0xbe08edb9	-0.13371934
246	0xbdb6d80e	-0.08927928
247	0xbded92d7	-0.11600273
248	0xbddb8267	-0.10718232
249	0xbe912b84	-0.28353512
250	0x3db710ac	0.08938727
251	0x3e394023	0.18090872
252	0xbd3325c8	-0.043737203
253	0xbe51085d	-0.20413347
254	0x3e172836	0.14761433
255	0x3e82dfd7	0.255614

net_fc.2.bias f4 [256]
0	0x3da30c3a	0.079613164
1	0xbcaf9e69	-0.02143784
2	0xbdb28e5b	-0.087185584
3	0xbd807b3c	-0.06273505
4	0x3df152e0	0.11783385
5	0xbd632019	-0.055450533
6	0xbd724080	-0.059143543
7	0xbd63f06f	-0.055649217
8	0x3d58f863	0.052971255
9	0x3e2d3866	0.16916046
10	0xbc80d521	-0.015726628
11	0xbdac5027	-0.08413725
12	0xbd32594a	-0.043542184
13	0x3d5a610f	0.05331522
14	0x3ce106c4	0.027469046
15	0xbcc0deef	-0.023543803
16	0xbd55387f	-0.052055832
17	0xbc944151	-0.018097552
18	0xbd0ae544	-0.03391005
19	0x3e3473f5	0.17622359
20	0xbc282f2d	-0.010265154
21	0x3d6ef346	0.058337472
22	0xbc1de956	-0.009638151
23	0xbd73c9fb	-0.059518795
24	0xbd9ea48f	-0.07746231
25	0x3e7a3f80	0.24438286
26	0xbdc5cab3	-0.096578024
27	0xbd241099	-0.04005489
28	0x3b75f564	0.0037530297
29	0xbce26298	-0.027634904
30	0xbdddfa5c	-0.10838768
31	0x3d5f9822	0.054588445
32	0x3cd6da92	0.02622727
33	0x3dbdeb23	0.092733644
34	0x3e1cb377	0.15302835
35	0x3def1729	0.11674339
36	0xbcbc6554	-0.022997536
37	0x3dbba5d7	0.09162491
38	0xbcbcaa35	-0.02303038
39	0xbdaffef1	-0.08593548
40	0x3df64f6b	0.120268665
41	0xbdba82a3	-0.09106948
42	0x3c964d7f	0.0183475
43	0xbc916608	-0.017748848
44	0xbde7bdb4	-0.1131548
45	0xbd41e453	-0.047336888
46	0x3d01fc5f	0.03173482
47	0xbd44c836	-0.0480425
48	0xbbb2c6b8	-0.005455818
49	0x3dd69872	0.104782954
50	0x3dbafc6a	0.091301754
51	0x3e03fbfa	0.1288909
52	0xbd9f1d84	-0.077693015
53	0xbce05ed8	-0.027388975
54	0xbe1dd60d	-0.15413685
55	0xbd0cdced	-0.03439038
56	0x3da973ea	0.08274062
57	0x3d066bc0	0.032817602
58	0x3d1d2c89	0.03837255
59	0xbd2ca07d	-0.04214524
60	0xbe35c07d	-0.1774921
61	0xbaaf0f3b	-0.001335598
62	0x3e0965ef	0.13417791
63	0x3c9b847a	0.018984068
64	0x3dd2f016	0.10299699
65	0x3e010697	0.1260017
66	0x3c505c42	0.0127173085
67	0x3c9519ca	0.018200774
68	0xbceec20f	-0.029145269
69	0xbcb40087	-0.021972908
70	0xbd8a0399	-0.067389674
71	0xbaf763da	-0.0018874363
72	0xbe053729	-0.13009323
73	0xbd5a3346	-0.053271554
74	0xbd843ffd	-0.06457517
75	0x3c02463c	0.0079513155
76	0x39f6bc0d	0.00047060885
77	0xbd361f1b	-0.04446326
78	0x3d0ea804	0.0348282
79	0x3d8756c2	0.066083446
80	0x3d717d77	0.058957543
81	0x3e0f412d	0.13989706
82	0x3dca5865	0.09880141
83	0xbde009b6	-0.10939352
84	0x3d861fa0	0.06549001
85	0x3db500c6	0.08838038
86	0xbd6247fb	-0.055244427
87	0x3e08c771	0.13357331
88	0x3da90a8b	0.08253964
89	0xbe06e7e7	-0.13174401
90	0x3d26f430	0.04076022
91	0xbc103494	-0.008801598
92	0xbd5452c3	-0.05183674
93	0xbd4d09fd	-0.050058354
94	0xbd6d6fd5	-0.05796798
95	0x3d2b6e7f	0.041853424
96	0xbd877710	-0.06614506
97	0xbc11ce29	-0.00889925
98	0xbb9f8896	-0.0048685772
99	0xbbf416a3	-0.0074489876
100	0xbd91a070	-0.07110679
101	0x3d9b76a7	0.075909905
102	0x3bade1fa	0.0053064795
103	0x3c7d1f57	0.0154493665
104	0xbde345b3	-0.110972784
105	0x3c34f30f	0.011044278
106	0xbe37252b	-0.17885272
107	0x3d621107	0.05519202
108	0xbe1ce80d	-0.15322895
109	0x3e13e79b	0.14443819
110	0x3d30b070	0.043137014
111	0xbd1ec0b6	-0.038758002
112	0xbc8cb897	-0.017177863
113	0x3e5d9679	0.21639432
114	0xbe077f46	-0.13232145
115	0xbd9da90e	-0.0769826
116	0x3e5bbb56	0.21458182
117	0xbd7c35e5	-0.061574835
118	0x3c1adba1	0.009451778
119	0xb8fb8428	-0.00011993229
120	0x3e43dbd3	0.19126825
121	0xbdab4164	-0.08362082
122	0x3ddb33ad	0.10703216
123	0x3c5d1090	0.013492718
124	0xbd01182a	-0.031517185
125	0x3c497bc4	0.012297574
126	0x3a48cc7c	0.0007659865
127	0x3e88a931	0.26691583
128	0xbbab7040	-0.005231887
129	0xbce969b5	-0.028492788
130	0x3d879057	0.066193275
131	0x3d30760e	0.043081336
132	0x3da04bd0	0.0782696
133	0x3d65303a	0.055954196
134	0xbdcd4392	-0.10022654
135	0x3d060cf4	0.032727197
136	0x3cc7673e	0.024341222
137	0x3c551557	0.013005576
138	0x3e133ed1	0.14379431
139	0x3c8a69c2	0.016896132
140	0x3b381097	0.002808606
141	0xbd2eee71	-0.042707864
142	0x3da93f73	0.08264055
143	0xbe47e034	-0.1951912
144	0xbd9a696f	-0.07539641
145	0xbbef1dc3	-0.007297249
146	0xbcc0b05e	-0.023521598
147	0x3e25923f	0.1616907
148	0xbd1f88b7	-0.03894874
149	0xbdb38de5	-0.087672986
150	0xbcafe405	-0.021471033
151	0xbe4fad3f	-0.20280932
152	0x3c80b9dd	0.015713627
153	0x3d1cd444	0.03828837
154	0x3abcf1dd	0.0014415343
155	0xbd0876a5	-0.033316273
156	0x3d990cbe	0.074731335
157	0x3d0c0847	0.03418758
158	0x3d9c97d6	0.07646148
159	0xbe095e06	-0.13414773
160	0xbd812100	-0.063051224
161	0x3e0de543	0.13856988
162	0xbd9243ee	-0.07141863
163	0xbda7002f	-0.08154332
164	0x3ca4382c	0.020046316
165	0xbdb8ecb4	-0.090295225
166	0xbdac96c6	-0.08427195
167	0x3d35edd8	0.04441628
168	0xbd97c25b	-0.07410117
169	0x3deb35f6	0.114849016
170	0x3ccbc6ad	0.02487501
171	0xbc3cd56d	-0.011525494
172	0xbc38db68	-0.011282779
173	0xbcc48826	-0.023990702
174	0x3dc3ed2b	0.095667206
175	0x3d7de078	0.06198165
176	0xbe1dd61b	-0.15413706
177	0x3bca892c	0.006180903
178	0xbc9b7ab9	-0.018979417
179	0xbd179b0f	-0.03701311
180	0x3c74d70b	0.014943848
181	0x3e376f51	0.17913558
182	0xbc2acdbf	-0.01042503
183	0xbd8046cc	-0.062635034
184	0xbca0ce2e	-0.019629564
185	0x3d6643d0	0.056217015
186	0xbc565fef	-0.013084396
187	0xbd00d17c	-0.03144978
188	0x3df0df1d	0.117613055
189	0x3dd967e6	0.1061552
190	0x3d5fd729	0.054648552
191	0x3ce9af7d	0.028526062
192	0xbc239c95	-0.0099860625
193	0xbe048921	-0.12942936
194	0x3d20d7b3	0.039268207
195	0x3cca51ad	0.02469715
196	0x3e03d089	0.12872519
197	0x3d9ec181	0.07751752
198	0x3cb45e25	0.022017548
199	0x3b928cb2	0.0044723386
200	0x3e1877e0	0.14889479
201	0xbd57c870	-0.052681386
202	0xbd9c7c17	-0.07640856
203	0xbd3a733d	-0.045520056
204	0x3bed9590	0.0072504953
205	0xbc84718c	-0.016167425
206	0xbb076bbb	-0.0020663578
207	0xbca7236b	-0.02040263
208	0xbda642d5	-0.08118216
209	0xbd93811d	-0.07202361
210	0x3c4fe847	0.012689657
211	0x3d7fae78	0.062422246
212	0xbc648d35	-0.013949682
213	0x3db7f028	0.08981353
214	0x3b342185	0.00274858
215	0xbce0b0d6	-0.027428072
216	0xbd5f1673	-0.05446477
217	0xbaaf3e1d	-0.0013369952
218	0x3de5c77a	0.11219688
219	0xbc674107	-0.014114625
220	0xbd34a32e	-0.044100933
221	0xbe54ba2d	-0.20774145
222	0x3e2cee97	0.1688789
223	0x3d93bf16	0.07214181
224	0x3c06e4b3	0.008233237
225	0xbd97cdb4	-0.07412282
226	0xbe1c6af2	-0.15275171
227	0x3c299cd8	0.010352336
228	0xbcae4b77	-0.021276219
229	0xbdb92dc0	-0.09041929
230	0xbd04a559	-0.03238425
231	0x3e4c9bc4	0.19981295
232	0xbcede811	-0.029041322
233	0x3cfa7466	0.030573081
234	0x3c5a04b5	0.013306786
235	0xbd9d619a	-0.07684632
236	0xbd908972	-0.070574656
237	0xbde0a278	-0.109684885
238	0x3cc2d48c	0.02378299
239	0xbd9bcfc2	-0.07607986
240	0xbd7fa120	-0.06240952
241	0xbdfdebb7	-0.12398475
242	0xbdd16aab	-0.102254234
243	0x3c84bac7	0.016202344
244	0xbdb82ed3	-0.08993306
245	0x3ca31047	0.019905223
246	0xbe151256	-0.14557776
247	0xbc3d097d	-0.011537907
248	0x3d3a39de	0.045465343
249	0xbd64d8a6	-0.055870675
250	0x3e113bd4	0.14182979
251	0x3e03da5d	0.12876268
252	0x3e086bb4	0.13322335
253	0xbc84379d	-0.0161398
254	0xbdbe5ec9	-0.092954226
255	0x3e493c29	0.19651856

mean_linear.weight f4 [2, 256]
0	0x3e596a9c	0.21232074
1	0x3e5dd1ee	0.21662113
2	0x3dceb36c	0.10092816
3	0x3dd4471d	0.10365126
4	0x3f777a60	0.96671104
5	0xbeb38b11	-0.35067037
6	0x3d582777	0.05277201
7	0x3d964bea	0.07338698
8	0x3df60ea8	0.12014514
9	0x3f2ed14b	0.68288106
10	0x3b47ad20	0.003046818
11	0x3e4e1640	0.20125675
12	0x3e28d6a0	0.16488123
13	0x3e7fb835	0.24972613
14	0xbe8a8f6d	-0.2706255
15	0xbefbe6c8	-0.4919951
16	0x3d79fb28	0.061030537
17	0x3baab000	0.005208969
18	0x3cb01785	0.02149559
19	0xbc6fae5a	-0.014628971
20	0x3e9be966	0.30451506
21	0xbebc3ec5	-0.3676664
22	0x3cb59dca	0.022169966
23	0xbcac4918	-0.021030948
24	0x3dd1dda8	0.10247356
25	0xbe1fb6ab	-0.15597026
26	0xbd811167	-0.06302147
27	0x3dded80b	0.10881051
28	0xbd221cd1	-0.039578263
29	0xbcdc965b	-0.026927164
30	0x3e41059c	0.18849796
31	0xbe8d4d44	-0.27598011
32	0xbd198994	-0.03748472
33	0x3ec07dfd	0.3759612
34	0x3dd36fbe	0.103240475
35	0xbdfd15e7	-0.12357693
36	0x3e980ed0	0.296988
37	0xbe771248	-0.24128067
38	0xbde65493	-0.112466
39	0xbc4913b4	-0.012272764
40	0xbe3d7455	-0.18501408
41	0xbd8cca9a	-0.06874581
42	0xbe6ece17	-0.23320805
43	0xbf1ed9a5	-0.6205085
44	0x3d611625	0.05495276
45	0xbd455ac0	-0.04818225
46	0xbe1aa8a7	-0.15103398
47	0xbc2b3b6f	-0.010451182
48	0x3ec5dc79	0.3864477
49	0x3cbd3d3d	0.02310049
50	0xbe1a7836	-0.1508492
51	0xbde5b09f	-0.112153284
52	0x3cd3169c	0.025767617
53	0x3cdc98dd	0.02692836
54	0xbf0f74e3	-0.5603773
55	0x3e4df7c4	0.20114046
56	0x3cacc68c	0.021090768
57	0xbe83e019	-0.2575691
58	0xbe2f9a6a	-0.17148748
59	0x3dde885a	0.10865851
60	0x3e313b80	0.17307854
61	0xbd614d0c	-0.05500512
62	0x3df202fc	0.118169755
63	0x3fc72aeb	1.5559973
64	0x3edf3aa4	0.43599427
65	0x3d600641	0.054693464
66	0x3eb70f55	0.35753885
67	0xbd42b9c2	-0.047540434
68	0xbe903c68	-0.28171086
69	0xbe5e1fc3	-0.21691804
70	0x3bb3bfcc	0.0054855105
71	0x3c4ec90e	0.012621177
72	0xbeb8c6da	-0.36089212
73	0xbb738c5e	-0.0037162523
74	0x3eb49c0f	0.35275313
75	0xbd0ebd79	-0.034848664
76	0x3d1528d7	0.0364159
77	0xbed618f3	-0.4181591
78	0x3e487cb4	0.1957882
79	0x3d80b0b4	0.062837034
80	0xbe912539	-0.2834871
81	0xbdcb7b98	-0.09935683
82	0x3eb69dcb	0.3566726
83	0x3e1a29d1	0.15055014
84	0xbf454d25	-0.7707084
85	0x3e6ff29b	0.2343239
86	0xbe09c448	-0.13453782
87	0xbe2c87bf	-0.16848658
88	0x3f249180	0.64284515
89	0x3dc6f1f7	0.0971412
90	0x3de08f03	0.10964777
91	0xbecff4db	-0.40616497
92	0xbd2dec4a	-0.04246167
93	0x3eb71701	0.35759738
94	0x3d45c507	0.048283603
95	0xbe848294	-0.25880873
96	0x3be12b61	0.0068716262
97	0xbd437199	-0.047715757
98	0xbcdfe111	-0.027329
99	0xbe655b3f	-0.22398089
100	0x3f28e1a9	0.6596933
101	0xbe734ad5	-0.23759015
102	0x3c617b40	0.013762295
103	0x3dd79cb3	0.10527935
104	0x3f47cbb3	0.78045195
105	0xbd94e0bd	-0.07269428
106	0x3e6e3a00	0.23264313
107	0xbe4fa07a	-0.2027606
108	0x3df0bcbc	0.11754748
109	0xbfad70ab	-1.3550009
110	0xbe316a32	-0.17325667
111	0x3e48a5b1	0.19594456
112	0x3e389ab5	0.18027766
113	0x3e4cf054	0.20013553
114	0x3f0a1e9c	0.53952956
115	0x3e6ec644	0.2331782
116	0xbe8120a8	-0.25220227
117	0xbdaddd7a	-0.08489509
118	0xbf10502f	-0.5637235
119	0xbe46eb3c	-0.19425672
120	0xbd83a34e	-0.06427632
121	0xbe5a15ac	-0.2129733
122	0xbdb9750a	-0.090555266
123	0x3d1bcb93	0.03803594
124	0x3b274c22	0.0025527556
125	0x3e6370cf	0.22211002
126	0x3e7efaa0	0.24900293
127	0xbc3f6203	-0.011681083
128	0xbd83562a	-0.06412919
129	0x3d754b97	0.05988654
130	0xbe1d9214	-0.15387756
131	0xbbf60017	-0.007507335
132	0xbe7d86b3	-0.24758415
133	0xbd82bbca	-0.06383474
134	0xbdcbd82d	-0.09953342
135	0x3d1b6074	0.03793378
136	0xbde7c336	-0.113165304
137	0x3eb7fe72	0.35936314
138	0xbc36d145	-0.011158292
139	0x3e790258	0.243173
140	0xbed4afcb	-0.4154037
141	0xbe39336c	-0.18086022
142	0x3cd0ed09	0.025503652
143	0x3e333cec	0.17503709
144	0x3fa53a81	1.2908479
145	0xbc874fc4	-0.016517527
146	0xbf9d44af	-1.2286586
147	0x3dad4930	0.08461225
148	0x3eb79cdd	0.35861865
149	0xbdf8df60	-0.121519804
150	0x3e63b447	0.22236739
151	0x3dea032c	0.11426386
152	0xbdda49b8	-0.10658592
153	0xbda95966	-0.082690045
154	0xbca752ec	-0.020425282
155	0x3dba5e3d	0.09100006
156	0xbdae862b	-0.08521684
157	0x3e0ea1a3	0.13928847
158	0xbe1e95b2	-0.15486792
159	0x3d870df9	0.06594462
160	0xbe053da3	-0.13011794
161	0xbedc1be0	-0.42990017
162	0xbe8c23d6	-0.2737109
163	0x3eda887c	0.42682254
164	0xbea6cb72	-0.3257709
165	0xbe7083a9	-0.23487724
166	0x3e6ff777	0.23434244
167	0x3e5c4c0f	0.21513389
168	0xbe6bc0ab	-0.23022716
169	0xbe13cbda	-0.14433232
170	0x3ebef114	0.37293303
171	0xbd313a71	-0.043268625
172	0xbe5903de	-0.21192881
173	0x3ef0d100	0.47034454
174	0x3efc1bda	0.4924
175	0x3eb0460a	0.34428436
176	0xbba7bf85	-0.0051192665
177	0x3e152c8e	0.14567778
178	0xbf63dadd	-0.89005834
179	0x3cae6d17	0.021292252
180	0xbe196d3d	-0.14983077
181	0x3f2536a9	0.6453653
182	0xbd282e86	-0.041059993
183	0x3eb837d9	0.35980108
184	0xbe820bb2	-0.25399548
185	0xbddc693a	-0.10762258
186	0xbe25116e	-0.1611993
187	0xbda5a354	-0.08087793
188	0x3cda607b	0.026657334
189	0xbe94df9e	-0.29076856
190	0xbe1896ab	-0.14901225
191	0xbddf85ba	-0.10914178
192	0x3e047ed9	0.12939014
193	0x3e248aac	0.16068524
194	0x3f241123	0.6408865
195	0xbd92eaed	-0.07173715
196	0x3ee3945e	0.44449133
197	0xbf3c6d43	-0.7360422
198	0x3ddbdaf1	0.10735119
199	0xbd17c430	-0.037052333
200	0xbda1823c	-0.07886168
201	0x3e28b7fa	0.16476431
202	0x3e72adeb	0.23699157
203	0xbd3047f4	-0.04303737
204	0x3ec63891	0.38715032
205	0xbe2e2ce7	-0.17009316
206	0xbc1aae38	-0.009440951
207	0xbf16335d	-0.58672124
208	0x3e05b215	0.13056214
209	0xbcdc0565	-0.026858041
210	0x3c106a95	0.008814474
211	0xbea2b891	-0.31781438
212	0x3c81c07a	0.01583885
213	0x3ea7180f	0.32635543
214	0x3c9834b7	0.018579824
215	0xbdf69988	-0.120410025
216	0xbee3e28c	-0.4450878
217	0x3dffb173	0.12485018
218	0xbf14f2cb	-0.5818297
219	0xbed5d286	-0.4176218
220	0xbdf0882e	-0.11744724
221	0x3e20d26b	0.15705268
222	0xbe582673	-0.21108417
223	0x3ec50328	0.3847897
224	0xbb4001d2	-0.002929796
225	0xbd0cd106	-0.034379028
226	0xbeeb6eef	-0.45983073
227	0xbd7a32d7	-0.06108364
228	0xbfabd0e5	-1.3423125
229	0x3f1048d1	0.5636111
230	0x3d5256aa	0.05135218
231	0xbeb14431	-0.34622338
232	0x3e698836	0.22805867
233	0xbcee0343	-0.02905429
234	0xbe5a0116	-0.21289477
235	0x3cb79f74	0.0224149
236	0x3f5166b8	0.8179736
237	0x3d59d81a	0.053184606
238	0x3d9b5838	0.07585186
239	0xbec04b6a	-0.37557536
240	0x3ec38a80	0.38191605
241	0x3e017896	0.12643656
242	0xbecda17d	-0.40162268
243	0xbf43b6c3	-0.7645075
244	0xbe888746	-0.26665705
245	0xc010c2fb	-2.2619007
246	0xbea1d0ca	-0.31604606
247	0x3e85bfa0	0.2612276
248	0x3db1efb2	0.086882964
249	0x3d2f4a0d	0.04279523
250	0x3f9a25ed	1.2042824
251	0xbe74c1e6	-0.23902091
252	0x3cbe916e	0.023262706
253	0xbd8d053e	-0.068857655
254	0x3e182fe1	0.14862014
255	0x3dc616a5	0.09672288

mean_linear.bias f4 [2]
0	0x3d375cc5	0.044766206
1	0xbd8cda4f	-0.068775766

log_std_linear.weight f4 [2, 256]
0	0xbe227a56	-0.1586698
1	0xbe69e724	-0.2284208
2	0x3e242c4e	0.16032526
3	0x3e82cb63	0.25545797
4	0x3ea8a08d	0.3293499
5	0x3eaff705	0.34368148
6	0xbd3fb5f9	-0.046804402
7	0x3e3cd38a	0.18440071
8	0x392c961b	0.00016459117
9	0x3f0170df	0.5056285
10	0x3d32e732	0.043677516
11	0x3e8221f4	0.2541653
12	0x3d71dfae	0.05905121
13	0x3e5e35ec	0.21700257
14	0xbd354dc2	-0.04426361
15	0x3e968ba7	0.2940342
16	0x3b457495	0.0030129303
17	0xbd0898a1	-0.033348683
18	0x3d516ae8	0.051127344
19	0xbd80584f	-0.062668435
20	0x3e108669	0.14113773
21	0xbb674692	-0.0035289866
22	0xbdb05fdf	-0.08612036
23	0xbcf97279	-0.030450093
24	0xbbb9994f	-0.0056640278
25	0xbe86d38b	-0.2633327
26	0xbcf5103f	-0.029914973
27	0x3d09dfe4	0.033660784
28	0xbca86dc0	-0.020560145
29	0xba8272fa	-0.0009952479
30	0x3dcf3697	0.10117834
31	0xbd6140f4	-0.054993585
32	0x3d1e4a35	0.038644988
33	0xbe4f3512	-0.20235088
34	0xbe4899a6	-0.19589862
35	0xbe43a929	-0.19107498
36	0x3e32d06e	0.17462322
37	0xbdb870ca	-0.09005888
38	0x3de8eeaf	0.1137365
39	0x3d8cedcb	0.06881293
40	0xbc97fe2e	-0.01855382
41	0x3ead8507	0.33890554
42	0xbe6fe5d0	-0.2342751
43	0xbe6b645a	-0.229875
44	0x3e2002fb	0.15626137
45	0x3d58b122	0.052903302
46	0xbe80dbd9	-0.2516773
47	0xbc5f8c96	-0.013644358
48	0x3d6475b7	0.055776324
49	0xbe80ac39	-0.25131395
50	0xbcbb10cb	-0.022835156
51	0xbd5c14ac	-0.05373065
52	0x3d40e018	0.047088712
53	0xbe13b834	-0.14425737
54	0x3f3ff5d9	0.7498451
55	0x3eaf195e	0.3419904
56	0xbe76e8cf	-0.24112247
57	0x3ed89682	0.42302328
58	0xbe09d7c3	-0.13461213
59	0x3cebccad	0.02878412
60	0x3d840d48	0.06447846
61	0x3d24bb86	0.0402179
62	0xbdf27fea	-0.11840804
63	0x3ef72e2f	0.48277423
64	0x3d9db36b	0.07700237
65	0xbf004d33	-0.50117797
66	0x3d7f2cb8	0.062298506
67	0xbc8f7782	-0.01751304
68	0x3dd8f094	0.10592762
69	0x3c038234	0.008026648
70	0x3c5838c7	0.0131971305
71	0x3df7577e	0.12077235
72	0x3edea5cf	0.43485877
73	0xbbddf61a	-0.0067737224
74	0x3e509e18	0.20372808
75	0x3d59846d	0.053104807
76	0x3c302193	0.010750192
77	0x3e99bbfb	0.3002623
78	0xbc9140e0	-0.01773113
79	0x3df9abbf	0.12190961
80	0x3e5c3c66	0.21507415
81	0xbe37cba2	-0.17948774
82	0x3e02b826	0.1276556
83	0x3eb53091	0.35388616
84	0x3e5c6d42	0.21526054
85	0x3e8ea9fd	0.27864066
86	0xbc65df24	-0.014030252
87	0xbef49da8	-0.47776532
88	0x3eda4151	0.42627957
89	0xbccbd0f4	-0.02487991
90	0x3dacb702	0.084333435
91	0x3c816e39	0.015799629
92	0x3d0dc8ec	0.034615442
93	0x3e0f3228	0.13983977
94	0xbc73310a	-0.014843235
95	0x3eae7b9c	0.3407868
96	0x3e828512	0.2549215
97	0x3b8b21b9	0.0042459634
98	0x3c4684a3	0.012116584
99	0x3d57abeb	0.052654188
100	0x3e7f637b	0.24940293
101	0x3e242a99	0.16031875
102	0xbd3fa174	-0.046784833
103	0xbe6533a2	-0.22382978
104	0x3efe803f	0.4970722
105	0xbcf444d3	-0.029817974
106	0x3d7a5449	0.061115537
107	0xbe428660	-0.18996572
108	0x3e781e4e	0.2423031
109	0x3f5efd80	0.8710556
110	0x3ad23ce5	0.0016039877
111	0x3d8afb41	0.06786204
112	0x3dd4f381	0.10398007
113	0x3d8cbd89	0.068720885
114	0xbc8f865c	-0.017520122
115	0x3dd26f63	0.102751516
116	0x3e114649	0.14186968
117	0xbea1b65e	-0.31584448
118	0x3d184d06	0.03718283
119	0xbde5ce19	-0.11220951
120	0x3d3ca3f2	0.046054788
121	0xbc93c778	-0.01803945
122	0xbe3b79e3	-0.18308215
123	0xbe3fd443	-0.18733315
124	0xbd173997	-0.036920156
125	0xbe42a86e	-0.19009563
126	0x3ae0e699	0.0017158567
127	0xbebb9b23	-0.36641797
128	0x3e1bd829	0.15219177
129	0xbd3c989e	-0.046043985
130	0xbe74da11	-0.2391131
131	0x3d94d3ab	0.07266935
132	0x3dfecfbd	0.12441967
133	0xbe102ac3	-0.14078812
134	0x3dced0dd	0.10098431
135	0xbca638e8	-0.020290807
136	0xbc2128b0	-0.009836361
137	0x3e8255de	0.25456136
138	0x3e2ee688	0.17080128
139	0xbdb454f5	-0.08805267
140	0x3e446a62	0.19181207
141	0x3d2f7742	0.042838342
142	0x3e0669cb	0.13126294
143	0x3ed84868	0.42242742
144	0x3f5f307d	0.8718336
145	0x3ca9257c	0.020647757
146	0x3f10b865	0.56531364
147	0xbe3e2385	-0.18568237
148	0xbe37f2e8	-0.17963755
149	0xbc31ebef	-0.010859474
150	0xbd8786c6	-0.06617503
151	0x3eb33743	0.350031
152	0x3e39812e	0.18115684
153	0x3cd5c6d3	0.026095783
154	0x3ddbd0f3	0.10733213
155	0xbd96c598	-0.07361907
156	0x3df66bad	0.12032256
157	0xbe5776e7	-0.21041451
158	0xbe889050	-0.26672602
159	0xbd141aa5	-0.036158223
160	0x3e10c916	0.14139208
161	0x3da16575	0.078806795
162	0x3e379f9d	0.17931981
163	0xbd34f48b	-0.044178527
164	0x3e3a1b1e	0.18174407
165	0x3c3a7542	0.0113804955
166	0x3d58f2b8	0.05296585
167	0xbb0e2a88	-0.002169283
168	0x3e3f4176	0.18677315
169	0xbe8b0800	-0.2715454
170	0x3e59eb4a	0.21281162
171	0xbce2bf0e	-0.027678993
172	0x3dfef108	0.12448317
173	0x3e3fab3f	0.18717669
174	0x3e17547f	0.14778326
175	0x3e8cb489	0.27481487
176	0x3e134b94	0.143843
177	0xbc82931f	-0.015939293
178	0x3efa845e	0.48929113
179	0x3d29a699	0.041418646
180	0xbd50eb33	-0.051005553
181	0x3e27a9de	0.16373393
182	0xbe5e7838	-0.21725547
183	0x3f1f5198	0.6223388
184	0xbda5c020	-0.080932856
185	0xbdd3a6fb	-0.10334583
186	0x3e05f269	0.13080753
187	0x3e3caadd	0.18424554
188	0xbe8d3d5f	-0.27585885
189	0xbc972531	-0.018450351
190	0xbe1c0d3b	-0.15239422
191	0x3d2ae51c	0.041722402
192	0xbdb1937d	-0.08670709
193	0x3e272586	0.16322908
194	0x3f27e5ff	0.6558532
195	0xbd136c73	-0.035992097
196	0xbe0da7e4	-0.13833576
197	0x3d81d470	0.06339347
198	0xbe471c67	-0.19444428
199	0x3bb90938	0.005646851
200	0xbd26fc9d	-0.040768255
201	0x3df5e9b9	0.1200747
202	0x3dc4907c	0.09597871
203	0x3e2baee7	0.16765939
204	0x3edfe53a	0.43729573
205	0xbe837cc3	-0.25681123
206	0x3d256fd2	0.040389843
207	0x3f36b419	0.7136856
208	0x3bb2cbcf	0.005456425
209	0x3bd3e082	0.0064659724
210	0x3d6e3c5b	0.05816303
211	0x3d65dc63	0.05611838
212	0xbe063ea9	-0.1310984
213	0x39ee9d4c	0.00045512093
214	0xbd1bf4fe	-0.03807544
215	0xbdda384c	-0.10655269
216	0x3e5f5864	0.21811062
217	0x3e50e231	0.20398785
218	0xbd1ded0e	-0.03855615
219	0xbdd94b21	-0.10610033
220	0xbe04fff0	-0.12988257
221	0x3e7b3cbe	0.2453489
222	0xbe5efbf7	-0.21775804
223	0x3e91228f	0.2834668
224	0x3d389751	0.04506618
225	0xbd38331e	-0.044970624
226	0xbdc155de	-0.09440206
227	0xbc40ce0b	-0.0117678745
228	0x3f15f0a7	0.5857033
229	0x3e4992bc	0.19684881
230	0xbdc188cf	-0.09449922
231	0x3b94e9ee	0.004544488
232	0x3d3950a8	0.045242935
233	0xbcce8cdb	-0.02521365
234	0xbe808070	-0.2509799
235	0xbd66487c	-0.05622147
236	0x3f175707	0.5911717
237	0x3d910d06	0.07082562
238	0xbd8816c9	-0.06644971
239	0x3e6167b0	0.2201221
240	0xbd7c3ac1	-0.06157947
241	0x3e29e945	0.16592892
242	0x3e6365ab	0.22206752
243	0x3e337759	0.17525996
244	0xbcd1e9ce	-0.025624182
245	0x3fa81698	1.3131895
246	0x3ec8e244	0.39235127
247	0x3e3fc102	0.1872597
248	0xbe0d358c	-0.13789958
249	0xbd1e74e5	-0.038685698
250	0x3ee7f3ce	0.45303196
251	0xbe0ce24b	-0.13758199
252	0xbe82f492	-0.25577217
253	0xbd8e29c1	-0.06941558
254	0x3c6507b6	0.013978889
255	0xbea9114e	-0.33021015

log_std_linear.bias f4 [2]
0	0xbf069aae	-0.5257977
1	0xbe899b23	-0.26876172
