lunar_lander_continuous/models/SAC/q1_234_202.pth (torch, 277399 bytes, 5 tensors)

net.0.weight f4 [256, 10]
000000 77 05 a9 3e 7b 5a 3e bf f4 10 1c 3c cd cb 8b 3f
       0.33011982 -0.7435681 0.009525526 1.092157
000010 bf 57 08 3f 9b 8a 2d 3d 76 9b bb 3e b8 14 49 be
       0.5325889 0.042368513 0.36642045 -0.1963681
000020 4a 0f 87 bc cc 60 8a 3e 3c 0b e9 be cf 8a 63 3d
       -0.016486783 0.27026975 -0.45516384 0.0555523
000030 06 8a 09 3f 0a 27 39 bf 15 db 29 3f 3a c8 ea be
       0.5372623 -0.72325194 0.6634992 -0.45855886
000040 4b fa d7 bc fa e0 e3 bc 53 82 4b 3e 46 64 8c be
       -0.026364466 -0.027817238 0.19873933 -0.27420253
000050 fc a6 16 3e 0c 65 d0 bd f5 c7 3f 3f e3 33 fb 3d
       0.14712137 -0.10175523 0.74914485 0.12265756
000060 80 0c 6d bf 8e 3f 88 bc 54 89 17 3e 51 e1 ec 3b
       -0.925972 -0.016631868 0.1479848 0.0072290082
000070 62 4e a9 bd 16 78 11 3e e8 be 00 bf 91 64 ba be
       -0.082669035 0.14205965 -0.502913 -0.3640485
000080 bd 6f 81 be 38 66 28 bd 9a b2 e2 be c2 d7 ac 3e
       -0.25280562 -0.04111311 -0.44276887 0.3375836
000090 05 a7 ed be f1 4c 12 be 4b 94 84 be ee 47 a3 be
       -0.46416488 -0.14287163 -0.2589439 -0.31890815
0000a0 7e 11 87 be d7 25 1e be 2f af fb be 58 86 b5 3f
       -0.26380533 -0.15444122 -0.49157092 1.4181623
0000b0 90 c9 30 bf c4 03 31 bd de 2f 64 3e e8 bc 22 3d
       -0.6905756 -0.04321648 0.22283885 0.039730936
0000c0 1d 49 3e 3f 41 0f 8d 3e ee 78 c6 bf 4d 91 a1 3c
       0.7433031 0.275507 -1.5505655 0.019722605
0000d0 46 f9 c0 3e d2 43 01 3f 3a 61 38 be ef 65 e7 be
       0.3769018 0.5049411 -0.18005839 -0.45194957
0000e0 64 b1 20 3d 88 16 96 3e 8b 4b f6 3d 7b 2a c5 3c
       0.039231673 0.29314065 0.120261274 0.024068108
0000f0 1c 5b 73 3f 91 c8 4f 3d 42 b8 21 bf 08 3d 09 bf
       0.95060897 0.050728384 -0.6317178 -0.5360875
000100 35 77 c8 be e3 bc 45 3e f0 26 2a 3e 3f f7 86 bd
       -0.39153448 0.19310336 0.16616416 -0.06590127
000110 57 dc 3a 3e d1 1b 51 be e9 ea cb bb 89 67 45 3e
       0.18248115 -0.20420767 -0.006223072 0.19277777
000120 f0 d3 43 be ef bb 4c bf 6d 4a 45 be 61 55 bb be
       -0.19123816 -0.79974264 -0.19266672 -0.36588576
000130 8c d6 ac 3e 89 7c 4f be 28 db 25 3e 3d c4 f8 bd
       0.33757436 -0.2026235 0.16196883 -0.121468045
000140 40 fa 57 bf 9e 78 94 3d f6 de 1a be bc 17 bf bc
       -0.84366226 0.072495684 -0.15124115 -0.023326747
000150 8b 79 aa 3f ee 9a 9e 3b c2 da 58 be 4d 08 a8 bd
       1.3318342 0.0048402464 -0.211772 -0.08204708
000160 1e 57 c7 3c 79 34 fc bd 3d 1e d2 3e 96 60 41 bf
       0.024333533 -0.12314696 0.41038695 -0.75538003
000170 fe 76 86 3d 9b 58 1b 3f 01 4e 5d bf 97 07 9f bf
       0.06565665 0.60682076 -0.8644715 -1.2424191
000180 f2 31 a1 be f7 46 9b 3d 86 ad 08 be 43 af 14 bd
       -0.31483418 0.07581895 -0.13347444 -0.036299955
000190 1c 17 75 3f 9c ad 36 3e cd 7a 69 3f 83 43 11 3e
       0.9573839 0.17839664 0.91203004 0.1418591
0001a0 0d 95 36 bf 3b de 08 3e c3 f6 c1 3e a0 f3 09 3e
       -0.71321183 0.13366024 0.37883577 0.13471842
0001b0 b5 85 18 3e e1 5e 84 3e 89 55 58 bd fe 07 81 3e
       0.14894755 0.25853637 -0.052815948 0.2520141
0001c0 19 fb 8c be 8c de 26 3d 7f 89 6a 3d 5e 81 f0 3d
       -0.27535322 0.04073958 0.057260033 0.11743425
0001d0 c9 3d 8a be af 38 f2 bd cc db 9a bd d8 0a 64 3e
       -0.27000263 -0.11827218 -0.07561454 0.22269762
0001e0 6d df e0 3d 9c a2 ad bb 90 ce 43 be 7a b3 14 bf
       0.10980115 -0.0052989256 -0.19121766 -0.5808636
0001f0 15 32 17 be 9a 04 d4 3d 67 4d 60 bd 3f b3 9a bd
       -0.14765199 0.1035244 -0.054761317 -0.0755372
000200 24 6b 46 be 34 34 95 3c 9a b4 44 bf 88 6d 40 3e
       -0.19376808 0.018213369 -0.76838076 0.18791783
000210 23 c6 ea 3e d2 b7 1f be 2a 8e 9f be 90 5b 00 3f
       0.4585429 -0.15597466 -0.3116315 0.50139713
000220 82 f1 40 be cc 9d 26 be 70 d5 5b be dd c4 8e bd
       -0.18842128 -0.16271132 -0.21468139 -0.069711424
000230 6d e2 96 3e 56 70 5c 3d 2a 11 fb bd 3e 9e a2 3f
       0.29469624 0.05381807 -0.12259133 1.2704542
000240 c8 23 ac be b9 dd 69 bc 2a 85 50 be 46 2a 73 3e
       -0.3362105 -0.014274054 -0.20363298 0.23746595
000250 b5 c3 59 bc 7b f0 91 bd 76 5f 23 be 8c 02 96 be
       -0.013291289 -0.07125946 -0.15954384 -0.29298818
000260 f2 fa 94 be 4e 51 cb be 3f 91 b9 3e b8 82 49 3f
       -0.29097706 -0.39710468 0.36243626 0.78715086
000270 2e 8b c4 3c 64 5e 6a bf 18 4d e4 3b dc e1 19 be
       0.023992147 -0.9155028 0.006967198 -0.15027565
000280 58 cc 15 3f 83 d4 91 3e 0d b4 20 3e 15 ce e1 be
       0.5851493 0.28482446 0.15693684 -0.4410254
000290 37 8d 2d 3e ce e8 24 be 2b 69 63 3d 5a 65 a8 3e
       0.169484 -0.16104433 0.055520218 0.32889825
0002a0 10 8a f5 bd ba eb 79 bc 34 b1 98 3e d6 7d b8 be
       -0.11989224 -0.0152539555 0.29822695 -0.36033505
0002b0 5e 8a 7f 3d 34 15 12 3f f1 0b 07 be ba a4 83 be
       0.062387817 0.57063603 -0.13188149 -0.25711614
0002c0 e2 04 9d 3e fb 87 90 be f1 d8 17 bd 3b db 02 be
       0.30667788 -0.28228745 -0.037072126 -0.12778942
0002d0 6b 79 e6 3e cb 4b 4c bf 81 22 2a bf e7 5a 1f 3f
       0.4501451 -0.7980315 -0.664589 0.6224808
0002e0 71 6d 51 bf e2 c8 c7 be b6 c0 df 3e 61 41 96 3c
       -0.8180762 -0.3902045 0.43701714 0.018341722
0002f0 d6 e0 4a be 75 a1 9a 3e 0d f7 14 3f b2 07 06 3f
       -0.1981233 0.30201307 0.5818947 0.5235549
000300 92 b2 69 bf 7a 2b 8a bf 3a 63 39 3e 96 94 20 bf
       -0.912881 -1.0794518 0.18104258 -0.62726724
000310 8e d9 5a be 1e 8c 04 3e 93 5a 84 3e f3 a8 6a 3d
       -0.21372053 0.12944075 0.25850353 0.05729003
000320 cc e4 f9 be f0 1c bf be ae e7 be 3d 2e 9b a3 3e
       -0.4880737 -0.37326765 0.09321533 0.3195433
000330 b9 b5 c6 3e 31 bc c0 3d ae 26 c1 3e 2b 22 73 be
       0.38810518 0.09410895 0.37724823 -0.23743503
000340 0f 30 a7 3e ba 7b 51 bd 62 cf b5 be cb fb f8 bf
       0.32653853 -0.051143385 -0.35509783 -1.9451841
000350 8b 73 54 3f f2 c7 50 bf fc 07 60 3c db c4 93 be
       0.82988805 -0.8155509 0.013673779 -0.28861126
000360 45 90 bc be e8 71 b2 be 08 6a 47 3d c0 16 43 3d
       -0.3682882 -0.3485253 0.048685104 0.047629118
000370 a9 d8 c4 3d 09 53 d5 be eb 4c 5e be 9a ce 13 3e
       0.09611637 -0.41664913 -0.2170903 0.14434281
000380 17 92 b4 be 5b cc 94 bf d0 9b b3 bf 2b 2b ca bd
       -0.35267708 -1.1624864 -1.4031925 -0.09871515
000390 e2 a3 9e be 10 7f b3 3e 0c 91 d6 3c 96 15 cf be
       -0.30984408 0.35057878 0.02619221 -0.40446156
0003a0 59 17 9f be 26 ab 0c 3f 55 61 1a bf a4 58 6f bf
       -0.310725 0.5494865 -0.60304767 -0.9349463
0003b0 9e 49 69 bd ef 2a af be 76 b3 a8 be 40 ab b5 bd
       -0.056954972 -0.34212443 -0.32949418 -0.08870554
0003c0 c0 4b 09 bf e9 cf 91 be 5c b4 a6 3f df f2 69 bf
       -0.5363121 -0.28478935 1.3023791 -0.91386217
0003d0 21 2d 92 3e ee a0 e7 3e d6 f6 e1 bd 5b 72 60 3e
       0.28550056 0.45239967 -0.11033408 0.21918623
0003e0 89 54 d8 bd 2b 8d bc bd 43 95 12 3f 91 46 20 3f
       -0.10562999 -0.09206613 0.57259005 0.62607676
0003f0 27 d0 6b be c9 1f f3 3e d6 8a b1 bf 43 eb b3 3e
       -0.23028623 0.47485188 -1.3870494 0.35140428

net.0.bias f4 [256]
000000 69 c7 8b be 9c 7d df 3e 0f 60 8d 3e 12 46 0d bf
       -0.27300575 0.4365052 0.2761235 -0.55185044
000010 35 46 9a 3d 13 e9 01 3e 8a 21 68 3e 2c d4 23 3e
       0.07532922 0.12686567 0.22669044 0.15998906
000020 57 3d 72 3e f1 ab ba be 09 91 79 3e e5 e8 06 bf
       0.23656212 -0.36459306 0.24371733 -0.5269912
000030 13 f1 7e 3e ac 8c d5 be ff c0 50 3e e1 e0 99 be
       0.2489665 -0.41708887 0.20386122 -0.3005438
000040 ff ec dc be 63 29 b0 be f6 33 44 be 04 29 b3 3d
       -0.43149564 -0.34406576 -0.19160447 0.087480575
000050 54 56 9c 3e 5c 07 49 bd 15 43 0f bc 4f 0f 91 be
       0.30534613 -0.049079284 -0.008744021 -0.28331992
000060 38 a5 66 3e d6 a0 90 3e 1d 68 49 3e 7b 8a 54 3e
       0.22523963 0.28247708 0.19668622 0.20755951
000070 bd e4 2e bd 6b 52 36 3e 48 d0 82 3e 27 88 b0 bd
       -0.04269861 0.17804877 0.2554953 -0.08619719
000080 62 11 a1 3e 9d a9 9b 3e 06 ba 33 be 27 d7 27 3e
       0.31458575 0.30402842 -0.17551431 0.16390668
000090 08 00 95 3e 10 f2 a3 3e ea ab 6c be 82 de 6e 3c
       0.29101586 0.32020617 -0.23112455 0.014579417
0000a0 9d fd c8 3d 66 ba 1e bf b1 1c 08 3c 80 60 80 be
       0.09813998 -0.6200317 0.008307622 -0.25073624
0000b0 5b 4a ec 3e 8f c2 57 3e 67 d6 83 3e 06 95 cc be
       0.4615048 0.21070312 0.25749514 -0.39957446
0000c0 ff 98 28 bd 90 43 b8 3d ae ca 50 3a 8d a8 a2 3e
       -0.041161533 0.089972615 0.0007964772 0.3176922
0000d0 79 fd d5 3e b1 10 fa 3d e2 48 1d be db 38 6b be
       0.41794947 0.12210215 -0.15359834 -0.22970907
0000e0 df 7a d0 3e d5 b0 c7 be 9e da f1 be 5f c5 4d 3e
       0.40718743 -0.390021 -0.47237104 0.20094822
0000f0 f8 d6 d0 3d f9 4c d5 3e d7 8c b2 be 75 7a 9c 3e
       0.10197252 0.41660288 -0.34873077 0.30562177
000100 fa 08 08 bd df 60 85 be 3c f8 98 3e 6b 7a b5 3e
       -0.033211686 -0.2605047 0.29876888 0.3544496
000110 2e 7f f1 bd 47 f1 a0 bc c6 d9 49 3e 81 1a 93 3e
       -0.11791836 -0.0196463 0.1971198 0.28731158
000120 29 97 ab 3e 08 83 02 3f 71 c3 f6 3e a6 6f b2 38
       0.33513764 0.5098119 0.48195985 8.5084976e-05
000130 49 56 0b 3f 34 29 8b 3b cc cb ec 3e 97 86 9d 3d
       0.54428536 0.004246855 0.46249235 0.076916866
000140 df ce ac be 06 81 9f bc 41 f1 85 3e 12 27 2d 3e
       -0.3375158 -0.019470703 0.26160625 0.16909435
000150 e4 c2 95 be 76 95 74 bd a9 84 33 3e 9b 0b 13 3e
       -0.29250252 -0.05971285 0.17531075 0.14359896
000160 07 5b 5a bd 3c 82 59 3e 1c 5d 61 3c 2e 39 a7 3d
       -0.053309467 0.21241087 0.013755109 0.08165203
000170 35 16 83 bd 4f 44 6f 3e a1 3b 13 bf 2c 44 7f 3e
       -0.0640072 0.23365901 -0.5751286 0.2492835
000180 20 d8 ad be 5b c7 b9 3e 5f 81 46 be 29 1f 01 be
       -0.33953953 0.3628491 -0.19385289 -0.12609543
000190 0d 75 6a 3e 81 5f 81 be 93 36 09 3e 67 e1 08 be
       0.22896214 -0.25268176 0.13399725 -0.13367234
0001a0 60 c1 68 3e 82 5c d8 be e1 1d a9 3e 60 db df be
       0.22730017 -0.42258078 0.33030608 -0.43722057
0001b0 fc 86 b0 3e 05 a3 a5 3e 08 0b 3a be d4 5f 2d 3e
       0.34477985 0.32350937 -0.1816827 0.16931087
0001c0 6a 1d 98 3e ba ae 40 3e 91 56 1f be 3e 92 08 bf
       0.2970994 0.18816653 -0.15560366 -0.5334815
0001d0 c8 a7 f6 be d2 65 07 be 0a 05 f2 be 88 5a 79 3e
       -0.48174882 -0.13222435 -0.4726947 0.24350941
0001e0 49 fc 38 be aa 34 99 3d 38 1b d8 be 57 42 91 be
       -0.18064989 0.07480748 -0.42208266 -0.28370926
0001f0 dc 95 28 3e 63 5a a8 be 92 0f 7b 3e f8 0c 6e be
       0.16463417 -0.3288146 0.24517658 -0.23247135
000200 43 c1 a5 3c 4c 5e 46 3c 8a b7 c3 bd b5 6e bc 3e
       0.020233756 0.012107443 -0.09556492 0.36803213
000210 ab b6 e2 3e 31 98 9e 3d 7c 10 31 be 0d 99 c2 3d
       0.4427999 0.07743872 -0.17291445 0.09501848
000220 0d d4 a7 be 9c 7e 1b 3e e9 42 84 3e 11 2b ab bd
       -0.3277897 0.15185016 0.25832298 -0.08357824
000230 fa 2c 35 3e 9c a5 c9 3e b7 aa 14 bf e0 0d ef 3e
       0.17692938 0.39384162 -0.5807299 0.46690273
000240 08 a1 25 3d fd a8 86 be 9b 59 cc 3d 84 e0 ff 3e
       0.040436774 -0.26300803 0.099780284 0.4997598
000250 d7 b5 2d 3d 5a 33 6b 3d 11 73 87 3e 57 82 b9 3e
       0.042409744 0.05742202 0.26454976 0.36232254
000260 54 31 a0 3d 12 7f 8f 3e 3a e0 97 be 60 7f dd 3e
       0.078219086 0.28026634 -0.2966326 0.43261242
000270 cb bc 4c bd 74 88 18 3f 51 e2 97 be 30 97 b3 3e
       -0.049984735 0.5958321 -0.29664853 0.35076284
000280 80 13 5f be 2e ad 02 be 53 aa 74 3e c6 3f 35 bd
       -0.21784782 -0.12761375 0.23893099 -0.044250272
000290 d1 4f bf be b2 3b 67 3e 2c da 0f 3e 6d fb 86 3e
       -0.37365583 0.22581366 0.1404807 0.26363698
0002a0 ed 12 6f be f3 60 14 be e4 3c 78 3d 17 6b fe be
       -0.23347063 -0.14490108 0.060604945 -0.49691078
0002b0 71 17 55 3e 6c 7c 8e be a1 8b bb be c2 60 fd 3e
       0.20809723 -0.278293 -0.36629966 0.49487883
0002c0 92 0a 0e 3f 43 9b 06 3e 9d c9 7f be 64 86 4e bd
       0.5548488 0.13145165 -0.24979253 -0.050421134
0002d0 3b a5 6d 3e fb 9b 75 3d fd 0e 37 3e fc 22 b7 3e
       0.23207562 0.059963208 0.17876811 0.35768878
0002e0 7b 4e 17 3f 59 92 d8 bd 68 87 ba bc 55 e2 bf be
       0.59104127 -0.105747886 -0.022769645 -0.37477365
0002f0 20 16 cc 3e 5f f4 13 be 76 27 01 3f 49 c7 f0 3d
       0.3986063 -0.14448689 0.5045084 0.117567606
000300 48 4b b9 3e fe b4 c1 bd aa 7d a8 3e af f8 f3 3d
       0.36190248 -0.0945835 0.32908374 0.11912667
000310 be 15 e5 3e 3d ef cc 3e e6 bd a4 be ed 4b 35 3e
       0.4474315 0.40026274 -0.3217613 0.17704745
000320 9b 3e a2 3e 49 48 37 be 1e 3e a1 3e e3 9c b6 3e
       0.3168839 -0.17898668 0.31492704 0.3566657
000330 64 a6 09 bd 13 d1 cd 3d fb 0c 14 bf 9c a8 eb be
       -0.033605948 0.10049643 -0.57832307 -0.46027076
000340 dc 16 81 be 77 52 81 be 19 8b 4d 3e 07 f3 e1 3e
       -0.25212753 -0.25258228 0.20072593 0.44130728
000350 40 4b 77 3e f5 79 3f be c9 dd 29 3e 0f a2 12 be
       0.241498 -0.18698867 0.1658851 -0.14319633
000360 a4 ba ad 3e a3 40 e2 3e cd 40 0d 3f bf 7d bf 3e
       0.33931458 0.4418994 0.55177003 0.37400624
000370 47 df 68 3e f0 14 22 bf 25 95 cb 3d bd 29 29 3e
       0.22741424 -0.633132 0.099405564 0.16519828
000380 01 3a dd 3d ef b7 53 be 08 36 e3 3e 38 45 bb 3d
       0.10802079 -0.20675634 0.4437716 0.09144062
000390 b0 9c 02 bf 64 56 3a be d7 af 5c 3d f4 ce 35 3e
       -0.51020336 -0.18197018 0.05387863 0.17754728
0003a0 0c 34 76 3e d8 0b 92 be 55 fe d2 3d 9c 96 75 3e
       0.24043292 -0.2852466 0.10302416 0.23983234
0003b0 5e ce fe 3e 8a 4c be be 66 bc 9c be bb 11 90 3b
       0.4976682 -0.3716777 -0.30612487 0.004396645
0003c0 d7 a1 fb 3e 08 dc 06 3e 1c b3 06 bf cc bc 80 3e
       0.49146912 0.13169873 -0.5261705 0.2514404
0003d0 a5 cb f4 3d 16 e0 e1 3e 05 e7 ca 3e 66 85 0e 3f
       0.119529046 0.44116277 0.3962938 0.556723
0003e0 45 e0 af bd 4e c8 f7 3e 01 d8 1d bf 45 fb b9 3e
       -0.08587698 0.48395008 -0.6165772 0.36324516
0003f0 c1 46 44 3e 23 c1 7d be 18 ae b1 bd 17 65 05 bf
       0.19167615 -0.24780707 -0.08675784 -0.52107376

net.2.weight f4 [256, 256]
000000 20 82 6c 3b 25 f7 63 bd a7 5b 0f bd a2 d3 29 bd
       0.0036088303 -0.055655617 -0.034999516 -0.041461594
000010 e5 cd 32 bd c8 6b 21 3d 04 56 30 bd 10 9d 23 3d
       -0.043653388 0.03940943 -0.04305078 0.03994471
000020 90 47 dd bc 18 6b 08 3d 22 5e 96 bc 8c 47 2a bd
       -0.027011663 0.033305258 -0.018355433 -0.04157214
000030 52 ca ab 3c 53 93 1a bd 0c dd 20 bd fd 5f 81 bd
       0.020970497 -0.037738156 -0.039273307 -0.063171364
000040 b7 9d 2c bc f8 7f 13 bc c4 fd e9 bc 7c 36 64 bd
       -0.010535649 -0.009002678 -0.028563388 -0.055716023
000050 05 2d 07 bd 80 e3 69 3b 28 0d 2c 3d a0 8a 6b 3c
       -0.03300192 0.003568858 0.042004734 0.0143763125
000060 56 92 7e bd 26 fc 2a 3d 19 12 cc 3c b3 f4 68 bd
       -0.062151276 0.041744374 0.024910973 -0.05687399
000070 24 33 b7 bc 5e 2e 05 3d 1e 82 75 bd 34 80 23 3d
       -0.022363253 0.032514922 -0.059938543 0.039917186
000080 3d 00 b0 3c 4e 6e 70 bd 40 7b 4a 3b ff 8c 38 bc
       0.021484489 -0.058698945 0.0030896217 -0.011264085
000090 41 ed 75 bd 9e fb 2e bd dc 94 0e bd f2 f9 0f bd
       -0.060040716 -0.04272043 -0.034809932 -0.035150476
0000a0 54 a0 0c bd f2 75 0f 3d c1 ed 15 3d 00 82 07 bd
       -0.03433259 0.03502459 0.036603693 -0.033082962
0000b0 eb f0 fd 3b 99 d9 49 bc e0 09 f2 3c 61 a8 2c bd
       0.007749667 -0.012319946 0.029545724 -0.042152766
0000c0 d0 67 68 3d 5a 09 da 3c 0c 11 65 bd 91 81 50 3d
       0.05673963 0.026615787 -0.05592446 0.050904814
0000d0 6c a2 7c bc 7b 47 1b bc 00 6d 67 bd 31 a5 86 bd
       -0.015419584 -0.0094774915 -0.056500435 -0.065744765
0000e0 a0 31 50 bd 08 df ac 3a 4b ae b9 3c dd ba 6e 3c
       -0.050828576 0.0013189027 0.022666117 0.014570919
0000f0 87 63 18 3d d0 2f a3 bc dc 14 df bc f0 4e cd 3c
       0.03720429 -0.01992026 -0.027231626 0.025062054
000100 69 3e 48 3d c0 76 b6 bc 5a d4 2b 3d 9f 24 94 3b
       0.048887644 -0.022273421 0.04195056 0.004520967
000110 c0 32 eb ba 39 f5 16 bc 1b 92 71 bc 2e 94 2d bd
       -0.0017944202 -0.009213739 -0.014744307 -0.042377643
000120 cd f4 84 bd 22 d2 81 bd ea b1 2a bd 44 67 b5 bc
       -0.064920045 -0.06338908 -0.04167358 -0.022143967
000130 5b c3 08 bd bc e5 45 bd f1 9e 94 bc 58 1b a8 3c
       -0.03338943 -0.048314795 -0.018142195 0.020520851
000140 86 9f 24 3c 4c e0 0f 3c dc f3 ca 3c 2b 6b 4c bc
       0.010047799 0.008781504 0.024774484 -0.012476723
000150 5c b2 13 bd 70 23 8a bb 7b b2 bb 3c 5a 82 ed 3c
       -0.03605877 -0.0042156503 0.022912255 0.02899282
000160 2a bb 88 bd df 17 dc 3c e0 88 31 bd cf 34 1e bc
       -0.06676324 0.026866851 -0.043343425 -0.009656145
000170 11 03 17 3d 32 c6 50 3d ba 21 78 3d 67 29 d3 3c
       0.03686816 0.050970264 0.06057904 0.025776578
000180 68 81 8e 3c 50 22 53 bd 49 ab 53 bc d8 70 3a 3b
       0.01739569 -0.051546395 -0.0129192555 0.0028448608
000190 cb ef 23 3d 9d 1d 25 3c b1 b0 4a bd 50 5d 79 3c
       0.040023606 0.010077861 -0.049484912 0.015220001
0001a0 98 41 67 3b ff 77 d5 ba 40 3e 2b 3d d1 07 8b bc
       0.00352869 -0.0016286372 0.041807413 -0.0169715
0001b0 bc 8b 07 bd 34 99 05 3c 1e d9 3c 3d c8 59 85 3a
       -0.033092245 0.008154202 0.046105497 0.0010173852
0001c0 1e 46 45 bd a0 3a 46 3d 79 e0 16 3d e0 b5 0f bb
       -0.048162572 0.048395753 0.036835168 -0.0021928474
0001d0 00 f4 d4 bb 00 bc 53 3a ae 17 9e 3b aa 04 59 3b
       -0.0064988136 0.00080770254 0.0048246 0.0033114352
0001e0 fa fa 39 bd d3 32 69 bb 20 30 17 3c 1a 90 4e bd
       -0.045405366 -0.0035583272 0.0092277825 -0.050430395
0001f0 8b a1 8c bd 18 9c 6a 3c 8f d4 b3 bc bd ee 4d bc
       -0.068667494 0.014319442 -0.021951942 -0.012569127
000200 7b 93 ec 3c b6 57 19 3c 74 5b 63 bd e9 85 55 bd
       0.028878918 0.009359291 -0.05550714 -0.05212966
000210 ff ef 8b bd 4a 3a 47 3d 86 f5 37 bd 10 f7 93 bb
       -0.06832885 0.048639573 -0.044911884 -0.004515536
000220 57 41 09 3c 85 83 6b bd 78 82 4f bc 10 31 78 bd
       0.008377395 -0.057498474 -0.0126653835 -0.060593665
000230 cc 9e 67 3d 55 de 52 3c bd 49 4c bc 43 39 f3 bc
       0.056547925 0.012870391 -0.012468752 -0.02969039
000240 18 63 f0 bc 7d 77 6a bb 3f 97 c2 ba 9a 7e 4f 3c
       -0.029344127 -0.0035776787 -0.00148461 0.0126644615
000250 ea d0 5a 3c d9 3c 6d 3d 30 9c 3b 3d 10 99 30 bd
       0.013355473 0.057919357 0.04580325 -0.04311472
000260 bd fa 8f 3c c4 3e 84 bd ee a0 79 bd c5 30 b2 3c
       0.017575616 -0.06457284 -0.06094449 0.02175177
000270 9f 82 86 bd b5 13 78 bd 5a 78 46 bd 8a d7 d2 bc
       -0.06567883 -0.06056567 -0.04845462 -0.025737543
000280 d9 4f 92 3b 43 60 03 3d 68 d7 a5 bc 66 70 17 3c
       0.004465085 0.032074224 -0.020244315 0.0092431065
000290 d4 4e 1a bc 10 d1 45 bd c0 f3 4c bc ff 9a f0 bc
       -0.009418208 -0.04829508 -0.012509286 -0.029370783
0002a0 dc 4a 14 bd b7 8f 39 bd 0c 07 5b bd 53 73 6f bd
       -0.036204204 -0.045303073 -0.053473517 -0.05845959
0002b0 46 65 81 bd c0 e2 39 bd 32 57 16 3d 3c f0 b8 bc
       -0.063181445 -0.04538226 0.03670425 -0.02257549
0002c0 23 46 43 bd e0 d2 7d 3b 25 d4 0a 3d f2 be 62 3d
       -0.04767431 0.0038730428 0.033893723 0.05535788
0002d0 2c c2 95 3c 1a ff 61 3b 80 2f 17 bd 6f 52 56 3d
       0.018281065 0.0034484328 -0.036910534 0.05232471
0002e0 96 08 e9 bc db b3 23 bc c9 13 e9 bc bd 10 2a bd
       -0.028446477 -0.009991611 -0.028451817 -0.04151987
0002f0 c9 09 20 bd 34 bb 67 bd 4d d2 d5 bc 93 c2 6b 3c
       -0.03907183 -0.056575015 -0.026101256 0.014389652
000300 d4 c5 b8 3c ad 49 d5 bb 21 f1 53 3b 59 fd bb bc
       0.02255527 -0.006509027 0.003233977 -0.022947954
000310 83 2e 8a 3c 28 99 f7 3c 90 c5 f4 bb 0b a7 0e bd
       0.016867882 0.030224398 -0.0074698403 -0.034827273
000320 b7 c6 ac bc 8e 2b 33 bd a1 62 e8 bb 3f 69 b0 bc
       -0.021090848 -0.04374271 -0.0070918356 -0.02153456
000330 44 18 92 bc e8 6f 47 bc c0 17 ed 3c 30 7a 52 bc
       -0.017833836 -0.012172677 0.028941989 -0.012846515
000340 24 11 82 3c 5c 2d 82 3c 75 55 57 bd a0 fe 4f 3c
       0.015877314 0.01589077 -0.052571733 0.012694985
000350 71 f9 8c bb 7b 2b 0d bc 92 b6 2b bd 40 e8 4c bc
       -0.0043021967 -0.008616324 -0.04192216 -0.012506545
000360 30 82 27 bc 97 b0 c3 3c 5e 3c ad bb 39 e8 8c bc
       -0.01022391 0.023887916 -0.0052867373 -0.017200576
000370 c8 3b 4a bd f4 e1 3f bd 12 be 0c bd 34 a3 d1 bc
       -0.049373418 -0.046846345 -0.034360953 -0.025590517
000380 ee d6 c2 bc a2 0a 03 bd b8 a2 b4 bc 1e dc 13 3d
       -0.023784127 -0.031992562 -0.022050247 0.036098592
000390 18 99 96 3c f2 cf 36 3d 0a 3b 25 3d 60 e2 a0 bc
       0.018383548 0.044631906 0.040339507 -0.019639194
0003a0 7c 69 a6 3b c0 6a bf ba f1 51 52 bd de b0 4e bd
       0.0050784927 -0.0014603958 -0.051347677 -0.050461642
0003b0 26 1c f6 bc 80 f0 cd ba 35 7b e9 ba 9d 08 ed bc
       -0.03004272 -0.0015711933 -0.0017813208 -0.028934771
0003c0 48 57 46 3d 80 24 ab bb 34 86 49 bd 84 66 88 bc
       0.04842308 -0.005222857 -0.04920025 -0.016650446
0003d0 5c 50 2f bc 28 41 2c bc 31 fb af bc 0d 9b 13 bd
       -0.0107003115 -0.010513581 -0.021482082 -0.03603654
0003e0 5c 02 f7 3c 1e 72 e8 bc 0c 8a 39 bd c0 f9 f6 bb
       0.030152492 -0.028374728 -0.045297667 -0.0075370967
0003f0 18 c2 62 bd d0 da f6 bc 35 72 35 3d a2 9a 3d 3c
       -0.055360883 -0.030133635 0.04429837 0.011572512

net.2.bias f4 [256]
000000 a7 f8 07 3d 61 ab be 3d 79 26 9e 3c 05 e3 f7 bc
       0.033196118 0.09310032 0.019305455 -0.030259619
000010 1d 4f 47 bd 39 c4 b0 bd c7 5e 21 3e 96 b2 47 3d
       -0.048659433 -0.086311765 0.15758811 0.048754297
000020 a6 3e 9e 3a 1e fc 90 bd 2f fe a1 3d e5 c6 a0 bc
       0.0012073114 -0.070793375 0.0790981 -0.01962609
000030 a9 e9 87 bb a9 eb e8 3d 28 8a f0 3c 6c 52 dd 3d
       -0.0041477275 0.113730736 0.029362753 0.10806736
000040 58 35 64 3e 2e 4f 9c 3d ca 21 6a 3e d0 8a 43 3e
       0.22285974 0.0763229 0.22864452 0.19095922
000050 54 26 7b 3e f0 92 82 bd 6e 8a ed 3a e0 90 9d bc
       0.2452634 -0.06375682 0.001812292 -0.01923412
000060 85 ac dd 3d d7 8c 24 3e 4f 09 f1 bb 65 4f 40 3c
       0.10823921 0.16069351 -0.007355846 0.011737679
000070 dc c1 09 3e f6 6f 63 3e a6 ea da bc e7 64 08 3e
       0.13452858 0.22210678 -0.026723217 0.13319741
000080 ae 69 d1 bc 77 10 68 bd d1 12 7a bd 3a d8 2c 3e
       -0.025563087 -0.056656327 -0.0610531 0.16879359
000090 df 62 78 3d 88 e8 11 bd 02 f4 54 3e 63 96 f0 3d
       0.060641166 -0.03562215 0.20796207 0.11747434
0000a0 a5 37 1b 3e d1 18 2f 3e 85 c3 46 3e f9 cd 2c 3e
       0.15157945 0.1709931 0.19410522 0.16875447
0000b0 a1 45 93 3d 71 60 4a 3d c2 22 a5 bc 71 d8 64 3e
       0.07191015 0.04940838 -0.020158175 0.22348191
0000c0 5b 42 5e 3e 85 f2 23 3e dd 5e 6e bc 60 8e de 3d
       0.21705 0.16010483 -0.014548984 0.108669996
0000d0 72 54 c5 3d 39 f0 79 3e 99 78 6a 3e 84 2a 0b 3e
       0.09635247 0.24408044 0.22897567 0.13590437
0000e0 de eb 82 be 1d 45 09 3e 86 71 07 3e cb 04 a6 bd
       -0.25570577 0.13405271 0.132269 -0.08106383
0000f0 55 b8 b1 3c 69 52 33 3e 1d 14 ce bc 6d 84 59 be
       0.021694342 0.17511906 -0.025156075 -0.21241923
000100 16 16 3b bb 3e 7a be bc 2a 01 1c 3e 16 92 7a bc
       -0.00285471 -0.023251649 0.15234819 -0.015293619
000110 c6 3e 09 bd 2e c5 f1 3d 68 b6 a1 bc 47 e2 5b 3e
       -0.03350713 0.11805187 -0.019740298 0.21473037
000120 68 88 61 3d e8 d0 c8 3d 72 cb f2 bb 7c bd 8b 3c
       0.055061728 0.09805471 -0.0074095065 0.017058127
000130 37 9b b1 3d 21 e3 08 3e 24 b4 3c bd 53 fa cc 3d
       0.08672183 0.13367893 -0.046070233 0.10008683
000140 db 34 5e bd e4 02 3b 3d bb 13 05 bd b6 b3 87 bc
       -0.054249626 0.045657054 -0.03248952 -0.016565185
000150 80 81 9c bd 7b bd 22 3e fd 61 1f 3e 2a 69 c8 3d
       -0.07641888 0.15892594 0.15564723 0.097856835
000160 d8 2f ae 3b 0e 3f 2e 3e 5f 7c 64 3d 54 8a 33 3e
       0.005315762 0.17016241 0.055782672 0.17533237
000170 6f c4 d2 bd a5 59 6b 3c 2b b9 b9 be 0a 96 d4 3d
       -0.10291373 0.014364635 -0.36274084 0.1038018
000180 0a 82 61 3e 9d a0 ba 3d d4 38 bf 3d 3c d7 71 3e
       0.22022262 0.09112666 0.09337011 0.23617262
000190 0b dd 18 3c db 15 09 3e 53 2d 69 be 52 d7 95 3e
       0.0093300445 0.13387243 -0.22771196 0.2926584
0001a0 21 d9 56 3b 9e 38 a1 bc 0e 79 c3 3d 2f 7f 66 bc
       0.0032783228 -0.019680317 0.09544574 -0.014068409
0001b0 1a 63 bd 3d 6f 43 a2 bd 4b 2c cf bd fe 43 a3 3e
       0.09247418 -0.07923018 -0.1011587 0.3188781
0001c0 19 c9 02 3c 4f c3 dc 3d f3 1f 02 3d 1e e8 fc 3b
       0.007982516 0.1077944 0.03176875 0.0077181
0001d0 79 46 a1 3d 17 5e 87 be 7e 66 92 bd 8f 1f 9f 3d
       0.0787477 -0.26438972 -0.07148455 0.07769691
0001e0 f3 e0 3a 3e da a7 07 3e 4f 82 f9 bc 83 68 37 3e
       0.18249874 0.13247624 -0.030457644 0.17910962
0001f0 f9 f8 ff 3d 92 7f 7e 3e e7 e8 96 3d 7c 74 12 3e
       0.1249866 0.24853352 0.07368641 0.14302248
000200 7c 4f b8 3d e4 18 de bc 31 14 63 3e a3 f3 09 3e
       0.089995354 -0.027111478 0.22175671 0.13471846
000210 7a 3f fa bc cc 0b 58 3e 17 b7 98 3d 85 12 14 be
       -0.030547846 0.2109825 0.074567966 -0.1446019
000220 c6 bf 84 3d bd b5 fc 3d 82 d2 5e 3d 18 34 cb 3c
       0.064818904 0.12339351 0.054399975 0.024805114
000230 17 28 39 3e 79 9f ce 3d 73 34 a8 3d c7 c1 3d 3e
       0.180817 0.10089011 0.08213129 0.18530951
000240 74 1b 33 3e a1 8b 9f 3c c3 6e e2 3d da 39 a4 bd
       0.17490941 0.01947576 0.11056282 -0.08018847
000250 38 82 5a 3e 0c 58 15 3e a1 35 1a 3e b3 19 8d 3e
       0.21338737 0.14584368 0.1505952 0.2755867
000260 d1 18 23 3e 96 c2 5a 3d 6e fc f6 bc 41 11 29 3e
       0.15927435 0.053408228 -0.030149665 0.16510488
000270 27 1d 32 3e 87 c2 2d bd 7c 80 84 3c f4 bc 67 bd
       0.17393933 -0.042421844 0.016174547 -0.056576684
000280 15 c5 fe 3d 57 1e 2b 3e 45 a1 0c 3e b3 a7 23 3e
       0.12439934 0.16710792 0.13733394 0.15981941
000290 9a fb e8 3d e4 b5 6b 3d 40 6f 24 3e a1 ad ec 3d
       0.11376114 0.05754651 0.16058064 0.115565546
0002a0 8a c1 16 3e fe 04 9d 3b fb 4d 24 3e e1 09 19 3e
       0.14722267 0.004791855 0.16045372 0.14945175
0002b0 fe f7 61 bd d2 c8 10 3d 28 9d 62 bd cf 2b 79 3e
       -0.055168144 0.035347767 -0.055325657 0.24333118
0002c0 af 5a e3 bb 72 a7 2f 3e 9e 03 f5 3d fa 3e 49 3e
       -0.0069383006 0.17153719 0.119635805 0.1965293
0002d0 b7 ee e4 3c 31 b2 31 bd 86 bf 39 3d f7 36 7c 3e
       0.02794586 -0.043382827 0.045348667 0.24630342
0002e0 4a d4 15 3e 52 34 02 3e e1 56 05 3d e1 8e 6b 3e
       0.14631763 0.12715271 0.032553557 0.23003723
0002f0 da 18 3b 3e fa 36 4f 3e f0 5c 44 3e 5c 4d 93 3d
       0.18271199 0.20235816 0.19176078 0.071924895
000300 1e 25 d5 3d 57 49 1d 3e 97 f7 49 3e 33 c5 50 3e
       0.1040747 0.15360008 0.19723354 0.20387726
000310 85 52 31 3e ce 6b 6e 3d 5c 95 b0 bd 4e 5f 4e bd
       0.17316635 0.05820828 -0.08622238 -0.05038386
000320 10 c3 1e bc 4b 3f fa 3d 2d 4e 55 3e fb 6f b0 bc
       -0.009690061 0.122191034 0.20830603 -0.021537771
000330 40 28 2a 3e 8b 16 c1 3d c3 28 52 3e 49 2c 48 3e
       0.16616917 0.09428128 0.20523362 0.19548143
000340 3d 3a 84 bd 30 8a 8f ba 3c 0a e4 3d fa 04 2c bd
       -0.064564206 -0.0010951217 0.111347646 -0.041996934
000350 54 fa 27 3e 3c 63 67 3b 8a 7e 4d 3e 42 6b 9b 3d
       0.16404086 0.003530695 0.20067802 0.07588817
000360 6c 36 a9 3d 3f 1c 82 3d 38 09 38 3e 25 87 91 3d
       0.08262333 0.06353044 0.17972267 0.07105855
000370 b1 b0 8d bd 91 4b 19 3e ae 9d 3c bb 27 4f 1d 3e
       -0.06918467 0.14970233 -0.0028780508 0.15362225
000380 8d c4 5f 3e 26 da 85 3e b7 b9 9c 3d 8e a0 5f bd
       0.21852322 0.26142997 0.0765261 -0.054596476
000390 1f 6d a6 3d 63 7c a4 3c 43 74 a1 3d 9f be 8c 3d
       0.08126282 0.020078843 0.07883503 0.068722956
0003a0 d3 84 7c 3e 5d fe 22 3d 7c f6 17 3c 72 2c 1a bd
       0.24660043 0.03979336 0.009275075 -0.037640043
0003b0 9f b0 5a 3d 7b 54 2a 3e f9 56 25 3e da 9a b1 3d
       0.053391095 0.16633789 0.16146459 0.08672114
0003c0 b8 e8 26 3b 5f 8b 00 3e 1b 5f 94 bd b9 3c 98 3e
       0.00254683 0.12553166 -0.072447024 0.29733828
0003d0 89 e4 39 bc 07 33 89 3d c9 7d 7c bd 8d 20 8c 3d
       -0.011345991 0.06699186 -0.061643396 0.06842146
0003e0 8d 20 2a 3e 49 0d 8d 3e 0b 99 90 3d 9d c2 3e 3e
       0.1661398 0.27549198 0.07060441 0.18628927
0003f0 c3 c8 49 bd 06 6d f3 3d 1a ed 8c 3e 56 50 93 bc
       -0.049263727 0.11886029 0.27524644 -0.017982643

net.4.weight f4 [1, 256]
000000 87 8d 5d 3c 5e 50 1b 40 3f 12 42 bf c8 41 a3 bc
       0.013522512 2.4267802 -0.7580909 -0.019928828
000010 da 60 b5 3f 5f 01 b2 bf 6c ca 6d be b7 f6 91 3f
       1.4170182 -1.3906668 -0.23221749 1.1403416
000020 e3 94 07 bf f3 31 32 3e d7 4e 8f 3f b8 99 8e 3d
       -0.5296156 0.17401867 1.1195935 0.06962913
000030 9f 4f 85 3c d8 56 5e 3f 7c 60 e1 bf 07 e7 45 be
       0.016273318 0.86851263 -1.760757 -0.19326411
000040 22 40 09 3f 6e 70 b4 bf 55 79 02 3f 2e cc e1 3f
       0.53613484 -1.4096811 0.5096639 1.7640436
000050 2b e4 16 3f 67 d0 ab bf 3f 17 20 3d 03 c1 5a 3d
       0.58941907 -1.3422974 0.03908467 0.053406727
000060 d0 34 16 c0 34 46 61 be 25 fa 15 c0 de 75 86 3b
       -2.3469734 -0.21999437 -2.3433926 0.0041034063
000070 6b f0 80 be 3f 13 af bf af c6 27 3c 53 c5 a3 be
       -0.25183424 -1.3677748 0.010240241 -0.31986484
000080 fd bc 4e bf 37 74 04 40 23 35 1f bd 42 1d 2b 3f
       -0.80757123 2.0695932 -0.038869034 0.6684152
000090 21 6b fc bf 02 8e 54 bf 93 b3 80 bf 6e 7b 89 be
       -1.9720193 -0.83029187 -1.0054802 -0.26851982
0000a0 1a c3 0c 3f 2b fa 6c be 69 5d a0 bf a9 85 10 bf
       0.549852 -0.23142307 -1.2528507 -0.5645395
0000b0 4a 5f 72 be b4 33 fa 3f ff ca 6f 3c ce 3f a5 3f
       -0.23669162 1.9547029 0.0146358 1.2910097
0000c0 0d 10 05 3f ae a5 75 be f8 99 d3 bf e7 94 28 bf
       0.51977617 -0.23988983 -1.6531363 -0.65852207
0000d0 1e 8a 85 be 71 67 ce 3f 1c 64 82 bf 13 e8 e5 bf
       -0.26081938 1.6125318 -1.0186801 -1.7961448
0000e0 86 77 9c bf 24 63 b9 3e 79 26 09 c0 07 c6 d1 3b
       -1.2223976 0.3620845 -2.1429732 0.0064017805
0000f0 d2 8b 04 3d 78 62 5e be 93 96 2c 3d d0 3e 04 40
       0.032359906 -0.2171725 0.042135786 2.0663338
000100 f1 8e 1b 3d e5 3c d2 bf 94 b0 6a be 32 bb 40 bd
       0.037978116 -1.6424834 -0.22918922 -0.047053523
000110 c8 e2 85 3c f7 fc 15 bf a5 e6 0b 3c 09 f9 17 bf
       0.01634349 -0.5858912 0.008538877 -0.5936437
000120 f9 6d 84 3f 57 0b 61 be fb 64 13 3d fc bf 29 3d
       1.0346061 -0.21976982 0.035984974 0.041442856
000130 61 9a c4 bf f6 a3 a5 3f 28 2b cc bf 68 14 8c 3f
       -1.5359613 1.2940662 -1.595067 1.0943727
000140 bc 4c d3 3f 73 29 b8 bb 0d d4 57 ba 5d 0c 97 3b
       1.6507792 -0.0056201755 -0.0008233197 0.004609628
000150 41 47 14 3d d5 80 54 be 9a e0 84 be a8 e9 87 be
       0.036200766 -0.2075227 -0.25952607 -0.26545453
000160 71 02 11 40 1b 92 65 be 5b 3a 6e be 9f 81 db bf
       2.265774 -0.22419016 -0.23264448 -1.7148932
000170 a1 00 99 3f 2f 4b 96 3c 8b 36 e7 3f f4 2b 7e be
       1.1953317 0.018346397 1.806352 -0.24821454
000180 11 42 06 3f 2f fd eb 3e 71 51 88 be 4d 90 2e 3f
       0.5244456 0.460916 -0.26624635 0.68188936
000190 67 a6 d3 3e e0 cd 80 be dd 44 a2 3f 6b 25 8a bf
       0.41337892 -0.2515707 1.2677265 -1.0792669
0001a0 ce 0b 66 3f 4d e5 94 3f 93 52 ee bf ed 9c 0e 3d
       0.8986176 1.1632477 -1.861895 0.034817625
0001b0 8d 53 a2 3f e5 67 30 3e 9f 2a a7 3f ac f4 47 bf
       1.2681748 0.17227133 1.3059882 -0.78107715
0001c0 fc a0 0d c0 97 92 a9 be e4 88 a3 3f f0 79 0a 40
       -2.2129507 -0.33119652 1.2776151 2.1636925
0001d0 ba 4c 8b bf 52 67 d3 3f c8 d5 cb 3f fb ce 88 bf
       -1.088279 1.6515906 1.5924616 -1.0688165
0001e0 7a 2a 1e 3f 8b c6 7a be 10 09 ce b9 d0 f9 3e 3f
       0.61783564 -0.244898 -0.00039298134 0.74599934
0001f0 e1 23 27 bf df 50 be 3f 99 5d 6c 3e 59 33 66 be
       -0.6528912 1.486843 0.2308258 -0.22480525
000200 d3 b1 6b be 26 44 20 bf bc 4c d5 be 81 e3 80 be
       -0.23017053 -0.62603986 -0.41660106 -0.25173572
000210 22 6c 84 3c 15 96 2c 3f b5 04 7a bf e1 ba aa 3f
       0.016164843 0.67416507 -0.9766343 1.3338281
000220 16 c7 af 3f c9 e1 9d 3f e7 f0 aa be 03 37 8b 3c
       1.3732631 1.2334529 -0.3338692 0.016994005
000230 1c a6 ec 3e 1d 35 a2 3f 10 44 74 be fa 6d a7 be
       0.4622048 1.2672459 -0.23854089 -0.32701093
000240 09 0c 51 3f 23 7f b1 3f b2 01 73 be 09 ca 36 40
       0.8165899 1.3866924 -0.23731115 2.8560812
000250 83 c8 cb 3f 9c 80 f3 bf f5 2a 4e be c3 fa 0d 3f
       1.5920566 -1.9023623 -0.20133574 0.55460757
000260 79 89 80 be bd 5f f9 be ac 7b 76 3f 55 30 29 3f
       -0.25104883 -0.48705855 0.9628246 0.66089374
000270 3f c1 8b 3f 77 2c 93 3b ea 09 b8 bb 46 9e 96 3c
       1.0918349 0.0044913846 -0.005616416 0.018386018
000280 de 2f 92 3f 68 50 bd bf 76 a6 6b be 0a a3 32 3f
       1.1420858 -1.4790163 -0.23012719 0.6978003
000290 75 8e 70 be 00 21 63 be 91 4e 83 be fe 4f 60 be
       -0.23491843 -0.22180557 -0.2564588 -0.21905515
0002a0 45 9c a0 3f 6c 9b 9a 3f a3 ce 4d be 6e c0 7c be
       1.254769 1.2078681 -0.20098357 -0.24682781
0002b0 1f be fd 3c 3e dd e2 be 6d f1 2b 3a 94 b8 7b 3f
       0.030974446 -0.4430942 0.00065591076 0.9832852
0002c0 8e 5c 23 bd f0 7a e9 bf f0 93 80 be 0e ed b6 3f
       -0.03988319 -1.8240643 -0.25112867 1.4291093
0002d0 3d a3 96 3f 9d 84 af 3f 34 11 f5 3c d5 e4 1e 3f
       1.1768566 1.3712345 0.02991543 0.6206792
0002e0 b0 4f 83 be 25 73 b1 be 0a 4c 98 bc 41 10 95 be
       -0.25646734 -0.3465816 -0.018590946 -0.29113963
0002f0 33 c0 15 3f 1a 0d 38 3f 20 6a 0b 3f aa aa 76 be
       0.584964 0.7189499 0.5445881 -0.2408854
000300 e0 d0 4c be 3c 8c 1b 3f ff c3 41 3f ed 60 c0 bf
       -0.20001554 0.60760856 0.7568969 -1.5029579
000310 eb 37 6c be 73 81 51 bf 29 fa 7a 3f d6 fe a4 3f
       -0.23068206 -0.8183815 0.98037964 1.289027
000320 37 85 17 40 8f b4 82 be ee 97 e9 bf 40 0a 50 3f
       2.3675058 -0.2552838 -1.824949 0.8126564
000330 7a 7e 79 3f d4 9c 05 bf 6a 95 da 3f bd c1 1e 3f
       0.9745861 -0.52192426 1.7076848 0.6201437
000340 16 05 14 bc c0 88 88 3f c9 38 82 be 82 ba fc 3b
       -0.009034416 1.0666733 -0.2543395 0.007712663
000350 61 b6 4d be 5b 7c b3 bf 3d ae 9f be 0f a5 3d c0
       -0.20089103 -1.4022325 -0.3118762 -2.9631994
000360 f5 65 69 be c0 c2 03 40 44 76 3e 3f 01 64 c2 3f
       -0.227928 2.0587616 0.7439921 1.5186769
000370 8b 2e e0 bf 06 72 9b bf e8 80 cb bf 7a 47 bd 3f
       -1.7514204 -1.2144172 -1.5898714 1.4787438
000380 07 75 06 3f 09 8c 0f 3f 6d bb 41 be 63 3f 9b 3c
       0.5252232 0.5607305 -0.18919154 0.018951124
000390 bf 16 76 be 63 29 c0 3c 5c c7 00 c0 8b 7f 02 40
       -0.24032114 0.023457235 -2.012168 2.0390346
0003a0 b8 2a 42 3f 3f a0 c7 3f 47 11 25 bb a7 52 0a 3d
       0.75846434 1.5595778 -0.00251873 0.03377023
0003b0 43 fe 67 be 54 32 6f be 83 ce 84 bf 48 03 99 3f
       -0.22655587 -0.23359042 -1.0375522 1.1954126
0003c0 ab 05 61 bb 75 d8 76 be b8 65 27 3d 74 1e 03 3f
       -0.0034335654 -0.2410601 0.04086849 0.5121834
0003d0 99 7b 44 bb 7f 98 06 40 8d fc fb 3c 26 e8 5a be
       -0.0029980897 2.1030576 0.030760074 -0.2137762
0003e0 01 3b 6e be 89 7c 10 3f 99 b5 ed be 7a e7 0f 3f
       -0.23264696 0.56440026 -0.4642761 0.5621258
0003f0 25 08 e9 3c cc 66 4a be c3 9e e6 bf a1 f3 92 3c
       0.028446266 -0.19765776 -1.80172 0.017938437
