lunar_lander_continuous/models/SAC/q1_240_208.pth (torch, 277399 bytes, 5 tensors)

net.0.weight f4 [256, 10]
00000000: 7a22 d4be 6ff1 35be 8b5c 54bf 893c 8b3e
00000010: e1e1 523f cb6d 1fbe c156 003e c7fb 65ba
00000020: da5c e63d 6e89 6c3e 335e b53e f36b 163e
00000030: 2e98 123f addb f2bd f313 89bc 121b 383b
00000040: ff2c b43d 7cb3 293c 32af 35be 1282 7f3e
00000050: 9a27 ba3c e0a6 38bf d74a 44be dd0b 003f
00000060: cafa 973e 0dc9 08bf 75fb ef3e 42a7 573e
00000070: fcfd b7bd 68bd 4fbe fe12 6cbe 1832 a93d
00000080: 889b 27be cecb b03c b077 bd3e 1554 c8be
00000090: 481b c53e 8e1a b13e 438f 86bd 5f32 1f3e
000000a0: bdc4 afbe f67c d93e 191a 8ebd 206d a53d
000000b0: cf92 373f 7270 8d3d 3a59 e2bd 5c1a 133e
000000c0: 8cde b13d 49c2 d03d cb2b 76be 5036 e3bb
000000d0: d193 babe 514f e33e 6f1b 543e 4de6 afbd
000000e0: ab5a ee3e f8d6 8c3e c0f4 353d 0bba 1d3d
000000f0: 77af d6bd 077b 09bf af19 f2bd bccb 7c3e
00000100: f829 333d ee54 b2be 8949 1e3e 47f0 efbb
00000110: 83c6 1bbf 5068 14be 99db 4abb dc94 b8be
00000120: dee8 203f 815c 10bf fecd 313e 3bb9 90be
00000130: b62b 30be ca28 cf3e 8577 b63e 3eff bdbb
00000140: 5125 fcbd f202 16bf 4717 923e 520b f03c
00000150: dd17 8e3d 173b 92be 721e 813e 432b 0e3f
00000160: 7db8 ac3d e615 81be dd4f 3fbd 0d47 2bbe
00000170: b404 8ebd 67bd 203f e7ed 763d 1931 e03e
00000180: ad4c 1ebe 51e9 c93e dac7 8ebd f690 11bd
00000190: 5d8a dd3e b32d b43d f26d 343f 8527 24be
000001a0: 8300 d9bd b6de 3a3e b137 62be 6d29 ce3d
000001b0: ac6e 5cbe 99ad 9cbd f735 c8be e4fd b73d
000001c0: b764 bcbf 87dc 143f 567b bd3d 9010 933d
000001d0: 0a8e a23e 5fc6 d53d 4137 aabd 7d7d 95bd
000001e0: ee5c 2cbe 8f09 033f d645 aebd b444 803e
000001f0: 65bc 993c c6b9 033e c397 143f 101d 95bd
00000200: 8689 2dbe b133 3dbe 10f8 163e 9d8d 703c
00000210: 1ad9 05bf bf78 f1bc 51e5 cf3c f255 943f
00000220: 3a85 6c3e 1fc3 80be 4748 88bd 5350 303c
00000230: 22fd 023d dcc2 2cbe fee6 3e3f 0ba6 12bb
00000240: b0aa febe aa8e 86be f42f d43d 12fe 423e
00000250: 3f08 8f3d 047d b13e d620 b53e 0300 df3e
00000260: b6ce 1a3e 75ab 0a3f f499 8cbe 9986 0dbe
00000270: 52c9 24be 151b 973e 389b 77be 671e 42bc
00000280: 7fbf 0cbc e878 a03c 0333 1dbf 06db 2bbe
00000290: 7034 4f3b c9c3 e2be 1882 993e 6ce4 933c
000002a0: 760f 03bf 362c 1e3f c820 28be 5aa7 91bd
000002b0: 4896 00be ef3f 14bf abe8 523b 4ee5 8abe
000002c0: 27c4 c03b acc6 a43e 1a57 b9bd e4ec 0a3c
000002d0: 8837 383e fb38 5bbd 616a 47be 702c c9ba
000002e0: fdfc 0cbc 40c1 a03d 4782 203f 6e4f 2abe
000002f0: b3a4 5b3e 212c 1ebe 3bff 1d3d b8b9 ff3d
00000300: cbda 18be cc69 b63e 97a9 ffbe 3f9b ec3e
00000310: 2149 353d c19d 083e 3204 433e 749a 953e
00000320: bab1 1abe 572c 8d3e 16bd cb3e 7e79 6dbe
00000330: 6e6c 48bf 8f80 d2bd b435 8dbd 8ed2 0ebf
00000340: cd33 93be 2544 33be 5d80 76be 563c 8abb
00000350: 62b5 1e3c e8ab 6b3e 2402 e7bc 5ab1 46bc
00000360: db2c 90bd 0aa2 673e f315 873e b383 55bf
00000370: a20e 27be 2dd6 1bbe 2387 f93e 8504 8e3f
00000380: 6259 18bf 172e 193e 8644 193e 5a81 9b3d
00000390: dd3f fcbd 8b59 643d 80a0 ee3d 3b71 a4bd
000003a0: b4e1 4dbe 361d a33d e8ab 973f a23a 87bc
000003b0: 7f1f 17be 1a7d 613e 5953 1f3e 18c5 1d3e
000003c0: a903 0cbe 5bce 713e f430 093f c88f 60bf
000003d0: 7f0b e93e 2705 cfbe 6ff6 2abd 6fd4 9cbe
000003e0: a6ed 1e3e 9315 62be 1365 cfbe 45f3 79bf
000003f0: 926d 6b3e e594 44bd c12b 01bf d8d8 13bf
-0.41432554 -0.17767881 -0.8295371 0.27194622 0.82375914 -0.15569226 0.12533094 -0.00087731745
0.11248179 0.230993 0.3542343 0.14689617 0.5726346 -0.11858306 -0.016733145 0.0028092307
0.08797645 0.010357734 -0.17742613 0.24951962 0.022723962 -0.7212963 -0.19169174 0.500181
0.29683524 -0.5343178 0.46871534 0.21059898 -0.089839906 -0.20287097 -0.2305412 0.08261508
-0.16367924 0.021581557 0.37005377 -0.3912665 0.38497376 0.34590572 -0.06570294 0.15546559
-0.34329787 0.4247815 -0.069385715 0.080774546 0.7170839 0.06906213 -0.11052175 0.14365524
0.086850256 0.10193307 -0.24040143 -0.006933965 -0.364409 0.4439645 0.2071359 -0.08588848
0.4655355 0.27507758 0.044422865 0.038507503 -0.10482686 -0.5370335 -0.11821305 0.24687093
0.043741196 -0.3483042 0.15457739 -0.0073223445 -0.6084978 -0.14492917 -0.0030953644 -0.3605107
0.6285533 -0.5639115 0.17363736 -0.2826632 -0.17204174 0.40460807 0.3563806 -0.0057982495
-0.12311805 -0.58598244 0.28533384 0.029302273 0.06938145 -0.28560707 0.2521854 0.5553476
0.08433626 -0.2521202 -0.046707023 -0.16726322 -0.06934491 0.62789005 0.060285475 0.4378746
-0.15458937 0.3943582 -0.069717124 -0.035538636 0.43269625 0.08797779 0.70480263 -0.160307
-0.10595801 0.1824902 -0.22091557 0.10066495 -0.21526593 -0.076502986 -0.39103672 0.08983973
-1.4718236 0.58149 0.0925204 0.071808934 0.31748992 0.10438227 -0.0831132 -0.072993256
-0.16832325 0.5118646 -0.08509414 0.25052416 0.018766591 0.12863836 0.5804407 -0.07280934
-0.16946992 -0.1847675 0.14743066 0.014682201 -0.52284396 -0.029476522 0.025377901 1.1588728
0.23097697 -0.25148866 -0.06654411 0.010761338 0.031979688 -0.16871208 0.74571216 -0.0022376801
-0.497396 -0.2628072 0.10360709 0.19042233 0.06983995 0.34665692 0.35376614 0.43554696
0.15117916 0.5416787 -0.27461207 -0.13820876 -0.16092423 0.2951285 -0.24180305 -0.011848069
-0.008590578 0.019588903 -0.6140596 -0.1678277 0.0031616949 -0.44289997 0.29982066 0.018053256
-0.51195467 0.6178621 -0.16418755 -0.07111998 -0.12557328 -0.57910055 0.0032182138 -0.2712807
0.005882758 0.32182825 -0.090498164 0.008479331 0.17989933 -0.053521138 -0.19474174 -0.0015348326
-0.008605239 0.078493595 0.6269879 -0.16631863 0.21449547 -0.15446521 0.038573485 0.12486595
-0.14927213 0.35627592 -0.49934074 0.46212193 0.044259194 0.13341428 0.19044569 0.292194
-0.1510686 0.2757289 0.397927 -0.23190877 -0.7829045 -0.10278427 -0.06895009 -0.5579003
-0.28750458 -0.17506464 -0.24072404 -0.0042186184 0.0096868 0.23014796 -0.028199263 -0.012127245
-0.070398055 0.22620407 0.26383933 -0.8340408 -0.16314176 -0.1521842 0.48735914 1.1095129
-0.5951139 0.14958988 0.14967546 0.07593031 -0.123168685 0.055749457 0.11651707 -0.080294095
-0.2010563 0.07964556 1.1849337 -0.01650745 -0.14758109 0.22020379 0.15559138 0.15407217
-0.13673271 0.23613875 0.5359032 -0.8771939 0.45516583 -0.40433618 -0.041738924 -0.30630824
0.15520343 -0.22078542 -0.405068 -0.97636825 0.22991017 -0.04799356 -0.5045739 -0.5775275

net.0.bias f4 [256]
00000000: 3a02 a3bc c2bf 963e df5e 1fbe 070b 3ebe
00000010: f3e1 443e 4623 a1bd 0ab2 7cbe 0482 bc3d
00000020: 22fb 71bd dc14 c93e c8b1 b03e c1ad b43d
00000030: 0e24 e53e 4ec5 b2be c81d d23e 0911 bb3e
00000040: c695 8e3d ef60 2c3e 252e 053f 239d f13e
00000050: c6c1 303e 2cff 28be bfc8 0f3e 99fb c83e
00000060: 595e 263e e20f 2fbe ad35 e4bd 1ea8 c23e
00000070: 953c 023e 92a9 d63e 986f 0c3e 3cb3 70bd
00000080: acb6 da3d 8d8e 673e a418 df3d 67f9 0a3e
00000090: 170e 143e ebd4 0bbe ca93 053e aefb 4fbe
000000a0: 292c d53d 60c2 30be f7a6 8a3d 9cb4 4b3e
000000b0: c29a e6be 64a8 1b3e 9e1b 2f3e 81f9 79be
000000c0: 4a8b c03e d80c 523e 2caa ab3e e4d7 8b3e
000000d0: 8af7 75be 653a 313e 90cd a5bd f2f6 3f3d
000000e0: 37cb ac3e c00a 54bd 659b 6abd 687b 613e
000000f0: ff1c 1abe f79a 2c3e ebb2 1e3e a9a1 9cbe
00000100: 16ca e83d e05f 8d3c 260f 08bd 7639 70be
00000110: e252 ca3e 486e 863e 52d0 adbe 5462 d2bd
00000120: 47b3 403e de2b 083d b724 e03e d1da 973e
00000130: 41b5 cebe 824c dabd de4b 7d3e 9b2d 64be
00000140: 80d2 5f3e c11b c1be 7b72 d43e e97d 4e3e
00000150: 9b94 563d a987 733e 9332 a0be 8e63 93be
00000160: 386a 673e ed35 413e f8eb 8e3e 2f8a f93d
00000170: be23 cb3d 0fc5 b33c 3380 85bd fd33 babe
00000180: 4863 543e 1775 6b3d f06c 813d 69ec 663e
00000190: b132 903d eebf 4cbd c53d afbb cf1c 72bd
000001a0: c579 bb3e 7d89 9c3e 2c86 7abe 7255 293e
000001b0: 5fd5 edbd 6d63 e5bc ec18 473e 19ab cd3e
000001c0: 99a8 13be dc83 433d 72a5 683c e70b 88be
000001d0: e3de 85be f6f4 473e cfa6 993e 1b98 b13e
000001e0: 8622 d6be 7e8a d0bc 6d93 5abd 5ca0 973d
000001f0: 3363 943c 437d a93e 43d7 0fbd 0a41 4f3e
00000200: cedf 713e c2cc 923e d66f 5b3e 1572 843e
00000210: 6ed4 2c3d be25 89bb 44ae 8f3e 1b00 6fbe
00000220: ac69 1e3c a278 e83e eca2 453e 9481 35be
00000230: fbcf f83c a2b2 003f 1811 d03e 1a22 1c3e
00000240: 702f c2bd df0c 633c e214 823e 5366 cabc
00000250: 233e 9abe f365 433e 0b09 413e 42db 6a3e
00000260: e40c d53d 8304 623e d499 9c3d ba33 28be
00000270: 60cc 4b3e 7e2b 723d 0226 43be b812 c4be
00000280: 1995 dc3e 19f9 513d 0a0b e43e eb13 a3bd
00000290: c0fb c53d 6218 2e3d 1618 8d3e 1c4f 1e3e
000002a0: 19de e33d e018 c1be 8b20 e83e e3ea 2e3e
000002b0: 2605 ec3d 0e70 8cbd e736 173e 0ccc 853e
000002c0: 70f4 973d 1b1a 1cbe 2803 f43d d162 113c
000002d0: 8931 213e cb68 903e bedf 3fbe 23ba 7f3e
000002e0: 417a 88be 53a0 84be 6030 8ebe 051c c93e
000002f0: 7f70 65be 0806 40bc 63bf 173a 6445 403e
00000300: de34 9cbd 9564 ab3e 3420 77be c1b9 9ebd
00000310: 101d bebe 55e8 543e 1a90 a7be 267a c3be
00000320: 11f3 453e d8c0 9e3c 471d a73e 1bae 99be
00000330: c854 e63e b0b9 0a3f babb be3e e34e 9b3e
00000340: 3f68 2c3e 6693 d03e b14d 79be 222d 533e
00000350: 1923 0d3e 25fe efbd 8d9f 19be 944b 8a3e
00000360: d4fd 94bd 165b b83e a300 a53e 6052 74be
00000370: dde1 89ba 080d fa3e acfc bf3e 55d5 8d3e
00000380: 9a13 3f3d 3a0f ddbe ec49 373e 385d 17be
00000390: 3619 cebe 682f 1abe c2c3 e13e 9c1a 7dbe
000003a0: b94e 593e 90e1 7dbe 7598 873b 2c2d e03e
000003b0: dfd0 b5be 403a 833e b2a5 c7bd 2e23 8fbe
000003c0: ea30 b03e 3d71 94bd ee54 3d3e 5630 66be
000003d0: 7a64 ffbd 1668 b03e 5a0e 80be 25b2 113d
000003e0: 7bbb 0a3f 75d4 823e 194a bd3d 3186 2fbe
000003f0: 397f 863e abc4 11be 601b fd3d d8dd 14bd
-0.019898523 0.29443175 -0.15563534 -0.18558894 0.19226818 -0.07868056 -0.24677292 0.09204486
-0.05907739 0.39273727 0.34510636 0.088222034 0.4475407 -0.34916157 0.41038346 0.36536434
0.06962161 0.16833852 0.52023536 0.47190198 0.17261419 -0.1650359 0.14041422 0.39254454
0.16246928 -0.17095903 -0.1114305 0.38018888 0.12718423 0.41926247 0.13714445 -0.05876468
0.10679373 0.22612973 0.10893372 0.13571702 0.144585 -0.1365544 0.13044658 -0.20310852
0.104088135 -0.17261648 0.06770127 0.19893116 -0.45039946 0.15200955 0.17100379 -0.24411584
0.3760627 0.20512712 0.33528268 0.2731315 -0.2402021 0.17307432 -0.080958486 0.046866365
0.3374879 -0.051768064 -0.057277102 0.22019732 -0.15050124 0.1685599 0.1549794 -0.30592087
0.1136667 0.01725763 -0.03321757 -0.2345942 0.3951636 0.26256013 -0.33947998 -0.10272661
0.18818389 0.03324496 0.4377801 0.2965913 -0.4037266 -0.10659124 0.24735972 -0.22283022
0.21857643 -0.37716487 0.41493592 0.20165218 0.052387815 0.23782219 -0.31288585 -0.28786892
0.22599113 0.18868227 0.27914405 0.121845596 0.09918927 0.02194455 -0.06518593 -0.3636779
0.20740998 0.057484712 0.06319606 0.22551121 0.070409186 -0.049987726 -0.0053479397 -0.059109505
0.3661634 0.30573645 -0.24465245 0.16536501 -0.11612963 -0.028001511 0.194431 0.401696
-0.14419784 0.047733173 0.0141996015 -0.2657158 -0.26146612 0.19527039 0.30010077 0.3468636
-0.41823214 -0.025456663 -0.053363252 0.07403633 0.018113708 0.3310338 -0.0351174 0.20239654
0.23620531 0.28671843 0.21429381 0.25868288 0.042194776 -0.0041854074 0.28062642 -0.23339884
0.009668749 0.45404536 0.19300431 -0.17725211 0.03037261 0.5027257 0.40638041 0.15247384
-0.09481704 0.013858049 0.25406557 -0.024706995 -0.30125532 0.1908186 0.18851106 0.22935203
0.10402849 0.22072034 0.07646528 -0.16425982 0.19902182 0.05912351 -0.19057468 -0.3829553
0.43082502 0.05126295 0.44539672 -0.079627834 0.09667158 0.042503722 0.2755744 0.15459865
0.11126346 -0.3771429 0.45337328 0.1708179 0.115244195 -0.0685731 0.14767037 0.26132238
0.0741967 -0.15244333 0.119146645 0.008873657 0.15741552 0.2820495 -0.18737695 0.2497335
-0.26655772 -0.25903568 -0.27771282 0.3927919 -0.22406195 -0.011720188 0.0005788712 0.1877647
-0.07627271 0.33475175 -0.24133378 -0.077502735 -0.37131548 0.20791753 -0.32727128 -0.3817913
0.19331004 0.019379064 0.32639524 -0.30015644 0.44986558 0.54189587 0.372526 0.30333623
0.16836642 0.40737456 -0.24346043 0.20622686 0.1378292 -0.11718396 -0.1500227 0.27010787
-0.072749764 0.36006993 0.32227048 -0.23859549 -0.0010519583 0.48838067 0.3749746 0.27701822
0.046649553 -0.4317568 0.17899293 -0.14781654 -0.4025361 -0.15057147 0.44094664 -0.24717182
0.21221437 -0.24793077 0.0041380473 0.43784463 -0.35510918 0.2563038 -0.09748401 -0.27956527
0.34412318 -0.07248161 0.1848943 -0.22479376 -0.12470336 0.3445441 -0.2501095 0.035570282
0.5419232 0.25552717 0.09242649 -0.17141034 0.26268938 -0.14235179 0.12358737 -0.03634438

net.2.weight f4 [256, 256]
00000000: 2ae5 23be f3d1 313d 9881 123d 7061 e93d
00000010: 81a6 393c 95e5 32be ced5 1cbe 95e5 1cbe
00000020: a6c1 d63e 9aa1 b23d adaa b0bc d534 9dba
00000030: 277e a83d 3f0c bdbe 66d0 b03d 9e99 2f3c
00000040: 1bfe bb3d 90d9 a9be a9ac 053d b166 133e
00000050: 1888 313e c340 233e 21c9 df3e 2ad5 263d
00000060: b597 2b3e e4fa 883e c577 3f3e 6fc7 613e
00000070: 1ff8 5bbe 7731 633d a0e1 c33d 716b 9cbe
00000080: 24cb 91be 5236 a2bd 6dfc a93d ef08 fa3d
00000090: c3b1 8fbd 270f e7be 9944 9cbd c3d2 bcbe
000000a0: 3384 2c3e 68a5 a4be 329b 1abe 767e 8b3c
000000b0: 905c 1c3f 23f0 f13d 91e7 95bd dbf1 4c3d
000000c0: c077 493e f81f 073e b569 7c3d 790e a13d
000000d0: 6f8c 03bf dd60 a13e fd08 a8bd b238 1dbd
000000e0: 3f2e d83a f9b2 283e 1c35 0b3f 3cdd 4b3d
000000f0: a69d 263c 1823 09be 4187 00be 0f66 69bd
00000100: efa4 8f3c e0e7 8e3e 289f b83d 6337 4cbd
00000110: c759 833d f97f 61bd 2be7 dabe 0175 6cbf
00000120: fa13 31be fdb1 94bc 890d de3d d4f3 613e
00000130: 5e87 8abe ceea c33c aca0 623c b4ef 033f
00000140: bab7 04be c77d 36bf 07f4 723d 4c47 103e
00000150: 62d0 4abe c402 043e 6da2 f2be be3c 11bf
00000160: 9471 9c3b 8bcc a13e c6ec 1bbe 29c1 753c
00000170: 725a 87be 5cce 35be 0d6c 7a3e 22ba 2ebf
00000180: b13d 2cbd 08da 05bf 2f74 923d a6d2 b73c
00000190: e5d8 8e3e cac7 323f d1ee d8be 7e4a 1e3e
000001a0: 2182 ad3d 074d 383d 187d a4be 2075 77be
000001b0: e825 9bbe 87c5 603e f3a0 c73c 0b83 b83d
000001c0: c51e 12bf 6aa2 a33d ee5f b2be de1a 4abe
000001d0: d183 323d 1655 013e e973 1abd 8f7d 1b3e
000001e0: 2dd5 083f 4603 0abe b0bd 71be 44f4 3bbc
000001f0: 1826 0f3e c03d b43d 4812 b13e f624 9d3d
00000200: b60f 653d 05cd 9b3d 91a2 493c 2f87 db3d
00000210: a3b6 6ebe eebe b6bd 1049 463d fe1d 66bf
00000220: 9c03 573e 28d7 fd3c 4438 ffbd 9242 0abd
00000230: d59a 8e3e 6326 2bbd e69e 043e 9b1f 65bd
00000240: 84f2 ee3e b52d d73d 8442 083e b053 f13c
00000250: c124 8c3d abcc 113f 04da 493d f76a 753d
00000260: 5b5b 3d3d 76e3 fa3d 17f4 093d bf1d cc3d
00000270: 48dd 063d 340b 563e f8c2 fdbe a229 39bf
00000280: b8bc 4e3e 67b2 b33d 12af 683a f906 84bc
00000290: 12a0 c6bc 4a4c 653b 25f3 3f3d 85ee 0ebe
000002a0: 9c61 2ebe 2d4e 17bd 9292 973d a6db 823d
000002b0: d52a afbd 2bfa f1bc a82d 533d 0bd1 1bbd
000002c0: a36b bc3e 4d2b cbbd f319 333c 81b5 b0bd
000002d0: 1531 9abe ec64 353d 715a cabd ece8 f9bb
000002e0: 372a ad3e 6324 e8be b855 b8be b0e8 05bc
000002f0: 35fc 11bf dcc7 2abd 1b01 12bd e7ee 013e
00000300: 70e3 7a3e 25f4 b83d 5d7c 97bf e1e4 57bc
00000310: e6df d5bd bf94 073e 733a d7be 2652 8e3d
00000320: ddeb 95bc 1461 8d3e cf02 7e3d 3c1e 17be
00000330: 59a7 33be 1473 343d 037a 85bd d70c 443e
00000340: a00c 8b3e 9b48 483c dfd5 09be d61c c33e
00000350: cecc 0cbc 9286 67be a5e3 883d 0e2d 283e
00000360: 67a6 233e 52b5 4c3e 7bed a9bd 5770 de3d
00000370: 4896 243e d252 943d 79f2 f33d 202c 103d
00000380: 018f 583c 8289 08bf bc50 823d 8ebb 56bf
00000390: e29f 69be 1715 9a3c bafd d33d a976 0abf
000003a0: 6327 3a3d d81a d8be cb33 acbc 48ae d83d
000003b0: 8107 46bf 578d 84bd cda9 dfbe a63b 72bd
000003c0: a3e8 ff3c eb0e 52be 2af7 e33d f409 f5be
000003d0: a2f5 1fbe e495 59bb 3e6e 9cbc 589f 15be
000003e0: 7b0a 593e ef99 f33d 5246 a53c fe5d 68be
000003f0: 5bd2 ef3c cdb6 a0be 26cb 12be 977c 973d
-0.16005388 0.043413114 0.03576812 0.11395538 0.0113312015 -0.17470391 -0.15315935 -0.15321954
0.41944617 0.08722229 -0.02156576 -0.0011993895 0.08227187 -0.36923406 0.08633499 0.010717778
0.09179326 -0.331738 0.032635365 0.14394642 0.17337072 0.15942673 0.43708137 0.040730633
0.1675709 0.26753914 0.18698032 0.22048734 -0.2148137 0.055467095 0.09564519 -0.3055072
-0.28475296 -0.07920517 0.083000995 0.12208735 -0.07016327 -0.45128748 -0.076302715 -0.36879548
0.16847305 -0.32157445 -0.15098265 0.017028075 0.6107874 0.118133806 -0.073195584 0.05003534
0.19674587 0.13195789 0.061624248 0.078640886 -0.5138616 0.31519213 -0.082048394 -0.038384147
0.0016493275 0.16474523 0.54377913 0.049771532 0.010169422 -0.13392293 -0.12551595 -0.056982096
0.017534701 0.27911282 0.09014732 -0.04985751 0.06413608 -0.055053685 -0.42754492 -0.92366034
-0.17292777 -0.018151278 0.108424254 0.2206567 -0.27056402 0.023915675 0.0138322525 0.5153763
-0.12960711 -0.7128567 0.059314754 0.14089698 -0.19806054 0.1289168 -0.47389546 -0.5673331
0.0047742818 0.31601366 -0.1522704 0.014999666 -0.26436192 -0.17754501 0.2445528 -0.68252766
-0.04205102 -0.52285814 0.071510665 0.022439312 0.27899852 0.69836104 -0.42369702 0.15458104
0.08472086 0.044995334 -0.3212669 -0.24165773 -0.30302358 0.2195035 0.024368739 0.090093695
-0.570782 0.079899624 -0.34838814 -0.19736812 0.04358274 0.12630114 -0.037708197 0.15184616
0.5345028 -0.13477811 -0.23607516 -0.011471812 0.13979375 0.088008404 0.3458426 0.07673065
0.055923186 0.07607464 0.012306825 0.107191436 -0.23311858 -0.08923136 0.04840952 -0.89889514
0.2099747 0.030986384 -0.12461904 -0.033754893 0.27852502 -0.041784655 0.1295124 -0.055938344
0.466694 0.10506765 0.13306624 0.02945885 0.06842948 0.56952924 0.04928018 0.059916463
0.0462297 0.12250416 0.033680048 0.09966611 0.032925874 0.20902711 -0.49562812 -0.7232915
0.20189178 0.08774262 0.0008876185 -0.016116606 -0.02424625 0.0034988099 0.04686274 -0.13958175
-0.17029423 -0.03693979 0.07401003 0.06389551 -0.085530914 -0.029538235 0.051557213 -0.038041156
0.3680087 -0.09920368 0.01093148 -0.08628369 -0.30115572 0.0442857 -0.098805316 -0.0076266434
0.3382127 -0.4534026 -0.36002898 -0.008173153 -0.5702546 -0.041694507 -0.035645586 0.1268879
0.24500823 0.09030942 -1.1834828 -0.013177128 -0.10443096 0.13240336 -0.4203678 0.06949262
-0.018300945 0.27613127 0.062014397 -0.14757627 -0.17544307 0.04405506 -0.065174125 0.19145523
0.2715807 0.012224342 -0.13460492 0.38107938 -0.008593751 -0.22609928 0.06684045 0.16423437
0.15981446 0.19991043 -0.08297249 0.10861271 0.16072953 0.07242359 0.11911482 0.03519833
0.013217689 -0.5333482 0.06363055 -0.83879936 -0.22814897 0.018808885 0.10351129 -0.5408731
0.04544772 -0.4220798 -0.02102079 0.105801165 -0.773552 -0.06472271 -0.43684235 -0.059138916
0.03123886 -0.20513503 0.11131127 -0.47859156 -0.15621045 -0.0033200914 -0.019095536 -0.14611566
0.21195404 0.11894595 0.020175133 -0.22692105 0.02927511 -0.31389466 -0.14335307 0.073968105

net.2.bias f4 [256]
00000000: 98b2 ea3d 6697 553d 4c8c 843c 2cde 303e
00000010: 0d53 b03d 2d7f cf3c 5bf9 933d f5a1 1abd
00000020: 9058 e43d 198f 513d 7b12 ac3d 78e4 05bd
00000030: 86eb e2bc 6192 41bb 0f79 053e f9e9 25bb
00000040: c1f7 163d a0a4 bbbc a9e2 133e 4dc8 983c
00000050: e826 5fbe 1ecd 7c3c 4952 2abd 10fe a23d
00000060: d388 ca3c 1410 973d 1195 16bc f60a da3d
00000070: 53da acbd 2d2d c93d 35bb 5d3d 804e 4a3c
00000080: 0ed1 053e 5141 0e3b d413 27bd 2774 83bc
00000090: 8a80 99bd 6182 d93d 7db7 2b3e 856b a93c
000000a0: d20a 733d 57f0 453d 0c32 143e 4ad9 2fbd
000000b0: a315 9fbc 599e eb3d 7738 7d3a 1bb9 043e
000000c0: 7689 40bd df6d 1b3e 9c21 d4bd 957d 843d
000000d0: 9e9e 833d d251 66bd ea0d 2abd cc77 a9bd
000000e0: 21fa 0a3e 8a2d 0f3e 9f70 d63c 7b95 133d
000000f0: d01a cc3c b16b 213d 10d4 a2bc d974 963c
00000100: c5ad ae3d 8c1e 803c 96ea 80bc 6546 253e
00000110: b72e 803d 8c9b cd3d 3591 893d 9652 c03d
00000120: 3299 bb3d 5c8f a43b e90c 18bd 5207 49bc
00000130: a034 f93c ad36 283e 7a78 f53d 27ac cd3d
00000140: e4e3 183d 5b74 3fbd a0c7 0ebd a7ae 003d
00000150: 8741 a63d e453 1a3e ce3c a8bb 90f7 04bd
00000160: 35ab aa3d eb67 533a 0393 07bd 1580 d2bd
00000170: 48a2 ad3b e20c 32bd b503 743d 0f07 b2bc
00000180: 35a6 623d e5c7 c2bb 2498 653d ebe8 fdbd
00000190: 368f 0c3b 15c8 513c 3fab 9f3d 1570 423d
000001a0: 3f4d 453d 6e9d 313e 09bf 263e cb76 cb3d
000001b0: 55c3 133d be8f f5bb 116e 433b 3b5a 343c
000001c0: 666d 28bc 26ac cd3c d0ad a13d 13c6 6e3d
000001d0: 3251 a33d 86f7 1e3e e847 00bd 1413 3b3d
000001e0: e2c4 a73d f0d0 e43c 04f4 203c bb6c b23d
000001f0: 5eba e13d 472d b1bb 3ef9 88bd 8c01 f63d
00000200: 88ad 483e 8b6f c83d ee94 363d 7868 7c3d
00000210: 5226 1fbc c424 ecbb 05d2 573d 77e8 9a3d
00000220: fab9 2c3d 58d2 d4bb a686 7eba 983f 123e
00000230: c61f 13bc 3b8e 84bd 6f60 703d 8764 773d
00000240: 2f7e 1abc b847 003d 69b9 243c 3ae8 323e
00000250: 2e91 323c 6ab2 123e 70d9 b23d 6df3 aabd
00000260: b533 0b3e 06cf 053c 393a 37bd 8538 733c
00000270: 9c07 213e 7a42 263e 2c8d b4bd bf4e e6bc
00000280: 6073 3cbd a4ac e03c 3dd4 d23d e515 143e
00000290: 2842 6ebc 2ba1 09bd 43e8 62bd dad3 873d
000002a0: af09 c43c d5f2 ab3d bd3f 3abd 4f92 89bc
000002b0: 14ae 583e e2ed 023e 500d 433d ec74 12b9
000002c0: 5590 43bd 9d7c 2a3e fa57 fe39 e35b e53d
000002d0: 9cef 783d c1f9 1abc d6e7 56bd d916 cd3d
000002e0: 91a9 cb3d 162e 30bd 90e0 753d 77fd 023e
000002f0: 0682 223e 96a4 5e3d 0ea4 23bd 41c6 0dbd
00000300: 9cbf 1b3e ec21 513d 0615 423e be38 c9bb
00000310: bd4b aebd eeb7 35bd 12c1 ecbc c7bd 073c
00000320: 7343 073e 92bf da3d fb3f 213e 02af 783d
00000330: e17a 10be f3d6 173d 70d7 b33b b3d8 f13c
00000340: 0f6f 113e 17fb 143e 5d2d 523a c526 d23d
00000350: eb7d 103d 645e 51bd d9b8 a53d 469f 8d3d
00000360: 6d63 f83d c496 78bd eaae 26bd e095 ba3d
00000370: c44b 883d 6a85 f938 f9be c3bc bb9e 7f3d
00000380: 38f2 9c3d 8fb8 9a3d c9c4 e4bc a8d8 4e3b
00000390: 1c58 92bc cea7 a33d be99 6b3c 1e0e 9a3d
000003a0: 4e23 9b3d d6b3 e93d 9e89 523d 5b31 8abc
000003b0: 5e12 33bc 5b0f 583d ece1 38bd 2e72 5c3e
000003c0: 52e6 ec3d cf43 493d 1bd0 7abd dad8 b3bd
000003d0: da3a fabc 818c 453d 09b2 47bc 8682 44bc
000003e0: c73f 593d 0072 873d 84e4 4f3d 45eb 91bb
000003f0: 78c7 a63d 84f0 90bb affb c7bd f908 b83d
0.11459845 0.052146338 0.01618018 0.17272252 0.08609591 0.025329197 0.07225295 -0.03775211
0.111497045 0.05116186 0.08401962 -0.032688588 -0.027700197 -0.0029536712 0.13034461 -0.002531646
0.03685737 -0.022905648 0.14441933 0.018650198 -0.21792185 0.015429763 -0.04158238 0.07958615
0.024723446 0.073761135 -0.009190814 0.10646622 -0.084400795 0.0982307 0.054133613 0.012347817
0.1306803 0.0021706412 -0.040790394 -0.016046597 -0.0749522 0.10620571 0.16769214 0.020681152
0.05933649 0.04832491 0.14472216 -0.042931832 -0.019419497 0.11504812 0.0009659598 0.12961237
-0.047006093 0.15178631 -0.10357973 0.06469265 0.06426738 -0.056230374 -0.041517176 -0.082748026
0.13571979 0.13982216 0.026176749 0.036031228 0.024915129 0.039409343 -0.01987651 0.018366264
0.08529238 0.015639566 -0.01573686 0.16140135 0.0625891 0.10039434 0.06717149 0.09390752
0.09160079 0.0050219726 -0.037121687 -0.012269812 0.030420601 0.16427107 0.1198587 0.10042601
0.03732671 -0.046741825 -0.034858346 0.03141656 0.08117967 0.15071064 -0.0051342016 -0.032462656
0.083334364 0.0008064496 -0.033099186 -0.10278336 0.0052988864 -0.043469317 0.059573848 -0.021731881
0.05533429 -0.0059442394 0.056053296 -0.12397941 0.0021447665 0.012804051 0.077963345 0.04747017
0.04816937 0.17345211 0.16283812 0.09934767 0.036074955 -0.007493942 0.0029820243 0.011007841
-0.010279989 0.0251065 0.0789448 0.058294367 0.07974471 0.1552411 -0.031318575 0.04567249
0.08191849 0.02793166 0.009823803 0.08712145 0.11021875 -0.005407009 -0.06688164 0.12012014
0.19597447 0.097869 0.044575624 0.061623067 -0.009713726 -0.0072065312 0.052690525 0.075638704
0.04216955 -0.0064948015 -0.0009709395 0.14282072 -0.008979743 -0.06472441 0.058685716 0.060398605
-0.009429499 0.031318396 0.010053971 0.174714 0.010898871 0.14325872 0.08732879 -0.08347211
0.13593943 0.008167034 -0.04473326 0.014845018 0.15725559 0.16236296 -0.08815989 -0.028113721
-0.046008468 0.027426071 0.102943875 0.14461477 -0.01454214 -0.033600967 -0.055397283 0.06632204
0.023930399 0.08395926 -0.04547094 -0.016793398 0.21160156 0.12786058 0.047620118 -0.00013967202
-0.047745068 0.16649099 0.00048512203 0.111991666 0.060775384 -0.00945896 -0.05246719 0.100141235
0.099444516 -0.0430127 0.060028613 0.12792002 0.15869913 0.05435618 -0.039951377 -0.034612898
0.15209812 0.05105774 0.18953332 -0.0061407974 -0.0851054 -0.044364862 -0.028900657 0.008284993
0.13209324 0.106810704 0.15747063 0.060713775 -0.14109375 0.037070226 0.0054883286 0.029522276
0.14202522 0.14548908 0.0008017624 0.10261301 0.035276335 -0.05111541 0.080918975 0.069151446
0.12128339 -0.060690656 -0.040694155 0.09110618 0.06655076 0.000118980955 -0.023894774 0.062407237
0.07663387 0.07554733 -0.027925866 0.0031562243 -0.01786428 0.079909906 0.014379917 0.07522224
0.07575093 0.11411254 0.051400773 -0.016869238 -0.010929672 0.05274902 -0.04513733 0.21527931
0.115673676 0.049136933 -0.06123362 -0.087815955 -0.03054564 0.048229698 -0.012188443 -0.01199401
0.05303934 0.06613541 0.05075504 -0.004453095 0.081435144 -0.004423203 -0.09764802 0.089860864

net.4.weight f4 [1, 256]
00000000: 6f1e f93e 13a3 f43e 46fe 79be c301 cf3e
00000010: e47a 90be 46c7 fabb b5cd 0a3f 59db 403f
00000020: 0763 48be c7f2 2f3f 6509 6bbe a44e 5a3d
00000030: 5392 d13f 91c7 093f f547 da3f 8109 533f
00000040: f9d7 60be c2d5 323f f6ea e03e c2fc 6bbe
00000050: 2e04 be3f 7b62 08bf 2e53 263f 3ecb e93e
00000060: b997 ca3b 2225 66be 9419 8bbe 1d6e 973f
00000070: acb8 da3f 77da 7ebe f246 acbe 92ac d7be
00000080: a933 ea3e 089a 81be ca0c 183f 249b bdbc
00000090: fc92 15bc 0030 ea3e 14bd e83e 796e 77be
000000a0: 6e9a ed3e 990a 57be aba3 d13e 78f7 c2be
000000b0: 0308 223f 119a 48be 8dd4 10bd 5e5e ee3e
000000c0: ea49 2dbb 0c0e ec3e 7bb7 d6be b879 68be
000000d0: 3b35 80bf a04d 283b efc6 5dbf 207c bfbe
000000e0: 98c0 e13e 9d40 fd3e d154 cb3f 03d9 71be
000000f0: 70c8 d4be b02c 023f 28ab db3c 40ad 71bd
00000100: 2a3f 7cbe da9f d0be 902d c6bb 7484 e03e
00000110: c86e 68be d1a5 81be 91d3 7fbe e5fa 44be
00000120: b3ad 4abe e22e 54be e00d 513f e7db 803f
00000130: b3f9 563f bf0b f23e fbd3 de3e 0ab3 6abf
00000140: 5e9c 8cbb 3c30 0e3d e0d6 523d 8f2e 97be
00000150: aa46 8dbe 1fa5 d13e bf7f 2f3f f169 d63f
00000160: d5bf 5fbe 69bd 65be 7175 393f ce21 d63f
00000170: dadb d33b a7d5 d0be e3a0 79bf 0032 6fbe
00000180: 03bb e03e 9701 2cbd 00f3 913f 217b 9c3f
00000190: a4b0 7f3f 80a4 65be d51f 6dbe a7b2 1bbf
000001a0: 929a d33e d010 e93e 81e5 df3e 4dfc 66be
000001b0: da07 edbe d136 3f3f 3e8d 683f 8e91 143f
000001c0: cca1 fdbc 00bb 88be d6c5 e13e 95ad 76be
000001d0: 70cd 5cbe 4515 ee3e 0e94 fe3e 02a8 6bbe
000001e0: 9f1f 3ebe 3c2a 6bbc fee3 333f ea24 e43e
000001f0: 1b5c 183f 3ddd cebe 8a4c cabf 32f5 e43e
00000200: 4c88 d43e 96b5 3abe f33a a63f 9e0c 4dbe
00000210: 6d47 80bb 9776 333f d269 ea3e 5287 ce3e
00000220: e698 52be 4100 bbbc aaf9 dfbe f128 d63e
00000230: ed7a 7fbe 4166 043d 880a 87be 3898 52be
00000240: b53d a7be a886 55be 0e7a f03c 0916 e23e
00000250: 15ae 4fbe de35 e23e 3ebe f33e 6fe2 2c3f
00000260: 8d6f c03f 21c0 1f3f 8788 933f efa7 82bf
00000270: fdfc f73e 0388 d43e 767e 4ebf 0815 903f
00000280: e7b0 1e3f 6837 7dbe 6d0c 133f 95e6 073f
00000290: a986 0b3d 71a0 0e3f c4e0 cfbe 33b7 863f
000002a0: cf93 9b3b f5e8 dc3e 003a 613c 2e8a 01bc
000002b0: b0f3 d73f 907a d83e 3acc 82be 92be 3f3f
000002c0: a780 4f3f 8c82 f93e f8fe 6ebe f08d 4abe
000002d0: a4f7 51be 6312 a3bf bc77 a33c ef3b ed3e
000002e0: 1b55 f63e 0740 4d3d acd4 50be c1da d83e
000002f0: 6a01 e83e 29fb a5be ffc1 ebbe 802e 3c3f
00000300: 4328 da3e 33a2 63be f946 e33e 3394 6bbe
00000310: 6a0b a7be 8a42 cfbe 7566 573f 38aa 333f
00000320: 992a e23e dcd2 c6be ddf2 ae3f f862 ef3e
00000330: 76eb 113f 1058 163f d20d 003d ed49 473f
00000340: eefc e13e 2f12 6b3f 2892 eb3e 76c7 70be
00000350: fee9 56bb b7ff 323f 7150 98bf d5d7 143f
00000360: 957a 903f 3f3c bfbe 160e 53bf a818 6dbe
00000370: 2197 71be dbd7 90be c3d4 79be 0c7c 1d3f
00000380: 5c58 de3e 0984 4fbe 1007 81bf a0fa 173f
00000390: c832 1fbd baaf 65be e711 cab9 648d 67be
000003a0: efec 83be 0639 e33e 43b6 5ebe 1977 a2ba
000003b0: 8512 163d 902e 493f 194d 0f3d 3778 9e3f
000003c0: 6ae4 e43e f61e 893f 5e5f cebe f86e c8be
000003d0: 51e3 353f 00e6 213f a002 1d3f 3975 d2be
000003e0: b535 8bbf 4005 69be 026d 81be 8a5a a33f
000003f0: 47f1 ec3e 8706 70be 702d c6be c381 653f
0.4865603 0.47780666 -0.24413404 0.40431032 -0.28218758 -0.00765315 0.54220134 0.753347
-0.19569026 0.68729824 -0.22952802 0.053297654 1.637278 0.5382014 1.705321 0.82436377
-0.21957387 0.6985742 0.4392926 -0.23045638 1.4845026 -0.5327527 0.6497067 0.45662874
0.0061826375 -0.22475103 -0.27167952 1.1830479 1.7087607 -0.24888025 -0.33647877 -0.42123848
0.4574254 -0.2531283 0.59394515 -0.023145266 -0.009129282 0.45739746 0.45456755 -0.24163236
0.46406883 -0.21000136 0.4094518 -0.3807943 0.63293475 -0.19590022 -0.035358954 0.4655637
-0.0026441761 0.46104467 -0.4193686 -0.22702682 -1.0016245 0.0025681034 -0.86631674 -0.37399387
0.4409225 0.4946336 1.5885259 -0.2361794 -0.41559172 0.5084944 0.026815012 -0.059003115
-0.2463347 -0.40746957 -0.006047912 0.43851054 -0.2269851 -0.2532182 -0.2498305 -0.19236334
-0.19792823 -0.2072101 0.81661797 1.0067109 0.8397476 0.47274587 0.43521103 -0.9167944
-0.0042911014 0.03471397 0.051474452 -0.2952771 -0.27592975 0.4094629 0.685543 1.6751081
-0.21850522 -0.22435535 0.72444826 1.6729066 0.0064654173 -0.40788004 -0.9751112 -0.23358917
0.4389268 -0.041993704 1.1402283 1.2225076 0.9987891 -0.22426033 -0.23156674 -0.60819477
0.41328865 0.4552064 0.43729785 -0.22557183 -0.46295053 0.7469302 0.9084052 0.580346
-0.03096094 -0.2670517 0.4409625 -0.24089654 -0.21562743 0.46500602 0.49722332 -0.23013309
-0.1856675 -0.014353331 0.70269763 0.44559413 0.5951554 -0.40403166 -1.5804608 0.4471832
0.41510236 -0.18233332 1.298674 -0.20024344 -0.0039147646 0.7010283 0.4578386 0.40337616
-0.20566139 -0.02282727 -0.43745166 0.4182811 -0.24949236 0.03232408 -0.26375222 -0.2056588
-0.32664266 -0.20852149 0.029355075 0.44157436 -0.20281251 0.44181722 0.4760608 0.6753301
1.5034043 0.6240254 1.152604 -1.0207499 0.48435202 0.4151002 -0.80661714 1.1256418
0.6198868 -0.24728167 0.57440835 0.53086215 0.03406397 0.55713564 -0.4060117 1.0524658
0.0047478448 0.43146482 0.013746738 -0.00790648 1.6871243 0.42281008 -0.25546438 0.7490016
0.8105568 0.48732412 -0.2333945 -0.19780707 -0.20504624 -1.2739986 0.019954555 0.46334788
0.48111805 0.05010989 -0.20393628 0.42354396 0.4531358 -0.32418182 -0.46046445 0.73508453
0.42608842 -0.22229843 0.44390085 -0.23005752 -0.32625896 -0.40480453 0.8414071 0.7018161
0.44173124 -0.38832748 1.3667866 0.46755195 0.5699991 0.5872812 0.03126318 0.77847177
0.44138283 0.9182462 0.46009946 -0.23513588 -0.0032793279 0.6992144 -1.1899549 0.58141834
1.1287409 -0.37350652 -0.8244337 -0.23153937 -0.23592807 -0.28289685 -0.24397568 0.61517406
0.43426788 -0.20265211 -1.008028 0.593668 -0.03886679 -0.22430316 -0.0003854178 -0.2261253
-0.25766703 0.44379443 -0.21749215 -0.0012395113 0.036638755 0.78586674 0.034985635 1.2380437
0.44705516 1.0712574 -0.40307134 -0.39147162 0.7104998 0.6324158 0.6133213 -0.4110506
-1.0875765 -0.22755909 -0.2527848 1.2762005 0.4627783 -0.2343999 -0.3870654 0.89651126
