lunar_lander_continuous/models/SAC/q2_234_202.pth (torch, 277399 bytes, 5 tensors)

net.0.weight f4 [256, 10]
0.8533775 -0.3290347 0.053430453 0.04635226 -0.3617078 0.65927285 0.027834103 0.05266362
-0.54691744 0.028229324 0.29401502 -0.862389 1.5041333 1.5508318 0.75327593 -0.29743844
-0.55642307 -0.18893075 -0.34310845 0.07129067 -1.0825096 0.12905248 0.4603979 -0.27728456
0.68954873 0.033152223 0.2356769 -0.57168293 -0.14901675 -0.19104175 0.4310495 0.092361845
0.40181932 0.0013767697 -0.44212228 -0.34141892 -0.09898431 -0.20966509 -0.08269133 0.006295872
-0.21268721 0.2735604 0.08728579 -0.39931116 -0.16078892 0.7406951 0.26762998 0.07160044
-0.045279603 0.3756851 0.4294616 0.1424969 0.46187308 -0.8073803 -0.047032736 0.6061692
0.09862506 -0.32989043 0.07047703 0.05045743 0.009454916 -0.28304276 -0.05368602 -0.57612824
0.26086545 1.2031945 0.18592736 0.10438548 0.41434628 0.39424837 -0.28307942 0.122887105
-0.19701862 -0.12823196 0.33761707 0.04000281 -0.052075732 -0.9822617 -0.018591732 -0.34674707
-0.5252729 -1.0663029 0.5468859 -0.68456745 -0.614208 0.5486373 -0.12462481 0.33744407
0.059697412 -0.74898106 -0.71371925 -0.53958887 -1.0761116 0.85283464 -0.41102442 -0.39518365
-0.041700386 -0.13102958 -0.13852611 0.055886917 0.36176634 0.29806152 0.03992712 -0.432936
0.054738164 0.493873 0.16353053 0.049510878 -0.18478955 -0.109651476 -0.33661956 -2.6258466
1.5323231 0.24693727 0.25132525 0.63252187 0.241943 0.27810034 -0.29920644 0.6561871
0.25421914 0.1883728 0.6518829 -0.2821665 -0.28411382 0.047083244 0.49177232 0.21592958
0.06855305 0.04832991 0.48656845 0.36912984 0.16981028 0.46044138 -0.1047214 0.42292643
0.2851561 -0.32970458 -0.051073957 -0.10986819 -1.390575 -2.0355265 -0.22847968 -0.28492802
0.076450855 -0.07751779 0.19433355 0.24702032 0.040682916 0.052600995 0.095977 0.073642224
-0.11070326 0.1902365 -0.03216949 0.66827303 -0.38825855 -0.40514743 0.20633753 0.02444869
-0.30958575 -0.033918258 -0.13792802 -0.24230367 -0.031940073 0.03002272 0.071798496 -0.5733462
0.06088645 -0.19360192 -0.05187267 -0.969374 0.65947646 0.791337 -0.58262694 -1.1208649
0.08037565 0.33956364 -0.2742713 0.025074353 0.42641768 -0.3292098 0.6026563 -0.8992968
-0.47890243 0.15675761 0.19336303 0.4359599 -0.08062041 0.10072409 -0.54167646 -1.5632565
0.15849382 0.25052375 1.1369596 -0.03800581 0.2236684 -0.07397374 -0.063073605 -0.06428099
0.17038476 -0.2752053 -0.7090351 -0.2258446 1.0642565 0.008955029 0.13403082 0.34818205
0.034182604 0.24846599 0.4153098 0.2248862 -1.055582 -0.11599422 1.2854971 -0.44087887
-0.8806186 -0.15225121 0.05191998 0.101747975 0.15919907 0.5473841 -0.3140913 0.026950434
-0.3368568 -0.4735576 -0.5874153 -0.03672269 -0.21490239 0.2794305 0.011462635 0.47959304
-0.15465645 -0.14558221 0.3739381 0.57902414 0.47610098 -0.5310658 0.012262011 -0.15889162
-0.35196754 -1.2682667 0.82377666 1.9084927 0.40364295 0.24486473 0.50525373 0.11468967
-0.10518888 -0.3316188 -0.19671397 -0.3679186 -0.14090928 0.039021943 0.4177854 0.30262366
00000000: f376 5a3f 3c77 a8be e4d9 5a3d dedb 3d3d
00000010: c431 b9be 1bc6 283f 5804 e43c cfb5 573d
00000020: c802 0cbf 2f41 e73c 2389 963e 87c5 5cbf
00000030: 7187 c03f a881 c63f b1d6 403f da49 98be
00000040: be71 0ebf 1077 41be e9ab afbe d800 923d
00000050: ad8f 8abf 5526 043e 46b9 eb3e 3ef8 8dbe
00000060: 4486 303f a0ca 073d 4955 713e d059 12bf
00000070: d997 18be 73a0 43be 85b2 dc3e 3528 bd3d
00000080: 43bb cd3e ba74 b43a da5d e2be 76ce aebe
00000090: 49b8 cabd 72b2 56be 125a a9bd 9a4d ce3b
000000a0: adca 59be 1c10 8c3e e4c2 b23d 8372 ccbe
000000b0: daa5 24be 329e 3d3f cc06 893e 40a3 923d
000000c0: 1b77 39bd cc59 c03e 64e2 db3e b5ea 113e
000000d0: a17a ec3e 7ab0 4ebf 66a5 40bd e82d 1b3f
000000e0: effb c93d 66e7 a8be 4356 903d 73ac 4e3d
000000f0: cbe8 1a3c fbea 90be dfe5 5bbd 247d 13bf
00000100: 2890 853e 4702 9a3f be63 3e3e 0ec8 d53d
00000110: 3225 d43e ecda c93e c9ef 90be 3cac fb3d
00000120: 40bf 49be 3d4f 03be 25dc ac3e fdd9 233d
00000130: 5d4d 55bd 8175 7bbf b04d 98bc d588 b1be
00000140: 4978 06bf 9d7c 88bf b700 0c3f d03f 2fbf
00000150: bc3c 1dbf 7e73 0c3f 4b3b ffbd 78c5 ac3e
00000160: 4685 743d 39bd 3fbf 4eb6 36bf 7f22 0abf
00000170: 06be 89bf 5f53 5a3f cb71 d2be 8355 cabe
00000180: 06ce 2abd 9e2c 06be cad9 0dbe aee9 643d
00000190: 7039 b93e 859b 983e 9f8a 233d caa9 ddbe
000001a0: 2035 603d ecdc fc3e 8c74 273e ebcb 4a3d
000001b0: 7939 3dbe f490 e0bd 6659 acbe df0d 28c0
000001c0: 2a23 c43f 20dd 7c3e b4ad 803e f4ec 213f
000001d0: e8bf 773e 2b63 8e3e 9631 99be e1fb 273f
000001e0: 0329 823e cde4 403e cce1 263f 2178 90be
000001f0: 5e77 91be 5cda 403d 95c9 fb3e a51c 5d3e
00000200: 8b65 8c3d 95f5 453d 801f f93e 96fe bc3e
00000210: bfe2 2d3e f9be eb3e 2c78 d6bd d089 d83e
00000220: fbff 913e 0acf a8be ed32 51bd 9302 e1bd
00000230: 5dfe b1bf 1146 02c0 94f6 69be 16e2 91be
00000240: 4492 9c3d a6c1 9ebd 60ff 463e e5f2 7c3e
00000250: 21a3 263d 2474 573d 978f c43d bcd1 963d
00000260: 64b8 e2bd 5bcd 423e 28c4 03bd f113 2b3f
00000270: d3c9 c6be 7c6f cfbe 254a 533e 9e48 c83c
00000280: 0682 9ebe dfed 0abd 013d 0dbe 741e 78be
00000290: 98d3 02bd 35f2 f53c 170b 933d d1c6 12bf
000002a0: 1264 793d 953f 46be 7078 54bd e528 78bf
000002b0: 73d3 283f 1095 4a3f 0a27 15bf 8078 8fbf
000002c0: fd9b a43d 49db ad3e 4a6d 8cbe bb68 cd3c
000002d0: 6b53 da3e 308e a8be af47 1a3f 5138 66bf
000002e0: b332 f5be 1185 203e f500 463e 2336 df3e
000002f0: 501c a5bd 6f48 ce3d 4fab 0abf ca18 c8bf
00000300: 344c 223e a644 803e e487 913f fbab 1bbd
00000310: 5409 653e 8b7f 97bd bc2c 81bd c0a5 83bd
00000320: 5879 2e3e b6e7 8cbe 5383 35bf cf43 67be
00000330: 8f39 883f 1db8 123c 603f 093e eb44 b23e
00000340: 0f03 0c3d de6d 7e3e 7ca3 d43e 9148 663e
00000350: 501d 87bf 618e edbd 2b8b a43f e0ba e1be
00000360: 3870 61bf bee7 1bbe 0caa 543d 3e61 d03d
00000370: 1505 233e 5d21 0c3f 93d0 a0be 28c7 dc3c
00000380: 7f78 acbe 2476 f2be d960 16bf 886a 16bd
00000390: 5f0f 5cbe 8411 8f3e c7cd 3b3c 388d f53e
000003a0: 435e 1ebe 8113 15be d174 bf3e ed3a 143f
000003b0: 82c3 f33e eef3 07bf 9ae6 483c 7cb4 22be
000003c0: 1735 b4be 9056 a2bf 07e3 523f 7d49 f43f
000003d0: 4aaa ce3e d2bd 7a3e 4f58 013f 6be2 ea3d
000003e0: 446d d7bd f0c9 a9be 636f 49be d45f bcbe
000003f0: 864a 10be 79d5 1f3d f8e7 d53e 7df1 9a3e

net.0.bias f4 [256]
-0.6072743 -0.10194142 0.19257784 -0.08140167 -0.11472824 -0.20978625 -0.5075341 0.25023392
0.0931128 -0.22390153 -0.21019983 -0.016278744 -0.4847055 0.39694098 -0.07733532 0.3800564
0.3321559 -0.6940721 0.33457324 -0.14521532 -0.49666342 -0.09575496 -0.0005590604 -0.40560758
-0.21779962 -0.021025015 -0.43570113 -0.3868054 0.285326 -0.022762425 -0.00085376855 0.099817224
0.4908833 -0.3759583 0.21231274 0.39946634 0.22130278 -0.26180565 -0.09717063 0.42892122
0.06347577 0.09196622 0.1910874 0.12363058 0.29980174 -0.14255492 0.54494977 -0.21986797
-0.6567713 -0.41121522 -0.41656137 -0.60635436 -0.11035599 0.38591143 -0.4635057 -0.3331698
-0.15129685 -0.44023284 0.27152422 0.20756269 -0.40529767 0.31760857 -0.04560869 -0.28583145
0.11756252 0.37349138 0.40891594 -0.01686633 0.25758258 -0.322646 0.4673804 0.242024
0.6327365 0.3999455 -0.12554836 -0.35051626 -0.18626127 0.35443968 -0.648549 -0.5015421
0.055906113 -0.31762034 -0.100259125 0.012580978 0.3267651 0.10144981 -0.40356082 0.082680844
0.028906962 0.17822698 0.32033485 -0.18807921 -0.4825394 -0.05991526 -0.15314753 0.4471738
-0.026281932 0.42603442 0.22910747 -0.45252365 -0.42368993 0.45749083 0.013009491 -0.01267392
0.018957527 0.36986604 0.52677935 -0.0027205984 0.2034739 0.1805912 0.018170707 0.1250574
-0.0128291305 -0.33018145 0.17247795 0.12444533 -0.10381663 -0.29648212 0.41994375 -0.04407653
0.4447628 -0.37392798 0.29135728 0.2686363 -0.13845335 -0.21280167 -0.056754246 0.216331
-0.559334 0.024564894 0.43443856 0.3521601 -0.100178495 0.42716315 0.38197055 -0.21352841
0.4585921 -0.042573377 -0.123415746 0.05692442 -0.10080851 -0.21578534 0.25314218 -0.041459117
0.24952798 -0.19403893 0.08818986 -0.33420196 0.23254675 -0.17871696 0.31827953 0.45363086
0.14485936 0.07516781 0.2523481 0.3831787 -0.35577208 -0.21988165 -0.14266455 0.31161976
-0.35546437 -0.42203972 -0.08457988 0.052168474 -0.45946687 0.21208629 -0.18710032 0.10648935
0.4295467 0.38246354 0.38430604 0.2869064 -0.22837213 -0.3712496 0.19605231 0.41423726
-0.15592064 -0.4178578 0.16037874 0.22709543 -0.42152524 0.37665138 0.22720176 -0.34406686
-0.12540404 0.15650582 0.14332737 0.114843786 0.11763704 0.18566056 0.007423596 0.0052775675
0.31581515 -0.36563304 0.35795888 0.20519997 -0.37680346 -0.09358588 -0.10097425 0.35832372
-0.33844525 0.55369276 0.22138946 -0.2005037 -0.007245123 -0.5210624 0.034019213 0.18765922
-0.29371017 -0.5787813 0.28233185 -0.30782214 0.28206366 0.50019956 0.026367232 0.12148854
0.6051899 0.338208 -0.31997487 0.3395871 0.41637498 -0.288403 -0.11039474 0.43822747
0.094376594 0.17825554 -0.11696591 -0.02547436 -0.439158 0.0770835 0.18900937 0.16735147
0.30256784 0.0352859 -0.21425228 0.29313585 0.015098224 -0.0807619 -0.22710995 -0.32348546
-0.39425936 0.08533571 -0.34279528 -0.6018839 0.23436663 0.12552513 0.44148993 -0.062115796
0.06658546 0.2746004 0.57536 -0.19702142 0.27070194 0.24790035 0.10441849 -0.12355319
00000000: 5476 1bbf aac6 d0bd 2033 453e ebb5 a6bd
00000010: a4f6 eabd 35d2 56be c1ed 01bf a91e 803e
00000020: ecb1 be3d 7146 65be a03e 57be 005b 85bc
00000030: 522b f8be d93b cb3e fb61 9ebd c196 c23e
00000040: 5710 aa3e b6ae 31bf 2f4d ab3e 53b3 14be
00000050: ab4a febe 2d1b c4bd e98d 12ba ccab cfbe
00000060: dd06 5fbe a73c acbc 3814 dfbe 5b0b c6be
00000070: 4016 923e 4478 babc 70cf 5fba f96c cc3d
00000080: 0e55 fb3e 9b7d c0be 8368 593e da86 cc3e
00000090: 329d 623e 640b 86be 6501 c7bd 909b db3e
000000a0: 96ff 813d c958 bc3d 6aac 433e 0832 fd3d
000000b0: 9d7f 993e ebf9 11be d481 0b3f 1225 61be
000000c0: 2a22 28bf cd8a d2be 8847 d5be 0a3a 1bbf
000000d0: 5202 e2bd 2f96 c53e 9e50 edbe 3b95 aabe
000000e0: 90ed 1abe 3366 e1be 3905 8b3e 508b 543e
000000f0: 2d83 cfbe 979d a23e 2dd0 3abd 8058 92be
00000100: 9ec4 f03d 433a bf3e 6e5d d13e 422b 8abc
00000110: dde1 833e db31 a5be 7c4c ef3e 24d5 773e
00000120: 05fb 213f a8c5 cc3e c08f 00be de76 b3be
00000130: 46bb 3ebe 1e79 b53e 4f07 26bf 1065 00bf
00000140: cffd 643d 229f a2be a854 cdbd 7220 4e3c
00000150: c14d a73e ebc4 cf3d 869f cebe 9354 a93d
00000160: 4bce ec3c 2281 363e ee02 a43e d697 40be
00000170: 670f f7be b469 75bd b5d2 1cbe f7f3 e43e
00000180: 354d d7bc 2f21 da3e 269b 6a3e 2eb1 e7be
00000190: e3ed d8be 3d3c ea3e c325 553c 46a6 4fbc
000001a0: d14c 9b3c 155f bd3e 03db 063f 114c 32bb
000001b0: 765b 503e e6ec 383e bcda 943c 0c0f 003e
000001c0: 4631 52bc 8b0d a9be 0f9e 303e 31dd fe3d
000001d0: d09d d4bd 81cc 97be de02 d73e 9789 34bd
000001e0: f3b7 e33e 7d73 bfbe c82c 953e b28a 893e
000001f0: b7c6 0dbe aee8 59be 2477 68bd e085 5d3e
00000200: 8330 0fbf 513c c93c bb6e de3e 544e b43e
00000210: 622a cdbd 21b5 da3e a591 c33e 31a7 5abe
00000220: 95cc ea3e 6c61 2ebd 65c1 fcbd 9529 693d
00000230: b174 cebd d5f6 5cbe da9b 813e 09d1 29bd
00000240: 4384 7f3e 24b2 46be e39c b43d 851c abbe
00000250: bc20 6e3e 9401 37be 89f5 a23e 4e42 e83e
00000260: 0356 143e 95f1 993d c533 813e 0030 c43e
00000270: c227 b6be a828 61be a816 12be a08c 9f3e
00000280: 6dff b5be 9715 d8be 3738 adbd 9cae 553d
00000290: 3e3f ebbe 262d 593e 3a97 3fbe 1717 da3d
000002a0: 8ced db3e 43d2 c33e c3c3 c43e 65e5 923e
000002b0: 62da 69be 6d14 bebe f0c1 483e e816 d43e
000002c0: a9a9 1fbe 75f1 d5be 533a 243e b48b 683e
000002d0: 28d2 d7be 73d8 c03e 94a7 683e 8829 b0be
000002e0: eb69 00be 1043 203e 69c4 123e 3833 eb3d
000002f0: b0eb f03d cd1d 3e3e a341 f33b 72ef ac3b
00000300: 86b2 a13e 4134 bbbe 6346 b73e f11f 523e
00000310: 62ec c0be f4a9 bfbd 96cb cebd 3576 b73e
00000320: b248 adbe cfbe 0d3f ebb3 623e d850 4dbe
00000330: 7f68 edbb 5864 05bf bb57 0b3d bd29 403e
00000340: 2e61 96be 032b 14bf cd8d 903e dd9a 9dbe
00000350: a66a 903e 140d 003f 1800 d83c fcce f83d
00000360: baed 1a3f 9929 ad3e bfd3 a3be 5cde ad3e
00000370: 1a2f d53e 8fa9 93be a316 e2bd 5a5f e03e
00000380: 8448 c13d 9f88 363e d38b efbd 9baf d0bc
00000390: 51d9 e0be f4dd 9d3d ac8b 413e 2f5e 2b3e
000003a0: 2cea 9a3e f387 103d f364 5bbe e715 963e
000003b0: 8b5e 773c 7f66 a5bd 838f 68be e39f a5be
000003c0: 5ddc c9be 7dc4 ae3d dd82 afbe 1015 1abf
000003d0: cefd 6f3e a989 003e f80a e23e 226d 7ebd
000003e0: f55d 883d 6c98 8c3e cb4a 133f fcbf 49be
000003f0: 7299 8a3e 97d9 7d3e 5cd9 d53d 7409 fdbd

net.2.weight f4 [256, 256]
-0.8876894 -0.39944908 0.031844195 0.25765124 0.12675624 -0.118758395 0.049451392 -0.20146465
0.170389 -0.6313941 0.32302415 0.2977307 0.27391714 -0.20964865 -0.41784766 -0.15734914
-0.05133076 0.79470134 0.4176823 -0.031947903 0.24362196 0.16993774 -0.116261095 0.09896304
-0.737236 -0.9814536 0.944914 -0.5737249 0.39216298 0.14314768 0.022476273 -0.2419042
-0.102723554 -0.26963213 -0.66077334 0.07716484 0.33775675 0.068456024 0.73174506 -0.11528762
-0.21297503 0.10296836 -0.084171854 0.113128364 0.43072057 0.51323545 0.043455847 0.36880183
-1.2777736 -0.43990734 0.16341068 -0.10348908 -0.14153595 0.61839855 -0.033353854 0.2682936
0.84444404 0.12231022 0.19725606 0.016790984 -0.37156376 -0.08943884 -0.3353164 0.62125283
1.2226758 -0.107074305 -0.040194113 0.68054235 -0.13823035 -0.056993045 -0.17069921 0.1213355
-0.18562208 0.021324765 -0.32273838 -0.46826175 -0.15223038 0.3522868 0.69943064 -0.7541873
-0.21072012 -0.288581 0.15210427 -0.015191843 0.08294595 0.08763802 0.6066418 0.044782
-1.0374479 0.103466004 -0.24125013 -0.11003163 -0.78170836 -0.0120940665 0.0033812954 0.19402632
0.6343896 -0.638828 0.0137610575 0.6482558 -0.7506547 -0.0076544248 0.21009451 0.38185373
0.6996997 -0.23470077 0.14950052 0.35121667 -0.020681275 -0.18477942 -0.6206053 0.11049949
0.20519038 0.36507347 -0.055997673 -0.17802584 0.059261415 -0.404105 -0.22919598 -0.16964951
0.1305626 -1.2313071 0.02070536 0.20434397 -0.07365404 -0.22228852 -0.6628705 -0.1557742
-0.59760743 0.14476939 0.1244081 -0.035133168 0.09249705 -0.015810585 0.2758739 -0.51456875
0.06853777 0.096203774 0.4201252 -0.22440946 -0.17790286 -0.22056763 0.027460456 0.18341741
0.46027556 0.32839745 0.23031418 0.08688142 0.026461987 0.50887525 0.1393524 -0.34337237
0.31716064 0.9634552 0.27213454 -0.05339993 -0.053210866 -0.945354 0.7590922 -0.10667484
0.08551397 -0.3937897 0.26135784 0.16415426 -0.13638277 0.29672423 -0.13845494 0.20618795
2.438488e-05 -0.05790709 0.02096448 0.13517761 -0.4920744 -0.32131332 0.21731794 0.31315133
-0.26767147 -0.13612854 0.22814943 -0.22095945 0.3344984 -0.06936624 -0.46753815 0.05136428
0.15153418 0.20033023 -0.03257008 0.6257974 -0.62194276 0.3272576 0.3019772 -0.12065911
0.24398375 -0.40084547 -0.0014417132 -0.21443807 -0.12222139 -0.06578567 0.27496776 -0.03274246
0.3028905 -0.0627153 -0.16968691 0.36537924 0.29003188 0.6707422 0.2318646 0.016292587
-0.34361786 -0.08899324 1.1721654 -0.7174799 0.25758147 -0.07628205 0.34859753 0.1861572
-0.6699108 -0.5330377 -0.46410516 0.17216842 0.04077238 0.37214103 0.23380597 -0.16905023
-0.30118614 -0.19172539 0.23750462 0.7010446 -0.14036667 -0.18173684 -0.23364976 -0.09555457
-0.6011381 0.2919528 0.26067957 -0.15325952 -0.12784593 0.2220545 0.23753722 -0.22178401
-0.07990733 -0.3137374 0.3855842 1.0911086 -0.0021604565 0.17458145 -0.42713237 0.9431904
0.17837866 -0.014403837 0.18307856 -1.010697 0.077523075 -0.07923522 -0.17236419 -0.19916964
00000000: 9d3f 63bf 9784 ccbe 0f6f 023d ddea 833e
00000010: 63cc 013e 9a37 f3bd 8b8d 4a3d c04c 4ebe
00000020: 747a 2e3e 0ba3 21bf 6c63 a53e 2970 983e
00000030: de3e 8c3e 23ae 56be 21f0 d5be 2220 21be
00000040: 3440 52bd 8c71 4b3f 74da d53e cedb 02bd
00000050: 0978 793e 2904 2e3e 4c1a eebd 22ad ca3d
00000060: 80bb 3cbf 8b40 7bbf e2e5 713f a3df 12bf
00000070: 96c9 c83e 4e95 123e 2920 b83c bcb5 77be
00000080: ba60 d2bd 390d 8abe 7128 29bf 9a08 9e3d
00000090: 74ee ac3e ac32 8c3d a553 3b3f ea1b ecbd
000000a0: 2016 5abe 13e1 d23d 4b62 acbd d8af e73d
000000b0: 6887 dc3e 6663 033f c2fe 313d 98d3 bc3e
000000c0: 168e a3bf 893b e1be 2155 273e 15f2 d3bd
000000d0: cdee 10be 5e4f 1e3f 0d9e 08bd c75d 893e
000000e0: 7c2d 583f c87d fa3d 7efd 493e 3f8d 893c
000000f0: 9b3d bebe b62b b7bd 97ae abbe 6d0a 1f3f
00000100: a480 9c3f c649 dbbd 95a2 24bd 0638 2e3f
00000110: 428c 0dbe 8a71 69bd c6cb 2ebe bf7e f83d
00000120: b713 3ebe 46b1 ae3c f73d a5be 01c0 efbe
00000130: 48e2 1bbe ef5e b43e e30d 333f 6b12 41bf
00000140: 04c7 57be e4c0 93be 39c1 1b3e 35e7 78bc
00000150: 91df a93d 907b b33d e14c 1b3f 556d 373d
00000160: 18cb 84bf fce5 d33d 460a 77be 4358 e1bd
00000170: 0a1e 48bf 3126 46bc b998 5d3b d6ae 463e
00000180: 5b67 223f 3b8a 23bf 0f76 613c 18f4 253f
00000190: e82a 40bf f8d1 fabb 0423 573e 5582 c33e
000001a0: 851f 333f 6655 70be aa16 193e acd2 b33e
000001b0: c76b a9bc d136 3dbe fddf 1ebf 8e4d e23d
000001c0: 6d1d 523e e9ea ba3e d15d 65bd 684c 36be
000001d0: 19bc 723d dae6 cebe 5ab2 6abe 9ab8 2dbe
000001e0: 34b2 053e 799b 9dbf 4a9e a93c 8c3f 513e
000001f0: eed7 96bd 9a9f 63be e2b1 29bf 4683 1fbe
00000200: cdfc 18bf 6d3e 143e adc9 fe3d cce7 0fbd
00000210: 186f bd3d 3385 81bc 583f 8d3e c7ba 03bf
00000220: 885d 8c3d 7c06 c53d a61a d73e 98cb 65be
00000230: 2b2c 36be 7bdc 61be c0f4 e03c c6d1 3b3e
00000240: 3da9 eb3e b623 a83e 7bd7 6b3e e3ee b13d
00000250: cfc6 d83c a645 023f 65b2 0e3e 81ce afbe
00000260: e162 a23e 00a5 763f 3855 8b3e e3b9 5abd
00000270: a3f3 59bd b802 72bf de53 423f 5778 dabd
00000280: f321 af3d ce9e c9be b2d0 853e 0e18 283e
00000290: eda7 0bbe 3dec 973e 22c7 0dbe ef22 533e
000002a0: 228e cc37 fc2f 6dbd b3bd ab3c 006c 0a3e
000002b0: 2df1 fbbe 2e83 a4be 9888 5e3e 5f55 a03e
000002c0: 3c0c 89be 4865 0bbe 01a0 693e 3243 62be
000002d0: 6043 ab3e e30f 8ebd 2961 efbe 5a63 523d
000002e0: c72b 1b3e 5e23 4d3e 3468 05bd 4234 203f
000002f0: a437 1fbf 4f8e a73e c19c 9a3e 201c f7bd
00000300: e0d6 793e 9e3b cdbe def7 bcba a795 5bbe
00000310: 354f fabd a3ba 86bd 93c8 8c3e f51c 06bd
00000320: 7714 9b3e e170 80bd 68c2 2dbe fd12 bb3e
00000330: 0f7f 943e c3b5 2b3f ea6d 6d3e 0878 853c
00000340: aeee afbe 1642 b6bd 8409 963f c3ac 37bf
00000350: b8e1 833e c339 9cbd 607b b23e fe9f 3e3e
00000360: 467f 2bbf 2975 08bf 319f edbe eb4c 303e
00000370: f000 273d 4589 be3e d56a 6f3e 811b 2dbe
00000380: 1235 9abe a953 44be 6934 733e a977 333f
00000390: 48bc 0fbe 3919 3abe e241 6fbe 1db2 c3bd
000003a0: 30e4 19bf d67a 953e cb77 853e 10f0 1cbe
000003b0: 0bea 02be 4162 633e f53c 733e 591b 63be
000003c0: 74a6 a3bd 30a2 a0be 4b6b c53e 72a9 8b3f
000003d0: 7296 0dbb 7bc5 323e 18b1 dabe ed74 713f
000003e0: e5a8 363e 12fe 6bbc f278 3b3e 855e 81bf
000003f0: 6bc4 9e3d 1346 a2bd 3d80 30be 20f3 4bbe

net.2.bias f4 [256]
-0.011932566 0.17779666 0.18683723 0.2643408 -0.059126522 -0.12697531 -0.06109633 0.16550057
0.06434071 -0.015999896 0.11671757 0.29887456 -0.039459307 -0.056526154 0.072434776 -0.02559874
0.21216772 -0.055020474 0.10532607 0.15337086 0.15651107 0.093746535 0.053115893 0.090829864
0.16827981 0.07473824 -0.0292932 0.17447925 -0.07178962 0.08767709 0.1981369 0.03037302
-0.04509829 0.14632705 -0.055976514 0.23300268 0.13102244 0.123148255 0.2671057 0.17389517
0.07350287 0.040588845 0.1275622 0.1178615 0.18872817 -0.013052591 0.18118197 0.18917091
0.14132793 -0.035976093 0.068659544 0.16885796 0.10847698 0.07002574 0.13970993 0.16630015
0.26561165 0.20544575 0.19213977 0.083762914 0.057076264 0.04596189 0.14590435 0.14333545
0.19372079 -0.010641695 -0.027394367 0.01905521 0.10076337 -0.029683271 -0.055030946 0.05414145
0.16019136 0.080060765 0.10680688 0.2111653 0.10282413 -0.053842 0.00837413 0.109416515
0.15408331 0.06426231 -0.0152377775 -0.09425224 0.013348994 0.28245232 0.08721532 0.018844655
0.14267549 -0.03607514 -0.002182784 -0.00396986 0.15872379 0.12534916 0.17179699 -0.07800026
0.14860456 8.845498e-05 0.09197195 -0.033881206 -0.021791706 0.14555718 0.16185425 0.09815735
-0.061845873 0.25466263 0.104141444 0.056247972 -0.0007676956 0.12839624 0.14520895 0.10661544
-0.07233906 0.14564733 0.08977141 -0.048518937 0.24864802 0.23535725 -0.010339862 0.08104524
0.037592944 0.27736413 0.014946746 0.054904383 0.028287314 -0.03368464 0.18420988 0.24543051
0.17945024 -0.061445747 0.064640775 0.076263 0.052019443 0.12660152 0.078648925 0.08406758
0.15226798 0.15307336 0.0142355515 0.100523494 -0.023805816 0.28055248 0.06174699 0.057682723
0.12762931 -0.0007945826 0.1466677 -0.020514093 0.024941763 -0.032619596 0.019447887 0.24491385
0.19061519 -0.053835686 0.11905208 0.054465335 0.104263075 0.023108697 0.12411586 0.17182899
0.040743377 0.07101889 0.16187601 0.22114748 0.28819358 0.103252545 0.24529596 0.12470074
0.01803884 -0.19172777 -0.19240418 0.21035233 0.17478703 0.1206345 0.30142188 0.12131265
-0.005281984 -0.08915704 0.041562054 0.012472755 -0.062138226 0.17683744 0.16605873 0.13302921
0.1437458 0.15754354 0.018249312 0.3514425 0.26665446 -0.066575825 -0.05035871 0.11755345
0.14959964 0.13527508 0.041255422 0.10913948 -0.12595263 -0.03919612 -0.008124671 0.10599105
-0.012455905 0.15386483 0.2548652 0.030260472 0.15118793 -0.033538505 0.14956732 -0.07271005
0.15824729 0.03669686 0.05472897 0.07290134 0.031420514 -0.059851117 -0.011350919 0.12935649
-0.074919894 0.10985836 0.15943995 0.026658123 0.11211658 0.09202793 0.059634335 -0.11276965
0.1538028 0.10394672 0.012888475 0.07007914 0.012431061 0.15898472 0.089932464 0.14337747
-0.028351527 -0.06460508 0.18267868 -0.024400063 0.12605509 -0.078250475 0.10807046 -0.049060483
0.006218828 -0.18390131 0.17443316 0.03054854 -0.06782281 -0.06156971 -0.02491975 -0.07124883
-0.051153153 -0.021191247 -0.094649106 -0.11292112 0.19245625 0.16238342 0.07832526 0.08531333
00000000: cf80 43bc 5410 363e 4252 3f3e ad57 873e
00000010: a72e 72bd d105 02be 2540 7abd fb78 293e
00000020: 10c5 833d 3712 83bc 9f09 ef3d 1606 993e
00000030: 15a0 21bd f887 67bd af58 943d 73b4 d1bc
00000040: 7f42 593e 265d 61bd 32b5 d73d 400d 1d3e
00000050: 7044 203e 2ffe bf3d 0d90 593d 0205 ba3d
00000060: 8b51 2c3e 5d10 993d 4bf8 efbc b0aa 323e
00000070: 7006 93bd 0c90 b33d 66e4 4a3e d7d0 f83c
00000080: fcb8 38bd c2d6 153e a147 65bd 4198 6e3e
00000090: bf2a 063e 2735 fc3d 14c2 883e 9311 323e
000000a0: ac88 963d 7d40 263d aa9f 023e 5f61 f13d
000000b0: f541 413e 89da 55bc c487 393e 05b6 413e
000000c0: 45b8 103e ab5b 13bd 609d 8c3d 1ae9 2c3e
000000d0: 2e29 de3d a869 8f3d 1f10 0f3e 964a 2a3e
000000e0: 40fe 873e 5f60 523e 4ac0 443e e48b ab3d
000000f0: cdc8 693d 8942 3c3d f367 153e 87c6 123e
00000100: be5e 463e 815a 2ebc 276a e0bc ac19 9c3c
00000110: 075d ce3d 552a f3bc 2168 61bd 6dc3 5d3d
00000120: 3409 243e e6f6 a33d 91bd da3d b73b 583e
00000130: 7595 d23d 6e89 5cbd a633 093c c415 e03d
00000140: 04c8 1d3e f59b 833d dfa7 79bc 5207 c1bd
00000150: bdb5 5a3c 979d 903e f29d b23d 1b60 9a3c
00000160: 8619 123e 87c3 13bd 0a0d 0fbb 9915 82bb
00000170: 7d88 223e 885b 003e 8deb 2f3e 9abe 9fbd
00000180: cb2b 183e e880 b938 ca5b bc3d 05c7 0abd
00000190: 8584 b2bc f10c 153e 1fbd 253e b906 c93d
000001a0: 1952 7dbd 2463 823e 1c48 d53d 4664 663d
000001b0: 2e3f 49ba 4e7a 033e a8b1 143e 3259 da3d
000001c0: 8026 94bd 9324 153e 13da b73d cbbb 46bd
000001d0: 969d 7e3e 7e01 713e 8668 29bc 0cfb a53d
000001e0: 0ffb 193d ac02 8e3e 32e3 743c 6be3 603d
000001f0: ccba e73c e8f8 09bd 84a1 3c3e 2352 7b3e
00000200: cec1 373e 89ae 7bbd 6262 843d c72f 9c3d
00000210: 5712 553d d4a3 013e b012 a13d a02b ac3d
00000220: 23ec 1b3e 43bf 1c3e 3b3c 693c 43df cd3d
00000230: 6a04 c3bc 93a4 8f3e 69ea 7c3d b844 6c3d
00000240: 42b1 023e 894b 50ba 0f30 163e 2c0d a8bc
00000250: ab52 cc3c 209c 05bd 2d51 9f3c b2ca 7a3e
00000260: a130 433e cf82 5cbd 94d1 f33d 0b17 5f3d
00000270: e187 d53d 734e bd3c 7530 fe3d f0f3 2f3e
00000280: 87e2 263d 5a72 913d d3c2 253e 7c74 623e
00000290: 1c8e 933e 1276 d33d dd2e 7b3e 1a63 ff3d
000002a0: 30c6 933c 4954 44be 9a05 45be 9a66 573e
000002b0: 5ffb 323e 390f f73d f853 9a3e c472 f83d
000002c0: 7e14 adbb f797 b6bd f93c 2a3d 875a 4c3c
000002d0: a784 7ebd e014 353e 4d0b 2a3e cf38 083e
000002e0: 1932 133e 1853 213e 957f 953c 45f0 b33e
000002f0: ef86 883e e858 88bd ef44 4ebd ddbf f03d
00000300: a630 193e 8d85 0a3e 72fb 283d 8584 df3d
00000310: baf9 00be 1c8c 20bd 571d 05bc d611 d93d
00000320: da13 4cbc be8e 1d3e b17d 823e cfe4 f73c
00000330: 02d1 1a3e ac5f 09bd 2d28 193e 02e9 94bd
00000340: 940b 223e 724f 163d 7c2b 603d 4c4d 953d
00000350: ccb2 003d 7226 75bd 34f9 39bc 0776 043e
00000360: 9a6f 99bd 6bfd e03d 3a44 233e 2362 da3c
00000370: 619d e53d 2479 bc3d 2243 743d c6f3 e6bd
00000380: 7b7e 1d3e 05e2 d43d 2f2a 533c a785 8f3d
00000390: a6ab 4b3c e4cc 223e 832e b83d 8bd1 123e
000003a0: 7641 e8bc ab4f 84bd 1f10 3b3e a4e2 c7bc
000003b0: 9614 013e c941 a0bd 0c54 dd3d a5f3 48bd
000003c0: 4fc7 cb3b a050 3cbe 9b9e 323e ef40 fa3c
000003d0: afe6 8abd 8530 7cbd 8124 ccbc e8ea 91bd
000003e0: f885 51bd 4499 adbc 64d7 c1bd 3043 e7bd
000003f0: 4013 453e d747 263e fe68 a03d c1b8 ae3d

net.4.weight f4 [1, 256]
1.2203534 -0.33141315 1.2533454 -0.58089036 -0.001459174 2.0358996 2.3377287 -1.8116649
-0.23161103 -0.0037620678 -0.26236162 -1.5334074 1.3826419 -0.02289572 0.87954825 -0.012664436
-1.1321189 0.007896679 -0.24868865 0.49139696 0.62064373 0.48721716 -0.20085621 -0.3146461
0.4786207 -2.3169339 0.009884525 -0.6404589 0.013319081 1.0783683 0.5756428 -1.0725633
0.04888371 1.2679201 -0.022724446 0.5392167 0.4849769 0.4605214 -0.55754536 0.51920754
-0.24851343 -0.54284394 -0.23453522 0.5358247 0.6444862 -2.018405 -2.2569551 -1.5930593
0.53148675 -1.6245843 -1.2767365 0.8818493 -0.21470575 1.9573461 0.5494383 -0.23461136
0.55731136 -0.32683024 0.9150038 -0.24910446 -1.5018938 -1.0491804 -0.20893665 -2.0191057
-0.80920607 -1.0092758 -0.44183236 1.7535145 0.39940032 -2.4714372 0.014571044 -0.1865013
-0.25199428 0.757535 -0.2465602 -0.57200366 -0.26268068 0.006815963 0.019457249 -0.42930776
0.52309465 -0.2655379 -0.007155204 -0.01208396 0.004796154 -0.5348751 0.6060978 -1.7687366
-0.25887024 -0.004182415 0.02551145 0.039289553 0.44809785 -0.57604694 0.6385599 2.1801026
-1.6153129 -1.5702916 -0.2179619 0.53851444 0.041546095 -0.2941028 0.77145725 0.6272395
0.70455444 0.6289318 -0.68948597 1.4558809 -2.008735 0.61245745 0.8640439 0.8093388
0.039173402 0.81051767 -0.2532395 0.02131341 -0.48702022 1.6889757 -1.5125383 -0.19044332
0.7384876 -1.7019942 1.0780833 0.549129 -1.2546117 0.79032815 -1.4231032 -2.4021301
-0.4239601 0.044732817 -0.24814245 -0.31577748 1.6923085 0.5688805 -2.4244711 -0.22429162
-0.21203876 2.025939 -0.007146361 0.594774 0.9690822 -0.6406356 -0.21566902 -1.5699618
-0.39929017 0.0030946247 -1.0742222 -0.037132006 0.0049378374 -0.0077121286 0.5612357 0.5539919
-0.59038293 -0.40695718 -0.18531014 -1.0943037 -0.2851536 -1.1741503 0.545807 0.52884287
0.050997026 0.8817506 -0.21886241 -0.47553915 -2.7146099 -0.20892908 1.2490425 -0.23740514
-2.555641 1.6224946 -0.92191476 0.5303964 1.6052856 -1.46328 -0.52480114 -0.32889748
0.02158733 1.3331641 -0.29313973 1.2367648 -0.007412856 -1.8151186 -0.20463736 -0.3425445
-0.2027814 0.4529815 -2.6681738 -0.6599081 -0.6818823 0.027474295 -0.9033591 0.49642512
-0.2508513 -1.8441433 -1.3984542 -0.2814283 2.3965313 -1.1532617 0.004976158 0.8239083
-0.43546748 -0.25883466 -0.8476185 0.5950319 1.1557013 -0.4460911 -0.25624698 1.4204236
0.50375485 -1.1109357 -0.5807068 0.60770035 -0.29530492 0.034786396 1.3514817 0.52878237
2.1738064 0.5392825 0.73686564 -0.28057948 -0.4209644 -0.22290441 -0.91039765 -2.1860445
-0.21954039 0.904172 -0.022814367 -0.27152643 0.026087357 -0.56494796 -0.20753063 -0.46056414
-1.2440554 1.5869701 1.5528239 3.3580103 -0.5855732 0.039236482 0.6091369 -0.4046095
0.023052746 0.7864818 1.6269628 -1.6148546 0.030856099 0.0049933232 0.036347095 -1.4634583
0.038971685 0.029919213 1.2469707 1.1056203 0.60809046 -1.7832433 -0.28127956 1.9149535
00000000: 8a34 9c3f fcae a9be 9f6d a03f 3bb5 14bf
00000010: c141 bfba 2e4c 0240 599d 1540 a3e4 e7bf
00000020: 712b 6dbe 068d 76bb 4354 86be b246 c4bf
00000030: 69fa b03f ce8f bbbc 132a 613f 7f7e 4fbc
00000040: 46e9 90bf 1361 013c 3da8 7ebe 6298 fb3e
00000050: 82e2 1e3f 8774 f93e 40ad 4dbe 4b19 a1be
00000060: c60d f53e a548 14c0 b4f2 213c 1df5 23bf
00000070: 4638 5a3c f907 8a3f 545d 133f c149 89bf
00000080: 493a 483d 354b a23f 9e28 babc 1b0a 0a3f
00000090: e44e f83e 76c9 eb3e 4bbb 0ebf c9ea 043f
000000a0: 4e7a 7ebe d2f7 0abf 002a 70be cf2b 093f
000000b0: 0cfd 243f 8c2d 01c0 f471 10c0 5ee9 cbbf
000000c0: 840f 083f 61f2 cfbf 1a6c a3bf e0c0 613f
000000d0: d3db 5bbe 518a fa3f fda7 0c3f f63d 70be
000000e0: f5ab 0e3f 4b56 a7be b03d 6a3f 3d15 7fbe
000000f0: 0e3e c0bf 8b4b 86bf 7df3 55be 0739 01c0
00000100: 2128 4fbf f32f 81bf da37 e2be 2a73 e03f
00000110: 337e cc3e 072c 1ec0 63bb 6e3c 32fa 3ebe
00000120: 6505 81be d0ed 413f 477a 7cbe d56e 12bf
00000130: 157e 86be 7158 df3b cf64 9f3c 3ace dbbe
00000140: 88e9 053f 95f4 87be 3476 eabb cdfb 45bc
00000150: 0e29 9d3b 93ed 08bf 3a29 1b3f f665 e2bf
00000160: a48a 84be a40c 89bb 63fd d03c 15ee 203d
00000170: 156d e53e d077 13bf a978 233f cd86 0b40
00000180: 93c2 cebf 51ff c8bf 6831 5fbe 15dc 093f
00000190: 3d2c 2a3d a494 96be 397e 453f c592 203f
000001a0: ae5d 343f ad01 213f 2782 30bf 4e5a ba3f
000001b0: 1d8f 00c0 03ca 1c3f fb31 5d3f d430 4f3f
000001c0: 4a74 203d 167e 4f3f 9ca8 81be 7699 ae3c
000001d0: b75a f9be 5b30 d83f db9a c1bf 9303 43be
000001e0: 860d 3d3f f2da d9bf a2fe 893f b893 0c3f
000001f0: 1e97 a0bf f252 4a3f 3f28 b6bf 80bc 19c0
00000200: 4c11 d9be c239 373d 0e19 7ebe 96ad a1be
00000210: 919d d83f 27a2 113f 892a 1bc0 b4ac 65be
00000220: b020 59be fca8 0140 052c eabb 1c43 183f
00000230: c515 783f b200 24bf 57d8 5cbe 82f4 c8bf
00000240: c36f ccbe 30cf 4a3b 1d80 89bf bb17 18bd
00000250: 95cd a13b 06b6 fcbb 25ad 0f3f 6ad2 0d3f
00000260: 5623 17bf b15c d0be f1c1 3dbe 2512 8cbf
00000270: a7ff 91be 8f4a 96bf 02ba 0b3f 3f62 073f
00000280: 42e2 503d 68ba 613f 781d 60be de79 f3be
00000290: 2bbc 2dc0 81f1 55be a0e0 9f3f 551a 73be
000002a0: 9f8f 23c0 e7ad cf3f 9b02 6cbf 0fc8 073f
000002b0: 007a cd3f c24c bbbf 5e59 06bf 4065 a8be
000002c0: ead7 b03c 1fa5 aa3f 6916 96be 4f4e 9e3f
000002d0: 8be7 f2bb ce55 e8bf 758c 51be fe61 afbe
000002e0: eda5 4fbe 31ed e73e 5cc3 2ac0 bdef 28bf
000002f0: d78f 2ebf c611 e13c 8b42 67bf 6f2b fe3e
00000300: 956f 80be e30c ecbf 8c00 b3bf 5f17 90be
00000310: c560 1940 149e 93bf 0a0f a33b a8eb 523f
00000320: 98f5 debe fa85 84be 87fd 58bf 0354 183f
00000330: 05ee 933f 0d66 e4be ce32 83be 71d0 b53f
00000340: 14f6 003f 2433 8ebf 33a9 14bf 4092 1b3f
00000350: 3532 97be 2e7c 0e3d 5afd ac3f 485e 073f
00000360: a51f 0b40 6b0e 0a3f 3aa3 3c3f 1da8 8fbe
00000370: a588 d7be 0e41 64be d20f 69bf 27e8 0bc0
00000380: 32cf 60be d177 673f 32e5 babc 8305 8bbe
00000390: 27b5 d53c 6ea0 10bf e982 54be 10cf ebbe
000003a0: 353d 9fbf d621 cb3f efc2 c63f a4e9 5640
000003b0: 20e8 15bf 6fb6 203d 65f0 1b3f fa28 cfbe
000003c0: 1dd9 bc3c df56 493f 5140 d03f 8eb3 cebf
000003d0: eec5 fc3c 089f a33b b1e0 143d 9a52 bbbf
000003e0: c6a0 1f3d 2319 f53c bc9c 9f3f f784 8d3f
000003f0: d1ab 1b3f 5141 e4bf e003 90be 321d f53f
