lunar_lander_continuous/models/DQN/layers_4/8_128_tanh_128_tanh_128_tanh_81/model.pth (torch, 180815 bytes, 8 tensors)

net.0.weight f4 [128, 8]
00000000: 5a05 05bf d4ed 35bd c0d4 fdbe 5d17 d13e
00000010: 26cd 12be 1e37 4dbf ab94 b0bf a424 90bf
00000020: 3ef5 0bbf 9195 cfbf 0b9d 0bbe 1877 eebe
00000030: 39b8 f5bd 9e89 0abf 1b82 bcbe 16a9 193e
00000040: bc01 723e e0a2 22bd 227c b53e 95bf ecbd
00000050: e0b8 e8be 2f56 5a3d a49b 9e3d 9152 213f
00000060: 2c93 393d 27eb dd3c 79b8 173f 31eb 0c3e
00000070: 65d2 c2bf cd12 133f f551 b13f d486 023f
00000080: 4965 92be d5ab 913c 85e1 0e3f fce7 353f
00000090: b538 3dbe dbaf 5b3e 1957 1bbf ed10 82bf
000000a0: 1de2 4dbf c303 02be e527 c2be 68fb 963e
000000b0: 0c0f 73be fdd7 16bf 70d8 08bf a9d3 eebe
000000c0: 1b4f 91bf 72ec 843d 28de 45bf 62e5 8ebf
000000d0: 7388 28bf 5fa8 0bbf f587 d1be fc11 ec3e
000000e0: 25ff 853e dd89 063d 4256 fe3e 76d5 bebe
000000f0: 6354 50bd a2af c6bd 2ad0 ad3e c23e d83e
00000100: cdc6 053f f51a 98bd 4319 18be 3da6 573e
00000110: 5072 15bf 60f9 3bbf adda aabf d8e0 8cbf
00000120: aa1a 1a3e 662d e83c 19a3 96be ed5d 8cbe
00000130: 8290 c63e 6819 953f 161b c7bd 027a 56bf
00000140: 2aba 35be fe67 12bf ad54 1fbc 58bf 2abf
00000150: e947 5f3e 2031 653e e97a d4be 2404 683f
00000160: 42af dbbe d18a 8dbe 13f8 ebbd 436a bd3d
00000170: 2f90 dcbe 3120 323e d7d8 003f 35c5 65bf
00000180: 0b6e 103f bf83 c8be ad11 e83e 5897 e3bd
00000190: 6ca8 e0bd db5c 58be 1272 bc3e aa4a 523f
000001a0: c7b4 8b3d 79be f33d 2581 74bf 9302 efbe
000001b0: 411e 3f3e 91bd 4ebf 3580 823d 0849 9a3d
000001c0: f097 6dbd 2d13 553e 77ed aabe cd19 f83e
000001d0: a84e 513f 24a3 0a3f f0cc 9ebf a46e b3be
000001e0: 45d4 153f 79e6 73be 9c50 123d 532a 1bbf
000001f0: 8766 23bf c540 1c3f 2ce4 c93f 2a7a b23f
00000200: 4ae1 95be 93f6 473e 0108 dd3e 8cb8 2b3f
00000210: 5f79 163e e297 b73e f281 c5be 147b d5be
00000220: bf30 9dbe 5cab d8bc 238f a5be fb21 4f3e
00000230: 74a7 173f f1fa 803f a61f b93e 5024 88be
00000240: 29d1 573b b9ad 10bd d012 25bf 09cc 40bf
00000250: da03 0a3e db3e 0d3e 4aac 983b 1a17 8d3e
00000260: 426b ddbe 0a45 9d3d 5011 70bf bd87 63be
00000270: 559c e53f b062 22be 126d 93bc b13e 753e
00000280: df22 e8be 0ee5 17bb c10f 8f3e aa56 77bd
00000290: ba88 05bf d552 09c0 c852 a53e 3c46 16bc
000002a0: cef9 6fbe e7ff 92be 859c 693f 1307 85bf
000002b0: 5dad bfbd 02d5 433f dacd 33bf b1f3 0dbf
000002c0: 88e3 3a3c 0587 cbbd 288d 89be ded3 8ebf
000002d0: 7f12 d93e 2b21 ca3d 6566 fdbe 2d37 8cbf
000002e0: 3452 813e 227c babd a55c 2fbf f90d aa3e
000002f0: 203c bfbe fc0c 213f a7ce 3ebf 8ed3 98be
00000300: d374 0bbf e5ef 1c3e 3dff abbe 1016 48be
00000310: 4e37 d53d cc5b 7e3e c4f1 28be e6d1 8fbf
00000320: 6aed 7d3c 53eb b1bc 2d3e 3fbf d47a 9b3e
00000330: f8e7 68be f968 02bd 8750 b6bf 7c78 5fbe
00000340: 7bce 053f 688e 793d 2d3d e63e f638 da3d
00000350: d9d3 72bc 66da d4bd 9381 50be 854a c53e
00000360: d9a5 88bf 87d6 ec3e 540a 48be f46f 093e
00000370: 33fa f73e b794 3b3e f5ef 8abe 4731 e3bd
00000380: df16 a43e 8671 4bbe b444 3e3e 9dcb 51be
00000390: 8537 653f 0304 dd3f 38bd 0fbf 7871 86bf
000003a0: 42ce f9be 041b 663d e88c 75be c92c a7be
000003b0: 52d7 3bbe f001 1c3f 4ee1 2c3e 23fc acbf
000003c0: 9860 1abe d367 9fbe 36c6 5b3d 5c6c 673e
000003d0: 4064 a93e 9ef0 abbf 3bb7 e03e a3a9 3bbe
000003e0: d367 bb3e 88e2 38bd ce2e babe 4711 233e
000003f0: 1ebb fdbe 866a 8cbf a24e 3cbe 7bca 103f
-0.5196129 -0.044416264 -0.49576378 0.40838137 -0.1433607 -0.8016223 -1.379537 -1.1261182
-0.54671085 -1.6217519 -0.13634126 -0.46575236 -0.11998028 -0.5411624 -0.36818013 0.15005907
0.23633474 -0.03970611 0.35446268 -0.11559979 -0.45453548 0.053304847 0.0774453 0.6301661
0.04530637 0.027089668 0.5926586 0.13761593 -1.5220457 0.5745056 1.3853136 0.5098698
-0.285929 0.017782131 0.55812865 0.71057105 -0.18478663 0.21453802 -0.60679775 -1.0161415
-0.80423146 -0.12696747 -0.37921062 0.29488683 -0.23736209 -0.5892332 -0.5345526 -0.4664586
-1.1352266 0.06490411 -0.7729211 -1.1163752 -0.65833205 -0.5455379 -0.4092404 0.4610747
0.26171222 0.03284632 0.49675184 -0.37272233 -0.050861727 -0.09701468 0.3394788 0.4223538
0.5225647 -0.07427017 -0.14853387 0.21059509 -0.5837755 -0.7342739 -1.3347985 -1.1006117
0.15049234 0.02834196 -0.2942131 -0.2741541 0.38782126 1.1648378 -0.09721963 -0.8377992
-0.17746797 -0.5718993 -0.009724778 -0.6669822 0.21804775 0.22382021 -0.41500023 0.9063132
-0.4290715 -0.2764497 -0.11521926 0.092487834 -0.43078753 0.17395093 0.5033087 -0.8975404
0.5641791 -0.39163014 0.45325986 -0.11112851 -0.10969624 -0.21129172 0.3680578 0.8214518
0.0682159 0.11901564 -0.9550956 -0.4668165 0.18663885 -0.80758005 0.0637211 0.07533461
-0.058006227 0.20808096 -0.33384296 0.48457184 0.81760645 0.5415518 -1.2406292 -0.3504535
0.5852702 -0.23818387 0.035721406 -0.60611457 -0.6382832 0.6103633 1.5772758 1.3943532
-0.29273444 0.19527654 0.4317017 0.6707847 0.14694737 0.35858065 -0.38575703 -0.41695464
-0.30701253 -0.026448898 -0.32335767 0.20227806 0.5923989 1.0076581 0.36156958 -0.26590204
0.0032931066 -0.035321925 -0.6448183 -0.7531133 0.13478032 0.13793509 0.0046592103 0.27556688
-0.43245894 0.07679184 -0.93776417 -0.22219749 1.7938334 -0.15857959 -0.017996345 0.23949696
-0.45339105 -0.0023177299 0.27941707 -0.060385384 -0.52161753 -2.1456807 0.3228972 -0.009172019
-0.23435137 -0.28710863 0.91254455 -1.0392784 -0.09359238 0.764969 -0.7023598 -0.5544997
0.011406787 -0.09937862 -0.26865506 -1.1158407 0.42396924 0.098696075 -0.49492183 -1.0954338
0.25258029 -0.09105708 -0.6850074 0.33213785 -0.3735056 0.6291044 -0.74534076 -0.29848903
-0.54475135 0.15325888 -0.3359317 -0.19539666 0.10410939 0.24839705 -0.16498476 -1.1235931
0.015498498 -0.021718657 -0.7470425 0.30367148 -0.22744739 -0.03183839 -1.4243325 -0.21823305
0.5226819 0.060926825 0.44968548 0.10655396 -0.014821016 -0.10393219 -0.20361929 0.38533416
-1.0675613 0.4625742 -0.1953519 0.13421613 0.48433074 0.18318449 -0.27136198 -0.11093383
0.320487 -0.19867525 0.18580896 -0.20487829 0.8953784 1.7266849 -0.561481 -1.0503378
-0.48790175 0.056178108 -0.23979533 -0.32651356 -0.18343857 0.60940456 0.16882822 -1.3514446
-0.1507591 -0.311339 0.053655826 0.2259993 0.33084297 -1.3432806 0.43889794 -0.1832643
0.3660265 -0.045137912 -0.36363834 0.1592456 -0.49556822 -1.0970008 -0.18389371 0.5655896

net.0.bias f4 [128]
00000000: 676a 3f3e ccf3 7dbe 321a e2be a0dc ccbd
00000010: 372f 19be fd4e 1ebe 0e89 08be 85a0 efbe
00000020: 6b63 fb3c ff7c 563e 3bba 51be 84df d13e
00000030: b4b4 dfbe c056 99be fc31 b0be b982 ac3e
00000040: 2524 a03d 621e 86be ad2c 2dbe 8126 cabe
00000050: 4334 33bd de2b 083f 8f7c e83e 9436 023f
00000060: 532d 473e 354d c43c a77d 79be 6b80 27be
00000070: 54e1 c63c ded7 13bd 73ab 303e f3f7 f4bc
00000080: c768 ac3e 35e9 dc3d cb5c 90be 25ff 8b3e
00000090: 490f 153e 1e4d 21bb b735 2a3e d71e a9be
000000a0: 6c3a f53d 22d5 0abf 43fc 95bd a200 8d3d
000000b0: c1be a4be 7f04 0d3e 2c05 b43e 1de9 9ebe
000000c0: 5521 c63e 7cea 3abc 7e0d e43d ff9b 8bbe
000000d0: ad70 a73e ce92 ff3d 8696 0a3e b7e4 07bf
000000e0: 68a6 90be 774d cb3e 87e1 1c3e 35bf 64be
000000f0: 1902 2c3e 99cc babe c69b b43e a563 653e
00000100: 4470 473e d514 6cbd fe35 f4bc b5c6 9ebd
00000110: 1e29 c93e 30b3 7abd 56b4 f23d 9a62 c83e
00000120: 01ac 8fbe 7d0f 00bf aeb4 a3ba 6134 813d
00000130: 9d90 adbd 256a 7f3e 70b8 babe 76f9 9dbe
00000140: b794 09be 2e5a 46bd 1d38 733e b2d6 ea3e
00000150: 27a6 48bd 0eab 7d3e 9b8e a7bc debc 663e
00000160: 043c 61bd d872 8ebc 6ec6 1bbf 564a a5be
00000170: f2c1 d73e e4d5 9d3e 4303 d0bc 6be5 b4be
00000180: a88c b9be e352 ef3e b997 c53d 4915 9dbd
00000190: da0b c7bd a3c7 b33e 1ec7 7bbd 9e58 a83e
000001a0: ea8b e63d e77f ae3e bdf5 e7be 51a3 c3be
000001b0: e794 d4be 2979 23be 55f7 0fbe fe62 87be
000001c0: ee70 1a3d 64f8 28be a592 0c3f a775 603d
000001d0: dc25 d4be 9b01 b5be ab9f 5ebd 3486 ae3e
000001e0: 3b28 193f 1e07 223e 1558 2f3d 0f02 cc3d
000001f0: acec bcbd fafb c7be b46e 00be 6fdb ccbd
0.18692933 -0.24800032 -0.4416061 -0.100030184 -0.14959417 -0.15459819 -0.13333532 -0.46802154
0.030687055 0.2094612 -0.20481198 0.4099084 -0.43692553 -0.29948997 -0.34413135 0.33693483
0.07819394 -0.26195055 -0.16911574 -0.394825 -0.043751013 0.53191936 0.4540753 0.5086453
0.19450884 0.023962596 -0.24364339 -0.16357581 0.024277367 -0.03609454 0.17252903 -0.029903388
0.3367369 0.10786668 -0.28195795 0.27343097 0.14556612 -0.0024612616 0.16622053 -0.3303134
0.11974034 -0.54231465 -0.07323506 0.06884886 -0.32176784 0.13771246 0.35160196 -0.31037226
0.38697305 -0.0114084445 0.11135386 -0.27267453 0.32703152 0.12479173 0.13533983 -0.53083366
-0.28251958 0.39707538 0.15320407 -0.22338565 0.16797675 -0.3648422 0.35275096 0.22401293
0.1947642 -0.057637054 -0.029810902 -0.07752744 0.39289182 -0.061206043 0.118508026 0.39137727
-0.28060916 -0.50023633 -0.001248976 0.063088186 -0.084748484 0.24942835 -0.3646884 -0.30854386
-0.13435636 -0.048425846 0.23751874 0.45866925 -0.04898658 0.24772283 -0.020453742 0.22532985
-0.054988876 -0.017388746 -0.60849655 -0.32283276 0.42140156 0.30827248 -0.02539218 -0.35331282
-0.36240125 0.46742925 0.096480794 -0.076700754 -0.097190574 0.35113248 -0.06146919 0.3288011
0.11257155 0.34081957 -0.4530467 -0.38210538 -0.41519853 -0.15964188 -0.14059193 -0.26442713
0.037705354 -0.16501004 0.5491126 0.054799702 -0.41435134 -0.35352787 -0.05435149 0.34086764
0.5982701 0.15823027 0.04280861 0.0996133 -0.09224829 -0.3905943 -0.1254223 -0.10002791

net.2.weight f4 [128, 128]
00000000: dd51 d03e afac d0be 641a 94be 4eac 23be
00000010: 635b 9c3e 257d aa3d bca8 c9be a0ac bebe
00000020: e2b3 b13e f0a3 d03c 9f2c 1ebf 98d6 883e
00000030: 02c9 8cbe 2e87 ecbe d96b 193e 72e3 17be
00000040: e90f 1e3f 6e4c 5cbc cf10 c9be d67a d6be
00000050: 30f0 85bd a0bf 423e 7ef2 1d3e d0b6 d83e
00000060: 037c f7bb d8c6 5cbe c688 1d3e e8ad f23d
00000070: 346d 09bd 2213 4abe 6785 d1bb ed58 67be
00000080: 36fb 1d3f 81e9 51be f658 4abe 6c16 68bd
00000090: 4e8d 8abe 37a8 69be 59d5 60be f1a5 a43d
000000a0: 8dbc 5c3e db4c c3be 57ec c7be fba9 b4bd
000000b0: 9f51 0ebf 6bf5 453e 48b4 4c3e e35a 0f3e
000000c0: 60d8 173f c3e7 963d 00ca 293e 5add 833e
000000d0: 4022 4f3f 95a0 d13e 5559 9fbb 4991 f8bd
000000e0: cf2a abbd c253 52bd 8f43 253d 76b8 8ebc
000000f0: 55ea 0d3e 8808 e0be a329 0f3f 4daa 61bd
00000100: 5560 eabe 462f 683d 0c5f c6bd e339 bbbd
00000110: c25e 393f 47d9 ca3c 259b 28be c537 843f
00000120: cc7d 24bf b031 59bf 25f2 8e3d 7f8f 4bbd
00000130: 90ec 0dbc ca35 c5be ddeb d0be f9e6 2fbe
00000140: 3753 7fbe 2c03 10bf 3585 2bbe 337a a83d
00000150: 4e20 bbbd f168 a93e a161 03be 242d 28ba
00000160: 9674 bbbe 2b29 5e3d 2f88 96be 7c52 91be
00000170: e96c 5d3e 398f f63e 0924 923d a941 8fbd
00000180: 0332 18bf bfb4 203e 93b9 c63e f3f7 c4bb
00000190: bc25 0fbe 4762 cbbd 65eb 153e 550b a83e
000001a0: d834 d83e 69aa 943e 502a b3be 2a4c 223d
000001b0: c5ea 75be 7a4d b3be 4f2c 9bbd b545 1fbf
000001c0: af5f f43e 1c5b 6ebd 7045 0a3f c078 f83e
000001d0: f2b0 94be becf 7fbd 0a1d 493e 5032 51be
000001e0: 6f7a c43a 6810 343f 8560 a7bd 7dd5 903e
000001f0: 81cd 76be 5483 fa3d b341 d8be a8a8 053e
00000200: 5a55 6fbe 8fb0 b23d dd0e 7cbe 195c 083e
00000210: 0898 5c3e f244 6cbe d684 edbe 9b21 1fbe
00000220: a556 b6be c30a eb3e 2727 b3bd 61a2 9a3e
00000230: 115b a9be 0b0c 3fbe 6579 e3bc 3ed9 1f3e
00000240: ec30 bb3d 5d78 dbbc d309 c9bd 45f1 a6be
00000250: bcd5 64be 817a ab3e 5960 7d3e 453b f53d
00000260: aee1 fa3e 45d3 91be ee30 b8bd d3a2 2cbe
00000270: 7c0b a93e 607c c53e 5f5b 67be fddf 89bf
00000280: 6df9 8c3e 967c dbbd e484 bf3e 5349 023d
00000290: 01d8 44bd 0555 bfbd 856c 313e 59e8 c0bc
000002a0: e5c1 d4bd 389a 54bd a8e4 3e3e faac cbbc
000002b0: e6e6 8cbd 5281 0a3e 56d1 833c c795 883d
000002c0: a5bf 08be 1350 6cbd 4401 2b3d 7f59 8ebe
000002d0: 4c5f adbd 9f84 703d 041a 883c f412 adbd
000002e0: 098c 7cbe 8d85 993e 17da 0f3e dfdf eebd
000002f0: b275 563d 1149 7e3c 1a5a 00be d52d 1abd
00000300: 90b5 24be 8797 413e 2a9c 88bd a0a9 443e
00000310: d0e4 80bd fefa edbd 6587 1e3e e959 90bd
00000320: d6f1 3dbe eddd 803d f88f 88bd 6721 e2be
00000330: edaf 783d e85c 793e 23f6 c53d b823 acbe
00000340: 8deb 593e e44a 99bd 52e9 fd3d 12fd 51be
00000350: 113c 93be e64d be3d fa17 80be c8c1 8a3d
00000360: 8d5f b23d 58db 1f3f 8156 a1be 028e a8be
00000370: fb79 563e 47ce eebb 1f70 023c 4c3f 8c3b
00000380: eebf 99bb 9e17 a8bd 890e 7dbe c24a 12be
00000390: 6068 b7bd c386 4cbe 5654 82be dad0 933e
000003a0: 9f6c 49be 2380 163e 59d0 64bc 62fe 803e
000003b0: 7e0e c6bd d9fc ba3e 95c5 33be 0f68 0dbf
000003c0: 0dba 80bd 9361 39be 02eb 8e3e 1ee2 a63e
000003d0: ba3c bd3e 48de 253f 8ea1 a5bc 92bd e43c
000003e0: 608b f23d 5c02 de3d a041 a33e 14e2 9abd
000003f0: ff3b eb3e fb8f d73d d4ae 10be b95f 203d
0.40687457 -0.40756747 -0.28926384 -0.15983698 0.30538473 0.08324651 -0.39386547 -0.37241077
0.34707552 0.025468796 -0.61786836 0.26726222 -0.27497107 -0.46196884 0.14982547 -0.14832857
0.61743027 -0.013445957 -0.39270636 -0.4189059 -0.06539953 0.19018412 0.15424535 0.42326975
-0.007552625 -0.21560228 0.15384206 0.11849576 -0.03355141 -0.19733861 -0.0063940766 -0.22592516
0.6171144 -0.20499231 -0.19760498 -0.05666201 -0.27060932 -0.22818075 -0.21956386 0.08039463
0.21556301 -0.38144574 -0.390475 -0.08821484 -0.55593294 0.19331901 0.19990647 0.13999514
0.5931454 0.07368424 0.16580963 0.25754815 0.80911636 0.40942827 -0.004862944 -0.12137086
-0.083577745 -0.05134941 0.040347632 -0.017421942 0.13858922 -0.4375651 0.5592291 -0.055094052
-0.4577662 0.05668571 -0.096860975 -0.091419004 0.72410214 0.024761809 -0.16465433 1.032952
-0.6425445 -0.8484144 0.06979779 -0.049697395 -0.008662358 -0.385176 -0.4080495 -0.17177953
-0.24934088 -0.5625484 -0.16750033 0.08226433 -0.09137021 0.33087876 -0.12830211 -0.0006415418
-0.36612386 0.05423848 -0.29400775 -0.28383243 0.21623577 0.48156145 0.071357794 -0.069949456
-0.5945131 0.15693949 0.38813457 -0.006011003 -0.13979238 -0.09930854 0.14640577 0.32821146
0.42227817 0.29036263 -0.3499322 0.039623417 -0.24015339 -0.35020047 -0.075768106 -0.6221574
0.4772925 -0.058192357 0.54012203 0.48529625 -0.2904125 -0.062453978 0.19639984 -0.20429349
0.0014990101 0.70337534 -0.081727065 0.2828788 -0.24101831 0.1223208 -0.42237625 0.13052619
-0.23372403 0.08725082 -0.24615045 0.13316382 0.2154237 -0.23073176 -0.46390408 -0.15540163
-0.3561298 0.45906648 -0.08747702 0.3020201 -0.3307729 -0.18656938 -0.027767846 0.15610215
0.091401905 -0.026790792 -0.09816327 -0.3260595 -0.22347158 0.334919 0.24743785 0.119741954
0.49000305 -0.28481498 -0.089937076 -0.16858988 0.33016574 0.38571453 -0.22593449 -1.0771481
0.27534047 -0.10717122 0.37406075 0.03180821 -0.04805756 -0.09342388 0.17326553 -0.023548292
-0.10388545 -0.051904887 0.18641913 -0.024862755 -0.06879978 0.13525894 0.01609103 0.06669193
-0.13354357 -0.057693552 0.041749254 -0.27802655 -0.08465442 0.058720227 0.016613968 -0.08450881
-0.24662794 0.29984704 0.14048038 -0.11663794 0.052358337 0.01552035 -0.12534371 -0.037641365
-0.16084886 0.1890546 -0.06670411 0.19205332 -0.062936425 -0.116201386 0.15481336 -0.07048399
-0.18549284 0.06292329 -0.06668085 -0.4416611 0.06071465 0.24351847 0.096660875 -0.33621
0.21281262 -0.074849874 0.12398018 -0.20506695 -0.28756765 0.09292202 -0.25018293 0.06775242
0.08709631 0.62444067 -0.3151131 -0.32920843 0.2094497 -0.007287774 0.007961302 0.0042800065
-0.0046920693 -0.082076296 -0.24712576 -0.1428633 -0.08955455 -0.19973283 -0.25454968 0.2887028
-0.19670342 0.14697318 -0.01396569 0.2519408 -0.09670733 0.36521032 -0.1755584 -0.55236906
-0.06285486 -0.18103628 0.27913672 0.3259439 0.36960393 0.647923 -0.020218637 0.027922425
0.1184299 0.10840294 0.31886005 -0.07562652 0.4594421 0.10525509 -0.14129192 0.03915379

net.2.bias f4 [128]
00000000: 0ced c23e 9fac 223e 52d7 20bb c912 e3bd
00000010: 80d1 1d3e 49be ccbd 128a 593e 754b a6be
00000020: ee21 ecbe cb39 8b3d 5d83 06be ad30 ecbe
00000030: 99e3 0bbd 8511 5c3e 84e7 06be 71e9 4c3e
00000040: 0478 b33c 01d4 e2bd e03d 86be 1955 1cbe
00000050: d111 10be 8bb9 713d 96bb 82be f680 5b3d
00000060: 200c 3f3d cb47 3b3e 3c7e 613d 7704 8dbe
00000070: a68b b6bd f577 143e 7a24 053e 63dd 77be
00000080: 0d55 0a3d 76c5 bbbd b42a a0bd a4ee 0ebe
00000090: 2037 6a3d 2339 2fbe 16d2 be3d 59bf 5abe
000000a0: f93d 173d 8825 04bf ae4e ab3d 938a 4b3e
000000b0: 8c1f c33e 8689 00be 66f3 87bd 1efb 403e
000000c0: a474 65bd a9b6 1d3c d4df bd3d 1c5e 923c
000000d0: 7349 c0bd f686 3abd 1083 b9be 9363 513e
000000e0: f246 25be b390 bfbc b657 373f d4a9 b3bd
000000f0: 2a2e f8bd ba1d 86be eda2 18be 56ea 513e
00000100: d688 11be 00c0 813c 0731 123e aef2 2bbe
00000110: 836d 303e 9653 7dbe f296 1ebd cf56 f93d
00000120: 04b2 3fbe e9c4 97bd 9c46 cc3e 9883 07be
00000130: 7a5c afbc e60c 0bbc 45e7 c9be c184 cebe
00000140: cd0f 23be f054 9b3e a88b cbbe 5109 6ebd
00000150: 1e6a 493e 8ad9 b0bc b001 243e 35dd dcbc
00000160: f5eb 933e 79a4 eabe dd7e b7be 4286 0bbf
00000170: ac3f cf3d 3aec c23d 5ae2 943d e750 4d3e
00000180: 48fb 31bc 22be 92bd 35c0 fdbd beaa 933e
00000190: 31b7 adbd 3458 7ebd bc30 9b3d 6708 11be
000001a0: 9c6b 633e 619d 503e 5ba9 c33d c77d 80bd
000001b0: 2979 2c3e 4592 283e 4602 823d 8765 c23c
000001c0: 6ea7 dc3c d2c7 4abe 6132 a33e 36d0 e6bd
000001d0: 3aaa a83d 8746 bf3d 1f24 0a3e 45c3 28be
000001e0: 2238 13bd 4b48 403e 10a3 0a3e 8d54 44be
000001f0: 801e debd 9b70 173d 5d46 b73e e4b6 f0bd
0.38071477 0.15886162 -0.0024542403 -0.11087567 0.15411949 -0.099972315 0.21244076 -0.32479444
-0.46119636 0.067981325 -0.13136049 -0.46130887 -0.0341526 0.21491058 -0.13174254 0.20010926
0.021907814 -0.11075593 -0.26219082 -0.15266837 -0.14069296 0.05901484 -0.25533742 0.053589784
0.046642423 0.18289106 0.055052027 -0.2754247 -0.089133546 0.14498885 0.13002196 -0.24205546
0.033772517 -0.09168522 -0.07820645 -0.13958222 0.057181478 -0.1711164 0.093174145 -0.21362056
0.036924336 -0.5161977 0.08364616 0.1987708 0.38110006 -0.12552461 -0.066382214 0.18845794
-0.05601944 0.009626069 0.092712075 0.01786714 -0.09389009 -0.045538865 -0.36232805 0.20448141
-0.16140345 -0.023384428 0.7161821 -0.087726265 -0.1211818 -0.26194555 -0.14905901 0.20499548
-0.14212355 0.015838623 0.14276515 -0.16791794 0.17229275 -0.24738917 -0.03871817 0.121747606
-0.18720251 -0.074106045 0.3989762 -0.13233793 -0.021406401 -0.008486962 -0.39434257 -0.40335658
-0.15923996 0.3033824 -0.39754987 -0.058114354 0.19669387 -0.021588106 0.16016269 -0.026960948
0.28890958 -0.45828608 -0.35838977 -0.54501736 0.10119566 0.09517713 0.07269736 0.20050393
-0.010863133 -0.07165171 -0.12390176 0.28841203 -0.084822066 -0.062095836 0.07577655 -0.14163361
0.22209018 0.20372535 0.09553786 -0.0627399 0.16843094 0.16462047 0.0634809 0.023730053
0.026935305 -0.19802788 0.31874374 -0.11270182 0.08235593 0.09339624 0.13490342 -0.1648074
-0.035942204 0.18777578 0.13538766 -0.19172879 -0.10845661 0.036972623 0.3579587 -0.117536336

net.4.weight f4 [128, 128]
00000000: 83f8 20be f60c 1ebe 993e d5be 1a0f 083e
00000010: efe1 b03d 6ba0 3cbe 8df2 1abf f5f6 1c3f
00000020: e60a 15bf d0af 973d 8f5a 053f 40a7 c8bd
00000030: e31e 783e da4f c8bc 61b4 fc3e 8245 3bbf
00000040: 49a1 dcbd 7033 e0bd 31fe 893e de81 fa3c
00000050: f45f 4d3f edce bd3e a3c3 d23e 4f9f 393f
00000060: 1912 35bf 6505 b93d 9224 883e 8b1e c63e
00000070: 4db7 42be b2e7 89be 37bc 823d b35e bb3d
00000080: d7c6 453e d8d5 dc3e eb63 6b3e d60f 5cbe
00000090: 1b0f e73d 6134 bc3c af3d c7be a08d 033e
000000a0: e7fd eb3c 8beb d33d 3594 893c ee6f 77be
000000b0: e141 a63e 84a2 d63e 45f7 10be c131 6cbd
000000c0: 42fc 063e 84b5 15be 8f91 993e 6e0a 583c
000000d0: f192 513d 5108 6dbe a7ef 143a 4bf4 ff3d
000000e0: ef63 a53e 4dd0 c7bd 5491 90bd 503e 16bf
000000f0: bbe6 023d 5f43 8e3e 5e1d f53d fe22 8ebe
00000100: db3e d13e 8132 883e 2250 163f 7213 9b3e
00000110: 1f92 22bc b073 91be a98e 75be 22fe 903e
00000120: 1214 1cbe 6b12 ca3d 1bc8 4fbf 070c bb3e
00000130: 4b1c aabe 69a2 92be 9b4d d7bd f84c c53e
00000140: 4fea a93a 7d63 89be a233 a2b9 f198 9c3e
00000150: 811a cfbe 960f f3be d6e9 3abd ce73 f33d
00000160: b4c3 98be 2a6c 88bd 5c01 83be 6d1d 1dbd
00000170: 2fbd 0ebe e49a 95bd bafb 7b3e 01ce 533e
00000180: 0f79 c53e d04b ef3e 01c3 743d d8fe b7bd
00000190: 2cf4 dfbd 2e41 043e 840b a6be f204 fa3e
000001a0: 051c 9a3e fa7b 17be 3b22 0fbe a33a 3dbe
000001b0: b66d fc3d ac66 d3be cb39 23be a322 90bd
000001c0: 60c1 4e3e fae9 7b3e 274f 153d de32 46bd
000001d0: 7c13 af3d 4a9e 0dbf 2989 45bf 2dfd ddbd
000001e0: ca3b 7c3c b4fe c7bd 0bd4 f63e d6d0 ccbe
000001f0: 920d a33d f8db 71be 9bd8 87be 54ef e13e
00000200: bf70 c8be 7d68 1fbf 7dee a0bc 7800 d7be
00000210: 2706 1cbf f90a 383f 5cde 673e 75c6 2b3e
00000220: 2e70 babe ea76 d13e bf81 c03d 5e0b 763e
00000230: fcb1 b13e be72 e63d 54c1 943c be2e 7dbd
00000240: 7bc8 14bf 89d6 e13e d85d 6b3e c537 a33e
00000250: 4f5d d2be 332d cfbd 3dd3 aebd c55f d23e
00000260: 92dc 243f d409 4ebe 45fd db3c e96b 0d3d
00000270: 035d 2b3e 4e31 efbc f343 28bf 1d84 e33e
00000280: 1693 183e 9199 023f a411 6c3b 4d8d 74bd
00000290: 3d9d 5b3e 2bdf 433f 589b 89bc f58f 14be
000002a0: 3a17 323e 854c 80bd aa45 21be 2144 85be
000002b0: 1f2d 13be dc25 023e 1c17 afbe 429f d2bd
000002c0: 428c 06bd 0838 cebe 2846 a73d b47c 9abd
000002d0: f560 2f3f 6441 0ebe 29f8 873e db98 1ebf
000002e0: 63cf 41bf 8774 a9be 0a6d 313e f58c a43d
000002f0: 63b4 6cbe ebdc 9f3e 6e1d c0be 8e7f 26be
00000300: fe5d 1f3e 47e2 653e bbab aa3e 89ec e2be
00000310: e238 5ebd e5e3 b5be 936c a1be 4d05 33bf
00000320: 7514 6abd 1138 233f fc69 d1bd 45c4 123f
00000330: 20ac ddbe 69e8 dc3d fe18 253f 92cc 81be
00000340: 694c 293f 90b8 62bd 69ed 24be 0f03 243e
00000350: bf02 b73e c72a d33d a177 073e 052a a6be
00000360: 80e3 153e 25ed e9bd 1701 8abe e0fd 9ebe
00000370: 30bf fdbe 3e6a 1fbf a539 e53e 1f76 0fbe
00000380: 578f 01bc d78c 2c3d d099 efbd c80e 5bbe
00000390: f7e7 053e a0d4 343d 1670 3b3f 01a3 dbbe
000003a0: bac8 a83d 86ba 2dbf ed66 5abe 6da8 83be
000003b0: a65e a0be 63c0 8bbd c02a 953e 9f9d 32be
000003c0: 5e08 89bd 5627 c2be 53ec 87bd 412a 663e
000003d0: ae5a 44be 4ff2 42bf 12ef 5b3e a705 073f
000003e0: 8a7c 6e3c 8652 f6be 3306 1a3e 1328 093f
000003f0: ef2e 9c3d b15d eebd 953f c13a c67a d2bd
-0.157198 -0.15434632 -0.4164932 0.13287011 0.086368434 -0.1842057 -0.60526353 0.61314327
-0.58219755 0.074065804 0.52091306 -0.097975254 0.24230532 -0.024452139 0.49356368 -0.73152936
-0.1077295 -0.10947311 0.26951745 0.030579504 0.8022454 0.37071934 0.41164884 0.7250871
-0.7073074 0.09034232 0.265904 0.38695177 -0.19015236 -0.26934582 0.063835554 0.09148922
0.19314133 0.431319 0.22987334 -0.21490416 0.11282178 0.022974195 -0.38914248 0.12846994
0.028807594 0.10347661 0.016794303 -0.24163792 0.32472137 0.41920865 -0.14156826 -0.057664637
0.13182166 -0.14620024 0.29993865 0.01318608 0.051165525 -0.23147704 0.0005681463 0.12497767
0.32302806 -0.09756527 -0.07058969 -0.5868883 0.031958323 0.27785775 0.11968492 -0.27761072
0.40868267 0.2660103 0.5871602 0.30288273 -0.009922533 -0.28408575 -0.23980202 0.28318888
-0.15242031 0.09866794 -0.8116471 0.36532614 -0.3322471 -0.28639534 -0.10512849 0.38535285
0.0012963506 -0.26833716 -0.00030937517 0.30585435 -0.40449908 -0.4747283 -0.04563316 0.11887322
-0.2983681 -0.06661256 -0.25586975 -0.03835814 -0.13939355 -0.07304934 0.24607745 0.20684053
0.38568923 0.46737528 0.059756283 -0.089841545 -0.10935244 0.12915489 -0.3243066 0.48831898
0.30099502 -0.14793387 -0.13977902 -0.184794 0.12325613 -0.4128927 -0.15940015 -0.070378564
0.20190954 0.24600974 0.03645244 -0.048388354 0.08548638 -0.55319655 -0.77162415 -0.10839305
0.015395114 -0.09765378 0.4820865 -0.4000308 0.07961573 -0.23619068 -0.26532444 0.44127905
-0.39148518 -0.6226881 -0.01964497 -0.41992545 -0.6094689 0.7189174 0.22643417 0.16774924
-0.3641371 0.40911037 0.09399747 0.24027774 0.34706104 0.11252354 0.018158592 -0.061812155
-0.5811841 0.4410899 0.22985017 0.31878486 -0.41086814 -0.10116043 -0.08536384 0.4108869
0.64399064 -0.20120937 0.026854167 0.03452674 0.167347 -0.029198315 -0.6572868 0.44436732
0.14899859 0.51015574 0.0036021257 -0.059705067 0.214467 0.765124 -0.016797706 -0.1450804
0.17391673 -0.06264595 -0.15749231 -0.2602854 -0.14372681 0.12709755 -0.3419732 -0.10284282
-0.032848604 -0.40277123 0.08167678 -0.075433165 0.6850732 -0.13892132 0.2655652 -0.6195199
-0.7570707 -0.33096716 0.17326751 0.08034698 -0.23115687 0.31223235 -0.37522453 -0.16259596
0.15563199 0.22449599 0.33334145 -0.44321087 -0.054253466 -0.35525432 -0.31528148 -0.69929963
-0.057148416 0.63757426 -0.10225293 0.57330734 -0.43295383 0.10786516 0.6449126 -0.25351387
0.6613222 -0.055351794 -0.1610619 0.16016792 0.35744283 0.103108935 0.13229229 -0.32453933
0.14637566 -0.11422185 -0.26953956 -0.31053066 -0.49559927 -0.6227149 0.44770542 -0.14009903
-0.00790771 0.042126503 -0.11699259 -0.21392357 0.13076769 0.044148088 0.73217905 -0.428978
0.082414106 -0.6786274 -0.21328326 -0.25714436 -0.3132221 -0.06823804 0.29134178 -0.1744294
-0.06691049 -0.37920636 -0.06636872 0.22477056 -0.19175217 -0.76150984 0.21477917 0.52743
0.01455606 -0.48109835 0.15041427 0.53576773 0.076261394 -0.11638964 0.001474368 -0.102773234

net.4.bias f4 [128]
00000000: a303 dbbc ea4d 5bbd 8cf2 e73d 7104 aebb
00000010: 1c23 dfbd ba90 ff3d 2973 34be 02a4 073d
00000020: 9336 0ebe 84a3 333c 2c52 f4bc b3e0 f33d
00000030: 9a41 f3bd 7579 0f3d a39c 9abd cd6e 30bd
00000040: e105 6f3e d823 983d 184d a53d 12fe 2c3e
00000050: a81e d1bc de60 e2bc e6a4 acbe 8bef 6ebe
00000060: d584 0a3e 329c 31be 1a70 4d3e 2911 e23c
00000070: 29a8 953e d86d d6bc 3c9f 17bc 231a 8f3d
00000080: a6c6 88bd 0fde 0d3d c8cb 75be 682d 913d
00000090: 4247 593e 15b1 533d 9c8c 70be 39cc 78bd
000000a0: ee45 933d f340 b9bb 0518 f33d f10a 7abe
000000b0: f1ae 203e 84f0 933e b256 813d e5dd 543d
000000c0: d601 bbbc 008a 38be 1de1 3ebe 1710 893d
000000d0: 32e2 23be 94fa 39be 0461 2e3e 344f 473d
000000e0: 04d1 32be 3d45 0cbe f8ca d1bd 092f 52be
000000f0: 02aa ecbd db70 5a3d f043 113e 977e 17bd
00000100: ecb8 86be 9ff4 09bc def5 8f3a 776d 333d
00000110: 8477 24be 3239 7abc 8fd5 2bbd d02f 173e
00000120: 1163 d5bd 72f3 053e 50f8 8ebe e6ff b93c
00000130: 2eff fa3c 21a0 cbbd 06b9 a2be 0526 40bd
00000140: 33cd 1b3e 5876 06bd 62f3 87bc a8b4 67bd
00000150: a42b 073e 4f91 7e3d 785c 173e 07ea d6bc
00000160: d7ec 843e 76e1 b73d 81c4 0f3e c32d 253e
00000170: 901e 003f a2ca be3d 759a bcbc a09f 7f3c
00000180: 824e cd3c 5a4e 34be 9e46 dbbc 7808 59bd
00000190: a89f 82be 89d1 e8bd 84b6 e13d 1c5a 5d3d
000001a0: 7246 183d d681 37be 1ca9 d8bc 3ece 9a3d
000001b0: 2c6f 303d 718d 3c3d 5fc3 ad3d ba9a 0cbe
000001c0: f53e aabd 1083 8f3d ec7a 2f3d 21a5 f0bd
000001d0: 4639 333e 9440 353e fb9d 2cbd a50b 5f3e
000001e0: 9fa3 37bc 21c4 c4be c67e e63d 4657 b83e
000001f0: 2fa2 c73d f469 a9bd 6f40 053c 7f4c b0bb
-0.026735133 -0.0535411 0.11325559 -0.005310588 -0.108953685 0.12478776 -0.17622055 0.033115394
-0.13888006 0.010964278 -0.029824339 0.11908092 -0.11877747 0.03502794 -0.07549407 -0.043074418
0.23342086 0.07428712 0.08071345 0.16893795 -0.025527313 -0.02763408 -0.33719558 -0.23333566
0.13527234 -0.1734474 0.20062295 0.027596073 0.2922986 -0.026175424 -0.009254273 0.06987407
-0.06678514 0.0346356 -0.24003518 0.07088739 0.21218589 0.05168255 -0.23491138 -0.060741637
0.071910724 -0.0056534945 0.11869816 -0.24418236 0.15691735 0.28894436 0.06315364 0.051969428
-0.022828024 -0.18021393 -0.18640561 0.06692522 -0.16004255 -0.18161994 0.17029196 0.04865952
-0.17462546 -0.13698287 -0.10243791 -0.20525755 -0.11555864 0.053330284 0.14186072 -0.03698596
-0.2631296 -0.008420139 0.0010983308 0.043805566 -0.16061217 -0.0152724255 -0.041951712 0.14764333
-0.10419286 0.13081148 -0.27923822 0.02270503 0.030639257 -0.099426515 -0.31781787 -0.04691126
0.15214996 -0.032827705 -0.016595546 -0.05656877 0.13200241 0.062150296 0.14781368 -0.02623464
0.25961944 0.0897855 0.14039804 0.16130738 0.50046635 0.09315993 -0.02302287 0.015602022
0.02506185 -0.17608014 -0.026767071 -0.052986592 -0.25512433 -0.11368091 0.1102114 0.054041013
0.037176557 -0.17920622 -0.026447825 0.07558869 0.04307477 0.046033327 0.0848453 -0.13730898
-0.08312789 0.0700742 0.042841837 -0.11750246 0.17502317 0.17700416 -0.04214285 0.21781786
-0.011208444 -0.38430884 0.11254649 0.36004084 0.09747731 -0.08272162 0.008133038 -0.005380213

net.6.weight f4 [81, 128]
00000000: cd65 18bf eede 9bbf 248c a2be 6b13 01bf
00000010: a934 b4bf 5170 8bbf fc20 833f 5ac1 ab3f
00000020: 46ad 4f3f 3ba7 cbbf bea9 b0bf 2fbe 6e3f
00000030: cfe6 cc3f 53b5 81bf 1da0 0840 6b88 163f
00000040: 31f4 9fbf d431 1a3f 1331 87bf 2527 fa3f
00000050: 80ab dcbf b3a6 a03f cbb7 d2be 9cab af3f
00000060: 467c 993f 5d92 663f fabb 8a3f d9dd 793f
00000070: 9158 81bf 364b 223f a22d 5c3f 4672 a9bf
00000080: 2638 42bf e608 df3e e72b 9fbf 823d 833e
00000090: b408 93bf 8a1b c43e a713 613f d901 a73f
000000a0: 399a 873f 0932 713f d3ff 85bf ba17 2f3f
000000b0: a684 04bf 8c39 f33e 1e0d 913f 24d6 8bbf
000000c0: a693 0e3f 4b58 733f d0f3 cb3f f63c b53f
000000d0: abe4 9b3f c631 aa3f 79dd 10bf c09d 85bf
000000e0: 0fd0 253f cd3f 693f 5aed 1d40 ccc4 103f
000000f0: 5bbc 1abf d321 b13f beea 643f 6d0a 6d3f
00000100: ba03 0b3f 7d53 6f3f 43d0 01bf af04 ffbf
00000110: 6069 303f 44cf 1a3f 206f 7c3f 0b6e 24bf
00000120: 9618 9b3e 80c6 8dbf 362b 273f 3e0d 4b3f
00000130: 4924 6f3f 2836 b03f eb9e 8d3f def5 913f
00000140: 2d6f d83f c81a ccbf 527f 93bf 0ad7 843f
00000150: 2e83 eabf b755 5ebe c24c ccbf 8ef3 5f3f
00000160: 2c7b 333f 7204 debf f2f4 7dbf 3f82 0bbf
00000170: d12b b6bf 4502 67bf 410f 983f 9072 f0bf
00000180: 63c9 54bf d007 f73e 1088 b53f c225 313f
00000190: f62f 823f 5e64 9a3f 627f 80bf 20e6 e5bf
000001a0: 6294 c1be 42aa 7d3f 5659 b83f bf25 6abf
000001b0: 38bd cc3f fc52 96bf 360b 99bf ab0c 90bf
000001c0: 277a b33f 5b75 ebbf 1406 5abf 33ed 67bf
000001d0: 7f02 a93d 6b2d a33f 66de ecbf 921e 813f
000001e0: 7988 41bf cb4e 883f 905d 623f a4df 12bf
000001f0: 7d63 5c3f d156 b3bf d002 55bf d8e8 343f
00000200: 879b a6bd 2fdd 8bbf d959 01bf 9f7b f3be
00000210: 5d65 b0bf 2866 adbf 4352 943f c0b6 a93f
00000220: 41fd a83f 4231 ccbf becb 8cbf 92c9 523f
00000230: 030d e23f 276c 91bf bea2 0240 efb2 b83e
00000240: 5d41 b3bf c6b9 133f 9222 dabf a1aa f93f
00000250: 544e f1bf 7058 933f 5938 51be 9e8d 833f
00000260: 21dd 953f 919a 223f 4fe5 913f fbf6 183f
00000270: 07a5 3cbf ad43 253f de7e a63f aa28 99bf
00000280: 3334 c0be 0ca6 863f 361f b2bf 2888 903e
00000290: 0bac 7bbf 690a 0b3f 3aae a33f 5c79 693f
000002a0: e99f 893f 5106 6b3f e5c6 9bbf d17e 753f
000002b0: 1764 dbbe cf38 c03e f8c2 9f3f 56d7 9abf
000002c0: 3cac 9c3f f4e7 8f3f 6bbb bf3f 7036 ac3f
000002d0: 57ff dd3f 32d9 b53f dbd3 10bf d35b 79bf
000002e0: 22ae 383f 1f7a 8b3f 0e56 fa3f dab5 4d3f
000002f0: a8c7 abbe 4801 b53f 2dbd 5c3f 0e53 923f
00000300: f388 143f ebe2 663f 6ff6 92bf b44b f0bf
00000310: 4698 593f 640e 253f 8c5f 963f dc1a 2bbf
00000320: 5f10 233e 9cf8 a4bf 2770 7d3f 3637 813f
00000330: 1037 1b3f c472 b03f b504 b13f d834 b63f
00000340: d639 7f3f efca a4bf f962 85bf c0f3 803f
00000350: f6d2 d2bf 2f9a 38bf 7058 e3bf f16d 463f
00000360: a4e5 d33e c630 dfbf 1537 84bf 267c 81bf
00000370: b81e 9cbf befe 78bf 400c 913f 2fe2 d4bf
00000380: 17d8 13bf e5fd e83e b0bf b03f 2468 6f3f
00000390: e888 763f e796 aa3f f613 afbf 1771 f5bf
000003a0: 0637 c8be 55d5 973f a2d0 b03f eebe 23bf
000003b0: d65e b63f e95c a4bf 882e 8dbf e0ba 6cbf
000003c0: fcd2 7a3f 1c1d b1bf e5b4 98bf 0310 72bf
000003d0: 8b1e 8d3e 3fe6 853f a763 e0bf 2704 4b3f
000003e0: d677 8abf 0f18 8a3f 3916 2b3f dad6 fd3d
000003f0: 0341 823f bb07 adbf 127f 57bf c70c 583f
-0.59530336 -1.2177408 -0.31747544 -0.50420254 -1.4078571 -1.0893651 1.0244441 1.3418381
0.8112377 -1.591041 -1.3801801 0.9325895 1.6007937 -1.0133461 2.1347725 0.5880191
-1.2496396 0.6023228 -1.0561851 1.9543196 -1.7239838 1.2550873 -0.41155848 1.3724246
1.199105 0.9006708 1.0838616 0.9760414 -1.0105153 0.6339601 0.8600713 -1.3237998
-0.75866926 0.43561476 -1.2435273 0.25632864 -1.1487031 0.3830226 0.8792061 1.3047439
1.059394 0.9421697 -1.0468696 0.6839558 -0.51764905 0.47504842 1.1332128 -1.0924726
0.55694044 0.950566 1.5933781 1.4159229 1.2179159 1.329644 -0.5658794 -1.0438766
0.647706 0.9111298 2.4676118 0.5655029 -0.6044366 1.3838447 0.8942069 0.92594033
0.5430256 0.9348677 -0.5070841 -1.9923304 0.6891079 0.6047251 0.98607063 -0.6423041
0.30292195 -1.1076202 0.6530031 0.7931708 0.9341474 1.3766527 1.1064123 1.1403158
1.6908928 -1.5945673 -1.152323 1.0378125 -1.8321283 -0.21712385 -1.5960925 0.8748101
0.7010982 -1.7345107 -0.9920188 -0.54495615 -1.4232122 -0.9023784 1.1879655 -1.8784962
-0.8311979 0.48248148 1.4182148 0.6919824 1.0170887 1.206188 -1.0038874 -1.7960854
-0.3780852 0.9908792 1.4402263 -0.91463846 1.5995245 -1.1744075 -1.1956546 -1.1253866
1.4021653 -1.8395189 -0.85165524 -0.9059631 0.08252429 1.2748235 -1.8505371 1.0087454
-0.75598866 1.0649046 0.88424015 -0.573725 0.8608931 -1.4010869 -0.83207417 0.7066779
-0.08135133 -1.0926875 -0.5052772 -0.47555253 -1.3780934 -1.3546801 1.1587604 1.3258896
1.3202287 -1.5952532 -1.0999677 0.8233882 1.7660221 -1.136113 2.041183 0.36074015
-1.4004322 0.5770534 -1.70418 1.9505197 -1.8852029 1.1511364 -0.20431651 1.0277593
1.1708108 0.635171 1.1398104 0.5975186 -0.7368931 0.6455639 1.3007467 -1.1965535
-0.37539825 1.0519423 -1.3915775 0.2822888 -0.9830939 0.5431276 1.2787545 0.91200805
1.0751926 0.91806513 -1.2170073 0.9589663 -0.428498 0.37543342 1.2481375 -1.2096965
1.2240062 1.1242661 1.497907 1.3454113 1.7343549 1.4206908 -0.56573266 -0.9740574
0.72140706 1.0896643 1.9557512 0.8035561 -0.33550763 1.4141016 0.8622616 1.1431596
0.5802147 0.9019 -1.1481456 -1.8773103 0.84997976 0.64475083 1.1747909 -0.6683786
0.15924214 -1.288837 0.98999256 1.0094974 0.60630894 1.3785024 1.3829561 1.4234877
0.99697626 -1.287443 -1.0420829 1.0074387 -1.647063 -0.72110265 -1.7761364 0.7751151
0.4138614 -1.743676 -1.032931 -1.0116012 -1.2196875 -0.97263706 1.1331863 -1.6631526
-0.577516 0.45506206 1.3808498 0.9351828 0.9630265 1.3327302 -1.3677967 -1.9175137
-0.3910448 1.1861979 1.381367 -0.6396321 1.4247692 -1.2840854 -1.1029825 -0.9247265
0.97978187 -1.3837008 -1.1930205 -0.9455568 0.27562365 1.046089 -1.7530411 0.7930321
-1.0817821 1.0788592 0.66830784 0.12394495 1.017609 -1.3517984 -0.8417827 0.84394497

net.6.bias f4 [81]
00000000: 7d09 213f 0760 823e 2f79 253e f486 153f
00000010: a83a a33e 87db 193f 1555 423f 9600 b33e
00000020: 5db9 213f 0652 a63e 3b75 053f 2eef 9e3e
00000030: 6fd1 2f3f 3224 4b3c c14e 533f 9daa 35be
00000040: b641 173f 9db1 383f d831 313e 6d2d 2f3f
00000050: c46b 113f 4013 1ebe 7b69 3f3e 8092 ac3e
00000060: 5d91 2b3f f664 643d fbd0 d43e b315 193f
00000070: 41ad 863d d3fa 983f e3f3 a63e cc3c f63e
00000080: e8f9 573f 521e 3f3f 20f8 bf3e ab4b 063f
00000090: d18f b9bd f80d 093e 996c 19be 4149 3dbe
000000a0: 828f cb3d 9bc2 fd3e 1002 09bf a325 443f
000000b0: 85f1 dc3e 4f91 023f 7d86 b23e c50a ec3e
000000c0: a3f8 0dbf 74ff bc3e 21ef 943e 8fff 4d3e
000000d0: 1506 c83e 93e3 323e e95b 473e a38f 743e
000000e0: 14aa 983e f055 243e 4521 603e 4098 8c3e
000000f0: b1be bcbd 6ef7 83bd 55c7 fd3e 951b 633f
00000100: 6c18 ea3e b21e 683f ff46 533e a29d 833d
00000110: 178c 8c3e f977 5c3d 8e32 adbc 5daf 4c3f
00000120: 2d4d 153f 3af8 f83e deaa 183f 48ff fe3e
00000130: a7f1 f33e eae5 333f 460b b93e e6bb 5a3e
00000140: dc3d f83e
0.629051 0.25463888 0.16159509 0.5840905 0.3188069 0.601006 0.75911075 0.34961385
0.63173467 0.32484454 0.52132004 0.31041855 0.68678945 0.012398766 0.82542044 -0.17740865
0.5908464 0.72146016 0.1730417 0.6842869 0.5680506 -0.15437031 0.18692581 0.3370552
0.6701868 0.055760346 0.4156569 0.59798735 0.06576014 1.1951545 0.32607946 0.4809326
0.843657 0.7465564 0.37493992 0.5245921 -0.09060634 0.13384235 -0.14982833 -0.18484975
0.09939481 0.49562535 -0.5351877 0.7661993 0.43153015 0.51002973 0.3486823 0.46101967
-0.55457515 0.36913645 0.2908869 0.20117019 0.3906714 0.17469625 0.19468655 0.23882918
0.2981726 0.16048408 0.21887691 0.27459908 -0.09216059 -0.06443678 0.4956614 0.8871396
0.45721757 0.9067184 0.20632552 0.064265504 0.2745063 0.053825352 -0.02114227 0.79955083
0.58320886 0.48626882 0.5963572 0.4980414 0.47645304 0.70272696 0.36141413 0.2136074
0.48484695
