lunar_lander_continuous/models/DQN/layers_4/8_128_tanh_128_tanh_128_tanh_121/model.pth (torch, 201423 bytes, 8 tensors)

net.0.weight f4 [128, 8]
000000 bc 02 f3 be 93 d1 3e 3e ab 32 11 3f 50 3a 94 bf
       -0.47463024 0.18634634 0.5671794 -1.1580296
000010 20 9f 5c 3f 65 a1 00 3e ee 2e 15 bf 6d e7 57 3e
       0.86180305 0.12561567 -0.58274734 0.21084376
000020 a5 0c 7c bd 74 6c b7 3e 2e a2 d3 3e 0a 6a f8 be
       -0.061535496 0.3582493 0.4133467 -0.485184
000030 f3 24 94 be 8d 64 2a bf 45 bd 93 bf 2a 22 7f 3f
       -0.2893444 -0.6655968 -1.1542135 0.99661505
000040 ec 43 e6 bc 24 52 3b 3f fb 60 72 3c d9 f7 a8 3e
       -0.02810856 0.7317221 0.01479363 0.33001593
000050 bc 33 91 be 01 27 ac be be ff 85 be 4a 99 04 bf
       -0.28359783 -0.33623508 -0.26171678 -0.517964
000060 e6 90 4e 3f 22 5f 4f 3e 0b a3 4e 3f 2a a0 ba 3d
       0.8068985 0.20251134 0.80717534 0.0911258
000070 e8 40 2f bf 84 90 9d 3e 23 64 66 3f d9 ec 96 3f
       -0.68458414 0.3077432 0.89996547 1.179103
000080 96 45 63 be 54 5f e8 bd 6e e8 0f 3f 05 9a d3 3e
       -0.22194514 -0.113463074 0.56214035 0.41328445
000090 63 d4 a3 bf e8 6a fa be c8 94 99 3f 14 09 ce 3d
       -1.279919 -0.48909688 1.199853 0.10060325
0000a0 05 89 10 3f 85 87 48 3e 98 8e 91 3e 12 ce f8 be
       0.56459075 0.19582947 0.28429103 -0.4859472
0000b0 c9 4e 71 bf 8f cc bd 3e b9 a5 d4 3e 91 64 ee 3e
       -0.9426084 0.37070128 0.41532686 0.465611
0000c0 8e f7 6a 3e 1f 05 0d 3d a3 9c df be 65 fb 03 3f
       0.22945997 0.034428712 -0.43674192 0.5155547
0000d0 2d 87 1b be 3a 1e 01 bf 59 53 9b be 97 80 7d be
       -0.15188284 -0.5043675 -0.30337027 -0.24756084
0000e0 85 87 18 bf e8 5e 03 3e 8b 11 62 3e ed fd f7 bd
       -0.59581786 0.12829173 0.22077005 -0.121089794
0000f0 e3 33 3b bd db 9b 8e be 91 4d 32 bd 2b 47 7f 3f
       -0.04570378 -0.27853283 -0.043531004 0.9971797
000100 9b 97 60 be 56 4a 00 be c3 2c b5 3e ee 8c 20 3f
       -0.21932833 -0.12528357 0.35385713 0.6271504
000110 ce 1e 33 3e 51 ee 94 be 5d be 1c be f9 28 1f bf
       0.1749222 -0.2908807 -0.15306993 -0.62171894
000120 0e 3a a2 3e 65 30 d9 bb 01 43 56 bd 03 7e 16 bf
       0.31684917 -0.0066280835 -0.052309994 -0.5878603
000130 e3 ad f6 bc a4 e5 55 bf 2b d8 ff be df 89 66 bf
       -0.030112213 -0.8355353 -0.4996961 -0.90054125
000140 52 3c dc be 7d 2b 78 3e a5 1f 4c be 98 52 2d bf
       -0.4301477 0.2423534 -0.19933946 -0.67704153
000150 eb f4 a6 3e d8 3b 4e 3f 8a 10 26 3e ab 06 06 bf
       0.32608733 0.80560064 0.16217247 -0.52353925
000160 5c 3e 0c 3f 84 f7 c5 3d 7f 53 fe be 5d 4e ea 3e
       0.5478265 0.096663505 -0.49673077 0.4576291
000170 82 d5 99 3f 75 9d af be 75 ea fb 3e d5 bd ed 3e
       1.2018282 -0.34299818 0.49202314 0.46433893
000180 bc 47 06 3f ca 6b e0 3d 5a 11 8e 3e de 63 e1 3e
       0.5245321 0.10958059 0.27747613 0.44021505
000190 56 ae 58 3f bc db 19 3f 6c cc b7 3d b4 ae a2 3e
       0.84641016 0.60100913 0.08974537 0.31773913
0001a0 fb 69 b0 be 35 57 0d bf 22 af 39 be d5 66 4f be
       -0.34455857 -0.5521119 -0.18133214 -0.20254071
0001b0 bd bf 9c 3e 47 d8 bb 3e 8f 29 ba 3d 65 cf 8d be
       0.30615035 0.36688444 0.09089958 -0.27697292
0001c0 86 45 5f bd d7 7f 9b bd ba 95 16 be 8c 3a 49 bf
       -0.054509662 -0.07592743 -0.14705554 -0.7860496
0001d0 7b 8f f9 be 97 a2 66 bf 52 82 77 3d 0e 60 99 3e
       -0.4874228 -0.9009184 0.060427018 0.29956096
0001e0 20 90 56 3f fc 5e 26 3e 3c e7 54 3f 7b 39 84 3f
       0.8381367 0.16247171 0.83165336 1.0330042
0001f0 91 e6 2c 3f 7a ac 15 be 2e a1 12 bf 31 cc a7 bf
       0.67539316 -0.14616576 -0.5727719 -1.3109189
000200 e8 0c b6 bd 8e e8 d1 bd 0f 69 88 be 71 f0 58 be
       -0.088891804 -0.102494344 -0.26642653 -0.21185471
000210 80 b5 bb 3e 27 7b c3 3e 20 b2 32 3f ca 00 9f 3e
       0.3666191 0.38179895 0.6980305 0.3105529
000220 13 79 eb bd 15 8f c1 3e ee 79 64 3e b9 4a d6 be
       -0.114977024 0.37804475 0.22312137 -0.41853884
000230 b0 63 e3 bd 44 55 53 bf dd 9a 09 bf e4 1d d5 be
       -0.11102998 -0.8255198 -0.5375193 -0.41624367
000240 e3 b0 7d 3d 9a 9e 7e bc f4 8a 65 be 6c fd 54 be
       0.06193627 -0.015540743 -0.22416288 -0.20799798
000250 37 98 8c 3e e9 0e 28 3f cb e5 f7 3e 80 d9 49 3f
       0.2745988 0.6564775 0.48417506 0.78847504
000260 cc 3b 8d bd a3 14 8c be f5 8a 51 be 83 be 54 bc
       -0.06896171 -0.27359495 -0.20463164 -0.012984875
000270 9a 00 12 be d8 5e 0e bf 87 36 fb 3d 5c 92 a5 3f
       -0.14258042 -0.5561347 0.1226626 1.293529
000280 76 fd 64 be a7 eb 68 be 12 59 35 bb e3 25 d8 be
       -0.22362313 -0.22746144 -0.0027671498 -0.42216405
000290 8c 6b 07 3e e9 9c f9 3e c0 a6 bf be f6 c0 de 3e
       0.1322462 0.48752525 -0.37431908 0.43506593
0002a0 2d 56 1a bf 52 f2 93 3e a0 76 0c bf 65 e0 b0 3e
       -0.60287744 0.28895813 -0.5486851 0.345462
0002b0 92 a0 4d 3e e9 63 37 bf 33 c3 30 3f 8f d3 0a bf
       0.20080784 -0.71636826 0.6904785 -0.5422906
0002c0 fd dd 81 3a 2c 8d df be 4c 0f 5a be 9a c3 5e 3e
       0.0009908077 -0.43662393 -0.21294898 0.21754304
0002d0 07 f0 95 3e fc 85 a7 3f bc dd 17 bf cd 82 2e be
       0.2928469 1.3087764 -0.59322715 -0.17042084
0002e0 1d e5 63 3c 75 0a 4e 3e f7 d7 6d 3e f2 67 22 be
       0.013909605 0.20121177 0.23226915 -0.15859964
0002f0 af 5b 8d bd c6 6b 3c bf be 21 ec 3d fe 08 e6 bf
       -0.06902253 -0.7360195 0.11529873 -1.7971494
000300 3e 5e 5c 3e 23 0e 69 be b4 1b 32 bd 8e 4f 1f bf
       0.21520326 -0.22759299 -0.04348345 -0.62230766
000310 e8 11 a8 3e 2b 61 97 bc 74 d5 e0 be 0c d0 65 bf
       0.3282616 -0.01847895 -0.43912852 -0.8977058
000320 e1 7e d8 3e af 0b 26 be 55 c7 83 3e 51 98 01 3e
       0.422843 -0.16215394 0.25738016 0.1265576
000330 4d e6 12 bf 61 e6 f7 be cd d8 fe be 2d 25 8d bf
       -0.5738266 -0.48417953 -0.4977478 -1.102697
000340 d6 49 72 3f 54 2d a6 be c2 be 3c 3d 13 4f 90 3e
       0.94643915 -0.32456458 0.04608036 0.2818533
000350 bd 56 8b bf 1d 83 44 3f 69 26 8f be 0b 26 0a bf
       -1.0885845 0.76762563 -0.27958992 -0.539643
000360 ee 95 de be 5e 4f 3e be 3d f0 8d 3e 8e 24 08 bf
       -0.43473762 -0.18584964 0.2772235 -0.5318078
000370 56 c0 02 3f 3f fb 73 3f 43 3f b7 3e 42 bc 06 3e
       0.5107473 0.95305246 0.35790452 0.13157752
000380 10 26 3b bd 0e 3d 65 3d 58 34 31 3c 4e e2 b5 be
       -0.045690596 0.05596643 0.010815702 -0.3552422
000390 8b 6e 11 3f 0d 32 ad 3f 2f 17 a4 bd e4 a1 91 3d
       0.568093 1.3530899 -0.080122344 0.07110956
0003a0 d3 43 3d 3f 0e c2 cd 3d 03 b5 0f 3f 86 e3 d6 be
       0.73931617 0.100467786 0.56135577 -0.41970462
0003b0 27 14 6a 3e 49 9e 37 3f ab 85 1c 3f 02 0c 6a bf
       0.2285925 0.717259 0.6114146 -0.9142457
0003c0 50 b2 e2 3d 5f 5d 0e be 93 71 16 bd 8c e0 70 bf
       0.11069167 -0.13902806 -0.036729407 -0.9409263
0003d0 aa cf b7 3e de c7 90 be 7d 37 99 bd 0a 76 18 bd
       0.35900623 -0.28277487 -0.07481287 -0.037221946
0003e0 aa a2 7a bf 75 01 ba 3d 7d d4 ec be a6 52 0a 3e
       -0.97904456 0.09082309 -0.46255866 0.1350809
0003f0 28 16 0d 3e 7d 02 08 bf 80 2f 3c 3e df 22 6b 3f
       0.13777983 -0.53128797 0.18377495 0.91850084

net.0.bias f4 [128]
000000 2c 31 19 bd 4b f2 8b be 90 12 8a 3e a6 fb 2d 3e
       -0.03740041 -0.27333292 0.26967287 0.16990528
000010 f7 1f 96 3e fd 38 28 bd 0d 42 37 3d 5e 9a ad 3d
       0.29321262 -0.041069973 0.044740725 0.08476709
000020 a7 07 f8 3e 84 be c5 be aa 54 ae be 4a bd a2 be
       0.48443338 -0.38621914 -0.3404897 -0.3178504
000030 cf 78 85 3e af bd c0 be a2 54 80 be 3b 6b f0 be
       0.26068732 -0.37644717 -0.2506457 -0.4695681
000040 32 89 cd 3e bd 1f c0 be d2 73 eb be f8 46 4f be
       0.40143734 -0.37524214 -0.459868 -0.20241916
000050 e1 5f 33 3e 2d b8 22 be 8b b0 ec 3e 59 dd 90 bc
       0.17517044 -0.1589057 0.46228442 -0.017683672
000060 ce ab e7 bd ba 04 98 3e d2 0b 40 3e 1e 96 88 3e
       -0.11312066 0.29691106 0.18754509 0.2667703
000070 85 6b 61 3d 3c 51 83 3e 69 10 b6 3e 0b 1c bb 3e
       0.05503418 0.25647914 0.35559395 0.36544833
000080 36 65 c8 be fe e9 02 bd 08 1c ee be e9 53 8d bd
       -0.39139718 -0.031961434 -0.4650576 -0.0690077
000090 22 62 ff 3d 8d 6e 9c 3e 70 a4 a3 bd eb 54 33 3c
       0.12469889 0.30553094 -0.07990348 0.010945539
0000a0 37 71 41 be 99 0e f5 be 2a a4 14 3e 4a ce 0b be
       -0.18890844 -0.478627 0.14515749 -0.13652912
0000b0 77 99 2f 3e a3 3f 4e 3e e4 a7 a5 bd 0c 83 2f 3e
       0.17148386 0.20141463 -0.08088663 0.17139834
0000c0 d7 5b b7 3e e0 7e e9 3e ef 0c 3d 3e aa 55 52 be
       0.35812256 0.4560461 0.18461965 -0.20540491
0000d0 f1 55 83 be 5a 74 8f bd 05 df b0 be 6e a5 a4 3e
       -0.25651506 -0.07004614 -0.3454515 0.32157463
0000e0 34 ae db be ad 45 64 3e 3c e3 e2 bc a7 91 ea be
       -0.42906344 0.22292204 -0.027696244 -0.4581425
0000f0 6d 0f 55 3e bd 68 01 3f 00 78 8f be 08 55 a3 bd
       0.20806666 0.5055044 -0.2802124 -0.07975203
000100 10 e7 a7 3e 09 ec 31 3e ce 5d 18 be ce fb a5 be
       0.32793474 0.17375197 -0.14879534 -0.32418674
000110 c9 97 f4 be 15 f9 c8 3e 59 74 3c be 3c 69 a5 be
       -0.47772053 0.39252535 -0.18403758 -0.3230685
000120 16 22 5e be f8 4e 60 be be e1 e1 3d e3 52 d4 3e
       -0.2169269 -0.21905124 0.11029385 0.41469488
000130 ab cd d6 be 99 be 91 be bb 11 b8 be 78 ee 08 39
       -0.41953787 -0.28465727 -0.35951027 0.00013058807
000140 ee 8b 4e 3e fc d0 bf be b2 7e fc be 82 52 0a 3e
       0.20170566 -0.3746413 -0.4931541 0.13508037
000150 a4 1f 16 3d fd a3 c5 3e 1e 29 d1 3d 0b 92 4e 3e
       0.03665127 0.38601676 0.102129206 0.20172898
000160 cd a8 8f bd 83 4e 94 3d 46 84 5f be da 1f 13 3f
       -0.07014618 0.072415374 -0.21827802 0.57470477
000170 8c e1 dd 3e f7 65 89 be f7 e4 eb 3d 73 9b 26 3e
       0.4333614 -0.26835606 0.11518281 0.16270237
000180 f8 b4 fc 3d 54 3a b3 be f2 b2 9c 3e 6c df 90 be
       0.123392045 -0.35005438 0.30605274 -0.28295457
000190 00 d7 e9 be 4e 30 a1 be e9 03 37 3e 97 f1 c3 be
       -0.45671844 -0.31482166 0.17872585 -0.38270256
0001a0 cc 55 07 3e 53 2e a9 be 1b 67 0d 3f 2f 31 63 be
       0.13216323 -0.33043155 0.5523545 -0.22186731
0001b0 ee 19 26 bf 54 b4 63 bd 06 ca 6f be 0a bc c0 be
       -0.64883316 -0.055591896 -0.2341691 -0.37643462
0001c0 2e 83 10 3e 99 6b 92 3e c7 d4 a4 3e 29 6a 11 bf
       0.14112541 0.28597715 0.32193586 -0.5680261
0001d0 43 b8 47 be c9 23 cc 3e 4d 63 b2 be f3 80 10 3e
       -0.19503884 0.39871052 -0.34841385 0.1411169
0001e0 fb 77 bd bd b9 23 5a 3e 54 f7 9d be 7c 21 ad bc
       -0.092514 0.2130269 -0.3085276 -0.02113413
0001f0 77 37 a3 3e 7c 5d 3f 3e fb 52 97 3d 0c 1e dd 3e
       0.31878254 0.18688005 0.07388874 0.43186986

net.2.weight f4 [128, 128]
000000 fc f3 46 bd 29 72 9c 3e d2 1a c4 bd 29 22 78 be
       -0.048572525 0.30555847 -0.09575428 -0.24231781
000010 f0 6a 3c 3e 92 ff 3c be 6d e9 1e bd e1 79 ec bd
       0.18400168 -0.18456867 -0.03879683 -0.11546684
000020 c2 41 f8 bc 59 57 64 3e 80 b6 91 be 91 25 48 be
       -0.030304793 0.22298945 -0.2845955 -0.1954558
000030 ca 36 b8 be 7a 0c 71 3e 10 83 eb 3d 50 4e 41 3e
       -0.359793 0.23539916 0.114996076 0.1887753
000040 da e0 56 bf b3 e6 86 3e 79 ec 5a bd 47 49 23 3e
       -0.83936846 0.26347885 -0.053448174 0.15945922
000050 87 d0 18 3e 69 ba 7a be 5d 5f 92 3c 0c 1c 8a 3d
       0.14923297 -0.24485172 0.017867738 0.06743631
000060 d5 85 eb 3d 80 e7 08 3e cc a7 e8 3e 95 59 a5 be
       0.11500136 0.1336956 0.4544052 -0.32294908
000070 cc 9b c6 be 81 62 eb bd a4 bc 4e be 6c 94 68 be
       -0.3879074 -0.114933975 -0.20189148 -0.22712868
000080 0a e9 e2 3e 0f f0 68 be f4 2d 07 3e ec 4a 8a be
       0.4431842 -0.22747825 0.13201123 -0.27010286
000090 10 f2 0b bf f8 cd 20 bf e4 f0 d2 bd 95 f8 ff bd
       -0.54666233 -0.62814283 -0.102998525 -0.12498585
0000a0 ab 46 d8 3d 73 b6 a6 3e 7e 93 8a bc ac b9 3a be
       0.10560354 0.32561073 -0.016916033 -0.1823489
0000b0 e1 8f 26 be 81 4e 72 be 2f 4b 43 3e 35 ee 11 3e
       -0.16265823 -0.2366276 0.19071649 0.14251025
0000c0 c8 7b b2 be c2 9f 1e be cb fa 0e 3f df be 0a 3e
       -0.34860063 -0.1549063 0.5585143 0.13549374
0000d0 b2 8b bc be 64 47 00 3f cb 9c a7 3e 62 57 62 3e
       -0.3682533 0.50108933 0.3273681 0.22103646
0000e0 5a 05 c3 3e 63 c1 80 bd 6a 5b af 3e 74 e6 cf 3d
       0.3809002 -0.062868856 0.3424943 0.10151377
0000f0 77 5e f3 bc 3f 1b e9 bd 50 e6 1a be ec 89 91 be
       -0.02970813 -0.1138215 -0.1512692 -0.2842554
000100 52 d0 b8 bd e9 22 2d 3d 27 09 8a be 75 6f 97 be
       -0.09024109 0.04226962 -0.26960108 -0.29577222
000110 e3 26 9e 3d f6 75 5b be 60 3c 64 3e 02 af e7 3e
       0.07722261 -0.21431717 0.22288656 0.45250708
000120 e0 ec 00 3f cc cd c0 bd 31 cd a5 3c c6 f9 ca bd
       0.5036144 -0.09414253 0.020239444 -0.09910922
000130 65 a0 06 3f de 51 91 3e ab 55 a2 bd 6f d1 24 be
       0.5258849 0.28382772 -0.07926496 -0.16095518
000140 2b 99 51 be 1a bc 91 3e a5 18 f9 3d 7a b1 e8 3d
       -0.20468585 0.28463823 0.12162904 0.11361976
000150 77 be f7 bc 7d a8 a8 bd 7e e4 2c 3e 53 91 1c 3d
       -0.030242188 -0.082352616 0.16884038 0.03822453
000160 df 55 a8 bd 3d 39 90 3e a8 f6 47 bd 8e c6 09 bf
       -0.082195036 0.2816867 -0.048819214 -0.53818595
000170 70 b2 a6 be 1d ed a3 3d b4 dc c0 bc 5e 91 b7 3d
       -0.32558012 0.0800421 -0.02354274 0.089632735
000180 94 b1 02 be c2 8e 85 3e 1f 02 98 3d 3a a9 d4 be
       -0.12763053 0.26085478 0.074222796 -0.4153536
000190 97 8c e9 3a ad db 1f 3e 1c 7e 9f 3d e7 39 20 3f
       0.0017818388 0.15611143 0.07787725 0.6258835
0001a0 95 9d 4d 3e 88 da 2c 3e af 69 af 3d 42 63 28 3f
       0.20079644 0.16880238 0.085650794 0.65776455
0001b0 93 45 a6 3c 6a 0a 28 be 26 09 a1 3e c6 63 29 3e
       0.020296847 -0.16410223 0.31452292 0.16541967
0001c0 41 d3 4f 3e 79 7e 9c bd 36 87 83 be c8 65 7f 3e
       0.2029543 -0.0764131 -0.25689095 0.2494117
0001d0 e7 e6 a8 bd c3 aa 8b be 88 54 1a 3e 31 bd 5d 3e
       -0.08247166 -0.27278718 0.15071309 0.21654202
0001e0 03 69 d7 3e 92 cc 06 be ea 8a 6d bd 81 2f 5a 3d
       0.42072305 -0.13163975 -0.057993807 0.05326796
0001f0 a1 b9 22 be a8 90 bb be 08 a4 50 bb 99 d2 aa be
       -0.15891124 -0.366338 -0.0031836051 -0.33363798
000200 7d 09 85 be ee 14 38 3e 65 6d a2 bc 0f 5a 09 be
       -0.259838 0.17976734 -0.019827554 -0.13413261
000210 fe bf 06 3f 6f 32 4c 3e 87 1d 6a be 4c 86 23 3d
       0.52636707 0.19941114 -0.22862826 0.039922997
000220 09 45 29 bf 68 b0 80 3e dd 42 f1 bd 45 a1 88 3b
       -0.66120964 0.25134587 -0.11780331 0.0041696155
000230 b4 92 ee be ba db 25 be 43 f1 36 3f cd b0 ad bb
       -0.465963 -0.161971 0.71461886 -0.0053006173
000240 34 bd 01 be c3 d2 99 3e 3a c4 06 3e 0c a8 35 3a
       -0.12669832 0.3004361 0.13160792 0.0006929643
000250 94 d8 6d bb ef 64 e5 3d 4c bc 95 bf 7b 09 25 3d
       -0.003629242 0.11200892 -1.1698089 0.040292244
000260 8f 83 7e bd b0 e9 d4 bd 81 de 9a ba dc 3e 51 bd
       -0.062137183 -0.10396135 -0.0011815579 -0.051085338
000270 0c 96 a5 be cb ba 8a 3d 45 4a 82 bd b4 1b ad bd
       -0.3234104 0.06773909 -0.06361822 -0.084525496
000280 4d f7 29 3f b3 d5 20 bf e0 2c a7 bc 3f ca b8 be
       0.66392976 -0.6282608 -0.02040714 -0.36091802
000290 3c be b4 be 48 c0 26 bf e0 68 18 3d 58 63 c1 be
       -0.35301387 -0.6513715 0.03720939 -0.37771106
0002a0 c7 7e 6e 3c 74 65 da 3d 64 70 5a be 74 d4 6c be
       0.014556593 0.10663882 -0.21331936 -0.2312792
0002b0 a0 d0 62 bf fe 54 fc bd 34 92 d9 3e 8b c7 68 3e
       -0.88599586 -0.123208985 0.42494357 0.2273237
0002c0 67 56 80 bd c1 ab ef be a4 68 8c 3e 79 49 63 bd
       -0.0626648 -0.46810725 0.27423584 -0.05548999
0002d0 1b f0 9b be 4f c0 bc 3d 3f 03 d4 3e 88 ec ea 3e
       -0.30456623 0.092163675 0.41408727 0.45883584
0002e0 99 2a 2a 3f fc 2f c7 be 55 12 6e bd b8 2f 91 bd
       0.6647125 -0.38903797 -0.05812295 -0.0708918
0002f0 7e 3d 73 bd 09 2d 04 3e eb f0 4f 3a f2 8b c3 3c
       -0.059384815 0.12907805 0.0007932323 0.023870442
000300 b4 18 f5 bd 64 9c 6f bd ef 28 dc be 2b 8c fa 3d
       -0.11967602 -0.058498755 -0.4299998 0.12233766
000310 4c a6 13 be 79 45 06 be 87 e1 65 bd 1a 7a cd 3e
       -0.14418906 -0.13112439 -0.056123283 0.4013222
000320 a7 f9 b2 3e ab da ba 3e ab 84 f5 be a6 ce 80 be
       0.34956095 0.36494955 -0.4795278 -0.2515766
000330 af 8f d5 3e a7 9b b0 3e 91 1b f0 bd 2f 1b 5a be
       0.41711184 0.34493753 -0.11724008 -0.21299432
000340 2b 02 64 be 24 d5 2a 3c e1 aa 28 3e 63 9a 30 3d
       -0.22266452 0.010426793 0.16471435 0.043115985
000350 2f 57 fa 3d 77 e8 38 3e fd c8 87 bd d2 bb d8 bd
       0.1222366 0.18057428 -0.06630132 -0.10582699
000360 3f 07 ef 3d 5b 85 03 be 3c c4 21 3d 9c 5e 82 be
       0.11671304 -0.1284384 0.039493784 -0.25462806
000370 1e 38 e2 be cc ff 9a bd 31 6d c7 bc 9a 10 f3 be
       -0.4418344 -0.07568321 -0.024344059 -0.47473603
000380 1d 4c ad 3d 2d fb 89 3d c1 86 2b be b6 05 8a be
       0.08461783 0.06737361 -0.16750623 -0.26957482
000390 d0 53 a4 3e 44 f0 e4 3e 89 3b 00 3e 13 2d 1a 3f
       0.32095194 0.44714558 0.12522711 0.6022503
0003a0 5c 92 e6 3d 46 6e 8f 3d a9 3d 9d bd 58 ff 76 3d
       0.112583846 0.07003455 -0.07677776 0.06030211
0003b0 b6 6e ca 3d 08 1d bb be 3a 4d dd 3d c0 6c e3 3d
       0.09884398 -0.36545587 0.108057454 0.11104727
0003c0 2d 34 ec bd 75 cc 07 3d df 23 16 be 2e f2 2f 3d
       -0.11533389 0.03315397 -0.14662121 0.04295557
0003d0 11 75 97 3d 19 47 30 be 2d 5f 82 be a4 fd 91 3e
       0.073953755 -0.17214622 -0.25463238 0.28513825
0003e0 70 c1 88 3e fb dd d4 bd 3a 09 1d 3e 08 09 33 be
       0.2671008 -0.10393902 0.15335551 -0.17483914
0003f0 fd 3b 1c 3d 5c 60 1d 3c 43 43 2d 3c 81 e7 a8 be
       0.038143147 0.009605493 0.0105751185 -0.32989123

net.2.bias f4 [128]
000000 a1 98 01 be 11 2d e7 bc c2 46 e3 bd f4 6a 32 3d
       -0.1265588 -0.028219732 -0.1109748 0.04355903
000010 fc 4b d5 bd 98 f7 5a be 10 ab 3c 3b 13 16 25 3d
       -0.104148835 -0.21383512 0.0028788485 0.040304255
000020 4b 69 91 3e c3 49 2b 3e 70 0c a7 be b3 8d 9f bc
       0.28400645 0.16727357 -0.32626677 -0.019476747
000030 7a 1c b4 be 87 4b 24 3e 87 e0 35 3d a1 0e 65 3e
       -0.35177976 0.16044436 0.04440358 0.22368862
000040 f9 50 af bd 71 de b8 be 05 8d 57 be a9 93 ca 3d
       -0.08560366 -0.3610721 -0.21049888 0.09891445
000050 19 a8 4e 3e 34 a2 a5 3d 25 f9 1a 3e 20 a8 66 bd
       0.20181312 0.080875784 0.15134104 -0.05631268
000060 a0 37 f0 bd a3 9a 6f 3e 2e c7 55 bc 5a 3b 75 3e
       -0.117293596 0.23398833 -0.013047976 0.23948422
000070 36 31 a8 3e 1a 3f bb bd 12 61 87 3d 2d dd 13 3e
       0.32850045 -0.09142895 0.066103116 0.1443984
000080 1d a9 a8 be 3e 75 7f be ba 1b 0c 3e 85 d7 c6 bb
       -0.32941523 -0.24947068 0.13682452 -0.0060681724
000090 ce a2 3a be 3b 75 6c be 47 1e 33 3e d2 52 f2 be
       -0.18226168 -0.23091595 0.17492019 -0.47328812
0000a0 2f 49 4f be c9 2e 1a 3e 82 c6 76 3d 74 70 1b 3d
       -0.20242761 0.1505691 0.060247906 0.03794904
0000b0 6e 29 0e 3c dc 24 98 3e 4f f0 1a be 28 ec 34 3a
       0.00867687 0.2971562 -0.15130733 0.0006901645
0000c0 e2 3b 21 3e b1 78 9d 3c 33 54 65 3e 97 49 87 3d
       0.157455 0.01922259 0.223954 0.06605833
0000d0 15 19 31 be b2 2b 99 be b8 2f 4a bd 4e 4d 03 bd
       -0.17294724 -0.2991615 -0.049361914 -0.032056145
0000e0 7e 34 b8 bc 18 18 23 be ae 8e 39 3e 29 aa 8a be
       -0.022485968 -0.1592716 0.18120834 -0.27082947
0000f0 25 52 19 be d9 df 9c be b9 d9 47 be b6 87 01 3e
       -0.14972742 -0.30639532 -0.19516648 0.12649426
000100 d2 3f f4 3c 7c ac 0a 3e 97 d2 e8 3b 42 1c 3f be
       0.029815588 0.1354236 0.0071051824 -0.18663123
000110 53 2b 37 bd 78 c2 53 3e d8 3b c2 3d c9 b4 8f be
       -0.04471905 0.20679653 0.094840705 -0.28067616
000120 7b b5 6c 3e 86 0f 1e 3e 23 d0 98 3d 7f 4b 05 3e
       0.23116104 0.15435609 0.07461574 0.1301708
000130 97 ea 5e be fa 9f 32 3e a5 a6 c2 bd 1b 77 a6 be
       -0.21769176 0.17443839 -0.09504441 -0.32512745
000140 db 4f 99 bd f8 8d aa 3d af 08 de 3e 88 14 40 3e
       -0.07485934 0.0832786 0.43366 0.18757832
000150 ef b9 27 bd ed 15 aa 3d d8 41 a3 bc e6 27 10 be
       -0.040948804 0.08304963 -0.019928858 -0.1407772
000160 32 d0 3c 3e e1 72 ea bd 6a b9 4a be 3e 7d 3e be
       0.18438795 -0.11447693 -0.19797292 -0.18602464
000170 24 b4 9f 3d e2 ac 90 3d 7e 28 43 3e db 79 36 3e
       0.07798031 0.07064225 0.19058415 0.17819922
000180 05 a0 7e be c0 7c 45 3e c8 cd 51 be f5 28 33 3e
       -0.2486573 0.1928587 -0.20488656 0.17496093
000190 a6 99 75 be 55 ad 31 bb c0 92 9a 3d e6 a3 f5 3d
       -0.23984393 -0.002711137 0.075475216 0.11994152
0001a0 35 11 37 3e dc d1 46 3e e8 3c 0e be ee 99 35 be
       0.17877658 0.19415992 -0.13890421 -0.17734501
0001b0 6a a0 4e be 08 cb 00 3e 52 88 3e 3e c6 68 6c be
       -0.2017838 0.1257745 0.1860669 -0.23086843
0001c0 e0 8f 89 3b c2 96 8c be c6 c3 71 be d4 06 7b be
       0.0041980594 -0.2745877 -0.23609838 -0.24514323
0001d0 db 98 dd 3d 40 38 9b 3e 10 cf 41 3e de dc 7c be
       0.108201705 0.30316353 0.18926644 -0.24693629
0001e0 a6 b3 26 be ee 7b 09 bd 85 49 b0 bc e7 cc 41 3e
       -0.16279468 -0.033565454 -0.021519432 0.1892582
0001f0 3b 28 28 3e e1 c9 b0 bd c2 0c a8 3e c5 d8 b6 3e
       0.16421597 -0.08632255 0.32822233 0.35712257

net.4.weight f4 [128, 128]
000000 79 66 9a be 93 d8 58 be 72 95 ef 3d 9f 79 16 bf
       -0.30156305 -0.21176367 0.11698426 -0.5877933
000010 52 b2 c7 be df f2 a4 bd 43 b3 60 3e 21 43 35 3e
       -0.39003235 -0.080541365 0.21943383 0.17701389
000020 fc ce 59 3e dd 20 df be 91 20 aa bc 5f 3c d8 3d
       0.21270365 -0.4357976 -0.020767482 0.1055839
000030 be 7d d0 be fb a3 9e 3e 84 04 2d bf 57 67 b6 3e
       -0.40720934 0.30984482 -0.67585015 0.35625717
000040 75 ef 62 3e 5e 1a a2 bd 1b e2 85 3d 52 52 3f be
       0.22161658 -0.079151854 0.06537267 -0.18683746
000050 2f 14 81 3e 98 93 71 3e 2d b6 31 3e 71 4a 9b 3e
       0.2521071 0.23591459 0.17354651 0.30330232
000060 e9 f5 89 3e 9e c7 3c bf 8c 22 03 3e 79 3a c0 be
       0.26945427 -0.7374209 0.12806147 -0.3754461
000070 ad 4f 4e 3e 97 11 13 3f 47 fe 1c be fb cf 77 3e
       0.20147581 0.57448715 -0.15331374 0.24200432
000080 4f de ca 3e 4c 91 db be f2 73 c5 3e bd 61 30 3e
       0.39622733 -0.4288429 0.38565022 0.17224784
000090 fe 3d 23 3d ad e7 9f be ab e6 f4 3e b9 20 c7 be
       0.039854042 -0.31231442 0.47832236 -0.38892153
0000a0 95 a8 42 3f 9a 36 95 be 6d 95 0d 3f e9 2f 58 3d
       0.76038486 -0.2914322 0.5530613 0.052780066
0000b0 6a fe 6a be d8 1d a3 be e0 f6 0a bf 96 60 92 bd
       -0.22948614 -0.31858706 -0.5428295 -0.071473286
0000c0 7c bb 60 3e 2f 42 36 be 49 36 85 3e 01 8e 0d bd
       0.2194652 -0.17798685 0.2601798 -0.034559254
0000d0 23 fb aa 3e 3d af 16 3e c6 18 20 3f b4 61 68 3e
       0.33394727 0.14715286 0.625378 0.22693521
0000e0 11 2c b9 be c5 60 64 bc cd ac ca 3d a9 a3 c2 3e
       -0.36166432 -0.013939087 0.098962404 0.38015488
0000f0 ad af 3d 3e 43 8f eb bd 56 a2 37 be ce b4 09 3e
       0.18524046 -0.115019344 -0.1793302 0.13447878
000100 55 01 96 3e 8d 28 24 be 6c 49 0d bf 2e f4 da be
       0.2929789 -0.16031094 -0.5519016 -0.4276442
000110 1a a6 5c be e5 ab 74 3d a8 d3 b0 3d 3d 12 6a 3e
       -0.21547738 0.059734244 0.0863412 0.2285852
000120 d9 60 69 be 68 89 36 3e 66 0f 8c 3d 96 c4 00 3f
       -0.2279085 0.17825854 0.068388745 0.50299966
000130 c7 07 82 be 16 34 ed 3e 5e 6c e8 be 94 43 12 bf
       -0.2539656 0.463288 -0.45395178 -0.57134366
000140 4f 4a 27 3e 86 2a 0a 3d 5a ae 96 be 1a 95 1f bf
       0.1633694 0.03373196 -0.29429895 -0.62336886
000150 b9 26 3d be 37 71 88 be e4 8e a3 3e bc 7c 13 3f
       -0.18471803 -0.26648876 0.31944954 0.57612205
000160 32 86 a5 3e 43 9d 71 3e 93 a1 2a 3d f6 a0 c1 be
       0.32328945 0.23595147 0.041657995 -0.37818116
000170 a9 6f bf be 24 35 d9 3d 90 82 b4 3e d7 8f 73 be
       -0.37389877 0.10605839 0.3525586 -0.2378534
000180 22 80 ee be f4 61 c3 ba 8f ab d5 be 2d f7 99 3e
       -0.46582133 -0.0014906512 -0.4173245 0.30071393
000190 af e7 93 be 64 09 e2 bd ce 0e cf 3d c6 1c 98 3d
       -0.28887698 -0.11036947 0.10110246 0.07427363
0001a0 a2 a4 8e bc ad b5 ef be 12 a9 f1 bd 56 a6 9d be
       -0.017412487 -0.46818295 -0.11799826 -0.30790967
0001b0 1e c7 a9 be e6 c7 ac bd 0b df f2 3d e6 64 bb 3e
       -0.33159727 -0.08436565 0.11858948 0.36600417
0001c0 3e ed 7c bd 51 ca cb bd 26 a7 10 be 83 28 3e be
       -0.06174969 -0.09950698 -0.14126262 -0.18570141
0001d0 a5 f6 b8 3e 69 e3 c6 be 56 d5 b5 be f1 51 9c bd
       0.36125675 -0.38845375 -0.35514325 -0.076328166
0001e0 f2 77 e7 3d 0b 84 5f 3c be 5c 63 3e 9a d6 07 3f
       0.11302175 0.013642321 0.22203347 0.5306183
0001f0 b5 2a 09 bf 6a dc a4 3e 5a a0 e2 bd 42 e0 65 bc
       -0.5358079 0.32199413 -0.11065741 -0.014030518
000200 1e 95 9c 3e 34 83 88 be 31 71 b8 3e 80 ae 40 3e
       0.30582517 -0.266626 0.36023858 0.18816566
000210 82 26 03 be fd 71 43 3e 9a ec 45 be 72 8c d5 bd
       -0.12807658 0.19086452 -0.19328538 -0.104271784
000220 c8 bc 11 3f 59 18 ae 3e 2e eb 25 3e c3 d4 1d 3d
       0.5692868 0.3400295 0.16202995 0.038532984
000230 a0 84 c6 bd 02 eb 7a bd aa 33 02 3e 81 46 b0 be
       -0.09693265 -0.061259277 0.12715021 -0.3442879
000240 79 dc 45 be 18 e7 4f be 93 41 04 3f 65 d9 d4 3e
       -0.19322385 -0.20302999 0.5166256 0.4157211
000250 f8 ac f1 3d 86 11 82 be bb 0c 95 3d 5e 2e 4d 3d
       0.11800569 -0.25403994 0.07277819 0.050093047
000260 b7 13 12 be c0 a2 ed 3d f1 42 7f be 35 82 2d 3f
       -0.14265333 0.11603308 -0.2492788 0.67776805
000270 c8 30 e0 3e 26 1e 99 be b6 9e 64 3e be 49 61 3e
       0.43787217 -0.29905814 0.22326168 0.22000787
000280 1e 6e 06 3d c7 1b 12 3f b0 b9 12 bf 2e 71 7d be
       0.03281986 0.57073635 -0.57314587 -0.24750206
000290 1a f1 7b bc 29 f5 91 3e 27 24 bf be ac 66 43 3e
       -0.015377307 0.28507355 -0.3733227 0.19082135
0002a0 23 6a d1 bd f5 24 ba 3d 96 10 88 bd fe b2 a2 bd
       -0.10225322 0.0908908 -0.066437885 -0.07944296
0002b0 c5 ad be bb 9f c8 8e 3e a6 25 78 3e e4 f0 96 be
       -0.005819055 0.27887437 0.24233112 -0.2948066
0002c0 1b 68 fc 3e 6c ca 6c be 0a 77 2a be fb 78 49 3f
       0.49298176 -0.23124093 -0.16646972 0.78700227
0002d0 53 de ba bd 29 c6 a6 be 2f ed e3 be 75 5f 1a be
       -0.09124436 -0.3257306 -0.44516894 -0.15075476
0002e0 f8 33 dd 3c d1 22 83 3e c6 b5 91 be d2 a1 7e bd
       0.02700232 0.256125 -0.28458995 -0.062166043
0002f0 12 ab 0c 3d 0c ed 97 3e bc fe 5f 3c f7 4f 07 3e
       0.034342833 0.2967304 0.013671573 0.13214098
000300 ad 6d 92 be f1 bc 89 3e 5d 05 36 be 3e 60 18 3f
       -0.285993 0.26901963 -0.17775483 0.59521854
000310 71 a6 6e 3e 03 4f c8 3b ec 83 de be f0 04 9b bd
       0.2330568 0.0061129346 -0.43460023 -0.07569301
000320 fe 22 50 3e f8 4e a5 bd cd 3a fe 3d 86 40 1c be
       0.20325848 -0.08071703 0.12413559 -0.15258989
000330 85 29 08 3f c4 92 b0 be 84 36 8e bd 47 8e 37 3e
       0.53188354 -0.34486973 -0.06943992 0.17925368
000340 a0 35 33 3e a6 f4 ff bc f5 91 cf 3d 9d c3 83 3e
       0.17500925 -0.031244587 0.10135261 0.2573518
000350 ec 93 17 be b5 30 d2 be df fe 36 3e 1f 8f d5 3d
       -0.14802521 -0.41052786 0.17870663 0.10427689
000360 6a f3 b9 be e5 42 ee 3d d0 9f 8e be 1b 92 06 3f
       -0.36318523 0.11633853 -0.27856302 0.5256669
000370 00 19 6b bd eb 29 80 3b 20 96 2e be e8 ec c6 3e
       -0.05739689 0.003911247 -0.17049456 0.3885262
000380 e0 bb f7 3e 94 b8 20 3f d6 90 dd 3e 86 c6 cb bd
       0.48385525 0.62781644 0.43274564 -0.09949975
000390 e7 d2 7d 3e db c5 88 3c 6e 13 0f bf 6f b6 16 3e
       0.24787484 0.016695907 -0.5588902 0.1471803
0003a0 ac 6e 2d 3e 6e ce 1c bc 07 b9 0b 3f ec 39 0e 3f
       0.16936749 -0.009570701 0.54579204 0.5555713
0003b0 8b f5 5b bd e4 59 1e 3e 85 66 d3 3d 2f 52 59 3b
       -0.053700965 0.15463978 0.103222884 0.0033160558
0003c0 f5 49 94 be 1d 05 e3 3e 3c 3c 61 3e d2 ac c5 3e
       -0.28962675 0.4433984 0.21995634 0.38608414
0003d0 4c 37 26 bf 01 8d a1 3e c2 21 e2 be 40 04 88 bd
       -0.64928126 0.3155289 -0.4416638 -0.066414356
0003e0 ee c2 36 be 17 49 48 be 02 5b 0a 3d 13 d2 dd be
       -0.17847797 -0.19559132 0.033778198 -0.43324336
0003f0 ec df 97 3d 78 27 26 bf 98 9c 87 bd 76 58 85 be
       0.074157566 -0.64903975 -0.06621665 -0.26044053

net.4.bias f4 [128]
000000 b2 9b 30 3e fb 59 b7 bd c3 34 ac 3e 09 9c eb 3e
       0.17246893 -0.08952709 0.33634004 0.46017483
000010 98 ab cb 3d 49 86 bd bd bc 33 b0 be 2c 82 4b be
       0.09944838 -0.092541285 -0.3441447 -0.19873875
000020 33 0d 8b bc ca 95 68 bd b9 7a d1 3d e0 e0 83 bd
       -0.016974067 -0.056783475 0.102284856 -0.06439376
000030 fe d3 4e be 9b 33 ca 3d cd 18 61 bd 80 5c bf bd
       -0.20198056 0.09873124 -0.054955292 -0.09343815
000040 5b 16 2c 3e b9 6d 11 be ec b8 da 3d 0c 31 90 bd
       0.16805403 -0.14202012 0.10679802 -0.07040605
000050 cd 7f d8 3d a1 a7 f0 3d d4 1d 2f 3c db 89 89 bd
       0.10571251 0.11750723 0.010688264 -0.06715747
000060 9b 8f f7 3d 56 2a 37 be 42 75 33 be f7 93 84 bb
       0.120879374 -0.17887244 -0.17525199 -0.004045959
000070 c5 42 5c be 27 5a 37 3e 29 9f 8f bd 3c f0 9a bd
       -0.21509846 0.17905484 -0.07012779 -0.07565352
000080 bb 3c 51 bd 5f 70 c4 3d 09 51 6b bd 9f 21 7a 3d
       -0.051083308 0.095917456 -0.057450328 0.06106722
000090 e3 74 bb bd 42 4e 0d be 2b 71 06 be 51 7e b7 3d
       -0.09153154 -0.13799384 -0.13129108 0.0895964
0000a0 67 ea d0 bb 9f 10 10 3d 76 3d 4a be a8 82 cf 3d
       -0.006375599 0.0351721 -0.19750008 0.101323426
0000b0 6b cc 44 3e c7 90 09 3e 7e ed e5 3d 97 43 14 3e
       0.19218604 0.13434134 0.11226939 0.14478908
0000c0 0a 60 86 3d b5 d4 96 3d 2b a1 ad 3d 3f 39 01 3f
       0.06561287 0.073647894 0.08478006 0.50477976
0000d0 5d 28 f4 bd 02 29 9e be 7a ff e7 bd 59 9a 60 3e
       -0.11921761 -0.3089066 -0.11328025 0.21933879
0000e0 da 02 e0 bd 43 6e 97 bd 9e ca d2 3d b4 85 a4 bd
       -0.10938044 -0.07394078 0.102925524 -0.08033314
0000f0 9f 5a 83 3d b1 19 73 3e 10 c0 c4 bc 44 fd a8 bb
       0.06413769 0.23740269 -0.024017364 -0.0051571447
000100 7c 9d 14 3d b2 bd 99 bd 3b 7c 0c be 87 89 e2 3d
       0.036283 -0.07506885 -0.13719265 0.110613875
000110 51 67 4f bb d0 fb bc b8 ca 14 3a be 61 51 20 be
       -0.0031647275 -9.011442e-05 -0.18171993 -0.15656044
000120 99 d0 08 3c 05 bb a6 3c 08 dc 0f be 64 cd bf 3d
       0.008350515 0.02035285 -0.14048779 0.09365347
000130 38 c5 e6 3d 66 d6 c0 bc 12 15 43 3e 83 79 6b 3d
       0.11268085 -0.023539733 0.19051006 0.05748893
000140 c4 86 97 3d 7f f5 88 3d 77 30 81 3d 27 38 92 bc
       0.073987514 0.0668745 0.06308072 -0.017849041
000150 43 de af 3d 97 eb eb bd 4d 88 6e be 4a f3 1c bd
       0.08587315 -0.115195446 -0.23294182 -0.038317956
000160 41 68 c4 3d 78 d6 88 3d 04 c7 b2 3d e3 60 06 be
       0.09590197 0.06681532 0.087293655 -0.13122897
000170 5b 89 47 be 0b 2d 3d 3d c1 8f 8d 3d 1c e5 57 be
       -0.1948599 0.046185534 0.069121845 -0.21083492
000180 42 e9 ba 3d 76 13 4c be 18 8d 62 3d cf ca 2b be
       0.09126522 -0.19929299 0.05531034 -0.16776584
000190 83 9b 65 3e d0 32 23 be 52 3e f1 3c 23 bf 75 3e
       0.22422604 -0.15937352 0.029448662 0.23998694
0001a0 c1 70 fc bb cc f5 9f bd db d5 47 bd e6 e6 91 3e
       -0.007703871 -0.07810554 -0.048787933 0.28496474
0001b0 b7 9e 3a bd 0b b5 17 bd 4c e2 6d 3d ab cc 2c be
       -0.04556152 -0.03703789 0.05807714 -0.1687495
0001c0 65 de cd 3a 46 b9 ca bc 6b dc bb bd e5 55 2b bd
       0.0015706538 -0.024746548 -0.09172901 -0.041829962
0001d0 05 3c 4b be 35 c8 fe 3d 60 17 94 bc 15 3f 91 3d
       -0.19847114 0.1244053 -0.018077552 0.0709211
0001e0 5d bb be 3c d5 47 8c be 58 d9 13 be 55 70 dd bd
       0.023282701 -0.27398553 -0.14438379 -0.10812441
0001f0 3e cb 42 bd 6c 9c 6a bc b4 a3 c5 3d b0 33 c8 3c
       -0.047557108 -0.01431952 0.096503645 0.024438709

net.6.weight f4 [121, 128]
000000 65 1a 41 3f 08 73 56 bf 6d 75 37 3e 29 67 81 3f
       0.754309 -0.83769274 0.17915888 1.0109607
000010 c5 d2 58 bf b1 13 97 bf fc 65 87 be c7 57 9a bf
       -0.8469661 -1.1802884 -0.26444995 -1.2058038
000020 04 29 8b 3f 0d 47 23 bf 46 6d c3 3f bc 6d b6 bf
       1.0871892 -0.6378029 1.5267723 -1.4252238
000030 33 b7 c3 be 58 65 a0 3f 45 bf b1 3f d3 0f c1 bf
       -0.38225707 1.2530928 1.3886496 -1.5082954
000040 2d e2 20 3f 5a 0c a7 bf 76 2d a0 3f 51 be c1 bf
       0.62845117 -1.3050644 1.2513874 -1.5136205
000050 4d 2e 83 3f 1e 7b 51 3f 50 80 ed 3e 66 a3 50 bf
       1.0248505 0.81828487 0.46386957 -0.81499326
000060 06 cc d1 bf 9e e5 6c 3f e3 c6 ed be dd f1 73 3f
       -1.6390388 0.9253787 -0.464408 0.9529093
000070 ef 37 84 3f 99 fb 65 bf 88 a6 9d bf a0 3c 3f 3f
       1.032957 -0.8983703 -1.2316446 0.7470188
000080 bc fb 7c 3f 51 cb 83 bf 89 bb c5 bf 26 18 84 be
       0.98821616 -1.0296422 -1.5447856 -0.25799674
000090 d6 ac 84 bf 7f a0 50 bf 48 93 89 3f a8 d2 92 bf
       -1.0365245 -0.814949 1.0748072 -1.1470537
0000a0 62 0e b2 bf 36 d9 99 bf 48 10 36 bf 62 87 9d 3f
       -1.3910639 -1.2019413 -0.71118593 1.230694
0000b0 ce 86 57 3f e2 6b 79 3f 7a d3 a1 3f 90 2b 2f bf
       0.8419007 0.9743024 1.2642663 -0.68425846
0000c0 da 77 95 3f 65 85 52 3f 72 59 ba 3f 03 4d 58 3f
       1.1677201 0.82234794 1.4558547 0.8449251
0000d0 0a 1b 85 3f f1 77 3a bf 97 44 45 bf dd d2 a2 3f
       1.0398877 -0.72839266 -0.77057785 1.27206
0000e0 e0 01 8e bf 86 b1 63 bf 3c fc c1 3f f1 08 8b 3f
       -1.1094322 -0.88942754 1.5155101 1.0862104
0000f0 f0 7b 6d 3f da 22 59 3f 9e 0c 3e 3f 09 b0 70 bf
       0.9276724 0.84818804 0.74238 -0.9401861
000100 09 95 bb 3f 90 10 19 bf 1a 62 8e 3f 85 f4 44 3f
       1.4654857 -0.597909 1.1123688 0.7693561
000110 d3 03 d7 bf bd 75 70 3f 3d 66 ee bf 24 83 90 bf
       -1.6798042 0.93929654 -1.8624951 -1.1290021
000120 a9 fd 7e 3f 12 e3 a3 bf 8e fe 80 3f 0b 66 99 3f
       0.99605805 -1.2803671 1.0077684 1.1984266
000130 ab 57 7b bf 1e aa 82 3f cd 50 9a 3f 1e 6e 81 bf
       -0.98180646 1.0208166 1.2055908 -1.011173
000140 44 35 8e 3f aa ce 33 3f dc 1a 79 3f ec ca d4 3e
       1.1110005 0.7023722 0.9730661 0.41561067
000150 b3 2f 01 3f 42 5e 8f bf 9e 1f 47 3f 95 26 af 3f
       0.5046341 -1.120064 0.7778262 1.3683649
000160 2a 23 7e 3f bc fd 61 3f cb d2 79 bf a5 21 62 bf
       0.99272406 0.8827779 -0.9758727 -0.8833259
000170 f1 48 80 bf f0 75 91 bf 0d 05 34 bf 01 50 49 3f
       -1.002226 -1.1364117 -0.70320207 0.786377
000180 f6 54 9e 3e 7f 9c bb be d8 58 7d 3f 2b c7 85 bf
       0.30924195 -0.36642835 0.9896369 -1.0451406
000190 3a 09 a0 bf 1a b4 2a bf 80 57 9a 3f 97 70 06 3f
       -1.2502816 -0.66681063 1.2057953 0.5251555
0001a0 eb 90 91 bf da ce d1 be 09 07 5f 3f f8 e1 90 3f
       -1.137235 -0.40978128 0.8712011 1.131896
0001b0 72 df 8b 3f 55 9e 86 3f 55 05 38 bf 98 13 f2 be
       1.0927565 1.0517069 -0.71883136 -0.47280574
0001c0 76 df 41 3f 8a a9 38 3f ca 98 3c bf e5 0b 14 3f
       0.757316 0.72133696 -0.7367064 0.5783065
0001d0 c1 0a 82 bf 60 4c 88 bf 8a 5b 6d bf 8a f8 8e bf
       -1.0159532 -1.0648308 -0.927178 -1.1169598
0001e0 88 dc 97 3f 94 da 89 bf 12 d8 bd bf 74 89 86 bf
       1.1864176 -1.076983 -1.4831564 -1.0510697
0001f0 3b 81 8c 3f a3 5a f9 3e 21 21 1e 3f 58 65 00 3f
       1.0976938 0.48701963 0.617693 0.5015464
000200 91 8f 8a 3f 8a b7 a8 bf ee a3 8c be 0a 85 0f 3f
       1.0825063 -1.3181012 -0.27468818 0.56062376
000210 ba f8 0f bf c6 41 8f bf 4e 73 66 be 53 b6 c0 bf
       -0.562389 -1.1191947 -0.22504923 -1.5055641
000220 e0 69 ae 3f d3 80 30 bf 5c e6 c2 3f e7 01 a3 bf
       1.362606 -0.6894657 1.522655 -1.2734956
000230 70 22 a2 be 95 35 7f 3f be 0e af 3f 64 38 9e bf
       -0.316669 0.99691135 1.3676374 -1.2360959
000240 da a6 a9 be 83 9a bf bf c7 ff a3 3f 5d fc 97 bf
       -0.3313511 -1.4969028 1.2812432 -1.187389
000250 9a 83 8e 3f d4 37 39 3f 73 e8 3e 3f ca d7 8d bf
       1.1133912 0.7235081 0.7457344 -1.1081479
000260 8b b0 c5 bf 6d 9b 83 3f 2f dd aa be 3a eb 85 3f
       -1.5444502 1.0281807 -0.33371875 1.046241
000270 93 ff 8e 3f 56 55 82 bf ed a1 8f bf 6c f3 29 3f
       1.1171745 -1.0182292 -1.1221291 0.6638706
000280 a4 13 96 3f 83 1b 82 bf ef 35 c0 bf 76 41 0b bf
       1.1724744 -1.0164646 -1.5016459 -0.5439676
000290 58 52 83 bf c9 d9 64 bf db b3 7b 3f 19 6b a1 bf
       -1.0259504 -0.89394814 0.9832131 -1.2610809
0002a0 45 c6 ab bf 50 2e b1 bf a0 63 8a bf 48 24 be 3f
       -1.3419882 -1.3842258 -1.0811653 1.4854822
0002b0 fe a9 60 3f 9e d3 26 3f fd ec a6 3f 17 49 66 bf
       0.8775939 0.6516665 1.3041073 -0.89955276
0002c0 06 a1 6f 3f 39 4b a2 3f 26 12 e8 3f d9 4c 71 3f
       0.9360508 1.2679206 1.8130538 0.94257885
0002d0 c1 55 e4 3f de 96 ed be 51 8e 33 bf 42 dc b0 3f
       1.783867 -0.46404165 -0.7013903 1.3817217
0002e0 8d 78 69 bf c6 fd 39 bf bb e5 af 3f 8b 61 fe 3e
       -0.9119957 -0.7265285 1.3741983 0.49683794
0002f0 9a 97 a6 3f 0d aa 8d 3f 80 41 1f 3f 95 5b 75 bf
       1.3015015 1.106752 0.6220932 -0.9584287
000300 31 ed a3 3f 19 6a 21 bf 11 a8 8b 3f 67 b0 12 3f
       1.280676 -0.6305252 1.0910665 0.5730042
000310 0c e0 98 bf cf 37 7e 3f 53 5e d7 bf a4 6b 9b bf
       -1.1943374 0.9930391 -1.682566 -1.2142224
000320 64 2d 4e 3f ac b7 ab bf 69 ae a8 3f fc c5 59 3f
       0.8053801 -1.3415427 1.3178226 0.85067725
000330 57 7c 94 bf 3b 4a 93 3f 4a 59 b4 3f f1 12 53 bf
       -1.1600446 1.1507028 1.4089749 -0.8245078
000340 19 c5 77 3f 06 e4 10 3f 83 48 9a 3f a9 76 d5 3e
       0.9678512 0.56597936 1.2053379 0.41692093
000350 8b 19 d0 3e 5a 51 0f bf 2d 54 44 3f 24 4b b0 3f
       0.40644488 -0.5598351 0.7669094 1.3772931
000360 f3 bc 2a 3f cf 06 b4 3f c5 b6 74 bf 62 0b 37 bf
       0.66694564 1.4064578 -0.95591384 -0.71501744
000370 76 4d 8e bf 9e 10 6f bf 6c 8c 4d bf 73 7a 17 3f
       -1.1117389 -0.9338473 -0.8029239 0.5917122
000380 a4 4f 8f 3e 79 2a 31 bf 2f dc 6e 3f d0 0b 97 bf
       0.27990448 -0.69205433 0.93304724 -1.180048
000390 04 44 9b bf 61 5b 41 bf b2 22 9c 3f 26 aa 04 3f
       -1.2130132 -0.7553006 1.2198088 0.51822126
0003a0 46 d7 c9 bf d7 ea 8b be 0d 03 99 3f c1 f1 93 3f
       -1.5768821 -0.27327606 1.1954056 1.1558152
0003b0 4b 2e 48 3f 1d 66 a7 3f 32 78 38 bf 85 9c 01 bf
       0.7819564 1.3078038 -0.72058403 -0.50629455
0003c0 d9 a9 a0 3f 40 f4 5b 3f 82 cf 82 bf 8c 00 b5 3f
       1.2551833 0.8591957 -1.0219576 1.4140792
0003d0 bc c8 70 bf d0 35 b3 bf 2f 2d 25 bf 27 9a 98 bf
       -0.94056296 -1.4000797 -0.6452207 -1.1922044
0003e0 34 2a ac 3f 51 c8 14 bf 12 bb 98 bf 61 d1 71 bf
       1.3450379 -0.5811816 -1.1932089 -0.9446011
0003f0 0b b0 88 3f 46 d3 e5 3e f0 1e 82 3f 98 e7 da 3e
       1.0678724 0.4488775 1.0165691 0.42754817

net.6.bias f4 [121]
000000 7b 33 66 3f 5b 0c ce 3e 1b a2 66 3e e6 85 9a 3f
       0.899223 0.402438 0.22522776 1.2072113
000010 d6 1a ed 3e f6 4d 70 3f 37 09 9d 3e c7 14 60 3f
       0.46309537 0.9386896 0.30671093 0.87531704
000020 dc 90 40 3f 1f f1 52 3f 5b e1 ad be 71 b5 00 3f
       0.7522104 0.8239917 -0.33960995 0.5027686
000030 67 38 5c 3f 34 94 da 3e 4c 54 88 3f 60 10 5c 3f
       0.86023563 0.42691195 1.0650725 0.85962486
000040 09 f2 38 3f 3e 91 4d 3f 6a 4f da bd 3e 1e 03 3f
       0.72244316 0.80299747 -0.10659678 0.5121802
000050 5d 7c 63 3e a0 dc 45 3f ad b6 8d 3f f6 74 08 3f
       0.2221541 0.7728977 1.1071373 0.5330347
000060 9b 31 eb 3e 0d 5c 0b 3f fa 93 b6 3f ee 2c 99 3f
       0.45936283 0.54437333 1.4263909 1.1966836
000070 f8 6d ec 3e fc ed 1b 3f 52 47 14 3f a5 fd 54 3f
       0.4617765 0.6091001 0.57921326 0.8319953
000080 44 a6 9e 3f 3d 9b 09 3f 87 67 f2 bc f0 9f 1c 3e
       1.239449 0.537525 -0.029590381 0.15295386
000090 5d 89 59 3e 5f 29 fb 3e 93 e5 2a 3f 9b 91 63 3f
       0.21243806 0.49055 0.6675655 0.8889405
0000a0 c8 c1 08 3f 36 77 84 3f 2c a2 e4 bc 20 75 6b 3f
       0.53420687 1.034888 -0.02790936 0.91975594
0000b0 60 83 71 3f f3 1a c7 3e b4 22 36 3f f1 56 69 3f
       0.9434109 0.38887748 0.711467 0.9114829
0000c0 75 6f a3 3e 66 06 4f 3f 06 f3 1d 3f 9a 04 5f 3d
       0.31920972 0.8086914 0.6169895 0.054447748
0000d0 4f 8d 10 3f 62 eb 06 3f 72 5e d9 3e 19 bc 6f 3f
       0.5646562 0.52702916 0.4245487 0.9364639
0000e0 79 c3 5b 3f 38 f8 ae 3e f3 71 4d 3f 20 87 91 3f
       0.8584514 0.3417375 0.80252 1.1369362
0000f0 7e bf 05 3f 22 d7 80 3f 5c bf 5e 3f c5 07 17 3f
       0.5224532 1.0065653 0.8701074 0.5899623
000100 b2 39 09 3d 54 10 8d 3f 69 97 3b 3f 0b 58 81 3f
       0.03350229 1.1020608 0.7327791 1.0104994
000110 83 aa c3 3e b8 2e 73 3e 94 36 0e 3f f7 ab fd 3e
       0.38216028 0.2374829 0.5555203 0.4954526
000120 ef 5c 22 3f 73 16 5a 3f 6e f3 5f 3f d2 f3 75 3f
       0.63423055 0.85190505 0.8748082 0.96075165
000130 33 29 d9 3e b7 1f 5c 3f 02 f0 0f 3f 52 08 12 3f
       0.42414245 0.85985893 0.562256 0.57043946
000140 60 40 8d 3f 59 46 42 3f 8c e7 dc 3e 10 bd e7 3e
       1.1035271 0.7588859 0.43145406 0.4526143
000150 ce 85 48 3f d5 e0 ce 3e c8 40 41 3e e1 94 38 3f
       0.7832917 0.40405908 0.18872368 0.7210217
000160 56 b5 f0 3e 20 fb 35 3f 1c c6 d8 3e d6 86 29 3f
       0.47013348 0.7108631 0.42338645 0.6622137
000170 34 24 07 3f e9 27 e9 3e c3 fd 44 3f 7b 2a 40 3f
       0.52789617 0.45538262 0.7694971 0.7506482
000180 95 6e cf 3e 61 a3 53 3f 2e 7f 1e 3f ee 64 1f 3f
       0.40514055 0.8267117 0.6191281 0.6226338
000190 6a 12 0e 3f 36 44 db 3e e3 0f cd 3e c8 42 ec 3e
       0.5549685 0.42825478 0.40051183 0.461447
0001a0 0e 53 2e 3f d1 12 37 3f 0d 81 13 3f 07 2a 12 3f
       0.6809548 0.71513087 0.5761879 0.5709538
0001b0 ed 15 0c 3f 61 68 36 3f 9a b6 33 3f e4 0f e6 3e
       0.54720956 0.7125302 0.702005 0.44934
0001c0 de 8f e2 3e 67 f7 60 3f c1 94 a9 3e 74 5d 80 3f
       0.44250387 0.87877506 0.33121303 1.002852
0001d0 b5 6c 1c 3f fc 8c 11 3f 59 75 1d 3f 75 6a f3 3e
       0.61103374 0.5685575 0.61507183 0.47542158
0001e0 bb 8f 45 3f
       0.7717244
