lunar_lander_continuous/models/DQN/layers_3/8_128_tanh_128_tanh_81/model.pth (torch, 114327 bytes, 6 tensors)

net.0.weight f4 [128, 8]
00000000: b4dd 623f 3969 92be 0ab6 77be 4580 2c3f
00000010: 5431 a640 1ff5 e23e 8dd7 263f 6811 aa3f
00000020: edb9 853e be0e f3be 5bc0 adbe ffcb 363f
00000030: f93b 7ebf 18b0 493f 47ec b4be ecb0 55c0
00000040: f6c6 0dbf 0282 4fbc b851 17bf 3533 1e40
00000050: 7520 d1bf d0e7 6fbe 6843 cf3f 3046 593f
00000060: 512c d7be b974 b1be 3043 edbe 60b0 ca3e
00000070: 408a ec3e 371e c6bf de86 8fbf bff7 89bf
00000080: 998f d4be fd07 573d c5c0 ecbe 4e5e 3ebe
00000090: da61 263f 4dce 633f 1c5e 9b3f 7c75 a83c
000000a0: d5b7 8a3e ac4b ee3d e0c6 dd3e 456b 81bf
000000b0: 62d0 d1be b09f 1cbf 580e 9e3f 2d2d b33e
000000c0: d7ad 08c0 c305 44be 8528 95bf 3acd 173f
000000d0: ae7c c6be 017e d9bf bb72 9dbe 0e5a f6be
000000e0: bc4a a6bc b3d4 f0bd cbd9 2b3f 05ba 50bf
000000f0: 3c91 93bf 042a cebf 5e40 16c0 9bce edbd
00000100: c37b 0940 6bef 06bf e712 813f 6464 84bf
00000110: 612c 6ebf 9542 98bf 906c 713f dfbc 6e3f
00000120: c4c8 c83e fd13 2dbe 10b4 7cbd 1e38 65bf
00000130: 50ab 5c3e 10f3 433f 5014 483f 3f67 1c40
00000140: 62a0 7cbf 3adc 98bc 5427 1b3f 2578 863f
00000150: 3d36 4dbf 92b3 eb3f 4065 613e 74e2 963f
00000160: 1947 653e 7c55 733e c924 0b3e a033 4cbf
00000170: 77d9 ffbe 938d 36c0 f277 8cbf 11ea cc3e
00000180: eb64 d3be b8a6 4d3f aa6a 223f 216a 203f
00000190: 38ef 13bf e26c b1bf 56bb 0dbf 6e90 debf
000001a0: 409a ee3d 4d13 06bf 69c5 3ebf 5bbc e93f
000001b0: dacb aebf 1e97 3e3f 9868 303f 3702 b3bf
000001c0: 5643 55bf 17e5 87be e71d 7cbf d1f7 58bf
000001d0: 665f ad3d 81b1 6d3f 838b a33f 779c cc3f
000001e0: 044f 43be abac 7ebe 05ed 123f a51c c23f
000001f0: e325 abbf cd1c b03f 65f3 c4be 874b e4bd
00000200: 74b7 98bf 39c1 d63d 8edf 813f 8d28 453f
00000210: 0f6e fdbd 498b 383e 21cc 36bf 64ac 613f
00000220: 0db0 6ebf e146 f83e 8116 51be bc79 1bbf
00000230: 43c0 fc3f 6bd7 95bf b31d 4b3f 5b8a 2f40
00000240: f3d9 8dbe 6b2e e1be 7e11 f33e 3edc 693e
00000250: 5101 463e e65f 2540 89a0 433f d9a9 c9bd
00000260: d52b 6bbf 2861 453f e10f bfbf 27ed 3fbf
00000270: 3069 18c0 86f7 8fbf 91d2 5c3f 64e4 15c0
00000280: d0b5 823f 7e42 60be 7d20 27be a264 2b3f
00000290: ec84 4d3d e7ae 8abf d481 1fbe b0b2 b23f
000002a0: 368e 473e 9e74 033e 0301 6fbd 853a d4be
000002b0: e07b ca40 109b d43e 8c66 07bf 25af bb3f
000002c0: 893e 35be 6bd0 37bf 844d d9bc 4ed7 42be
000002d0: f4bb f03e 6fab 903f d598 cebe f036 0440
000002e0: 27b7 c5bf c0f1 b3bd 7553 41bd e33e 8d3f
000002f0: 2bdf 0ec0 59f7 f73e 3b8e 3dbe f997 cd3f
00000300: 52c3 e6bd 425f 8dbd cb83 9ebf baae 2fbd
00000310: 9ff8 6b3f e6af 36bf d10c b4bf 2571 b23f
00000320: 45fc 66be da9a 053f b705 b4be 187a 3fbf
00000330: 0d1c 5b3f 29d4 48bf 0b9c 05c0 a3cb 0abe
00000340: 4b0c a6bf 2be2 fabd afca b1bf 88bb 86bf
00000350: 8f81 72be 7fdf 3040 f3b8 553f e980 0cbf
00000360: 372b 43bf 9c01 77be 88ed f83f de54 0bc0
00000370: caa3 89bf ec5d 6b3f b5a0 813f f802 a23f
00000380: 99d6 cebd 2b75 b7be 7238 173e 6aff 25bf
00000390: 4ca4 77bf 8333 cdbf af26 743f 4a7c 1840
000003a0: 8b91 8cbf 2680 2f40 203f f03e 2b10 43bf
000003b0: b460 80be 93d6 1c3e 779f 2c3f 4a40 a83e
000003c0: d285 8cbe 9e69 fcbe 6456 15bc 7c12 acbe
000003d0: 35f4 7bbe 8de7 75bf b7b0 423f 0bd2 993e
000003e0: 6c4e e4bd 6735 fa3e 2f9e 6d3e a633 fa3e
000003f0: c3e5 4040 da6b 85bf 7e06 eebe de9e 86bf
0.8861954 -0.28595904 -0.24190536 0.67383224 5.1935215 0.44327638 0.65172654 1.3286562
0.26118413 -0.47472185 -0.33935818 0.71405023 -0.9931026 0.7878432 -0.35336515 -3.3389235
-0.55381715 -0.012665274 -0.5910907 2.4718754 -1.633803 -0.23428273 1.6192446 0.8487272
-0.42025998 -0.34659365 -0.46340322 0.39587688 0.46199226 -1.5477971 -1.1213033 -1.0778731
-0.41515806 0.052497853 -0.4624082 -0.18590662 0.6499306 0.88986665 1.2138095 0.020563833
0.27093378 0.11635527 0.43315792 -1.0110861 -0.40979296 -0.61181164 1.2348127 0.34995404
-2.1356103 -0.19142823 -1.165299 0.59297526 -0.38766998 -1.6991578 -0.30751595 -0.4811558
-0.020299308 -0.11759319 0.671292 -0.81533843 -1.1528697 -1.6106572 -2.3476787 -0.116116725
2.1481788 -0.5270907 1.0083894 -1.0343137 -0.93036467 -1.1895319 0.9430628 0.93256944
0.39215672 -0.16902156 -0.06169516 -0.89538753 0.21549726 0.7654276 0.78155994 2.4438016
-0.98682225 -0.0186597 0.60606885 1.0505415 -0.80160886 1.8414176 0.2201128 1.1787858
0.22390403 0.23763078 0.13588251 -0.79766273 -0.499706 -2.852391 -1.0974104 0.40022328
-0.41287932 0.8033252 0.63444006 0.6266194 -0.57786894 -1.3861353 -0.55363977 -1.7387826
0.116505146 -0.523732 -0.74519974 1.8260607 -1.365596 0.74449337 0.689096 -1.3985051
-0.8330587 -0.2654197 -0.9848313 -0.8475314 0.084654614 0.92848974 1.2776951 1.5985249
-0.19073111 -0.24870555 0.57392913 1.5164992 -1.3370937 1.3758789 -0.38466945 -0.11147218
-1.1930985 0.10486073 1.0146348 0.77015 -0.12374508 0.18021883 -0.71405226 0.8815367
-0.9323738 0.48491576 -0.20418741 -0.60732627 1.9746174 -1.1706365 0.7934219 2.7428195
-0.27705345 -0.43980727 0.47474283 0.22837922 0.1933644 2.5839782 0.7641683 -0.09846849
-0.9186376 0.77101374 -1.4926721 -0.7497124 -2.3814201 -1.1247413 0.862588 -2.3420649
1.0211735 -0.21900365 -0.16320987 0.6695043 0.050175592 -1.0834626 -0.15576869 1.3960781
0.19487843 0.12837455 -0.058350574 -0.41450897 6.3276215 0.41524553 -0.5289085 1.4662825
-0.17699637 -0.71802396 -0.02652622 -0.19027445 0.47018397 1.1302317 -0.40350977 2.065853
-1.5446519 -0.087863445 -0.04719873 1.1034817 -2.232371 0.484309 -0.18511288 1.6062003
-0.11267723 -0.069029346 -1.238397 -0.04289124 0.9217624 -0.7136215 -1.4066411 1.3940779
-0.2255717 0.5218941 -0.3516061 -0.74795675 0.8558968 -0.7844873 -2.087649 -0.13554244
-1.2972502 -0.12250169 -1.3889979 -1.052598 -0.23682235 2.763641 0.83485335 -0.548842
-0.76237816 -0.24121708 1.9447489 -2.177055 -1.075311 0.9194019 1.0127169 1.2657156
-0.10099525 -0.3583158 0.14767626 -0.64842856 -0.9673507 -1.6031345 0.95371526 2.382586
-1.0981916 2.7421966 0.4692316 -0.76196545 -0.2507378 0.15316229 0.67430824 0.3286155
-0.27445847 -0.4929933 -0.009114835 -0.33607852 -0.24604876 -0.96056443 0.76050895 0.30043063
-0.1114777 0.48868868 0.23204874 0.4886753 3.0140235 -1.0423539 -0.46489328 -1.0517232

net.0.bias f4 [128]
00000000: 599e abbe b5e5 47bf c0ca 49be f829 603e
00000010: 1040 593f 6dbf 3a3f fb3c 813e 59c2 12bf
00000020: d8c5 2fbe d828 623e 56c3 873c a831 38bf
00000030: bb5a 7e3f 5a0d 29bf 2eb5 e7bd 6161 cbbe
00000040: 526d f5be fb5e f5be 209f 38be fe2a 03bf
00000050: 1474 3e3e 59d3 ec3e 60f9 f4be 96ed d5be
00000060: 7fc5 be3e 404f 19bf 12cc 0d3f cdf8 303f
00000070: 0cb9 513e d462 8d3e 08c8 5abf 81a3 253f
00000080: 87fa 2d3e 8e60 abbe d5cf 1d3f 31d8 d33e
00000090: 1179 403f 8aee 7e3e d612 22bf bfca e33e
000000a0: 8edf a63e b398 f43d 9e39 c1be d66a d33e
000000b0: 96a9 ebbe bdc9 083f 74f9 4dbf ea3f 46be
000000c0: 1b43 3e3e 8a4c 2d3f 26b7 21be 9bc9 dd3e
000000d0: d62c fabd b337 e13c 731a 423f 14bf 67be
000000e0: f02a a1bd 4485 923e 095c 61bf 9504 ecbd
000000f0: afeb 113f f8ef 96be 4bf4 193f d684 cdbe
00000100: 6dbe 05bf f56d 8dbf 51c3 353d 7e0b ccbe
00000110: e8a3 efbd 9aaa 13be 6435 963e 5a12 cc3d
00000120: 426e 633e d4b9 a5be 6d13 423e 8f97 25bf
00000130: 9698 533e 7a4d 163f 14bf 20bf 7b74 3ebf
00000140: 7867 873d 9240 f4be de54 833e e808 f6be
00000150: 17d7 cf3e 7141 ac3e faa5 4f3f 0440 d03e
00000160: a96d 0f3f 2562 6cbf 2c5b cfbe 51b9 433f
00000170: e348 eebd 4218 0dbf 3a3b 37be eaf0 153f
00000180: a937 2d3f 5dc1 cf3e c209 b73e c139 32be
00000190: 78f8 05bf 285e 5b3f 7b25 4ebf 92c5 08bf
000001a0: 7540 7d3e ed52 16bf b76f bcbc a690 c43e
000001b0: 2f8d 863e 0714 3bbe 915d 06bf 16ec 643e
000001c0: d381 aebe 9618 603e 1d1c 383f 4921 3bbf
000001d0: c5cf de3e 6f83 2bbc aaa6 aabe e661 39bf
000001e0: 5b02 8abe 2c88 2ebf e2d3 bebe 4828 15be
000001f0: 0a83 96bf e2f3 cb3e 1379 60be e59e 1bbf
-0.33519247 -0.7808488 -0.19706249 0.2189101 0.84863377 0.7294834 0.25241837 -0.573278
-0.17165315 0.22085893 0.016572636 -0.7195077 0.99357194 -0.66036 -0.11313854 -0.39722732
-0.47934967 -0.47924027 -0.18029451 -0.51237476 0.18598968 0.46254995 -0.47846508 -0.41782826
0.37260053 -0.5988655 0.5538951 0.6912964 0.20480746 0.27614462 -0.85461473 0.6470261
0.169901 -0.33472103 0.6164525 0.41375878 0.7518473 0.24895683 -0.6330999 0.4449062
0.32592434 0.119431876 -0.3773927 0.41292447 -0.4602782 0.5343283 -0.8045876 -0.19360319
0.18580286 0.67694914 -0.15792522 0.43317875 -0.12215583 0.02749238 0.7582161 -0.22631484
-0.07869518 0.286173 -0.8803106 -0.115243115 0.5700025 -0.29479957 0.60138386 -0.40140408
-0.5224369 -1.1049181 0.04437572 -0.39852518 -0.117011845 -0.14420548 0.2933761 0.09964438
0.22210029 -0.32368338 0.18952723 -0.64684385 0.20663676 0.5871197 -0.6279156 -0.74396485
0.06611532 -0.47705513 0.25650686 -0.4805367 0.40593788 0.33643678 0.81112635 0.4067384
0.56026703 -0.92337257 -0.40499246 0.76454645 -0.11634996 -0.5511514 -0.17893687 0.5857073
0.67663056 0.40577212 0.35749632 -0.17404844 -0.5233226 0.85690546 -0.8052594 -0.5342647
0.2473162 -0.58720285 -0.023002489 0.38391608 0.2627959 -0.18269359 -0.5248652 0.22355685
-0.34083423 0.21884379 0.719179 -0.73097664 0.4351789 -0.010468348 -0.3333028 -0.72415006
-0.26954922 -0.6817653 -0.3727103 -0.14566147 -1.175874 0.39834505 -0.21921186 -0.6078933

net.2.weight f4 [128, 128]
00000000: 43a4 69bd 711f b1bc a732 373e 0592 083e
00000010: 1a70 afbc fa72 833c cf99 593e 5e84 3c3e
00000020: c66f cd3e 49e2 8cbd 5494 b83e 4a7e bc3d
00000030: 08b6 483e 2328 573c fa2a d33e 5859 873d
00000040: f7ff e4be b690 25bb 0b8f 06bf 6f7c 873e
00000050: 4526 423a 3107 25be 6aef 83be f206 983e
00000060: a151 d83e f8ba 873d 9631 9c3e 5614 1bbf
00000070: 878d 623d cf59 10be ff97 0bbe 5f81 debe
00000080: 6f9d 83be 4364 9fbe d8fc 9e3e c9f0 283f
00000090: 2562 a5be baf0 7bbd df8f 8f3e 1018 24be
000000a0: 63c2 0f3f 86e2 19bd 6217 2fbe c522 373d
000000b0: f44a 143f 29f1 b2be aa2a 2ebf fdd1 a53e
000000c0: 0b3d be3e 15a9 b63c 0282 5abe 5519 0d3f
000000d0: a4ee 0abe f403 cdbe b2fd aa3d 62ab ecbe
000000e0: 9cb1 32be 7f3a d73e c488 a23c b5c9 663e
000000f0: 0eb9 c6bd fe00 f43e c849 91bc 9cd5 d839
00000100: 0668 803d b8d0 f1be 5b67 a9be 2338 adbd
00000110: 80aa 22bf 358d fa3d d300 563d 93e3 abbe
00000120: dc37 813d 7e16 35be 4c13 473f 9c17 993f
00000130: 3d29 bebe 9777 0e3e b450 123d 7fef 0ebe
00000140: d02d d63e a845 443f 2883 67bd 3381 0dbf
00000150: 800b ae3e 8d48 523e b528 073e f0b7 1e3f
00000160: b8cb f0bd 4340 013e 464f 00be f113 ac3e
00000170: c151 153e adbc 4fbd c28e 163d 9111 aabb
00000180: 005b 0d3f 99a0 39bf f08a 413d 6eb4 ea3c
00000190: 79e8 e43d 1120 383e c8dc 3b3f 75d1 dabd
000001a0: 61ca f53c 512b 08bf 8d43 04be 2f8a 183e
000001b0: d80c 55be 4125 8f3d afea b5bd cce9 8fbc
000001c0: 4396 51be 3fc5 8abd a026 49bf 43ed 3fbe
000001d0: 2892 413d ad64 53be 6d36 52be 73ad 7dbc
000001e0: c9ea dfbd b3e9 29bf be70 143e 9b39 0cbf
000001f0: 5969 f8bd daf2 f53e bbf1 02bf 9ca7 09bf
00000200: 7e13 85be 1714 6e3d d90d 933c cff2 9a3e
00000210: 9fae 213d 39da 863e 29d2 103e 1451 503d
00000220: a81d 42be af20 0d3f 75b9 4a3f 9443 9dbe
00000230: 0a7c 4a3f 2dd7 39be 6c70 25be 56a1 023e
00000240: c99a 8e3e 8eb4 82be 7f73 3dbd eba0 24bf
00000250: 11a0 97bd 3db7 9ebe 27ee 213e e970 9b3f
00000260: 07d9 063f 817c 0a3e 5d84 5cbd f93d 403f
00000270: f9ba b2bd 6c71 16be 128c 01bf bed9 3f3e
00000280: e547 1fbf 358a f5be bf80 523f 6649 bebe
00000290: b672 583f 2489 e53d 0dee 853e 265f acbd
000002a0: a638 1ebe 28bf 0d3f be9a 08be 1225 bcbd
000002b0: b8b9 ac3c f667 a93e efac 23be 5855 8b3f
000002c0: 0fe1 933e e25b 29be e004 0abe 6a5c 1f3e
000002d0: 92aa db3d d546 923e 3b6d 363e 69c1 fcbc
000002e0: 3124 c33e 6f13 e5bd 4c5f f9be a738 103f
000002f0: 9378 273f e00c abbe 5f1c fd3d fba3 0f3d
00000300: da8f 88bd 131f a4be dd1e b5be 5e71 a1be
00000310: 8853 33bd f36d 04bf 47af 6fbe 2fcc b7bc
00000320: 94dc 74bf 852f aabe 99ea 6b3d dae6 c53e
00000330: c8bb d1be 4d24 213f 02db 243d 7743 1fbe
00000340: a4d4 9b3e 5935 213f 2ed4 123e d90a 24be
00000350: 6723 8e3e cc4f 2a3f e1a7 853d 4ca1 96be
00000360: 148c d1bc c50b a6bd c802 67bc 1320 f63e
00000370: 964d cb3d 06c2 5ebf 5382 263f e62f ac3d
00000380: 4b3b ee3e 2583 a33c 6f2a e5bd a8b1 7cbe
00000390: 5b07 c6be 5a6a da3e bb6b 4c3e eac5 f43e
000003a0: a43c 36bf 5247 1d3f e4c9 b0bd b293 bd3d
000003b0: ac48 203f 09e4 b7be a5f0 afbf 7871 263e
000003c0: 96b4 0c3f 6303 2d3e afbb 503f 7fb4 acbd
000003d0: d917 533c 32a9 15be f7c1 92bd 1b04 3fbe
000003e0: 0aba 713d f1ad 563e 5a72 b73d 866f 3cbf
000003f0: 4753 28bf 7d95 953e 84bc 963e bf98 cfbc
-0.057041418 -0.021621438 0.17890416 0.13336952 -0.021415759 0.016046036 0.2125008 0.18409869
0.4012434 -0.06879098 0.36050665 0.09203775 0.1960069 0.013132128 0.41243726 0.06608838
-0.44726536 -0.0025263256 -0.52562016 0.26462123 0.00074062153 -0.16116025 -0.25768596 0.296928
0.42249778 0.06627458 0.3050658 -0.60577905 0.055310752 -0.1409676 -0.136322 -0.43458077
-0.2570605 -0.3113118 0.3105228 0.6599241 -0.3230144 -0.06150887 0.28039452 -0.16024804
0.56155986 -0.037569545 -0.17098764 0.044710893 0.5792687 -0.34949616 -0.6803385 0.3238677
0.37155947 0.022297421 -0.21338657 0.5511678 -0.13567597 -0.40042078 0.0834917 -0.46224505
-0.17450565 0.42036816 0.019840606 0.22537883 -0.09703265 0.47657007 -0.017735377 0.00041357882
0.06269841 -0.47229552 -0.33086666 -0.08457973 -0.6354141 0.12233964 0.05224688 -0.33572063
0.063094825 -0.17684361 0.7776382 1.196033 -0.37140837 0.13912807 0.035721496 -0.13958548
0.41831827 0.76668787 -0.056521565 -0.5527527 0.3399315 0.20535488 0.13199122 0.61999416
-0.11757606 0.1262217 -0.1253024 0.33608964 0.14581968 -0.050717045 0.03675724 -0.0051900824
0.5521698 -0.7251068 0.04725164 0.028650489 0.11177153 0.17980982 0.7338376 -0.10684482
0.030003728 -0.53191096 -0.12916394 0.14896463 -0.20805681 0.069895275 -0.08882653 -0.017567538
-0.20467477 -0.06775903 -0.7857456 -0.18742852 0.047258526 -0.20643874 -0.20528574 -0.015483248
-0.109334536 -0.6637222 0.14496133 -0.547754 -0.121294685 0.48036844 -0.511501 -0.53771377
-0.25991434 0.058124628 0.017950939 0.30263373 0.039473172 0.26338366 0.1414267 0.050858572
-0.18956625 0.55127996 0.79189235 -0.3071562 0.7909552 -0.1814849 -0.16156167 0.12756857
0.27852467 -0.25528377 -0.046252724 -0.6430804 -0.07403577 -0.30999175 0.15813504 1.2143832
0.5267491 0.13524057 -0.05383717 0.7509456 -0.087270685 -0.14691705 -0.50604355 0.18735406
-0.6221908 -0.47957006 0.822277 -0.37165374 0.84550035 0.11207798 0.2615818 -0.084165856
-0.15451297 0.55369806 -0.1334028 -0.09186758 0.021084651 0.33087128 -0.15983938 1.088542
0.28882644 -0.16538957 -0.13478422 0.15562597 0.10725893 0.28569666 0.17815106 -0.030853944
0.3811355 -0.11185347 -0.48705518 0.56336445 0.65418357 -0.3340826 0.12358927 0.035068493
-0.066680625 -0.32054958 -0.3537511 -0.31531805 -0.043780833 -0.5173027 -0.23406707 -0.02243623
-0.95649076 -0.3323938 0.057596777 0.38652688 -0.40963578 0.62946016 0.040247925 -0.1555308
0.3043567 0.6297203 0.14338753 -0.16019763 0.27761385 0.6652801 0.06526161 -0.29419935
-0.02557949 -0.081077136 -0.014099784 0.48071346 0.09926908 -0.87014806 0.6504261 0.084075734
0.46529612 0.019959996 -0.11189734 -0.24677145 -0.38677487 0.42659265 0.19962971 0.47807246
-0.7118628 0.6143695 -0.086322576 0.09256686 0.6261089 -0.35916165 -1.3745314 0.16254222
0.5496305 0.16895823 0.8153638 -0.084328644 0.012884104 -0.14615324 -0.07165902 -0.1865391
0.05901531 0.20964791 0.08957358 -0.7360767 -0.6575207 0.29215613 0.294407 -0.02534139

net.2.bias f4 [128]
00000000: 5b2f 8e3e c76b 763e 47d5 cdbe ec8f 8f3d
00000010: d5e9 e9bd 95f0 2cbd 0487 9cbe 63bd 4abd
00000020: 0c51 1f3c 2d77 19be dac7 6b3e d7aa 8ebd
00000030: ae11 b3bd a3fb 663d f34a 33bd b113 1b3e
00000040: 568b ea3d 389a 8bbe 8ad5 5bbd 5bfb 07bc
00000050: f371 b9bc 8a3e ba3e 1bc6 5d3e 7d75 f63d
00000060: c234 b53e a194 d53e 71b3 543e f793 39be
00000070: 7f31 643e 403a 8ebe b851 77be 2bc8 15bd
00000080: 05b4 0abe 96f7 50be 18d2 c13e 0634 8e3e
00000090: 12b0 1cbe 54b9 8abe 7e63 3bbe 6dcb e43c
000000a0: 3a70 1cbd d4c6 703e 93b0 af3e e283 053e
000000b0: d245 323e d7d9 46be 285d 4a3e e634 aabe
000000c0: 1fb8 933e b9db 833e bb04 643c 62a9 163f
000000d0: 9a31 0dbd d3f3 c83e 82b7 553e e74d 7d3d
000000e0: 9f5b 4ebd 5825 873d 10d9 9f3e eda2 8e3e
000000f0: 53f2 093f df9b ff3e f487 debd 8522 ad3e
00000100: f808 80bd 6272 b8bd b111 eb3d 21fc 28be
00000110: f423 6c3e 49cb d1be b700 3d3e 971a c23d
00000120: b1f7 623e 66ff aebe 9c73 0f3f 8b48 17bf
00000130: 647b 9d3c bae3 52bd 1181 e73e 75f1 71be
00000140: 0805 96be 6247 74be 0cec 67b9 dd48 263e
00000150: c935 07be d5ff 103e 4050 1c3e 3371 45bb
00000160: 90ae aabe a542 86be 292a 80be c637 a6bd
00000170: 1b56 193d dd83 b33d e5e8 43bf a208 00be
00000180: 2085 913e 337d 29bf 4d92 453e 3514 36be
00000190: 88b8 5e3d 4800 1b3e 7531 aa3e 8316 6fbd
000001a0: 318e 52bd 86c9 9bbd f68a 2f3e e7fb d2be
000001b0: 4a79 ecbd bf16 62be 0d97 6fbe a709 823e
000001c0: 0364 56be 4b0f 8fbe 268f cabb c483 9d3e
000001d0: 39a9 253e d936 96be b76e ee3e 20d8 95be
000001e0: 7d6c eebe 11b9 f6bc 5c95 9bbe 4b53 9cbd
000001f0: 5848 25be 3c42 d0be 7282 673e 95d7 393e
0.27770504 0.24064551 -0.4020178 0.07009873 -0.11421553 -0.042221624 -0.3057176 -0.04949702
0.009723913 -0.14986868 0.23025456 -0.06966179 -0.087436065 0.056392323 -0.04377265 0.1514423
0.114523575 -0.27266097 -0.053670444 -0.008299674 -0.022637343 0.3637584 0.21657602 0.12034128
0.35391814 0.41714957 0.20771576 -0.1812285 0.22284506 -0.27778816 -0.24152267 -0.03656785
-0.13545235 -0.20406947 0.378556 0.27774066 -0.1530154 -0.2709452 -0.18299672 0.027929032
-0.038192965 0.23513347 0.34314403 0.1303859 0.17409447 -0.19419037 0.19762099 -0.33243483
0.2885141 0.25753573 0.013917143 0.5885221 -0.03447113 0.39248523 0.20870784 0.06184187
-0.050380345 0.0659892 0.31220293 0.27858678 0.5388538 0.49923608 -0.10865775 0.338154
-0.06251711 -0.09006192 0.11477984 -0.1650243 0.2306059 -0.40975407 0.18457304 0.09477728
0.221648 -0.3417923 0.5603578 -0.59095067 0.019223876 -0.05148671 0.45215657 -0.23627265
-0.29300714 -0.23855355 -0.00022117811 0.16238733 -0.13204111 0.14160092 0.15264988 -0.0030127286
-0.33336306 -0.2622272 -0.25032166 -0.08116107 0.037435632 0.08765385 -0.76527244 -0.12503293
0.2842188 -0.66206664 0.1929409 -0.17781146 0.0543752 0.15136826 0.33240858 -0.05837108
-0.051405136 -0.07606797 0.17142853 -0.4120781 -0.115465716 -0.2207899 -0.23397465 0.2539799
-0.20936589 -0.27941355 -0.0061816154 0.30764592 0.16177835 -0.2933872 0.46568844 -0.29266453
-0.46567145 -0.030117543 -0.3038739 -0.076330744 -0.16140878 -0.40675533 0.22608355 0.18148644

net.4.weight f4 [81, 128]
00000000: 0543 4a3f 250e 873f 4172 803e 79ae 97be
00000010: 5d19 85bf 0f1c b93f 1d09 53bf b0b6 df3e
00000020: 5251 433f 7c2d fd3f 3ace 633f 6b29 8f3f
00000030: 5af7 2d3f 6845 b8bf 7c31 bf3f 180f f5bf
00000040: bae0 dabf 2c15 493f 58a1 9d3f 622f d9be
00000050: 7231 f4bf 7c16 513f cb53 2abe 3b5d f2be
00000060: ca3d d1bf ab67 6b3f 4e5a a83f b113 11bf
00000070: 74ac bbbf 7a62 9d3f 06cf a63f 0f89 e03f
00000080: 5997 fc3f efec cc3f bb8a b83f 5817 ad3f
00000090: f257 a73f 7851 d33e 5075 8ebf b90e a73f
000000a0: 8bf7 643f 3a53 a93f 443e 15bf 173f 193f
000000b0: 18f7 9dbf c207 96bf d67e dc3f bd8b 7dbf
000000c0: 5049 8fbe 771a 803f 732a d6be dcd3 bfbf
000000d0: d14a c6bf c61e ccbf f2e7 b5bf 8d6c d5bf
000000e0: 4694 5cbf e997 cfbf 5aad 9ebf 03eb bbbf
000000f0: 8845 a9bf c610 c2bf b7f1 b13e 15bc b8bf
00000100: a107 c0bf ad8a 853f 7d38 b63f d22d a2bf
00000110: f441 163f 25cc 98bf 3719 a7bf 7f5e 1b3f
00000120: 02e4 7dbf 21e4 ae3c fa9d 0a3f 8e0e ea3f
00000130: de4a 45bf 6209 89bf db3b dbbc 1c73 1d3e
00000140: 37e2 3b3e 2cd6 b13f 44b3 283f a1ad 5a3f
00000150: 287f 653e 02ed c7bf ec99 853d 5e5a d1bf
00000160: 3c92 f63f 4a90 cdbf c967 d8bf 3b41 ff3f
00000170: 348e ae3f 438c b0bf 024f 953f 1dda 9f3f
00000180: da7b d8bf 185a d63e 0025 0ac0 83ee 0440
00000190: 9e9c b73f 174a d6bf 623b 33bf 63e8 8abf
000001a0: 0c21 bc3f 0b20 a0bf dede ecbd 088e 8fbf
000001b0: c078 603e 8a7a 98bf d858 743e 012d 583f
000001c0: 8834 ba3f e161 ae3f 819b 623f 45ec f3bf
000001d0: b2d1 43bf af3a 86bf e5a4 3a3f 84ee b73f
000001e0: 5eb8 ab3f 6410 c0bf b3b0 91bf 952a dcbf
000001f0: 950a 913f 3ead 9b3f 3295 563f 0c0c e13e
00000200: 06f3 563f bc30 aa3f 7b33 b73d 26cf 9abe
00000210: 1542 8fbf 9462 993f d7dc 66bf 5fee f43e
00000220: e688 463f 2e73 f23f 0346 763f 1fb0 993f
00000230: f579 643f ca78 bcbf cd02 c13f 477c e3bf
00000240: ffd5 b7bf 38f0 473f a76e 583f 5202 cdbe
00000250: f512 c7bf 8abb 833f 4d7e 22bf 764f 1ebe
00000260: dc7f c2bf 1a72 7e3f e906 913f 4e79 b2be
00000270: 2b15 b5bf a4d6 ae3f 7fc2 c53f 172a e03f
00000280: f6fa f43f 6d95 bd3f 817a c33f 57f4 803f
00000290: 94d8 e43f 0f8b 803c ad1e aebf 1fdb 693f
000002a0: 4b55 7c3f 36ee 8a3f bfaa 37bf d553 b23e
000002b0: dd83 96bf 7ff5 a8bf f4d3 d33f d1b2 96bf
000002c0: ffef 8cbc fb3b 023f 5712 90be 9e64 d3bf
000002d0: eef9 d7bf 7d11 b5bf 3d0e afbf 0365 bfbf
000002e0: 9a9c 22bf 385f d1bf fbaa 8cbf ae28 d5bf
000002f0: edbd f1bf 6a34 e3bf 9b59 6e3e ac1e c0bf
00000300: 8b0c aebf 5cbe 373f 16b4 b23f c9a2 8bbf
00000310: 12b4 223f e608 78bf 9705 a3bf 2024 e73e
00000320: d8bd a6bf 31fc ba3d 2388 833f 94fc de3f
00000330: a856 2bbf 14c2 e5be ee20 06bf 981e 7a3e
00000340: 87e8 a1be fae8 9a3f a344 1e3f b4e4 803f
00000350: 5fd7 e23e c09a d8bf d07f 21be 8b73 e2bf
00000360: a329 d33f d1f9 81bf 6155 c6bf 988d ee3f
00000370: e7e8 983f 958f 9ebf 60d6 b43f ce6e aa3f
00000380: 1912 cabf aab9 8f3f add2 d4bf 1a03 f73f
00000390: bfa7 953f a7e2 edbf b7d6 b7bf 258f 89bf
000003a0: 311e c73f 8216 8dbf 550f 5dbe c6f4 7ebf
000003b0: c0ec 423e 836d 9dbf 2b67 433e 4ed2 633f
000003c0: b0fb a43f 62c8 f83f ea1c 5c3f 2eaa f0bf
000003d0: 2740 b3bf 3f46 6fbf 6ffd 743f c4e5 c83f
000003e0: 21cf b63f c4fe d6bf d443 94bf a7e6 eebf
000003f0: c368 913f e4f1 c93f a6e0 de3e 526f 77bc
0.79008514 1.0551192 0.2508717 -0.296253 -1.0398365 1.4461688 -0.8243578 0.43694067
0.7629596 1.9779506 0.8898655 1.1184515 0.67955554 -1.4396181 1.4936976 -1.9145231
-1.7099831 0.7854793 1.2314863 -0.42418963 -1.907759 0.81674933 -0.16633527 -0.47336754
-1.6346982 0.9195506 1.3152559 -0.5667067 -1.4662004 1.2295678 1.3031929 1.7541827
1.9733688 1.6009806 1.4417337 1.3522749 1.3073714 0.41273093 -1.1129551 1.3051368
0.8944022 1.3228524 -0.58298135 0.5986189 -1.2341032 -1.1721117 1.7226207 -0.9904135
-0.2798562 1.0008076 -0.4182926 -1.4986529 -1.5491582 -1.5946891 -1.4211409 -1.6673752
-0.8616375 -1.6218234 -1.2396653 -1.4681095 -1.3224344 -1.5161369 0.34754726 -1.4432398
-1.5002328 1.0432945 1.4235989 -1.2670233 0.58694386 -1.19373 -1.305457 0.60691065
-0.9917604 0.021349015 0.54147303 1.8285692 -0.77067363 -1.0705988 -0.02676194 0.15375942
0.18348013 1.3893485 0.6589854 0.85421187 0.22411788 -1.5619204 0.06523499 -1.6355703
1.9263377 -1.6059659 -1.6906673 1.9941782 1.3637147 -1.3792804 1.1664736 1.2488438
-1.6912796 0.4186561 -2.1585083 2.0770576 1.4344671 -1.674136 -0.70012486 -1.0852169
1.4697585 -1.2509779 -0.11565946 -1.121522 0.21921062 -1.1912396 0.23862016 0.8444367
1.4547281 1.362362 0.8851853 -1.9056479 -0.76491845 -1.0486659 0.7290786 1.4369664
1.3415639 -1.5005002 -1.1382049 -1.7200495 1.1331354 1.2162244 0.83821404 0.43954504
0.83964574 1.3296123 0.08945366 -0.30236167 -1.1192042 1.1983209 -0.90180725 0.47838113
0.7755264 1.89414 0.9620058 1.2006873 0.8924859 -1.4724362 1.507898 -1.7772301
-1.4362181 0.7810092 0.8454384 -0.40040833 -1.555266 1.0291607 -0.6347397 -0.1546
-1.519527 0.99392855 1.1330234 -0.34858173 -1.4147085 1.3659253 1.544998 1.7512845
1.9139087 1.4811226 1.527176 1.0074567 1.7878594 0.015691308 -1.3603112 0.9134998
0.98567647 1.0853946 -0.7174491 0.34829584 -1.1758991 -1.319992 1.6549058 -1.177332
-0.017204283 0.5087277 -0.28138992 -1.6515081 -1.6873147 -1.4145962 -1.367622 -1.4952701
-0.63520205 -1.6357183 -1.0989679 -1.665304 -1.8886086 -1.775037 0.2327637 -1.500936
-1.3597578 0.7177484 1.3961208 -1.0909053 0.63556015 -0.9688858 -1.2736081 0.4514475
-1.3026686 0.09130133 1.0275921 1.7420831 -0.669291 -0.44874632 -0.52393997 0.24425733
-0.31622717 1.2102349 0.6182348 1.0069795 0.4430494 -1.6922226 -0.15771413 -1.7691511
1.6497082 -1.0154363 -1.5494806 1.8636961 1.1946076 -1.2387568 1.4127922 1.3315065
-1.5786773 1.1228535 -1.6626793 1.9297822 1.1691817 -1.8584794 -1.4362401 -1.0746809
1.5556089 -1.1022494 -0.2158788 -0.99592245 0.19035625 -1.2299045 0.19082324 0.88992774
1.2889309 1.9436152 0.8598162 -1.8801935 -1.4003953 -0.9346656 0.9569921 1.5695119
1.4281961 -1.6796498 -1.15832 -1.866414 1.1360096 1.5776944 0.43530768 -0.015102224

net.4.bias f4 [81]
00000000: 3978 8e3f b19a 843f 3c5a 3b3f 3fee 3e3f
00000010: e114 913f fce7 8f3e 7794 d33e 3b61 3c3f
00000020: b886 9e3e a0fe 5c3f af34 173f 8b3d 7b3f
00000030: 228d 903f e713 243f 457b b63e d5cc dd3e
00000040: 8113 0d3f 931d 1c3f f62f 693f 9b8e 1b3f
00000050: 306d 5b3e f083 9e3f 8555 9b3f f9f0 d13d
00000060: e16b 7f3f c7ac 043e 1ca5 043f cd44 a83f
00000070: 052c 833f 105f 213f d7bc 64bc ffab 053f
00000080: 2ff5 673f c0be b33e 652f 4a3f cdfa bd3e
00000090: 7e0d ae3f 9e24 453f c02b 393f bcf5 093f
000000a0: e7b5 2d3f 63f8 403f c216 923f 067a 5c3f
000000b0: 1276 593f b4ba 743f 34d7 023f 620f bc3e
000000c0: 00a5 f73e a176 a43d 65ec ce3e bcae 813f
000000d0: d70d 083f d806 c73e 5797 133f 1796 e83e
000000e0: 7f30 a93e a4d5 ce3e a344 ac3e 2094 b23e
000000f0: 7c37 483f 9b4d 0c3f e929 213f b85c 6c3f
00000100: 4da2 423e f6a0 973e 1a6c 623e a6ef 853e
00000110: 629a 05be 47fe 153f 306f 9d3e 9b54 5abc
00000120: b2b6 473f 9ff3 b03e cf5c 623f a068 4b3f
00000130: df69 4c3d 28dc a23e 10fd 153f 1292 313f
00000140: cf89 353f
1.1130439 1.0359708 0.7318456 0.74582285 1.1334497 0.28106678 0.41324207 0.7358586
0.30962157 0.86326027 0.59064764 0.9814078 1.129307 0.6409287 0.35640922 0.43320337
0.55107886 0.60982627 0.9108881 0.60764474 0.2142837 1.2384014 1.2135473 0.1025104
0.99773985 0.12956534 0.51814437 1.3145996 1.0247809 0.6303568 -0.013961039 0.5221557
0.90608495 0.35106468 0.7897857 0.37105408 1.3597867 0.77009 0.7233238 0.53890586
0.67855686 0.7537901 1.1413195 0.86123693 0.84945786 0.95597386 0.51109624 0.36730486
0.48368073 0.08030439 0.4041473 1.013145 0.5314612 0.3887241 0.576528 0.4542701
0.33044812 0.4039737 0.33646116 0.34878635 0.7820966 0.54805917 0.62954575 0.9232898
0.19007225 0.2961499 0.2211155 0.261594 -0.13047174 0.5859112 0.30748892 -0.013325836
0.78013146 0.34560868 0.88422865 0.7945652 0.049905654 0.3180859 0.5858927 0.6936351
0.70913404
