lunar_lander_continuous/models/DQN/layers_2/8_128_tanh_49/model.pth (torch, 31391 bytes, 4 tensors)

net.0.weight f4 [128, 8]
0	0x3ee4f115	0.4471518
1	0xc01e13e5	-2.4699643
2	0x3fb88305	1.4414984
3	0xc0360ff6	-2.8447242
4	0xbeca399a	-0.39497072
5	0xc031eea2	-2.78019
6	0x40800e57	4.0017505
7	0x3e5a4f10	0.21319222
8	0x3fb89541	1.4420549
9	0x4084c27f	4.148742
10	0x3fcf9a7f	1.6219023
11	0x408bf1a9	4.3732495
12	0xc04d406e	-3.2070575
13	0xbfd38d16	-1.6527431
14	0xbfbb4a66	-1.463208
15	0x3fe2b704	1.7712102
16	0xc0230d8c	-2.5477018
17	0xbf4d4284	-0.8017962
18	0xbf9765be	-1.1827924
19	0x3e3dbc35	0.18528827
20	0x3fad273d	1.35276
21	0x404ef18b	3.2334926
22	0xbe80664b	-0.25078043
23	0xc028319f	-2.6280286
24	0x3eb7fef0	0.3593669
25	0x3f931fde	1.14941
26	0xbe44c6df	-0.19216488
27	0x3f73083b	0.94934434
28	0x3f48e7a8	0.7847848
29	0x3fe9233c	1.8213878
30	0x3fd1b665	1.6383787
31	0xbf8b49cc	-1.0881896
32	0x3f835bba	1.0262368
33	0xbdae6efc	-0.08517262
34	0x3fca0b04	1.5784612
35	0xbf1ea3f3	-0.61968917
36	0xc05da521	-3.4632037
37	0xc02cc68c	-2.6996183
38	0xc066be93	-3.6053817
39	0x404a84a5	3.164346
40	0xbbbc2a82	-0.005742372
41	0xbf18ba29	-0.5965906
42	0x3fac2582	1.3448946
43	0x3f60938b	0.8772513
44	0xc17d3f7a	-15.827997
45	0xbfb08d6c	-1.3793159
46	0x40711da5	3.7674344
47	0x4038b813	2.886235
48	0xbf6bc4e3	-0.920973
49	0x401b3260	2.4249496
50	0x3f433ceb	0.7626483
51	0x3fe46f47	1.7846459
52	0xc061a039	-3.5254042
53	0xc058aad5	-3.3854268
54	0xbcdae46e	-0.026720252
55	0x40a80c92	5.2515345
56	0x3f92e158	1.147502
57	0xbe0b7692	-0.1361945
58	0xc040aa51	-3.0103953
59	0x402c7eff	2.6952512
60	0x412d233e	10.821104
61	0xbea164a6	-0.315221
62	0xbeb0ae31	-0.34507897
63	0x3ebf3e7b	0.37352356
64	0xbf27803a	-0.65430033
65	0x3f80a332	1.0049803
66	0xbf0ee4e5	-0.55818015
67	0x3e97b64c	0.2963127
68	0x400069a8	2.0064487
69	0x40a05928	5.0108833
70	0x40c1cdc7	6.0563693
71	0x3f1d4bf7	0.6144404
72	0xc129eed8	-10.620811
73	0xbff4124d	-1.9068085
74	0xc08a709a	-4.3262453
75	0xc0714f22	-3.770455
76	0xbf1969bd	-0.5992697
77	0xc013b83d	-2.30812
78	0xbe8e2084	-0.27759182
79	0xbe375457	-0.17903267
80	0x3e8b4415	0.2720038
81	0xbe4f0376	-0.20216164
82	0xbff12b63	-1.8841366
83	0x400b315c	2.1748877
84	0x3f7f44b3	0.997142
85	0xc0ded6a0	-6.9636993
86	0x400c3ed9	2.191336
87	0x403a4242	2.910294
88	0x403e5282	2.9737859
89	0xbe889c2d	-0.26681653
90	0x40415835	3.0210087
91	0x4097ba80	4.741516
92	0xc0a8edc1	-5.2790227
93	0x401b138c	2.423068
94	0x3ea218e8	0.31659627
95	0xbd8e27ba	-0.06941171
96	0xbf875887	-1.0573891
97	0xc0068cd3	-2.1023452
98	0x3dcff22c	0.101536125
99	0x41449322	12.285921
100	0xc095cfd5	-4.68162
101	0x4023875c	2.5551367
102	0x3f7ba5bf	0.98299783
103	0xbfa2ae1e	-1.2709386
104	0x3fc60821	1.5471231
105	0xc0599187	-3.3995073
106	0x40078be4	2.1179132
107	0xc044659f	-3.0687025
108	0x3f034f26	0.51292646
109	0xc068b438	-3.6359997
110	0xc087bed8	-4.2420464
111	0x3f1b1096	0.60572183
112	0xbf0f4aed	-0.559737
113	0xc048cc66	-3.1374755
114	0x3eb3eb4e	0.3514046
115	0xc0623331	-3.5343745
116	0xc014d5c9	-2.3255484
117	0xc00b06a7	-2.172281
118	0xbf5e62fe	-0.868698
119	0x3f885f5e	1.0654104
120	0xbf106fff	-0.5642089
121	0x3f6b63c4	0.91949105
122	0xbee1fcb6	-0.44138116
123	0x3ede92f7	0.434715
124	0x3f763b7c	0.96184516
125	0x3fbdf21c	1.4839511
126	0x3fd95a0f	1.6980609
127	0xbfde0931	-1.7346555
128	0x3ee8cde3	0.4546958
129	0x40727fa3	3.7890403
130	0xbe1df029	-0.15423645
131	0x407a89e4	3.9146662
132	0x401da263	2.4630363
133	0x403587f7	2.8364236
134	0xbf7671a4	-0.9626715
135	0x3efac7c9	0.4898055
136	0xbf6a0660	-0.9141598
137	0xbf5620df	-0.8364391
138	0x3dc67a7d	0.096913315
139	0x3fd4e86c	1.663343
140	0x40c343fc	6.102049
141	0xc026ac92	-2.6042829
142	0x40bc5e21	5.8864903
143	0xbcf8f0ad	-0.0303882
144	0x3e7f32b3	0.24921684
145	0x3ee9ef4b	0.4569038
146	0xbf3f802c	-0.7480495
147	0x41038177	8.219108
148	0x4026e2c3	2.6075904
149	0x3fd30fc6	1.6489189
150	0xc01078a8	-2.2573643
151	0xc06288da	-3.5396028
152	0xbeafac98	-0.34311366
153	0x40ba58c8	5.8233376
154	0x40f16d47	7.5445895
155	0xc138e9e4	-11.557102
156	0x4035937e	2.8371272
157	0x3f035028	0.51294184
158	0x40273296	2.6124625
159	0xbfffc3fe	-1.9981687
160	0x3f2648b3	0.6495468
161	0xbf2d2ef3	-0.67649764
162	0xc0516dec	-3.272334
163	0x407b0ffe	3.922851
164	0x40d44c93	6.6343474
165	0xbed35081	-0.41272357
166	0xbe7cc039	-0.24682702
167	0x3ecbedf5	0.39829984
168	0xbea2a9c5	-0.3177015
169	0x3d91cabb	0.07118746
170	0x3ec8ea5a	0.39241296
171	0xc009451e	-2.1448436
172	0x411e04bf	9.876159
173	0xc0474519	-3.1135924
174	0xbf444fb7	-0.76684135
175	0xc05d564a	-3.4583917
176	0x3f97422d	1.181707
177	0x401c319f	2.4405286
178	0x3f8ef9e6	1.1170013
179	0x3ff898b8	1.9421606
180	0xbe329ca9	-0.17442574
181	0xbfa17950	-1.2615147
182	0xc132628e	-11.149061
183	0xbfee9838	-1.8640203
184	0xc023bb40	-2.5583038
185	0xbe3ff5dd	-0.18746133
186	0xbf44c7a9	-0.7686716
187	0xbe85fc96	-0.2616927
188	0x3f6e1119	0.9299484
189	0x408ff980	4.4992065
190	0x3e053219	0.13007392
191	0xc0bbc03f	-5.8672175
192	0x3fb83d11	1.4393636
193	0x3fa434b2	1.2828581
194	0x3f57bd35	0.8427308
195	0x3fef8c9e	1.8714788
196	0xbeab7571	-0.33488038
197	0xc00f540c	-2.2395048
198	0xbfa7c3fb	-1.3106683
199	0x3fe4608d	1.7841965
200	0xbefea14c	-0.49732435
201	0xbff9251f	-1.9464453
202	0x3e483a7e	0.19553563
203	0xbfe56baf	-1.7923487
204	0xbf90759c	-1.1285892
205	0xc0010832	-2.0161252
206	0x40095d08	2.1463032
207	0x4155ff41	13.374818
208	0xbfd97cce	-1.6991212
209	0xbf9f47c1	-1.2443773
210	0x4056c848	3.3559742
211	0x41647f5c	14.281094
212	0xbe5adde6	-0.2137371
213	0xbf4a4f3c	-0.7902715
214	0x40bd8966	5.9230223
215	0x40821314	4.064829
216	0x3de9f4ae	0.11423622
217	0x3fd44853	1.6584572
218	0x3f353d9f	0.7079715
219	0x401c1fe3	2.4394462
220	0xbf906db4	-1.1283479
221	0xbfbb1f12	-1.4618857
222	0xc000fff3	-2.015622
223	0x3f8fc70f	1.1232623
224	0x3f501a75	0.8129037
225	0x403e8016	2.9765677
226	0xbf29d4c5	-0.66340286
227	0xc0b8901b	-5.767591
228	0x3fae4aa8	1.3616533
229	0x3f2f2900	0.68421936
230	0x3f7d1386	0.98857915
231	0xbfe053dd	-1.7525593
232	0xbecb9aa5	-0.39766422
233	0x3f27b26c	0.65506625
234	0xbf9c461b	-1.2208894
235	0xbf64663a	-0.89218485
236	0x41940fdc	18.507744
237	0x405bf9e3	3.4371269
238	0x403827d6	2.8774314
239	0x3ffa1704	1.9538274
240	0x40033163	2.0498893
241	0x400d9dbe	2.2127528
242	0xc008d2df	-2.1378706
243	0xc016cf58	-2.3564053
244	0xbf89b2c1	-1.0757676
245	0x3f89d306	1.0767524
246	0xc10bf4bb	-8.747249
247	0xc0c4a5fc	-6.145262
248	0xbf827973	-1.0193313
249	0x3f276003	0.6538088
250	0xbd72bcf4	-0.05926223
251	0x3f90af6d	1.1303536
252	0x3f9c7947	1.2224511
253	0xc0bc4b94	-5.884226
254	0xbf065144	-0.5246775
255	0x4083fd4d	4.1246705

net.0.bias f4 [128]
0	0xc00b0ef0	-2.1727867
1	0x4044990a	3.0718408
2	0xc086d366	-4.2133055
3	0x3ffc346e	1.97035
4	0x401b8e4f	2.4305608
5	0x4007681e	2.1157298
6	0x405c122d	3.4386094
7	0x3f9be15c	1.2178149
8	0x405f3956	3.4878745
9	0x3fc44cbb	1.5335916
10	0xbfa378e8	-1.2771273
11	0x3f88fc0e	1.0701921
12	0xbf60b8ae	-0.877818
13	0xc07c9e15	-3.9471486
14	0xc05a83d1	-3.4142954
15	0x3ffada94	1.9597955
16	0x404485b8	3.0706615
17	0x4010b424	2.260995
18	0x3ee2fdb2	0.4433418
19	0x3efd3d23	0.49460706
20	0x3f820697	1.0158261
21	0xc0498b14	-3.1491137
22	0x402d7d27	2.7107637
23	0xc07d5d3d	-3.9588158
24	0x406ca1f0	3.6973839
25	0xc0196dab	-2.3973186
26	0xbfd9ba4d	-1.700998
27	0x405612d1	3.3448985
28	0xc046bd25	-3.1052945
29	0xc02ed5f1	-2.731808
30	0xc03497d0	-2.821766
31	0xc0482b9d	-3.127662
32	0x3ef230cd	0.47302857
33	0xc0301815	-2.7514699
34	0x3e476ad2	0.19474342
35	0x4060d245	3.5128338
36	0x3f97afbc	1.1850505
37	0x4044da9e	3.0758433
38	0x3fb0399f	1.3767585
39	0x403564e5	2.834283
40	0x3f99f78c	1.202867
41	0x3faf05b6	1.3673618
42	0x3f410a72	0.75406563
43	0x3e72f333	0.23725586
44	0x3f968c85	1.1761633
45	0x3f3ee457	0.7456717
46	0x3f7810e9	0.969008
47	0xbf88833d	-1.0665051
48	0xbe96e5c1	-0.29472163
49	0x3fcd07c5	1.6017996
50	0x405246a4	3.2855616
51	0xc04a39c8	-3.1597767
52	0x4033812e	2.8047595
53	0xbe199c85	-0.15001114
54	0x3f0a4520	0.54011726
55	0x3f4b547f	0.79425806
56	0x401bffa7	2.4374788
57	0xbfa55e3b	-1.2919382
58	0x406d82f8	3.7111187
59	0x3e89056e	0.26761955
60	0x40683870	3.6284447
61	0xbe94daaf	-0.29073092
62	0x405a1283	3.4073799
63	0x403f4abc	2.9889364
64	0xc07f0fe4	-3.985345
65	0x3ddeaab6	0.10872404
66	0x401c1515	2.4387867
67	0xc08daf4b	-4.427648
68	0x40573f1c	3.363227
69	0x4000d415	2.0129445
70	0x3f4c40f3	0.79786605
71	0xc0750b49	-3.8288138
72	0x4042bde9	3.0428412
73	0xc05f9675	-3.4935582
74	0xbf97786c	-1.1833625
75	0x40099321	2.149605
76	0xc019c579	-2.4026778
77	0x408a6c73	4.3257384
78	0x3fb0751e	1.3785741
79	0xc05858fa	-3.3804307
80	0x40794cab	3.8953044
81	0x4032ebde	2.7956462
82	0x3f3a95fa	0.72885096
83	0x40415c89	3.021273
84	0x3fcd3a6f	1.6033458
85	0xbe1ce065	-0.15319975
86	0x40214e8a	2.5204186
87	0x3f9c7b08	1.2225046
88	0xc03c0d1a	-2.9382997
89	0xc03c74bb	-2.9446247
90	0xbee589ff	-0.44831845
91	0xc021068e	-2.516025
92	0xc073a0d0	-3.8066902
93	0x40466dd5	3.1004536
94	0x4045223b	3.0802143
95	0xbf7da462	-0.99078953
96	0x3fdd2fc8	1.7280207
97	0xc06ad1e3	-3.6690605
98	0x4049b746	3.1518111
99	0x40397354	2.897664
100	0x3f549d85	0.83052856
101	0x3fec85a5	1.8478285
102	0x404cc023	3.199227
103	0xc061f955	-3.530843
104	0x40719c14	3.7751513
105	0x3f4a88e5	0.79115134
106	0xbfaf2ad4	-1.3684945
107	0xc0565eba	-3.3495317
108	0x4042c68f	3.043369
109	0x3fdbd0ce	1.7173097
110	0xbe927891	-0.2860761
111	0xbfb94063	-1.4472774
112	0xc0396634	-2.896863
113	0xbf2294a1	-0.6350804
114	0x40756686	3.8343825
115	0xbe6c4a19	-0.23075141
116	0xc05176e9	-3.2728827
117	0x3e5eafe1	0.2174678
118	0xbdf22f40	-0.118254185
119	0xbfb9b973	-1.450972
120	0xc06e502e	-3.7236438
121	0xc008107c	-2.1260061
122	0x3fd1218e	1.6338365
123	0xc0173263	-2.3624504
124	0x3fa7f5f9	1.312194
125	0x3f409c6e	0.7523869
126	0x3f651223	0.894808
127	0xbe676026	-0.22595271

net.2.weight f4 [49, 128]
0	0xbf9e6517	-1.23746
1	0x40173e32	2.363171
2	0xbfd49fca	-1.6611264
3	0x3fa80b3b	1.3128427
4	0x3fabedb3	1.3431915
5	0xbff69a27	-1.9265794
6	0x3fc550f5	1.5415331
7	0xc039b85e	-2.9018779
8	0x3ff1427d	1.8848416
9	0x400876fb	2.132262
10	0xc0195218	-2.3956356
11	0xbfc38612	-1.527529
12	0x3fbf722c	1.4956717
13	0xc03a3ada	-2.909842
14	0xbfe7b696	-1.8102596
15	0x3fcf0443	1.6173176
16	0x40094d7a	2.1453538
17	0xc00c8ce4	-2.1960993
18	0xc01c40d8	-2.4414577
19	0xbfa82c59	-1.3138534
20	0xc002df09	-2.044863
21	0x3fba69fe	1.4563596
22	0x3ffe3c26	1.9862106
23	0xc0182476	-2.3772254
24	0x3f9cebee	1.22595
25	0xbfc5447b	-1.5411524
26	0x3fcbfa8e	1.5935838
27	0x3fb1d42e	1.3892877
28	0xbf29cb77	-0.6632609
29	0x3ff99229	1.949773
30	0x4038754c	2.8821592
31	0xc032cf42	-2.7939
32	0x3fb92efe	1.4467466
33	0xbf94ea2f	-1.1633967
34	0x400806b8	2.12541
35	0x40130ed0	2.297779
36	0xc003d0a0	-2.0596085
37	0x3f9b73b8	1.214469
38	0xbf947870	-1.1599255
39	0xc01b7c0c	-2.4294462
40	0xc03dda0a	-2.966433
41	0x3fc97feb	1.5742162
42	0x4016be21	2.3553545
43	0xbfbcf445	-1.4762045
44	0xc001d757	-2.0287683
45	0xc01e91fb	-2.47766
46	0xc0182f3c	-2.377883
47	0x3fec2ae4	1.8450589
48	0xbfc57847	-1.5427331
49	0xbf937d79	-1.1522666
50	0x401f6bd3	2.490956
51	0xbfde01f2	-1.7344344
52	0xc00a9adf	-2.1657026
53	0x3fb98d0f	1.4496173
54	0x3fbc0490	1.4688892
55	0x3ff098c2	1.8796618
56	0x3fa531c0	1.2905807
57	0x402b77e2	2.679192
58	0x402c5b19	2.6930602
59	0xc00bd965	-2.1851437
60	0x40225fab	2.537089
61	0xbf85b9c1	-1.0447313
62	0xc0395786	-2.895967
63	0x3fd33e66	1.6503417
64	0xc027977d	-2.618621
65	0xc01b15d0	-2.4232063
66	0x400c07dc	2.1879797
67	0xbfeb6615	-1.8390528
68	0x3f968435	1.1759096
69	0x3ff50b30	1.9144039
70	0xc0207ecf	-2.5077398
71	0xc0052632	-2.0804563
72	0x3ff3cdb8	1.9047155
73	0xbfa7c66e	-1.3107431
74	0xbfc91e03	-1.5712284
75	0x3f605894	0.8763516
76	0x3fe3fa7b	1.7810816
77	0x403ae947	2.920488
78	0xc009beea	-2.1522775
79	0x401d5e8f	2.4588964
80	0x40122edb	2.2841098
81	0xc01732da	-2.3624787
82	0x402816d7	2.626394
83	0x3fdb3251	1.712473
84	0x3f694b39	0.91130406
85	0xbfa00c2c	-1.2503715
86	0x3fdf5ba4	1.7449841
87	0xbf8f0d90	-1.1176014
88	0x40598075	3.3984654
89	0xbf90c5c9	-1.1310359
90	0x4003afab	2.057597
91	0x3fa8142c	1.3131156
92	0xc0269c10	-2.6032753
93	0x3fa092e1	1.2544824
94	0xc00c6b61	-2.194054
95	0x3e8f6a3b	0.28010735
96	0x3fa8b1ff	1.317932
97	0xbfe4a7b3	-1.7863678
98	0x3f8e198c	1.1101546
99	0x400375ef	2.054073
100	0xbff48661	-1.9103509
101	0x3f6289a5	0.8849128
102	0x4003a4a4	2.0569239
103	0xbfe1f846	-1.7653892
104	0x404016b7	3.0013864
105	0xbfddca2a	-1.732732
106	0x3fda80f2	1.7070601
107	0xbfba0ef1	-1.453581
108	0x3f06d1d9	0.5266395
109	0xc0565fb0	-3.3495903
110	0xc03c368d	-2.9408295
111	0xc007d0e0	-2.1221237
112	0x3fed057b	1.8517298
113	0x4007145d	2.1106179
114	0x3f99f2c2	1.2027209
115	0xbff9a6d7	-1.950404
116	0xbffe4011	-1.9863302
117	0x3fb9f622	1.4528239
118	0x3fb383b8	1.4024572
119	0xbf9400f1	-1.1562787
120	0xc0462896	-3.0962272
121	0x40248403	2.5705574
122	0xc004b81d	-2.0737374
123	0x3fdff2a1	1.749592
124	0x400eadeb	2.229365
125	0xbfba1d2e	-1.4540155
126	0x4020a219	2.5098937
127	0xbe093a64	-0.1340118
128	0xbfd431a2	-1.6577647
129	0x400edf83	2.232392
130	0xbfdce030	-1.7255917
131	0x3fec8b8d	1.8480088
132	0x3fd5624f	1.6670626
133	0xc013994c	-2.3062315
134	0x3fe13f13	1.7597374
135	0xc02d129c	-2.7042608
136	0x3ff6cd9a	1.9281495
137	0x400fa1c3	2.2442482
138	0xc020b0fe	-2.5108027
139	0xbfda6325	-1.7061507
140	0x3faa86c1	1.3322374
141	0xc027a7fb	-2.6196277
142	0xbfc5571e	-1.5417211
143	0x3fb03d01	1.3768617
144	0x3ff643b2	1.9239409
145	0xc014fb70	-2.3278465
146	0xc0188a5d	-2.383445
147	0xc006558f	-2.098972
148	0xbfe2b70d	-1.7712113
149	0x3fc1005d	1.5078236
150	0x3fd09077	1.6294087
151	0xc012752d	-2.2884018
152	0x3fc380d4	1.527369
153	0xbfa71e9d	-1.3056217
154	0x4009d420	2.153572
155	0x3f977a45	1.1834189
156	0xbee7623c	-0.45192134
157	0x3ff9df61	1.9521295
158	0x4019c9df	2.4029462
159	0xc04080fb	-3.0078723
160	0x3fece43c	1.8507152
161	0xbfd5fc44	-1.671761
162	0x3fd6c794	1.6779656
163	0x4008d363	2.137902
164	0xbfc961f6	-1.573302
165	0x3fac0747	1.3439721
166	0xbfbf06b6	-1.4923923
167	0xc0237ebc	-2.5546103
168	0xc03440f0	-2.8164635
169	0x3fd10179	1.6328574
170	0x401de06b	2.4668224
171	0xbfa0e355	-1.2569376
172	0xc00b601a	-2.1777406
173	0xc00a0a05	-2.1568615
174	0xc022f45d	-2.5461648
175	0x3ff8953d	1.9420544
176	0xbfd72030	-1.6806698
177	0xbfdeb117	-1.7397794
178	0x4011d3d2	2.2785535
179	0xc00167ec	-2.021968
180	0xc00d70aa	-2.2100015
181	0x3f9a1700	1.2038269
182	0x3fd57462	1.6676142
183	0x400f992a	2.2437234
184	0x3f92d6c0	1.1471786
185	0x40115f5d	2.2714455
186	0x40194887	2.3950517
187	0xc0005ad8	-2.0055447
188	0x400f036a	2.2345834
189	0xbf97bd9a	-1.1854737
190	0xc0385084	-2.8799143
191	0x3fe611ab	1.7974142
192	0xc024aa9b	-2.572913
193	0xc01ceb1b	-2.4518497
194	0x401d8ca9	2.4617102
195	0xc015c866	-2.3403563
196	0x3f952e6f	1.1654795
197	0x4017dbbc	2.3727865
198	0xc019d96f	-2.403896
199	0xbfec3299	-1.8452941
200	0x4005e255	2.0919392
201	0xbf95dacc	-1.1707397
202	0xbff0acb5	-1.8802706
203	0x3fd44065	1.6582152
204	0x3fe3b28a	1.7788861
205	0x4027a728	2.6195774
206	0xbfdda03b	-1.7314523
207	0x402fd646	2.7474532
208	0x40045de4	2.0682306
209	0xc0242206	-2.5645766
210	0x402b6f03	2.6786506
211	0x3fec8d78	1.8480673
212	0x3faeb013	1.3647484
213	0xbfc2a2d4	-1.5205941
214	0x3fe3b091	1.7788259
215	0xbf59afd5	-0.85033923
216	0x40524259	3.2852995
217	0xbf94cd1a	-1.1625092
218	0x40043c84	2.0661936
219	0x3fac3885	1.3454748
220	0xc003385d	-2.0503151
221	0x3fc34894	1.5256524
222	0xc01058ee	-2.2554278
223	0x3ee483c7	0.44631788
224	0x3fa7880a	1.3088391
225	0xc005f4e0	-2.093071
226	0x3f77dad6	0.9681829
227	0x3fe68e3d	1.8012158
228	0xbfeb5918	-1.8386564
229	0x3f607e6f	0.8769292
230	0x40117f2a	2.2733865
231	0xc001504a	-2.0205255
232	0x40282a61	2.6275866
233	0xbff98dcf	-1.9496402
234	0x3fd29e32	1.6454527
235	0xbfdfcb5c	-1.7483935
236	0x3f3ad483	0.7298052
237	0xc049611f	-3.1465528
238	0xc030aa13	-2.7603805
239	0xc011b0ca	-2.2764153
240	0x3fdef527	1.7418565
241	0x400a9d18	2.1658382
242	0x3fc7df1b	1.5614961
243	0xc008ae6b	-2.1356456
244	0xbfe6b41e	-1.8023717
245	0x3fb65696	1.4245174
246	0x3fb86611	1.4406148
247	0xbf3c2d23	-0.73506373
248	0xc0166f42	-2.3505406
249	0x402333e9	2.5500433
250	0xc003b9f6	-2.0582252
251	0x40006196	2.0059562
252	0x3ff552ee	1.9165933
253	0xbfeae630	-1.8351498
254	0x4018beb1	2.3866389
255	0xbe4b100e	-0.19830343

net.2.bias f4 [49]
0	0x3f6cbecb	0.92478627
1	0x3f936f5c	1.1518359
2	0x3f2c5ccc	0.67329097
3	0x3f882b51	1.0638219
4	0x3f0a1012	0.5393077
5	0x3fb54480	1.416153
6	0x3f5b7bf5	0.8573602
7	0x3f8d3b53	1.1033729
8	0x3f4f19f3	0.8089897
9	0x3f16be70	0.58884335
10	0x3da56d12	0.08077444
11	0x3f6de49c	0.92926955
12	0x3ecad518	0.39615703
13	0x3f977da9	1.1835223
14	0x3edeeda1	0.4354067
15	0x3f6c0fb0	0.9221144
16	0x3f059d13	0.521928
17	0x3e9de19a	0.30836183
18	0x3f81e0fa	1.0146782
19	0x3fc1b469	1.5133182
20	0x3f344826	0.7042259
21	0x3f2e93cb	0.68194264
22	0x3f8a5cd9	1.0809585
23	0x3f0fbb0a	0.56144774
24	0x3f125a9a	0.57169497
25	0x3f894a5f	1.0725821
26	0x3fa237d1	1.2673284
27	0x3f6f21ef	0.93411154
28	0x3f06a374	0.5259316
29	0x3e8c4d6e	0.27402824
30	0x3e46b1a3	0.194037
31	0x3ea96137	0.33081982
32	0x3eeeac5f	0.46615884
33	0xbe19ebec	-0.15031403
34	0x3f2abe33	0.6669647
35	0x3ecd18c7	0.40057966
36	0xbc248b00	-0.010042906
37	0x3e5651e0	0.2092967
38	0x3ee02e05	0.4378511
39	0x3f1bc1b6	0.60842454
40	0x3ecb0409	0.39651516
41	0x3f222784	0.63341546
42	0x3f16790d	0.5877846
43	0x3f2405c5	0.64071304
44	0x3e8ea4f5	0.27860227
45	0x3ec2fa0f	0.38081405
46	0x3f5c5485	0.86066467
47	0x3f0b6edd	0.5446604
48	0x3f027728	0.5096307
