lunar_lander_continuous/models/DQN/layers_3/8_128_tanh_128_tanh_49/model.pth (torch, 97815 bytes, 6 tensors)

net.0.weight f4 [128, 8]
0	0x3e428344	0.18995386
1	0xbed7a550	-0.4211831
2	0xbf805e29	-1.0028735
3	0xbf84ae51	-1.0365697
4	0x3ed56806	0.41680926
5	0x3f9e2e80	1.2357941
6	0x3f314484	0.6924517
7	0xbfbc4ff6	-1.4711902
8	0x3c93b055	0.018028418
9	0xbe1b7ec9	-0.15185083
10	0x3ee8b2ea	0.45449
11	0xbf035635	-0.51303416
12	0xbf3d026f	-0.7383184
13	0xbf76832f	-0.9629392
14	0xbf6faf10	-0.936265
15	0x3ec19954	0.37812293
16	0x401f1b15	2.486028
17	0xbc4222ad	-0.011849088
18	0x40085173	2.1299713
19	0x3f1fddec	0.62448
20	0x3f86f091	1.0542165
21	0x3f9e2162	1.2353938
22	0xbf26dea8	-0.65183496
23	0x3f112a13	0.56704825
24	0x3e97bfdf	0.29638574
25	0xbf0cd0c9	-0.5500608
26	0x3d88a5f5	0.06672279
27	0x3f4c2010	0.79736423
28	0xbe10472a	-0.14089647
29	0xbe924e0c	-0.2857517
30	0x404c1266	3.188623
31	0x402f9dfc	2.7440176
32	0xbf45a297	-0.7720122
33	0x3e236ec4	0.15960222
34	0x3fadf77f	1.3591155
35	0x3e56b535	0.20967562
36	0x3f3b463f	0.7315406
37	0xbeb182f6	-0.34670228
38	0xbeee431e	-0.4653558
39	0xbf45d85f	-0.7728328
40	0xbe1fabf5	-0.1559294
41	0x3e05886d	0.13040324
42	0x3f931feb	1.1494116
43	0x3ef16513	0.47147426
44	0xbfb77503	-1.4332584
45	0xbe3265b9	-0.17421617
46	0xbf102cab	-0.5631816
47	0x3f1def40	0.6169319
48	0x3f19ab82	0.60027325
49	0x3fb6b615	1.4274317
50	0x3db73f74	0.089476496
51	0x3e290e2a	0.1650931
52	0x3efedfc8	0.49780107
53	0xbe6b7c0d	-0.2299654
54	0xbfc50849	-1.5393153
55	0xc01361e5	-2.30285
56	0xbe1f32d8	-0.15546739
57	0x3f26abc4	0.65105844
58	0xbec44688	-0.3833506
59	0x3f955907	1.1667794
60	0x3fbc9b1b	1.4734834
61	0x3f36193f	0.7113227
62	0xbe9bab64	-0.30404198
63	0xbf8c8576	-1.0978229
64	0x3e37221a	0.17884102
65	0x3de979bc	0.11400172
66	0x3eb264f0	0.34842634
67	0xbf258777	-0.6465983
68	0xbe6393aa	-0.22224298
69	0xbfd69d08	-1.6766672
70	0xbf827756	-1.0192668
71	0x3f8d16c5	1.1022574
72	0x3eae4f48	0.34044862
73	0x3f00479d	0.50109273
74	0x3eb658b2	0.35614544
75	0xbf0065eb	-0.50155514
76	0x3ed14567	0.40873262
77	0xbd76e107	-0.060273197
78	0x3ebcc117	0.36866066
79	0xbf55d319	-0.83525234
80	0x3f0e76f2	0.55650246
81	0x3d163c8d	0.03667884
82	0xc03266b6	-2.787519
83	0x4041b4b4	3.0266542
84	0xbf52676e	-0.8218907
85	0x3f8559a6	1.0417984
86	0x3e350b4f	0.17680095
87	0x3f08985e	0.53357494
88	0x3ceb25dc	0.028704576
89	0xbe4dadae	-0.20085785
90	0x3eebd43b	0.46060356
91	0x3f2795fa	0.6546322
92	0xbe8d67ad	-0.2761816
93	0xbf61fedd	-0.88279516
94	0xbf878bbb	-1.0589517
95	0x3fb5dc52	1.4207861
96	0x3fce263a	1.6105416
97	0xbe5fa2c1	-0.2183943
98	0xbf0814a3	-0.5315649
99	0xbdd784d2	-0.1052338
100	0xbe52b8ae	-0.20578262
101	0xbfc4663b	-1.5343698
102	0x3f0c9b08	0.5492406
103	0x3f5860f5	0.84522945
104	0x3e74d225	0.23908289
105	0x3f940cce	1.1566408
106	0xbe55f62e	-0.20894691
107	0x3f00f6d5	0.50376636
108	0x3f04db94	0.5189755
109	0x3f27b25e	0.6550654
110	0x3fa61df4	1.2977891
111	0xbf20b6fa	-0.627792
112	0x3db850ba	0.08999772
113	0x3f0de347	0.5542492
114	0xbeaeff3e	-0.3417911
115	0xbf5a9237	-0.85379356
116	0xbe22272d	-0.15835257
117	0x3f9b2bb2	1.212271
118	0x3f7e4eff	0.9933929
119	0xbf9eeb70	-1.24156
120	0xbdfb6f49	-0.12277085
121	0x3eb2a089	0.34888104
122	0xbf286f44	-0.6579478
123	0x3f1a350e	0.60237205
124	0x40caf922	6.3429117
125	0x3f75d7b7	0.9603228
126	0xbf614ddb	-0.88009423
127	0xbe061e15	-0.13097413
128	0x3e09e620	0.13466692
129	0x3e8ce68b	0.2751964
130	0x3ed9423c	0.42433345
131	0x3f219a31	0.631259
132	0x3f8f7dd7	1.1210278
133	0xbf73fc48	-0.95306826
134	0xbf949745	-1.1608664
135	0xbf6d82c6	-0.9277767
136	0xbe19fa29	-0.15036835
137	0x3eb12af0	0.3460307
138	0xbdc282d3	-0.09497609
139	0xbfaa506c	-1.3305793
140	0x3e98b4de	0.2982549
141	0xbe2cade1	-0.16863205
142	0xbf615483	-0.8801958
143	0xbf24a158	-0.6430869
144	0x3eae4e43	0.34044084
145	0xbe7e9ade	-0.24863765
146	0x3e1c4aa7	0.15262853
147	0xbf4cf15c	-0.80055785
148	0xbf7e9165	-0.99440604
149	0xbf268d33	-0.650592
150	0x3f1ea18d	0.61965257
151	0xbf3fecd4	-0.74970746
152	0xbcfde2b3	-0.030991888
153	0xbfa045e2	-1.2521327
154	0x3ee20deb	0.44151244
155	0xbf7e8a2a	-0.9942957
156	0xbee46833	-0.44610748
157	0xbf64fece	-0.894513
158	0x3f5479dc	0.8299844
159	0xbd8d3706	-0.068952605
160	0x3e329af9	0.1744193
161	0xc0154a7d	-2.3326714
162	0xbe5fa1ff	-0.2183914
163	0x3f7897ee	0.97106826
164	0xbd4e50fd	-0.050370205
165	0x3d3b87d4	0.045783833
166	0x3f5d0fa0	0.86351967
167	0xbf26e742	-0.6519662
168	0x3f957422	1.1676066
169	0xbdbc4b51	-0.09194053
170	0xbf7f0ec7	-0.99631923
171	0x3f6dd97b	0.92909974
172	0x3f96f533	1.1793579
173	0xbf9f2dab	-1.2435812
174	0x3eeaf910	0.45893145
175	0xbeac16b6	-0.33611077
176	0xbc8d7c8c	-0.017271303
177	0x3ec989d8	0.3936298
178	0xbe18ef0c	-0.14934939
179	0xbe4e8349	-0.20167269
180	0xbe89ad3b	-0.26889977
181	0xbfac2a7c	-1.3450465
182	0xbf00e65f	-0.5035152
183	0x3edf3c94	0.43600905
184	0x3de372e2	0.111058965
185	0x3d99faff	0.07518577
186	0x3f79e1c2	0.97610104
187	0x3fbd29a3	1.4778332
188	0x3f0775e4	0.5291426
189	0xbd824dbf	-0.06362485
190	0x3f55eff8	0.8356929
191	0xbeacc52e	-0.33744186
192	0x3e54b9fb	0.20774071
193	0xbdde69f4	-0.10860053
194	0xbfe5b5b6	-1.7946079
195	0xbfa13a83	-1.2595981
196	0xbf626063	-0.88428324
197	0xbfa1acfd	-1.2630917
198	0xbffa250c	-1.9542556
199	0xbe134b4e	-0.14384195
200	0x3eb7e650	0.35917902
201	0x3eb6275c	0.35576904
202	0xbee4ab5f	-0.44661996
203	0x3f3d0b96	0.73845804
204	0x3f8d6fcc	1.1049743
205	0x3fdd438a	1.7286236
206	0x3f8b5a00	1.0886841
207	0x3f1bd394	0.6086972
208	0xbf4c2ddf	-0.79757494
209	0x3d6658d2	0.05623705
210	0xbf681a3a	-0.9066502
211	0xbf1c0426	-0.6094383
212	0x3f91764f	1.136423
213	0x3fb478a7	1.409932
214	0x3fa4baa5	1.2869459
215	0xbf58fc35	-0.8475984
216	0x3e3fcea4	0.18731171
217	0xbf251758	-0.64488745
218	0x3d23dcc8	0.040005475
219	0xbeb7709b	-0.358281
220	0x3faf7ef0	1.3710613
221	0x3f905149	1.1274806
222	0x3fe9beba	1.826133
223	0x3f60ecc0	0.8786125
224	0xbf439781	-0.7640305
225	0x3f2904fc	0.6602323
226	0x3ed405ab	0.41410574
227	0xbd4771dd	-0.048692573
228	0x3e89d6ea	0.2692178
229	0xbf58d39a	-0.8469788
230	0xbe83646b	-0.2566255
231	0xbfa011a5	-1.2505385
232	0xbfc33461	-1.525036
233	0x3cbcb78e	0.023036744
234	0x3e86a1a0	0.26295185
235	0xbf14ec4a	-0.5817305
236	0xc043f9dc	-3.0621252
237	0x3f2a58af	0.6654157
238	0x3ed2e9d3	0.4119402
239	0xbf22d3c4	-0.6360438
240	0xbf1a6e40	-0.6032448
241	0xbf1cae08	-0.6120305
242	0x3f87213a	1.0557015
243	0x3dda2cb7	0.1065306
244	0x3ec96407	0.39334127
245	0xbe59b47a	-0.21260253
246	0x3fa0a92b	1.2551626
247	0x3f86c863	1.0529903
248	0x3e256d3a	0.16154948
249	0x3eccb4e5	0.39981762
250	0xbdb2dd3b	-0.087336026
251	0xbe612729	-0.21987595
252	0x3f45f762	0.773306
253	0x3f79474d	0.9737442
254	0x3fe5e96e	1.7961862
255	0x3f1da62a	0.6158167

net.0.bias f4 [128]
0	0xbcbd3329	-0.023095684
1	0x3f02235a	0.5083519
2	0xbeb3b819	-0.35101393
3	0xbe4f880a	-0.20266739
4	0xbebbd282	-0.36684042
5	0xbefa71a5	-0.4891483
6	0xbea7c7f1	-0.3276973
7	0xbd23ec03	-0.04002
8	0xbe8af644	-0.2714101
9	0x3f0642a4	0.52445436
10	0xbee85d3a	-0.45383626
11	0xbeeaf33d	-0.458887
12	0x3f1872d7	0.5955023
13	0x3e81a825	0.25323597
14	0x3e27ca9c	0.16385883
15	0x3f4e3909	0.8055578
16	0xbf024b52	-0.5089618
17	0x3f377950	0.71669483
18	0xbf515944	-0.81776834
19	0xbf65b95a	-0.8973595
20	0xbf49570a	-0.78648436
21	0xbf8537f1	-1.0407697
22	0xbd2d2e4b	-0.042280477
23	0xbef0a142	-0.4699803
24	0xbed41788	-0.41424203
25	0x3d4fc782	0.050727375
26	0x3d69a07e	0.057037823
27	0x3f1ccef1	0.6125327
28	0xbdfbb5f2	-0.12290563
29	0x3ed45a92	0.4147535
30	0x3f0f5243	0.55984896
31	0x3f21c08e	0.6318444
32	0xbeca03f4	-0.3945614
33	0xbe61ee65	-0.22063597
34	0x3f1d5951	0.6146441
35	0x3e8d51c9	0.2760146
36	0x3f5e6e26	0.86886823
37	0xbe35494c	-0.17703742
38	0x3da13fdb	0.078735076
39	0x3f214ecd	0.63010865
40	0xbf385c23	-0.7201559
41	0x3f194f28	0.5988641
42	0xbf191c26	-0.59808576
43	0xbe69a740	-0.22817707
44	0xbf739a6c	-0.95157504
45	0xbf0281fe	-0.509796
46	0xbe6f9472	-0.23396471
47	0x3ee7b63c	0.4525622
48	0xbe707426	-0.23481807
49	0xbeed9647	-0.46403715
50	0x3f17654f	0.5913896
51	0xbf478d76	-0.7795023
52	0xbee07d7b	-0.43845734
53	0xbed02851	-0.4065576
54	0xbf206aec	-0.6266315
55	0x3f15dfdc	0.5854471
56	0x3eed5b2b	0.46358618
57	0xbf3ea560	-0.7447109
58	0xbf199a74	-0.600013
59	0x3e1b5886	0.15170488
60	0xbf207d23	-0.62690943
61	0x3f71694d	0.943013
62	0x3ed867d6	0.4226672
63	0x3f2b75d5	0.6697667
64	0xbf0ae4d8	-0.5425544
65	0x3eab6a68	0.3347962
66	0xbca0caee	-0.019628014
67	0x3ea5b6b0	0.32365942
68	0x3e9f893b	0.31159386
69	0x3e67b624	0.22628075
70	0xbf0631c5	-0.5241969
71	0xbd395d26	-0.04525485
72	0xbf43b503	-0.76448077
73	0x3f56356b	0.8367526
74	0x3e8937bd	0.26800337
75	0xbed29bc1	-0.41134456
76	0xbf3807aa	-0.71886694
77	0xbf07a319	-0.5298324
78	0xbe26689f	-0.16250847
79	0xbdfce5a5	-0.12348489
80	0xbf174184	-0.59084344
81	0x3f235db5	0.6381486
82	0xbe8fc8b4	-0.28082812
83	0xbe2a2c9b	-0.16618578
84	0xbecffa47	-0.40620634
85	0xbe766f77	-0.24065958
86	0x3f0d372d	0.55162317
87	0x3ecd248b	0.40066943
88	0x3eca81bb	0.39552101
89	0xbf352d9a	-0.7077271
90	0x3f277e6c	0.6542728
91	0x3ecdb5e8	0.40177846
92	0x3f037557	0.5135092
93	0xbf515c99	-0.8178192
94	0xbeab9ff6	-0.33520478
95	0x3ece7a5d	0.4032773
96	0xbe79da0e	-0.24399588
97	0x3eced39b	0.40395817
98	0xbf4b38f8	-0.793838
99	0xbed6d8b6	-0.41962212
100	0x3e33614b	0.17517583
101	0xbe7a4d4d	-0.2444355
102	0x3f293212	0.66092026
103	0x3f0155d0	0.50521564
104	0xbd4ba518	-0.049717993
105	0xbf24744f	-0.6423997
106	0x3e5752f6	0.21027741
107	0xbd5bfba8	-0.053706795
108	0x3e0b585e	0.13607928
109	0xbf399a42	-0.72501004
110	0xbe2699da	-0.16269627
111	0xbdfb4bd8	-0.122703254
112	0x3e0bcda1	0.1365266
113	0xbf16d494	-0.5891812
114	0x3ec7c272	0.39015538
115	0xbf4279b4	-0.75966954
116	0xbe3e4602	-0.18581393
117	0xbef9d4ea	-0.48795253
118	0x3f804ce1	1.0023462
119	0xbf1440b7	-0.57911247
120	0xbf1f5065	-0.6223205
121	0xbf4e948b	-0.8069541
122	0xbeaba738	-0.33526015
123	0x3f678f03	0.90452594
124	0x3f1f5a2a	0.62246954
125	0xbe8ed2b6	-0.27895135
126	0x3f1f33fa	0.62188685
127	0xbf05621d	-0.52102834

net.2.weight f4 [128, 128]
0	0xbec399fd	-0.3820342
1	0xbe6d837e	-0.23194692
2	0x3e2e0972	0.1699579
3	0x3eb89f31	0.36058953
4	0xbf5ee3f5	-0.87066585
5	0x3f312a86	0.6920551
6	0x3eb8284e	0.3596825
7	0x3f157646	0.58383596
8	0x3df4dbb1	0.11955965
9	0x3e203d22	0.1564832
10	0xbe25ee71	-0.1620424
11	0x3e93ec36	0.28891152
12	0xbf45d11f	-0.7727222
13	0x3ef8604a	0.48510963
14	0xbe390caa	-0.18071237
15	0x3eb8d4f3	0.36099967
16	0xbec525d3	-0.3850542
17	0x3eb696b3	0.3566185
18	0x3e01aab8	0.1266278
19	0xbe143cca	-0.14476314
20	0xbe7796fc	-0.2417869
21	0xbdccd9e8	-0.100025
22	0x3e7bb449	0.24580492
23	0xbef308e9	-0.47467735
24	0x3f00fa6d	0.5038212
25	0xbdd4eb5a	-0.10396452
26	0x3e230fe5	0.15924032
27	0xbefeb12c	-0.49744546
28	0x3c9f1ffa	0.019424427
29	0x3edfddc4	0.4372388
30	0x3bfe8457	0.007767241
31	0xbedfd542	-0.4371739
32	0xbe8f875e	-0.28032964
33	0xbf182113	-0.5942547
34	0xbe46d036	-0.19415364
35	0xbd9cf50c	-0.076639265
36	0xbe01b331	-0.12666012
37	0xbdb699d5	-0.0891606
38	0xbe687c55	-0.22703679
39	0x3e096c82	0.13420299
40	0x3f245030	0.64184856
41	0xbf11f0da	-0.57008135
42	0x3f66b198	0.90114737
43	0x3e5fd899	0.21859969
44	0xbe55bb6a	-0.20872274
45	0x3f4720ee	0.7778462
46	0x3fb9aae2	1.4505274
47	0x3f102e62	0.56320775
48	0x3e7c1543	0.24617486
49	0xbcc17190	-0.023613721
50	0xbd026bbb	-0.03184102
51	0x3e5e51c5	0.2171088
52	0xbeb7c9a1	-0.35896018
53	0xbe517ef7	-0.2045859
54	0x3f45c899	0.7725921
55	0x3e34d117	0.17657886
56	0xbed5efec	-0.41784608
57	0xbed51deb	-0.41624388
58	0x3f310ac3	0.69157046
59	0xbe48d273	-0.1961153
60	0xbe8bd4e5	-0.27310863
61	0xbe8cec36	-0.27523965
62	0x3eabfde5	0.33592144
63	0xbcfa72c4	-0.030572303
64	0xbea9267b	-0.3303717
65	0x3e918a64	0.28425896
66	0xbe81bf7a	-0.25341398
67	0x3dd2f03f	0.102997296
68	0x3ee55914	0.44794524
69	0xbd2d56a0	-0.04231894
70	0x3f01278c	0.5045097
71	0xbf391eb6	-0.72312486
72	0x3e8118ef	0.25214335
73	0xbeae3885	-0.34027496
74	0xbf03d1fa	-0.51492274
75	0xbed7d4ce	-0.42154545
76	0x3f40c03c	0.75293326
77	0xbd22fb45	-0.03979041
78	0x3f50d95e	0.81581676
79	0xbf7a60fa	-0.97804224
80	0xbdecd301	-0.11563683
81	0xbefae42d	-0.4900221
82	0x3f1aa32f	0.6040525
83	0x3e93b62c	0.28849924
84	0xbeb3a2c8	-0.3508513
85	0xbf466fe5	-0.7751449
86	0xbf1eef37	-0.6208376
87	0xbf413535	-0.7547181
88	0xbdd60dcb	-0.104518496
89	0x3f54a57a	0.83065
90	0xbec7f773	-0.39055976
91	0x3e825d8d	0.25462
92	0x3e274b8a	0.1633741
93	0x3ebb8b79	0.36629847
94	0xbea850a9	-0.3287404
95	0xbe722e9a	-0.2365059
96	0x3efe433f	0.4966068
97	0xbf0011cc	-0.50027156
98	0x3ebffc07	0.3749697
99	0xbf54cf87	-0.8312916
100	0xbcbbe28a	-0.02293517
101	0xbe00e9b2	-0.12589148
102	0xbedf1412	-0.4357
103	0xbf071124	-0.5276053
104	0x3e08897e	0.13333699
105	0x3eeed543	0.4664708
106	0x3ea3b76c	0.31975877
107	0xbe471ad3	-0.19443826
108	0x3d33e197	0.04391631
109	0x3eaac9e7	0.33357164
110	0x3f0d78d7	0.5526251
111	0x3eff7ba1	0.4989901
112	0xbe71d871	-0.23617722
113	0xbdc5505c	-0.09634468
114	0x3da36f46	0.07980208
115	0xbe7907a5	-0.24319322
116	0x3edfa507	0.43680593
117	0xbed44720	-0.41460514
118	0x3e85cec8	0.26134324
119	0x3e50cd40	0.20390797
120	0xbd0cd2cc	-0.03438072
121	0x3ea76bd4	0.32699454
122	0x3e735a7c	0.23764986
123	0xbf660109	-0.8984533
124	0xbea4e2e3	-0.3220435
125	0x3f194600	0.59872437
126	0x3ed83a7a	0.42232114
127	0xbe398b2a	-0.18119493
128	0x3e9069aa	0.28205615
129	0xbdf4f876	-0.11961453
130	0x3d4adb31	0.049525443
131	0x3d83426a	0.06409152
132	0xbf9f898a	-1.2463849
133	0xbdb071dc	-0.08615467
134	0xbeb5f688	-0.3553965
135	0x3dfc731a	0.123266414
136	0xbdb23584	-0.087016135
137	0x3e0f71f0	0.14008307
138	0xbe0989f1	-0.13431527
139	0xbd3e7b5a	-0.046504356
140	0xbee36aba	-0.44417363
141	0x3e972012	0.29516655
142	0xbdb078a3	-0.0861676
143	0xbe05c348	-0.13062775
144	0xbf2c4f5d	-0.673086
145	0x3f15c67b	0.5850598
146	0x3e01c60b	0.12673204
147	0xbe720558	-0.23634851
148	0xbebb2a76	-0.36555833
149	0xbe0ad461	-0.13557579
150	0x3d057400	0.03258133
151	0xbf1c1123	-0.6096365
152	0x3f8cc948	1.0998926
153	0xbeddbe4e	-0.43309253
154	0x3dcef9e3	0.10106256
155	0xbf4d56da	-0.8021065
156	0xbe87dc8c	-0.2653545
157	0x3efb7311	0.49111226
158	0x3e2caba3	0.16862349
159	0xbf313926	-0.69227827
160	0xbe4383e6	-0.19093284
161	0xbf391460	-0.72296715
162	0x3e490523	0.19630866
163	0x3ec32a0e	0.38118023
164	0xbed929c6	-0.42414683
165	0xbcbe956e	-0.023264613
166	0xbe96324b	-0.29335245
167	0x3ee3b772	0.44475895
168	0x3e20c048	0.1569835
169	0xbf35935e	-0.7092799
170	0x3ed9ac02	0.42514044
171	0x3e4c8498	0.19972456
172	0xbeb59681	-0.35466388
173	0x3eda4709	0.4263232
174	0x3f6d18bf	0.92615885
175	0x3e1ffdbf	0.1562414
176	0x3e96a699	0.2942398
177	0x3e0779d5	0.13230069
178	0xbd2903af	-0.04126328
179	0x3eb2eb40	0.34945107
180	0xbdad589f	-0.08464169
181	0xbe48e7f0	-0.19619727
182	0x3f704c21	0.93866163
183	0x3e90dfa8	0.28295636
184	0xbef06f77	-0.4696004
185	0xbf4ff6e7	-0.8123612
186	0x3f247a00	0.6424866
187	0x3e2cd104	0.16876608
188	0xbeeddfeb	-0.46459898
189	0x3df2b04b	0.118500315
190	0x3eada803	0.33917245
191	0x3e985d4b	0.29758677
192	0xbef309db	-0.47468457
193	0xbcc1b419	-0.023645448
194	0x3cbe4032	0.02322397
195	0xbe8d5ca1	-0.27609733
196	0x3f3e31d8	0.74294806
197	0xbeadbfc7	-0.33935377
198	0x3e6c9c3b	0.23106472
199	0xbf4f7626	-0.81039655
200	0xbe7e8a7a	-0.24857512
201	0xbe916bf0	-0.28402662
202	0xbe8d8187	-0.27637884
203	0xbf030854	-0.5118458
204	0x3ea72567	0.32645723
205	0x3e94cc0d	0.29061928
206	0xbe5b55b4	-0.21419412
207	0xbf1d0a34	-0.61343694
208	0x3e2c5e32	0.16832808
209	0xbe931606	-0.2872774
210	0x3f45e2fe	0.7729949
211	0x3dc11f13	0.09429755
212	0xbf70db89	-0.94084984
213	0xbda2813f	-0.07934808
214	0xbe4652dd	-0.19367547
215	0xbf333ee7	-0.70017856
216	0xbe1aff67	-0.15136491
217	0x3ebd8985	0.37018982
218	0xbe2aab7c	-0.16666979
219	0xbcca4309	-0.024690168
220	0x3e3a99e9	0.18222775
221	0x3ea79b58	0.32735705
222	0xbf0f96a4	-0.56089234
223	0xbe84623c	-0.25856197
224	0x3f1c5c99	0.6107879
225	0xbf83e934	-1.0305543
226	0x3f2b125e	0.668249
227	0xbf7699d4	-0.96328473
228	0xbe2585d6	-0.16164336
229	0xbea63eee	-0.32469887
230	0xbec69035	-0.38781896
231	0xbe97fac5	-0.2968351
232	0x3e0f0aaa	0.13968912
233	0x3e4533c3	0.19258027
234	0x3f548fa0	0.83031654
235	0xbef4112b	-0.47669348
236	0x3f78e8f4	0.9723046
237	0x3d2fd701	0.042929653
238	0xbe23ea3f	-0.16007327
239	0x3e8adbc5	0.27120796
240	0xbe9d4f48	-0.3072455
241	0xbe83431a	-0.25637132
242	0xbe6f48b1	-0.23367573
243	0xbe86300d	-0.26208535
244	0x3f5bf9c8	0.8592801
245	0xbf4a8a7a	-0.7911755
246	0x3e96a135	0.29419866
247	0x3eea1ed5	0.45726648
248	0x3d1d78d9	0.038445327
249	0x3ee70583	0.45121393
250	0xbec1c8fd	-0.37848654
251	0xbe96b820	-0.2943735
252	0xbe914775	-0.2837483
253	0x3efc9d6a	0.49338847
254	0x3e26313f	0.16229723
255	0xbe1b317d	-0.15155597

net.2.bias f4 [128]
0	0xbddd8043	-0.108154796
1	0x3e8a58ad	0.2702078
2	0x3e3900d1	0.18066718
3	0x3e9ae103	0.30249795
4	0x3ca460eb	0.020065745
5	0x3ead4eb9	0.33849123
6	0xbebbbed6	-0.36669034
7	0x3d0a243a	0.033725955
8	0xbd12aeec	-0.03581135
9	0xbe0714b3	-0.1319149
10	0x3e117413	0.14204435
11	0x3d220774	0.03955789
12	0x3e95cc57	0.2925746
13	0x3e35d11d	0.17755552
14	0x3e891b8b	0.26778826
15	0x3d6f7e30	0.05846995
16	0x3e94c9b5	0.2906014
17	0xbcc4bc7c	-0.024015658
18	0xbeb7e53b	-0.35917076
19	0x3e8ae872	0.27130467
20	0x3dbd2129	0.092348404
21	0xbed6dd92	-0.4196592
22	0x3ea4e909	0.32209042
23	0xbeac967a	-0.33708555
24	0xbeb97c28	-0.36227536
25	0x3e39a979	0.18131055
26	0xbde99774	-0.114058405
27	0xbe9fe0ac	-0.312261
28	0x3dc70980	0.09718609
29	0x3de99c58	0.11406773
30	0x3e27a19d	0.16370244
31	0x3e86729d	0.26259318
32	0xbe5a317c	-0.2130794
33	0x3de5a495	0.11213032
34	0xbe5e6b0e	-0.21720526
35	0xbe1d8d51	-0.15385939
36	0xbe7dde3a	-0.24791804
37	0xbdebe55e	-0.11518358
38	0xbcea6546	-0.028612744
39	0x3e2d9986	0.16953096
40	0x3db4af58	0.08822507
41	0xbe34507f	-0.17608832
42	0x3e8131bb	0.25233254
43	0x3d061b0e	0.032740645
44	0x3d91c4a1	0.07117582
45	0xbf0e23e2	-0.555235
46	0xbe490611	-0.1963122
47	0x3e9d46be	0.30718035
48	0xbe78b27a	-0.24286833
49	0xbec65430	-0.38736105
50	0xbe79e033	-0.24401931
51	0x3e9d211e	0.3068933
52	0xbccfd44e	-0.02536979
53	0xbe1486d8	-0.14504564
54	0x3e6756dc	0.22591728
55	0xbdfb6c79	-0.12276549
56	0xbeab25a9	-0.3342717
57	0xbb0a6221	-0.0021115618
58	0xbe5c6575	-0.21523078
59	0x3ebed08f	0.37268493
60	0xbe9694be	-0.29410356
61	0xbd4ae68a	-0.049536265
62	0xbe4f3f9f	-0.20239113
63	0xbe8d8875	-0.2764317
64	0xbdbbafe3	-0.09164407
65	0xbe2ce221	-0.16883136
66	0xbc1c084b	-0.009523462
67	0x3da15841	0.07878161
68	0xbe8f43c5	-0.27981392
69	0xbe8bfff2	-0.27343708
70	0x3d241285	0.040056724
71	0x3e76fa81	0.24118997
72	0x3ebf9e40	0.37425423
73	0x3e368d0d	0.17827244
74	0xbe2c52cd	-0.16828461
75	0x3d08fdb1	0.033445064
76	0x3e62712e	0.22113487
77	0x3e72f758	0.23727167
78	0x3e793802	0.24337772
79	0xbedfecf1	-0.4373546
80	0x3da8f9e9	0.082507916
81	0x3e30a0a0	0.17248774
82	0xbe55e13f	-0.20886706
83	0x3e4817da	0.19540349
84	0x3e37d94d	0.17953987
85	0x3e8f9cdd	0.28049365
86	0x3e44a52a	0.1920363
87	0xbe33adbf	-0.17546748
88	0x3e8f23f0	0.27957106
89	0x3e8c8e1e	0.27452177
90	0xbe679ab2	-0.22617605
91	0x3daeba53	0.08531632
92	0xbe4033b7	-0.18769728
93	0xbeb7e3a7	-0.35915872
94	0x3e1fe13b	0.15613262
95	0xbe49e7a4	-0.1971727
96	0xbd889711	-0.06669439
97	0xbe4fbc0d	-0.2028658
98	0xbd2286ef	-0.039679464
99	0xbcf6fa95	-0.030148784
100	0x3e2b1de2	0.16710618
101	0x3e6631b1	0.22479893
102	0xbe9c0afe	-0.30477136
103	0x3e9788f7	0.29596683
104	0xbe57d211	-0.21076228
105	0xbe4ffb28	-0.20310652
106	0xbcacb7b4	-0.02108369
107	0x3dec95e8	0.1155203
108	0x3baf979a	0.0053586485
109	0x3e3c9101	0.1841469
110	0xbe49c68a	-0.19704643
111	0xbeac64e9	-0.33670738
112	0x3eddebbb	0.4334391
113	0xbdefcd5b	-0.1170909
114	0xbc5898db	-0.013220037
115	0x3ee25bf8	0.44210792
116	0x3e9bceff	0.30431363
117	0x3e8edd4d	0.27903214
118	0x3e5071f1	0.20355965
119	0xbe25da8d	-0.16196652
120	0xbe498e45	-0.19683178
121	0xbd4fbf4c	-0.050719544
122	0xbe85c212	-0.26124626
123	0xbe959c75	-0.2922093
124	0x3dcf1317	0.10111063
125	0x3e4796c8	0.19491112
126	0xbc86a496	-0.016435903
127	0x3d3c85ad	0.04602592

net.4.weight f4 [49, 128]
0	0xbefb41fd	-0.49073783
1	0xbf00f891	-0.5037928
2	0xbf3bf3e9	-0.7341905
3	0xc02c5199	-2.6924803
4	0xbfd8a89f	-1.6926459
5	0xbfd21775	-1.6413409
6	0x3f4b144c	0.79327846
7	0xbfda1a19	-1.7039214
8	0x3fee3d6a	1.8612492
9	0x40080314	2.1251879
10	0x3fa2d84c	1.2722259
11	0x3f988842	1.1916583
12	0xbfcead16	-1.6146572
13	0xbfc9ea3a	-1.5774605
14	0x3f91f8e2	1.1404078
15	0xbea9c4be	-0.33157915
16	0x3f99adac	1.2006125
17	0xbf3f54e1	-0.7473889
18	0xbfa47aca	-1.2849972
19	0xc02ad755	-2.6693928
20	0x3f8af626	1.0856369
21	0x3e98916b	0.29798445
22	0xbfc61e41	-1.5477983
23	0x3d443206	0.04789927
24	0x3fda460e	1.7052629
25	0xbf242eae	-0.6413373
26	0xbfa4c2d0	-1.2871952
27	0xbfa52f2c	-1.2905021
28	0x3fd29a2b	1.6453298
29	0x3c066818	0.008203529
30	0x3f3310be	0.6994742
31	0x3f90d53c	1.1315074
32	0xbf9554ce	-1.1666505
33	0x3f81106f	1.008314
34	0x3fd962d4	1.6983285
35	0x3f4dbbf0	0.80364895
36	0xbf59eb38	-0.8512454
37	0x400c35a4	2.190774
38	0x3f4c8158	0.7988486
39	0xbfaef5d0	-1.3668766
40	0x3facde66	1.3505371
41	0x3fdd5481	1.7291414
42	0xc000d33c	-2.0128927
43	0x3f29913a	0.66237223
44	0x3f07cd44	0.53047585
45	0xbec3254d	-0.38114396
46	0x3fd75109	1.6821605
47	0xc0055037	-2.083021
48	0x3f1d374d	0.6141251
49	0x3fbba2a8	1.4659014
50	0x3fcafeaf	1.5858973
51	0xbfdfd468	-1.7486696
52	0xbf751ac9	-0.95743996
53	0xbecc5871	-0.39911225
54	0xbf31e284	-0.6948626
55	0x3faee169	1.366254
56	0xbf932abc	-1.1497416
57	0x3f425dab	0.75924176
58	0xbf8ba5c3	-1.0909961
59	0xbfc866b7	-1.5656346
60	0x3f206093	0.6264736
61	0xbf8cca35	-1.0999209
62	0x3f31ef22	0.6950551
63	0x3fea8b77	1.8323811
64	0x3fd9689f	1.6985053
65	0x3e9737a1	0.2953463
66	0x3f25bf90	0.64745426
67	0x3edadeee	0.42748207
68	0x3fd76dea	1.6830418
69	0x3fbfcb06	1.4983833
70	0x3f6795ae	0.9046277
71	0xc0089a0c	-2.1344023
72	0x3fa4c217	1.2871732
73	0xbfe927d1	-1.8215276
74	0x3fd8d114	1.6938806
75	0x3f000649	0.5000959
76	0xbf136dc5	-0.5758937
77	0xbfb172ee	-1.3863199
78	0xbf1a3dcf	-0.6025056
79	0x3f5a6cb7	0.85322136
80	0x3edb5b0b	0.42842898
81	0x3f6ee943	0.9332468
82	0x3d196347	0.037448194
83	0x3fbdc60b	1.4826063
84	0xbeaf35a5	-0.34220615
85	0xc00684d0	-2.1018562
86	0xc007928f	-2.1183202
87	0x3f2be22e	0.67142
88	0x3fa80386	1.3126075
89	0xbfe099ea	-1.7546971
90	0x3ea15a0d	0.31514016
91	0xc007f998	-2.124609
92	0x3f274a65	0.6534789
93	0xbf8dea94	-1.1087213
94	0x3f4d2513	0.80134696
95	0xbf8a6501	-1.0812074
96	0xbf20b2bf	-0.62772745
97	0xbf6f6f2b	-0.93529004
98	0xbf96458a	-1.1739972
99	0x3f95002b	1.1640676
100	0xbf89c2d2	-1.076258
101	0xbfcbd591	-1.592455
102	0x3fd00130	1.6250362
103	0xc00a4698	-2.1605587
104	0x3fb801a0	1.4375496
105	0x400f0ff4	2.2353487
106	0xbfb14d88	-1.3851786
107	0xbfd7b00d	-1.6850601
108	0x3fe46006	1.7841804
109	0x3ef99b4b	0.48751292
110	0x3fe21f55	1.7665812
111	0x3ed72518	0.42020488
112	0x3f70e962	0.94106114
113	0x40002862	2.0024648
114	0xbec8fd32	-0.39255673
115	0xbff5ca0f	-1.9202288
116	0x3f467d50	0.7753496
117	0xbec0c7bc	-0.37652385
118	0xbffe5cc9	-1.9872066
119	0x3ef3a2fe	0.4758529
120	0xbfc3cafc	-1.5296321
121	0x3fac06eb	1.3439611
122	0x3feca0f4	1.8486619
123	0x3fe4e439	1.7882148
124	0xbf8a15bf	-1.0787886
125	0x3fda9c54	1.7078958
126	0xbf00c776	-0.50304353
127	0xbf9a645f	-1.2061881
128	0xbf1d73ac	-0.61504626
129	0xbed541eb	-0.41651854
130	0xbf276ad0	-0.6539736
131	0xc01df723	-2.468209
132	0xbfb12d0d	-1.3841873
133	0xbfd2055f	-1.6407889
134	0x3f0ec227	0.55765
135	0xbfe6b277	-1.8023213
136	0x3fc7152e	1.5553339
137	0x3ffcc2b1	1.9746915
138	0x3f9f36b2	1.2438567
139	0x3f92ec93	1.1478447
140	0xbff3bd42	-1.9042132
141	0xbfe1bbba	-1.7635415
142	0x3f745158	0.9543662
143	0xbf45b465	-0.77228385
144	0x3f90a801	1.1301271
145	0xbf8b97aa	-1.0905659
146	0xbf884e2e	-1.0648859
147	0xc0128558	-2.2893887
148	0x3f934799	1.1506225
149	0x3e8e76ac	0.27824914
150	0xbfc95128	-1.5727892
151	0xbec31f71	-0.38109925
152	0x3ff2e122	1.8974955
153	0xbf1505c2	-0.5821191
154	0xbfa5ba64	-1.2947507
155	0xbfacdf5f	-1.3505667
156	0x3fc5acef	1.54434
157	0x3ec799bd	0.3898448
158	0x3f463cf2	0.77436745
159	0x3f922757	1.1418256
160	0xbf77f000	-0.96850586
161	0x3f640c6b	0.8908145
162	0x3fb8798c	1.4412093
163	0x3f365765	0.71227103
164	0xbf86efb5	-1.0541903
165	0x401ef14d	2.4834778
166	0x3f85acac	1.044332
167	0xbfac1959	-1.3445235
168	0x3fab542a	1.338506
169	0x3fcbfd7b	1.5936731
170	0xbffb6e63	-1.9643062
171	0x3f12dd05	0.573685
172	0x3f349331	0.70537096
173	0xbf4afdcd	-0.7929352
174	0x3fe9f517	1.827792
175	0xbff9661b	-1.9484285
176	0x3ef4c65f	0.47807595
177	0x3fbccaf6	1.4749439
178	0x3fb83812	1.4392111
179	0xc00229e5	-2.033807
180	0xbf82e2de	-1.0225484
181	0xbe3ed1af	-0.18634675
182	0xbed8d4bb	-0.423498
183	0x3fa74903	1.3069156
184	0xbf63313f	-0.8874702
185	0x3f3d820b	0.74026555
186	0xbf7c40f5	-0.98536617
187	0xbfe1be00	-1.7636108
188	0x3f3d5c67	0.7396912
189	0xbf94a3a5	-1.161244
190	0x3f0cdc13	0.55023307
191	0x3fe12027	1.7587937
192	0x3fd6718a	1.6753399
193	0x3ed55972	0.41669804
194	0x3f29b00b	0.66284245
195	0x3e849ef4	0.25902522
196	0x3f9e5e09	1.2372447
197	0x3fb51fbf	1.4150313
198	0x3f886010	1.0654316
199	0xc00710b1	-2.1103938
200	0x3fca4d4b	1.5804838
201	0xbfe586be	-1.7931745
202	0x3ff0ebf2	1.8822005
203	0x3f44f07d	0.76929456
204	0xbf16ddfc	-0.5893247
205	0xbfaa4e08	-1.3305063
206	0xbf157188	-0.5837636
207	0x3f2dbf03	0.67869586
208	0x3e6403f8	0.22267139
209	0x3f7cb243	0.98709506
210	0x3e361d41	0.17784597
211	0x3fb80958	1.4377851
212	0xbf17a185	-0.59230834
213	0xc01545f0	-2.3323936
214	0xbffa61c6	-1.9561088
215	0x3f30f127	0.6911797
216	0x3fa6b953	1.3025306
217	0xbfd27eba	-1.6444924
218	0x3d2060b1	0.039154712
219	0xbff22287	-1.8916787
220	0x3f09c44b	0.53815144
221	0xbf8589c1	-1.0432664
222	0x3f84eb3d	1.0384289
223	0xbf851e21	-1.039982
224	0xbf287fa5	-0.6581977
225	0xbf2e4a41	-0.6808205
226	0xbf99b766	-1.2009094
227	0x3f9951c8	1.1978083
228	0xbf99bb23	-1.2010235
229	0xbfd85631	-1.6901304
230	0x3fae650c	1.3624587
231	0xc00a3d75	-2.160001
232	0x3fa1a5ba	1.2628701
233	0x40121393	2.2824447
234	0xbfc1e9fb	-1.514953
235	0xbfd1c7ad	-1.6389061
236	0x3ff4f1ee	1.9136331
237	0x3f337768	0.70104074
238	0x400349f1	2.051388
239	0x3f378af8	0.71696424
240	0x3f93ccbf	1.1546859
241	0x40055088	2.0830402
242	0xbeaf48f6	-0.34235352
243	0xbfff4fda	-1.9946244
244	0x3f1abd58	0.60445166
245	0xbf1eb572	-0.61995614
246	0xbfeef7d6	-1.8669384
247	0x3f3845ca	0.7198149
248	0xbfabad8e	-1.341234
249	0x3f96d0dc	1.1782489
250	0x3fdf6524	1.7452741
251	0x3feb40c9	1.8379146
252	0xbf933ede	-1.150356
253	0x3f961b0b	1.1727003
254	0xbf0b2932	-0.54359734
255	0xbfb00b20	-1.3753395

net.4.bias f4 [49]
0	0x3f150114	0.5820477
1	0x3f4cd508	0.8001256
2	0x3f2fb95c	0.6864221
3	0x3f010864	0.5040343
4	0x3f19cba7	0.60076374
5	0x3ebc7c14	0.36813414
6	0x3f283b23	0.65715235
7	0x3cb391dd	0.021920139
8	0x3e17eed5	0.14837201
9	0x3f208879	0.6270824
10	0x3e8b8cf2	0.2725597
11	0x3edfad32	0.43686825
12	0x3b926910	0.004468091
13	0x3f76a9f5	0.96353084
14	0x3ef87889	0.4852946
15	0xbe22df06	-0.15905389
16	0x3efdbf32	0.49559933
17	0xbd4355b5	-0.04768916
18	0x3ea92a04	0.33039868
19	0x3ea40c18	0.32040477
20	0x3e9d5716	0.30730504
21	0x3f18842f	0.59576696
22	0x3f302ecb	0.688214
23	0x3e123f3d	0.14281936
24	0x3f3735f0	0.7156668
25	0x3f530a8a	0.82437956
26	0x3f032151	0.5122271
27	0x3f2fb8ca	0.6864134
28	0x3e8389c0	0.25691032
29	0xbd2fef53	-0.042952847
30	0x3ed76aeb	0.4207376
31	0xbe8739d0	-0.26411295
32	0x3d25dff0	0.040496767
33	0x3e65637d	0.22401233
34	0x3ea92859	0.33038595
35	0x3e59e895	0.21280129
36	0x3e79fddc	0.24413246
37	0x3e004995	0.1252807
38	0xbec7b594	-0.3900572
39	0xbed36a13	-0.41291866
40	0x3e7120c9	0.23547663
41	0x3f007d5b	0.5019128
42	0x3e42d69f	0.19027184
43	0x3edcc94f	0.43122336
44	0x3eeaa9a4	0.4583255
45	0x3e80807f	0.25098035
46	0xbc6026f9	-0.013681167
47	0x3ec6ba02	0.38813788
48	0x3dc1ee68	0.094693005
