lunar_lander_continuous/models/DQN/layers_4/8_128_tanh_128_tanh_128_tanh_49/model.pth (torch, 164303 bytes, 8 tensors)

net.0.weight f4 [128, 8]
0.38880745 -0.03447527 -0.14042357 -0.08141279 0.29493368 -0.5903787 -0.6252488 0.29696995
0.08081594 -0.33744898 -0.7123046 -0.7631608 -0.16222998 -0.51423824 -0.066394635 0.670966
-0.07496482 0.064277224 0.14321007 0.58859396 0.40336496 0.7544619 0.7519151 -0.4863178
0.6925617 -0.13325028 -0.20270503 -0.04836042 -0.27312306 0.027569871 -1.126275 -0.108637154
0.58936656 -0.1562732 0.35706368 0.687818 0.05895551 -0.16966185 0.01586234 0.21470387
0.14826705 0.26103395 -0.201213 0.8471927 0.024671003 -0.1119041 -1.1732981 -0.87629664
0.065321155 -0.37037632 -0.07064489 0.43367937 -0.4729987 -1.0620857 0.13529752 0.5611755
0.106166996 0.1852043 -0.14238277 -0.2483617 0.48707998 0.52304375 0.979147 -0.69320774
-1.0400106 -0.2635182 -0.6956234 0.28627014 1.464325 0.062816225 0.31356123 0.7545698
0.5559277 0.2737256 -0.3820165 0.20959933 0.39933679 -0.107148156 0.17783801 0.03370915
-0.43304336 0.34708676 -0.6891998 -0.30124924 2.3473978 0.03422199 -0.8429247 0.016418213
-1.0461689 -0.92800903 -0.39961582 -0.012934426 -0.2629565 0.0065263365 0.12222475 0.57672685
-0.1519735 0.08306454 -0.08126004 -0.17230633 1.8917882 0.63931733 -0.18131797 -1.3963394
0.3971182 -0.2080897 0.32937092 0.26619318 -0.44286832 -1.5913302 0.15258494 0.71501535
-0.29543686 0.10552318 0.17759626 -0.32169262 -1.5623012 0.8268156 0.042797733 -0.2716432
-0.7143288 -0.35249814 -0.2792025 0.6175718 0.46997046 -0.007635312 0.57416034 0.3666661
-1.0428067 2.085351 -0.12511359 0.47737205 -0.19475964 -0.16037637 -0.42407265 -0.7380532
0.8381534 0.077447385 0.44947952 0.5000459 -1.0337476 -0.141957 0.45024508 0.9403529
0.17643973 0.089383975 0.12216366 0.23552065 0.18458728 -1.0177697 -0.715324 0.76818794
0.19690105 -0.30256033 0.1650176 0.08050944 -0.8702597 -2.1641433 0.119078696 -0.2880193
0.21669081 0.3038676 -0.6137555 0.45471957 -0.056598533 -0.57818204 -0.75822634 0.100587144
-0.120215595 0.099995635 -0.21427019 -0.07285562 0.7165822 0.90243936 -0.27614662 -0.28621298
0.5299275 -0.030129153 0.6113241 -0.4349466 0.56709254 -0.47437063 -0.2289891 -0.16637768
-0.5569241 -0.33835226 -0.2413549 -0.49740523 -1.3740768 -0.24658746 0.09869554 1.1086046
-0.7987673 -0.104190916 -0.7868244 0.42756838 -1.3982995 -0.5062455 0.4695049 -0.09297904
-0.0014643222 0.038235683 -0.24945757 0.45443007 -1.1267651 0.07777527 0.09481968 -1.1297287
0.3127025 0.14398451 -0.34856063 0.20106916 -0.67087084 0.69244903 0.9942463 -1.2296154
0.030824395 0.3755083 -0.3685504 0.4247777 -0.17981978 0.2070669 0.27799034 -1.0079848
-0.20448454 -0.29974252 0.3608233 -0.17664471 0.032419037 -0.68572986 -0.22383629 0.38098955
-0.19508064 -0.11703881 0.44035187 0.1739919 -0.21610309 -0.50874007 0.05437832 1.135878
0.53822404 -0.6881068 0.594323 0.2426304 0.2757224 0.24901631 -0.31019235 0.9179976
0.24901953 -0.14794725 0.26878086 0.68384695 0.44931698 -0.21880606 1.0028521 -0.5396855
00000000: c511 c73e f135 0dbd 32cb 0fbe c0bb a6bd
00000010: 8c01 973e 0f23 17bf 4e10 20bf 720c 983e
00000020: d482 a53d 1dc6 acbe 9859 36bf 825e 43bf
00000030: 9e1f 26be 1ea5 03bf e9f9 87bd 6ec4 2b3f
00000040: 2887 99bd c7a3 833d a9a5 123e 18ae 163f
00000050: da85 ce3e 6a24 413f 827d 403f a6fe f8be
00000060: b94b 313f c372 08be e891 4fbe 9315 46bd
00000070: c9d6 8bbe 36da e13c c729 90bf 287d debd
00000080: bae0 163f 1506 20be 0dd1 b63e d714 303f
00000090: 557b 713d d6bb 2dbe bdf1 813c 55db 5b3e
000000a0: 51d3 173e 3ea6 853e c80a 4ebe 9fe1 583f
000000b0: d81a ca3c fa2d e5bd a22e 96bf fa54 60bf
000000c0: 19c7 853d f7a1 bdbe 45ae 90bd 390b de3e
000000d0: e32c f2be 6df2 87bf 6f8b 0a3e 33a9 0f3f
000000e0: 156e d93d 32a6 3d3e cacc 11be 8852 7ebe
000000f0: 8c62 f93e 32e6 053f 61a9 7a3f 1076 31bf
00000100: 111f 85bf dceb 86be 6014 32bf 0092 923e
00000110: 006f bb3f cba5 803d 198b a03e 7d2b 413f
00000120: 4751 0e3f c325 8c3e ab97 c3be 35a1 563e
00000130: df75 cc3e 7e70 dbbd 2b1b 363e 9b12 0a3d
00000140: dcb7 ddbe 5bb5 b13e 666f 30bf 573d 9abe
00000150: c43b 1640 5b2c 0c3d eac9 57bf 7d7f 863c
00000160: dde8 85bf 0092 6dbf 729a ccbe eaea 53bc
00000170: 3ca2 86be e1da d53b f850 fa3d 5fa4 133f
00000180: f19e 1bbe be1d aa3d aa6b a6bd 1271 30be
00000190: 1e26 f23f 4daa 233f 6bab 39be 40bb b2bf
000001a0: 1453 cb3e 7715 55be 4ea3 a83e 794a 883e
000001b0: a3bf e2be b5b0 cbbf 3a3f 1c3e 3f0b 373f
000001c0: 8043 97be 891c d83d cbdb 353e e5b4 a4be
000001d0: 7cf9 c7bf 30aa 533f ad4c 2f3d d114 8bbe
000001e0: 41de 36bf a37a b4be a1f3 8ebe 2f19 1e3f
000001f0: f89f f03e a431 fabb 2cfc 123f a9bb bb3e
00000200: b17a 85bf 6476 0540 c71d 00be 1c6a f43e
00000210: 126f 47be b439 24be 0d20 d9be 0ef1 3cbf
00000220: 3991 563f bc9c 9e3d 2e22 e63e 0203 003f
00000230: d751 84bf 2d5d 11be 8686 e63e f8ba 703f
00000240: 9eac 343e f20e b73d f130 fa3d 532c 713e
00000250: 7304 3d3e 4746 82bf 791f 37bf f7a7 443f
00000260: 6ea0 493e 30e9 9abe 60fa 283e 22e2 a43d
00000270: 57c9 5ebf 5381 0ac0 88df f33d 4477 93be
00000280: 32e4 5d3e 8994 9b3e 151f 1dbf 01d1 e83e
00000290: ddd3 67bd bd03 14bf 1f1b 42bf a200 ce3d
000002a0: 9833 f6bd 83ca cc3d a569 5bbe 5435 95bd
000002b0: ee71 373f 4406 673f 1763 8dbe 828a 92be
000002c0: 54a9 073f 6ad1 f6bc bc7f 1c3f 52b1 debe
000002d0: fa2c 113f b5e0 f2be 1e7c 6abe e95e 2abe
000002e0: 9492 0ebf 823c adbe bd25 77be e6ab febe
000002f0: c0e1 afbf 6c81 7cbe e320 ca3d c1e6 8d3f
00000300: 047c 4cbf 0c62 d5bd 536d 49bf 3eea da3e
00000310: 7afb b2bf 4e99 01bf f262 f03e cc6b bebd
00000320: 80ee bfba 059d 1c3d ce71 7fbe 0fab e83e
00000330: d739 90bf a448 9f3d d230 c23d f39a 90bf
00000340: 8b1a a03e ad70 133e 8a76 b2be 13e5 4d3e
00000350: 31be 2bbf 5744 313f ed86 7e3f 0a64 9dbf
00000360: 7183 fc3c a042 c03e a3b2 bcbe 767c d93e
00000370: ad22 38be 5809 543e c054 8e3e a505 81bf
00000380: 6564 51be da77 99be d5bd b83e 5ae2 34be
00000390: d3c9 043d fe8b 2fbf 5735 65be 1011 c33e
000003a0: 38c3 47be 0bb2 efbd cd75 e13e ef2a 323e
000003b0: 214a 5dbe ca3c 02bf cdbb 5e3d 7364 913f
000003c0: 0dc9 093f c427 30bf 8d25 183f 1b74 783e
000003d0: 7d2b 8d3e 22fe 7e3e 88d1 9ebe e401 6b3f
000003e0: fafe 7e3e 7c7f 17be a59d 893e 9810 2f3f
000003f0: e00c e63e b20e 60be 755d 803f d428 0abf

net.0.bias f4 [128]
0.17530318 -0.18691562 0.41223902 -0.17152953 0.17032771 -0.52841616 0.3849904 -0.43477833
0.1517874 0.17729378 -0.32379022 -0.23664291 -0.089724004 0.11865489 0.54338396 -0.27278656
0.28380036 -0.3019744 0.049154945 0.022867199 0.24208511 -0.28475535 0.26244125 0.011431074
0.024206912 0.043516185 -0.17932412 0.36489072 -0.1349434 -0.15147366 -0.032547075 -0.3627796
-0.1694627 -0.015021971 -0.11506457 0.38937634 -0.38993886 0.19962327 0.39317945 0.01777723
-0.4131072 0.21727702 0.06936694 -0.39441565 0.6130848 0.0865237 0.26792437 0.30745617
-0.29524696 0.2855057 -0.07718218 -0.28298715 -0.18169285 0.27330914 -0.19964634 0.05564261
-0.42329517 -0.1294254 -0.3514298 0.39003506 0.51503426 0.27948624 -0.32495326 0.5057107
0.27875876 -0.46903712 -0.63678336 0.41098085 0.04650135 -0.42501986 -0.0037571487 0.039035775
0.17184183 -0.3874181 -0.41327003 -0.36887833 -0.3392627 -0.14399463 0.111938074 -0.11825742
0.43368042 0.084109105 -0.3292021 0.002457407 0.031880394 0.094469845 -0.4301517 -0.025306113
0.028967727 -0.022460204 -0.42880353 0.3539124 -0.42443946 0.20318457 -0.06282988 0.5162463
-0.027546704 0.33699334 0.080087334 -0.32784498 0.13073443 0.1967353 0.09547966 -0.3380008
0.0988214 -0.3237201 0.39093322 0.052595723 -0.12330404 0.46938837 -0.106710315 -0.2326931
0.18978044 -0.43897107 0.1971094 0.5450939 -0.22228716 0.24987909 0.22416998 0.20089747
-0.14219244 -0.17814462 -0.19226559 -0.18802786 0.29294193 0.14417121 -0.30547354 -0.20099579
00000000: ad82 333e cf66 3fbe fe10 d33e 70a5 2fbe
00000010: 636a 2e3e 4846 07bf 761d c53e 449b debe
00000020: 286e 1b3e 808c 353e d5c7 a5be 8552 72be
00000030: 38c1 b7bd 5601 f33d 361b 0b3f aeaa 8bbe
00000040: 484e 913e 639c 9abe b256 493d fe53 bb3c
00000050: 29e5 773e 74cb 91be b35e 863e 6649 3b3c
00000060: 934d c63c 073e 323d bea0 37be f5d2 ba3e
00000070: 9a2e 0abe e91b 1bbe 1550 05bd 3fbe b9be
00000080: a187 2dbe b71e 76bc f9a6 ebbd 565c c73e
00000090: 11a6 c7be 0b6a 4c3e d14e c93e 8ea1 913c
000000a0: c982 d3be de7d 5e3e 4110 8e3d d9f0 c9be
000000b0: 20f3 1c3f 5633 b13d 622d 893e e56a 9d3e
000000c0: 9c2a 97be ce2d 923e b111 9ebd b1e3 90be
000000d0: b10d 3abe 2def 8b3e 1770 4cbe 81e9 633d
000000e0: 25ba d8be 1888 04be 9bee b3be adb2 c73e
000000f0: 49d9 033f d218 8f3e 4660 a6be 4276 013f
00000100: 78b9 8e3e a225 f0be 3c04 23bf 156c d23e
00000110: 3378 3e3d 349c d9be 7f3a 76bb fae3 1f3d
00000120: 4ef7 2f3e aa5b c6be 2198 d3be 9fdd bcbe
00000130: d7b3 adbe 5473 13be ca3f e53d f230 f2bd
00000140: 5c0b de3e 6541 ac3d 2d8d a8be 730c 213b
00000150: 0495 023d 6879 c13d d83c dcbe c44e cfbc
00000160: ba4d ed3c 76fe b7bc 238c dbbe 0234 b53e
00000170: 2150 d9be 9e0f 503e f4ac 80bd b828 043f
00000180: a0a9 e1bc 648a ac3e d404 a43d 4cdb a7be
00000190: 3fdf 053e fa74 493e d78a c33d 710e adbe
000001a0: e062 ca3d a4be a5be 6628 c83e 9d6e 573d
000001b0: d486 fcbd ac53 f03e f08a dabd 1a47 6ebe
000001c0: ce55 423e d1c0 e0be 0cd7 493e 468b 0b3f
000001d0: 3f9f 63be 4ee0 7f3e d18c 653e 11b8 4d3e
000001e0: e59a 11be 8b6b 36be 45e1 44be 608a 40be
000001f0: 7cfc 953e 9ea1 133e 0767 9cbe d7d1 4dbe

net.2.weight f4 [128, 128]
0.077075526 0.32744688 -0.26133528 -0.03923567 -0.14517851 -0.17226097 0.16834563 -0.13312311
0.35677677 -0.057517983 -0.242105 0.49035138 -0.036936443 0.12510802 0.047710646 0.42161378
-0.17342874 0.055620812 0.22494078 0.2595416 -0.15857206 0.23017266 -0.109444305 0.30098408
0.07329032 -0.2277832 -0.70068955 -0.27212232 0.38715908 0.25545454 0.06387891 -0.36805373
-0.029565098 0.14852528 -0.10359108 0.020434994 0.0050682942 0.07381861 -0.025826372 -0.30594185
0.28067032 0.008742986 0.2650993 0.014617392 0.14267533 0.13732798 -0.38248515 0.033681814
-0.1612122 0.22556505 0.005792813 -0.08182814 -0.16989088 0.100097686 0.33764386 0.11735094
-0.14206584 -0.1703559 -0.29278338 0.0861234 0.13693926 0.1529251 -0.02207043 0.025394378
-0.21977283 0.48796117 0.06358243 0.09319206 0.20136495 0.11003715 -0.12883615 0.41257995
-0.04408622 0.13214475 -0.048731945 0.27150488 -0.27038625 -0.1798972 0.02090761 -0.09828903
0.008568579 0.19154172 -0.14501406 0.3904201 -0.30959377 0.060167026 0.17811652 0.038696785
0.37297314 0.30426627 0.22090918 -0.26255208 0.19498761 -0.03230953 0.22056071 0.12494236
0.06301706 -0.20972043 -0.21890071 -0.30917037 0.07083502 -0.33557895 0.013328577 0.23042223
-0.1999121 0.052217014 -0.32386798 0.20935136 0.064773455 -0.373292 -0.048661005 0.24341646
-0.13904549 -0.057871364 -0.067225106 -0.050171334 -0.14399928 -0.115745105 0.3414076 0.08868498
-0.28448293 -0.10300981 0.06224791 0.06540401 -0.24985564 0.35886312 0.341467 -0.031343095
-0.21321367 -0.16356905 -0.18995091 0.1372309 0.07230876 0.09019437 -0.11173975 0.8705434
-0.20201576 0.016691998 0.12401842 0.10626573 -0.07256376 0.034139436 -0.07444925 0.28496954
-0.16545269 0.222931 -0.19623348 0.15311562 -0.20656262 0.045340437 -0.28514057 0.031587332
0.22381483 0.21779402 0.35483408 -0.14199604 -0.05853722 0.08535748 -0.03935917 0.38305867
0.23822995 -0.22701232 0.10368115 0.113125645 0.19138291 -0.34171498 -0.33031678 0.08129988
0.35564134 -0.17655633 0.009984188 0.45412597 -0.18805508 0.18212608 -0.34583637 -0.2812136
0.20943025 -0.19019611 -0.13531469 0.15189455 0.23130293 -0.06431244 0.08777263 0.025432786
0.06775932 0.04263211 0.4618903 -0.4350166 -0.26717332 -0.08960847 0.3257983 -0.122148134
-0.119306944 0.3866183 0.05745811 -0.47606272 0.05358327 0.47721502 0.12950213 -0.06623976
0.19581302 0.053927753 0.37890065 0.24312733 0.18192032 0.27173218 0.35050476 0.0065081827
-0.28115255 -0.0072258837 -0.21077211 -0.24565054 0.25825572 -0.2608616 -0.053502038 -0.013994445
-0.1807097 0.1549968 -0.021535888 -0.051543124 -0.12149837 -0.40039518 -0.07494922 -0.30237275
0.07644484 -0.1676045 -0.009477856 0.18076323 -0.007375265 -0.06252262 -0.07522366 0.2634477
-0.02981831 0.19940113 -0.29314914 0.18796508 0.49760854 -0.3041112 -0.21530493 0.09395695
-0.12414998 0.03729475 0.13163272 0.07064705 0.15906054 0.11046555 -0.32477954 -0.23141567
0.30217886 -0.22358309 0.15678504 0.011324124 -0.101713315 -0.20099565 0.015012192 0.06644602
00000000: c6d9 9d3d 1ea7 a73e bdcd 85be 95b5 20bd
00000010: ada9 14be 2e65 30be cc62 2c3e 6d51 08be
00000020: 72ab b63e fa97 6bbd 60ea 77be 560f fb3e
00000030: ab4a 17bd 511c 003e 3d6c 433d c3dd d73e
00000040: 4e97 31be a6d2 633d e056 663e a3e2 843e
00000050: b760 22be 62b2 6b3e 5624 e0bd 961a 9a3e
00000060: 3c19 963d 0040 69be 6460 33bf 9e53 8bbe
00000070: b739 c63e f0ca 823e f2d2 823d 8a71 bcbe
00000080: 8132 f2bc 0317 183e 8f27 d4bd 4a67 a73c
00000090: ef13 a63b 362e 973d d491 d3bc 69a4 9cbe
000000a0: 05b4 8f3e be3e 0f3c 18bb 873e c97d 6f3c
000000b0: 7b19 123e b59f 0c3e 18d5 c3be f1f5 093d
000000c0: d014 25be 86fa 663e a3d1 bd3b 8395 a7bd
000000d0: e0f7 2dbe 0400 cd3d a8df ac3e b155 f03d
000000e0: b579 11be c771 2ebe b4e7 95be 7761 b03d
000000f0: ce39 0c3e 6698 1c3e 0ccd b4bc df07 d03c
00000100: 210c 61be 0cd6 f93e 8137 823d 7bdb be3d
00000110: 9d32 4e3e 285b e13d a0ed 03be ae3d d33e
00000120: c193 34bd f450 073e 269b 47bd b002 8b3e
00000130: 1170 8abe f936 38be 7046 ab3c c24b c9bd
00000140: 3a63 0c3c 8323 443e 917e 14be 25e5 c73e
00000150: 1383 9ebe b371 763d 2d64 363e 8580 1e3d
00000160: 56f6 be3e cac8 9b3e 0436 623e 3a6d 86be
00000170: d5aa 473e ff56 04bd abda 613e c8e1 ff3d
00000180: 170f 813d f4c0 56be 8227 60be 944b 9ebe
00000190: f311 913d 01d1 abbe 1b60 5a3c cef3 6b3e
000001a0: c2b5 4cbe 82e1 553d 06d2 a5be 3460 563e
000001b0: f2a7 843d 2120 bfbe c350 47bd 2a42 793e
000001c0: f161 0ebe 860a 6dbd 51ad 89bd 7580 4dbd
000001d0: 8c74 13be c50b edbd facc ae3e 79a0 b53d
000001e0: bfa7 91be cff6 d2bd aaf7 7e3d 8af2 853d
000001f0: 28da 7fbe e8bc b73e c3d4 ae3e 9e61 00bd
00000200: af54 5abe a57e 27be 7e82 42be 4286 0c3e
00000210: 9d16 943d d3b7 b83d cfd7 e4bd efdb 5e3f
00000220: 38dd 4ebe a8bd 883c 5ffd fd3d d9a1 d93d
00000230: 4f9c 94bd cbd5 0b3d d978 98bd 87e7 913e
00000240: 6e6c 29be 0648 643e 6ef1 48be 57ca 1c3e
00000250: 2785 53be e5b6 393d f2fd 91be b861 013d
00000260: b72f 653e 6505 5f3e d0ac b53e 6967 11be
00000270: b9c4 6fbd e7cf ae3d 1537 21bd 4420 c43e
00000280: 8df2 733e eb75 68be c856 d43d 6bae e73d
00000290: e2f9 433e 44f5 aebe 481f a9be 8d80 a63d
000002a0: 9f16 b63e 2fcb 34be b894 233c 3383 e83e
000002b0: 8391 40be 427f 3a3e 7711 b1be 3bfb 8fbe
000002c0: e274 563e c5c2 42be ef8f 0abe 3f8a 1b3e
000002d0: adda 6c3e 3eb6 83bd 23c2 b33d 6b58 d03c
000002e0: 66c5 8a3d 029f 2e3d e37c ec3e 7fba debe
000002f0: f1ca 88be a584 b7bd 09cf a63e cd28 fabd
00000300: 3357 f4bd d5f2 c53e 3259 6b3d 7ebe f3be
00000310: 227a 5b3d 8755 f43e 359c 043e b6a8 87bd
00000320: 3583 483e 59e3 5c3d 44ff c13e 5ff6 783e
00000330: 5249 3a3e 7b20 8b3e 5c75 b33e 9842 d53b
00000340: 3af3 8fbe 1bc7 ecbb a5d4 57be d18b 7bbe
00000350: 183a 843e a78f 85be f424 5bbd f548 65bc
00000360: f70b 39be 7bb7 1e3e 086c b0bc e21e 53bd
00000370: 23d4 f8bd 9900 cdbe fa7e 99bd 9ad0 9abe
00000380: 1d8f 9c3d 84a0 2bbe 0249 1bbc ff19 393e
00000390: 35ac f1bb dc0b 80bd dd0e 9abd 9ee2 863e
000003a0: 8745 f4bc cf2f 4c3e a517 96be eb79 403e
000003b0: 8cc6 fe3e 77b4 9bbe e578 5cbe 806c c03d
000003c0: 5842 febd 61c2 183d baca 063e 67af 903d
000003d0: c4e0 223e c33b e23d 8149 a6be 3bf8 6cbe
000003e0: 30b7 9a3e f7f2 64be 428c 203e d288 393c
000003f0: 124f d0bd ced1 4dbe b2f5 753c da14 883d

net.2.bias f4 [128]
-0.054206993 -0.26753885 -0.103001095 -0.018319309 0.19021764 0.049401246 -0.06934115 0.039752427
0.16497885 -0.17044434 -0.2980162 0.108471036 0.4039997 -0.24642065 0.01802953 -0.028746132
-0.03709831 0.05719963 0.06976958 -0.5890427 0.050785955 -0.20279813 0.009233024 0.08752795
0.16868484 -0.17806701 0.099722646 -0.085049756 0.11175112 0.04001546 0.0970944 -0.23170199
-0.05396326 -0.14776607 -0.12442126 0.12767123 -0.028879276 0.25809428 -0.0041549695 -0.105693065
-0.027476495 -0.12594792 0.18208085 0.11220676 0.103538975 -0.6458195 -0.25148752 -0.010153675
-0.024711156 -0.036389507 0.2191999 -0.13302292 -0.22884925 -0.030900875 0.18891393 -0.031091835
-0.064133346 0.3406812 0.028302057 0.11601887 -0.07673896 -0.05520813 -0.0031487804 -0.19043778
0.034730233 0.21503851 0.2923429 -0.08331551 0.15092348 0.14737687 -0.07186522 0.27986676
0.25152707 -0.34271556 -0.20377448 -0.33620584 0.032729793 -0.06991749 -0.5616656 -0.14406462
-0.035888597 -0.011267733 0.36277884 -0.058114745 -0.09411068 0.28231922 -0.1316456 -0.18569742
0.6317605 0.24829416 0.08246027 0.19361791 0.44530696 -0.5978639 -0.14240502 -0.05189348
0.29349834 -0.06613045 0.034438886 -0.04229319 -0.051792968 -0.05692264 -0.31679505 0.19765355
-0.1283398 0.014834572 0.011678494 -0.048932597 0.01683892 -0.08053363 0.015028115 0.12474146
-0.00015576223 0.0012167301 -0.09556138 0.06513157 -0.10337275 -0.4030003 -0.11976878 -0.109895766
-0.25742617 -0.13841148 -0.30336288 -0.16184078 0.035213955 0.668551 -0.085583486 0.1090531
00000000: 2708 5ebd dafa 88be 3df2 d2bd 6012 96bc
00000010: 6ac8 423e f658 4a3d bc02 8ebd 71d3 223d
00000020: 37f0 283e f688 2ebe 9495 98be 1026 de3d
00000030: 0cd9 ce3e b255 7cbe aab2 933c 027d ebbc
00000040: 66f4 17bd 294a 6a3d 5be3 8e3d 81cb 16bf
00000050: ef04 503d 50aa 4fbe 1c46 173c db41 b33d
00000060: b8bb 2c3e 3357 36be 633b cc3d 912e aebd
00000070: c5dd e43d 40e7 233d 6ed9 c63d 4943 6dbe
00000080: 9408 5dbd fd4f 17be 93d0 febd 3fbc 023e
00000090: 3b94 ecbc ef24 843e 6926 88bb 9b75 d8bd
000000a0: 6316 e1bc 7ef8 00be 6773 3a3e a8cc e53d
000000b0: 3e0c d43d 6d54 25bf f9c2 80be 9a5b 26bc
000000c0: 0d6f cabc 2a0d 15bd f075 603e 2937 08be
000000d0: 7557 6abe d523 fdbc a772 413e 4eb4 febc
000000e0: 5858 83bd c46d ae3e b7d9 e73c 4d9b ed3d
000000f0: 5129 9dbd ec21 62bd c55b 4ebb 1f02 43be
00000100: 4a41 0e3d 0e33 5c3e f8ad 953e 52a1 aabd
00000110: af8b 1a3e f6e9 163e 132e 93bd b24a 8f3e
00000120: 28c8 803e 6a78 afbe 42aa 50be 2c23 acbe
00000130: ad0f 063d e730 8fbd 51c9 0fbf ad85 13be
00000140: ecff 12bd 4c9c 38bc 26be b93e ba09 6ebd
00000150: 1abd c0bd 258c 903e 1bce 06be 7727 3ebe
00000160: 0ebb 213f d340 7e3e eee0 a83d c643 463e
00000170: 46ff e33e 9c0d 19bf 9fd2 11be 428e 54bd
00000180: 6a45 963e 676f 87bd ca0f 0d3d a03b 2dbd
00000190: dd24 54bd b727 69bd f632 a2be b165 4a3e
000001a0: 826b 03be b40c 733c 2757 3f3c 8c6d 48bd
000001b0: c6f1 893c d1ee a4bd 7c38 763c 7378 ff3d
000001c0: 1b54 23b9 b07a 9f3a afb5 c3bd b363 853d
000001d0: 18b5 d3bd 0e56 cebe 5649 f5bd 0811 e1bd
000001e0: 5dcd 83be bdbb 0dbe 6152 9bbe 97b9 25be
000001f0: 823c 103d 2926 2b3f 6546 afbd 3b57 df3d

net.4.weight f4 [128, 128]
-0.07783881 -0.4242343 0.46598083 -0.016798586 0.408411 -0.3786589 -0.6601929 -0.31249946
-0.31052747 0.29558045 -0.05831836 0.057323698 -0.034695312 0.0022273061 -0.023651524 -0.08689215
0.39953285 -0.3405948 0.18747477 0.06785256 -0.45666134 0.07141737 0.04288228 -0.3453813
0.13344383 0.44441792 0.2352479 0.07870076 -0.3854678 0.14761049 -0.10767102 0.279865
0.04583204 -0.19585103 0.020813975 -0.03876831 -0.34553826 0.41162732 -0.23809041 0.08191994
0.64915466 0.041942984 -0.03554545 -0.035049807 -0.14299753 -0.039940573 0.15837374 0.378594
-0.064501874 0.058073517 0.40746742 0.44860193 -0.05796095 0.14801508 -0.0009676409 -0.17481355
0.08606032 -0.1434453 0.25290135 -0.5014724 -0.22300589 -0.04211463 -0.32445168 0.7061956
-0.17389095 0.17991512 0.29443073 0.06755393 -0.26156282 -0.2822687 0.20002267 -0.1406407
-0.39453694 0.1489711 -0.0335886 0.27294034 -0.3072035 -0.18041995 -0.018838387 -0.4508087
0.22804597 0.057929523 -0.1833143 0.031692408 -0.5263124 -0.08792204 0.013238228 0.28893554
0.031106697 -0.29561228 0.17858252 -0.27767375 -0.07911579 -0.060259353 0.13230664 -0.25151956
-0.3007443 0.27752563 0.09048775 -0.40353748 -0.20694134 -0.2570788 -0.021571072 0.3634451
0.3205384 0.13639596 -0.014504547 -0.038333505 -0.015260344 0.27147627 -0.37295654 0.24411869
-0.7742195 -0.6162655 0.085980274 0.30321485 -0.25203097 0.13728209 0.12288999 -0.24696022
0.040118095 -0.19129322 0.28385687 0.29149696 -0.40861046 -0.19533227 -0.28630725 -0.21017204
-0.096602686 0.089688286 0.15350243 -0.17108093 0.095205486 0.059201304 0.23553553 -0.0018030598
-0.09709006 0.5259044 0.47816455 0.010197332 -0.36616305 -0.24595416 -0.31639782 -0.23801526
-0.17316236 0.18244456 -0.20503409 0.03630605 0.24464084 0.26217657 -0.20907164 0.08142893
0.00031024695 0.4140073 -0.022273468 0.30921963 0.30014572 -0.3153728 0.14343703 -0.042334132
0.17037995 -0.49618098 0.130713 -0.37693694 -0.21253708 0.2599366 0.05039726 -0.16493537
-0.23999202 0.28924683 -0.12858815 0.6201041 -0.4272805 0.47272983 -0.30270752 -0.118262105
-0.39155892 -0.38450497 0.13885096 0.34483764 0.13837034 0.265413 0.15797268 -0.062537014
0.17622775 -0.28223288 0.35045257 0.2224549 -0.15522088 0.35686398 0.59953576 0.24774542
0.046752017 0.12211928 0.1883933 0.26620427 -0.12866895 -0.10788081 0.37528813 -0.35637045
0.07530948 0.39987096 0.39641944 -0.22626585 -0.33988348 0.031591672 0.094388686 -0.07382714
0.055939566 -0.2574572 0.2088006 -0.09866008 0.53633595 -0.21147476 -0.1410997 -0.37384158
-0.09113498 -0.37019977 -0.10436791 0.2566594 -0.13434483 0.1622962 0.10612514 -0.01981767
0.1541827 0.033082634 0.20403638 -0.31876153 -0.43224877 0.18215904 0.2164631 -0.07630721
0.8036466 0.061981324 0.115995884 -0.057934158 -0.32462862 -0.1070772 0.10841232 -0.3568185
0.09273017 0.4335415 -0.5608617 0.06604861 0.516311 0.16255605 0.6263396 0.20446897
0.04247905 0.05711213 -0.022837464 -0.2961791 0.2123627 0.060713276 0.24315137 -0.11373573
00000000: f469 9fbd 3d35 d9be 0a95 ee3e 309d 89bc
00000010: 3f1b d13e 94df c1be 6702 29bf eeff 9fbe
00000020: 75fd 9ebe 5256 973e 3cdf 6ebd 41cc 6a3d
00000030: ac1c 0ebd fff7 113b d7c0 c1bc 83f4 b1bd
00000040: 928f cc3e 7162 aebe 63f9 3f3e 48f6 8a3d
00000050: 84cf e9be 4543 923d 54a5 2f3d d1d5 b0be
00000060: 80a5 083e bf8a e33e d3e4 703e dd2d a13d
00000070: 095c c5be 3427 173e a082 dcbd 774a 8f3e
00000080: 61ba 3b3d 2c8d 48be 1282 aa3c 85cb 1ebd
00000090: 64ea b0be d1c0 d23e f9cd 73be a4c5 a73d
000000a0: 002f 263f 68cc 2b3d 1b98 11bd 6390 0fbd
000000b0: f26d 12be ba98 23bd ba2c 223e 13d7 c13e
000000c0: 8f19 84bd 7fde 6d3d 929f d03e 27af e53e
000000d0: 7668 6dbd 4491 173e 48a9 7dba 5302 33be
000000e0: 6540 b03d 53e3 12be 497c 813e 7f60 00bf
000000f0: a85b 64be 6480 2cbd 881e a6be 3cc9 343f
00000100: 7810 32be ab3b 383e a0bf 963e b759 8a3d
00000110: 90eb 85be 8685 90be bed2 4c3e 1e04 10be
00000120: bf00 cabe e18b 183e 3394 09bd d6be 8b3e
00000130: c749 9dbe 02c0 38be f652 9abc 66d0 e6be
00000140: e284 693e 8247 6d3d beb6 3bbe e6cf 013d
00000150: 69bc 06bf 7810 b4bd 27e5 583c 5cef 933e
00000160: 79d3 fe3c 7e5a 97be 56de 363e 412b 8ebe
00000170: 7607 a2bd 83d2 76bd 647b 073e 2cc7 80be
00000180: 28fb 99be d717 8e3e a451 b93d 779c cebe
00000190: 6ee8 53be d59f 83be d1b5 b0bc 7a15 ba3e
000001a0: 9c1d a43e 62ab 0b3e 7ba4 6dbc 9803 1dbd
000001b0: 8606 7abc f0fe 8a3e 29f4 bebe 40fa 793e
000001c0: 4033 46bf 93c3 1dbf 6d16 b03d fa3e 9b3e
000001d0: 340a 81be ad93 0c3e bfad fb3d 24e3 7cbe
000001e0: df52 243d 5fe2 43be b055 913e 173f 953e
000001f0: 6435 d1be 2f05 48be dd96 92be 5737 57be
00000200: a1d7 c5bd 7eae b73d be2f 1d3e d72f 2fbe
00000210: 18fb c23d 117d 723d 3a30 713e a654 ecba
00000220: 27d7 c6bd aca1 063f fcd1 f43e b612 273c
00000230: b979 bbbe 68db 7bbe e5fe a1be 46ba 73be
00000240: 7951 31be bfd2 3a3e 75f4 51be a7b5 143d
00000250: 2183 7a3e 023c 863e e016 56be 36c4 a63d
00000260: a4a8 a239 c4f8 d33e d976 b6bc 0952 9e3e
00000270: b3ac 993e 8b78 a1be 28e1 123e 8e66 2dbd
00000280: 1578 2e3e 6f0b febe a1d9 053e e1fd c0be
00000290: 52a3 59be 6916 853e 5b6d 4e3d d1e4 28be
000002a0: 78c0 75be 2918 943e 9dac 03be 24bf 1e3f
000002b0: 82c4 dabe a509 f23e 7bfc 9abe 6733 f2bd
000002c0: 697a c8be d6dd c4be f22e 0e3e 8f8e b03e
000002d0: f4b0 0d3e 36e4 873e 97c3 213e 6813 80bd
000002e0: 0c75 343e d480 90be 856e b33e 38cb 633e
000002f0: 39f2 1ebe e0b6 b63e 2d7b 193f fab0 7d3e
00000300: 0b7f 3f3d ac19 fa3d 2cea 403e ed4b 883e
00000310: cbc1 03be 9df0 dcbd c425 c03e 3076 b6be
00000320: db3b 9a3d e3bb cc3e 7df7 ca3e 3cb2 67be
00000330: 3505 aebe 4566 013d db4e c13d af32 97bd
00000340: e320 653d 6ed1 83be d3cf 553e 4c0e cabd
00000350: 504d 093f d78c 58be 717c 10be 2a68 bfbe
00000360: faa4 babd d38a bdbe d8be d5bd dc68 833e
00000370: b191 09be fa30 263e 2358 d93d ab58 a2bc
00000380: 12e2 1d3e a881 073d eaee 503e b634 a3be
00000390: b64f ddbe e687 3a3e 81a8 5d3e f446 9cbd
000003a0: c9bb 4d3f 21e0 7d3d 408f ed3d 5e4c 6dbd
000003b0: b935 a6be 4b4b dbbd 4707 de3d eab0 b6be
000003c0: 51e9 bd3d 27f9 dd3e a294 0fbf 7e44 873d
000003d0: f52c 043f 1875 263e cb57 203f 5060 513e
000003e0: 83fe 2d3d 69ee 693d a215 bbbc c9a4 97be
000003f0: 9c75 593e 7cae 783d acfc 783e 47ee e8bd

net.4.bias f4 [128]
0.009170755 -0.26159406 0.07970792 -0.22864085 0.35681278 -0.21929798 -0.046308275 -0.10520143
-0.13823771 -0.09585995 -0.13465592 0.058395874 -0.008859033 -0.0705278 -0.16082065 0.1252803
-0.035812728 0.050845183 0.0632858 0.059390638 -0.1285507 -0.02292339 -0.006024622 0.12358107
0.023835378 -0.04560892 -0.02780984 0.36210054 -0.12620221 -0.15043469 -0.021581784 0.54570544
0.1151916 0.045010693 0.15399644 -0.071978964 0.054869954 0.12339753 0.012303616 0.030857999
-0.06940999 0.07904006 0.042941526 -0.1570518 0.002568803 0.025027364 0.08346243 -0.058851715
0.13444455 -0.011159665 0.007222017 0.13207062 0.02308532 -0.051289935 0.02287701 -0.35116515
0.04828051 0.09563269 -0.037037842 -0.038993865 0.04238885 0.08459171 -0.02333798 0.113383755
0.056994073 0.40342134 0.11717944 0.054770246 0.17622806 0.11190243 0.085839406 0.03809471
-0.057743084 -0.2519281 -0.073947385 -0.065311424 -0.14170218 0.049341492 -0.19878441 -0.09575646
-0.31951353 0.20942235 0.018848611 -0.04762299 0.103157416 -0.047820717 -0.031722695 -0.14431952
0.031986114 -0.05575212 0.04326392 0.08139724 0.13166156 -0.069771886 0.12923747 -0.024305098
-0.11840373 0.050905857 -0.061267957 -0.09280764 0.004277472 0.10197731 -0.03515274 0.16044916
0.08361573 -0.22430563 0.11813263 0.09269468 0.20664126 -0.008526388 0.008676035 0.0008683121
-0.09531465 0.102677196 -0.17365403 0.10834519 -0.13528456 -0.101259455 -0.012433015 0.12697168
0.07170264 0.04973615 -0.008978122 0.0024288765 -0.04253836 0.19750097 -0.20256582 -0.21255651
00000000: ef40 163c a8ef 85be e83d a33d d420 6abe
00000010: 2ab0 b63e a68f 60be bfad 3dbd d973 d7bd
00000020: 308e 0dbe 3952 c4bd 3ee3 09be 8330 6f3d
00000030: 7a25 11bc e170 90bd 2bae 24be 7b49 003e
00000040: 5eb0 12bd 0a43 503d fc9b 813d 9943 733d
00000050: cba2 03be d5c9 bbbc 316a c5bb 1218 fd3d
00000060: 6942 c33c 6bd0 3abd 76d1 e3bc 3e65 b93e
00000070: 273b 01be 8d0b 1abe 48cc b0bc 5ab3 0b3f
00000080: 93e9 eb3d 225d 383d 3eb1 1d3e b569 93bd
00000090: 51bf 603d d8b7 fc3d 1b95 493c eac9 fc3c
000000a0: d326 8ebd c1df a13d 74e3 2f3d 30d2 20be
000000b0: 5d59 283b 3006 cd3c 5aee aa3d 7f0e 71bd
000000c0: d5ab 093e 07d7 36bc aba6 ec3b 853d 073e
000000d0: 6d1d bd3c 6515 52bd 9168 bb3c ebcb b3be
000000e0: c9c1 453d 12db c33d feb4 17bd 08b8 1fbd
000000f0: ee9f 2d3d 6b3e ad3d 4b2f bfbc be35 e83d
00000100: 9e72 693d 3e8d ce3e c6fb ef3d c456 603d
00000110: 2175 343e 1a2d e53d 92cc af3d 3309 1c3d
00000120: 0384 6cbd b8fc 80be ba71 97bd ffc1 85bd
00000130: 601a 11be 4e1a 4a3d 248e 4bbe f71b c4bd
00000140: 4797 a3be d072 563e 6768 9a3c 5310 43bd
00000150: 3244 d33d a8df 43bd a8ef 01bd 7fc8 13be
00000160: df03 033d 565c 64bd 8235 313d 99b3 a63d
00000170: 4ad2 063e 90e4 8ebd d456 043e 7c1b c7bc
00000180: a87d f2bd a982 503d 1cf4 7abd ef11 bebd
00000190: 092a 8c3b 7bd9 d03d 52fc 0fbd c94c 243e
000001a0: b93e ab3d 60b0 65be 85ef f13d b5d6 bd3d
000001b0: c499 533e 43b2 0bbc ee25 0e3c 709f 633a
000001c0: 5434 c3bd 6c48 d23d 5dd2 31be 15e4 dd3d
000001d0: 0988 0abe 1e61 cfbd d8b3 4bbc dd04 023e
000001e0: d5d8 923d 22b8 4b3d f918 13bc c92d 1f3b
000001f0: b43c 2ebd b23d 4a3e 6a6d 4fbe 6aa8 59be

net.6.weight f4 [49, 128]
0.97097516 -0.23085149 1.7278019 -0.40602964 -0.3584512 0.9882534 -1.2550313 -0.04305053
-1.6135776 -2.0078971 1.0913659 0.42361143 1.6556805 -1.0368786 -1.5586514 -1.2175711
-1.0322882 -0.703665 1.2089795 1.5696309 -0.03383392 1.2763937 -0.2627098 1.6085299
-1.8843508 -0.7540156 1.5032374 0.5821638 -1.3873286 -1.4045135 -0.7854693 -0.41596168
1.3535547 -1.1684304 -0.1802055 1.6249503 1.4769981 1.3706859 0.18488193 -1.1466101
1.5245904 -0.6680055 1.3407141 -1.0444089 1.6341041 -1.3393408 -1.4139973 -0.29973796
0.2109316 -0.35824916 0.15536442 0.5172233 1.2590264 -1.8940966 0.016575214 -0.51721793
-1.5740433 1.153668 0.23643482 1.5260214 -1.608415 -0.9341571 1.2847828 -1.8554506
-1.1925452 -0.2908753 -0.6067758 -1.540806 1.1607262 1.6573925 1.6371609 -0.14383039
-1.3445582 -0.5290157 0.92993575 1.8536841 1.8361795 -1.82132 1.3929267 -0.9872672
-1.6784205 0.009245044 -1.6232688 1.368311 -0.9678109 1.2936313 -0.8599408 -1.2904199
-1.3256807 0.11008591 -0.9875931 -0.0012541519 0.63615954 -1.672355 1.9420648 -1.2656615
-1.2239231 -0.93231976 -0.677024 -0.29937848 1.5621167 0.13899302 0.18035485 -1.2083616
1.4434309 0.03204939 1.0399133 0.18473223 0.9157647 1.4885082 1.2795031 1.5494049
-0.4464615 1.6701568 -0.98032814 0.45496777 -0.57220316 -1.2988192 -1.3721056 -1.6105347
-0.15316823 -0.21326852 1.5721893 -1.993562 0.051753815 -0.64934754 -0.2648157 -1.4452446
1.1681393 -0.3372248 1.7168604 -0.34218174 -0.02332947 0.97558486 -1.3304039 -0.12191174
-1.7634047 -1.6863225 1.1460664 0.6543389 1.7250613 -1.186805 -1.6184464 -1.3096079
-1.2651124 -0.91627103 0.920499 1.929777 -0.23167098 1.3926754 -0.36592942 1.6608032
-1.6418698 -1.5239148 1.3735598 1.1445005 -0.8056138 -1.2242795 -0.6448769 0.18641682
1.5543884 -1.3830756 0.37046462 1.8598081 1.267808 1.4159619 0.19441928 -1.2860696
1.3059599 -0.6100652 1.1245892 -0.9939587 1.2692566 -1.0002629 -1.3064747 -0.2589548
0.30678672 -0.3176451 -0.009778017 0.14961168 1.2143462 -1.6577934 0.25810146 -0.07097773
-1.536583 1.1446711 0.27271858 0.8851901 -1.6728947 -1.189467 1.0980577 -1.8414028
-1.2594744 -0.22800134 -0.34871203 -1.491144 1.064503 1.2707199 1.4350576 -0.052749384
-1.4513017 -0.04184427 1.1531038 1.8603202 1.5720192 -1.6698712 1.3255752 -1.0807142
-1.5720711 -0.36553803 -1.4315519 1.6010609 -0.90885776 1.2551775 -1.0008789 -1.9736068
-1.0098151 -0.07133648 -1.2832168 -0.026993211 1.6000376 -1.5750751 1.4795622 -1.5660424
-1.0968806 -1.1235533 -1.3060871 -0.6415092 1.7522154 0.04578147 0.20403765 -1.0366693
1.4558524 -0.16688757 0.8718523 0.30395982 0.96328616 1.2959938 1.4255493 1.1963613
-0.58862555 1.8699518 -0.74453956 0.2169332 0.049215306 -1.1785195 -1.5469649 -1.2806743
-0.14289853 -0.32254693 1.8263185 -1.6069494 0.085646026 -0.76099074 -0.10225242 -1.4236208
00000000: d491 783f 5564 6cbe 9d28 dd3f 1ee3 cfbe
00000010: ea86 b7be 2dfe 7c3f dea4 a0bf c155 30bd
00000020: b689 cebf 6381 00c0 e1b1 8b3f 99e3 d83e
00000030: 57ed d33f 70b8 84bf e481 c7bf 5fd9 9bbf
00000040: 0522 84bf 6423 34bf d7bf 9a3f aae9 c83f
00000050: 7095 0abd de60 a33f e681 86be 4fe4 cd3f
00000060: 6832 f1bf 2b07 41bf 156a c03f b008 153f
00000070: fc93 b1bf 19c7 b3bf 8414 49bf eef8 d4be
00000080: 4841 ad3f 218f 95bf ca87 38be 5ffe cf3f
00000090: 460e bd3f a372 af3f b051 3d3e 1fc4 92bf
000000a0: c725 c33f 6902 2bbf 859c ab3f 31af 85bf
000000b0: 532a d13f 856f abbf ddfd b4bf 4177 99be
000000c0: 74fe 573e 6f6c b7be da17 1f3e bf68 043f
000000d0: c727 a13f c271 f2bf bec8 873c 6568 04bf
000000e0: 407a c9bf 65ab 933f f81b 723e ab54 c33f
000000f0: 8be0 cdbf eb24 6fbf c373 a43f 687f edbf
00000100: 52a5 98bf 9bed 94be a955 1bbf 2239 c5bf
00000110: ad92 943f 7025 d43f 7d8e d13f 4648 13be
00000120: 7c1a acbf 936d 07bf 4510 6e3f 8545 ed3f
00000130: ee07 eb3f 0421 e9bf 6c4b b23f 8bbd 7cbf
00000140: 7cd6 d6bf 8678 173c 46c7 cfbf d124 af3f
00000150: 75c2 77bf b695 a53f 1525 5cbf 7b2c a5bf
00000160: e8af a9bf b974 e13d e7d2 7cbf 5b62 a4ba
00000170: 5adb 223f bb0f d6bf 9495 f83f 3201 a2bf
00000180: 83a9 9cbf 82ac 6ebf 7251 2dbf 2348 99be
00000190: 71f3 c73f 3054 0e3e f1ae 383e 98ab 9abf
000001a0: 58c2 b83f 3946 033d e11b 853f 722a 3d3e
000001b0: 8e6f 6a3f 7087 be3f c2c6 a33f e652 c63f
000001c0: 9a96 e4be b3c7 d53f c9f6 7abf 89f1 e83e
000001d0: e87b 12bf b53f a6bf 28a1 afbf 0026 cebf
000001e0: 22d8 1cbe 1063 5abe 803d c93f 0a2d ffbf
000001f0: cffb 533d a43b 26bf ec95 87be c6fd b8bf
00000200: 9785 953f bba8 acbe 15c2 db3f 7232 afbe
00000210: 721d bfbc eebf 793f ad4a aabf ddac f9bd
00000220: 3fb7 e1bf 6ad9 d7bf 4eb2 923f c182 273f
00000230: cfce dc3f 3ae9 97bf 4029 cfbf 3ba1 a7bf
00000240: 34ef a1bf bd90 6abf d3a5 6b3f ef02 f73f
00000250: 283b 6dbe 3043 b23f 1a5b bbbe 3395 d43f
00000260: ca28 d2bf a40f c3bf cfd0 af3f fe7e 923f
00000270: b53c 4ebf 31b5 9cbf a716 25bf 0de4 3e3e
00000280: 33f6 c63f 9f08 b1bf 8aad bd3e 310e ee3f
00000290: 8847 a23f 3d3e b53f d915 473e ee9d a4bf
000002a0: b229 a73f 3c2d 1cbf 8af2 8f3f 1474 7ebf
000002b0: 0077 a23f 9d08 80bf 903a a7bf b995 84be
000002c0: 2613 9d3e 61a2 a2be fa33 20bc ce33 193e
000002d0: b26f 9b3f 9332 d4bf e025 843e c65c 91bd
000002e0: c0ae c4bf 9584 923f c5a1 8b3e d29b 623f
000002f0: 6a21 d6bf 7440 98bf 288d 8c3f 16b3 ebbf
00000300: 7536 a1bf 2f79 69be 628a b2be cedd bebf
00000310: a241 883f f3a6 a23f f8af b73f bd0f 58bd
00000320: 41c4 b9bf e664 2bbd e898 933f f91e ee3f
00000330: ed37 c93f 57be d5bf 73ac a93f d854 8abf
00000340: a039 c9bf cd27 bbbe 183d b7bf 90ef cc3f
00000350: e7aa 68bf a8a9 a03f cd1c 80bf 269f fcbf
00000360: 9f41 81bf dc18 92bd 7340 a4bf de20 ddbc
00000370: 08ce cc3f 109c c9bf 4b62 bd3f 1474 c8bf
00000380: 9566 8cbf 98d0 8fbf dd2d a7bf f239 24bf
00000390: 9848 e03f 5a85 3b3d 3fef 503e 94b1 84bf
000003a0: 5f59 ba3f 93e4 2abe b631 5f3f 9fa0 9b3e
000003b0: ec99 763f 20e3 a53f 6678 b63f 5e22 993f
000003c0: 2ab0 16bf 955a ef3f 259a 3ebf bd23 5e3e
000003d0: fd95 493d bad9 96bf f202 c6bf 23ed a3bf
000003e0: fe53 12be df24 a5be cec4 e93f 85b0 cdbf
000003f0: 2f67 af3d 4ad0 42bf b769 d1bd 3539 b6bf

net.6.bias f4 [49]
0.41108853 0.059075624 0.14072356 0.42783564 0.32118505 -0.047880072 -0.07602629 0.3031868
0.29099342 0.20708226 0.40178183 0.62908804 0.12474922 0.21930176 0.38098735 0.27539635
0.21117803 0.3376232 0.4516276 0.52739245 0.14425707 0.98593354 0.24593122 0.2790399
0.36423045 0.5655602 0.18836461 0.17345838 0.08281176 0.43261844 0.37464097 0.17710759
0.44519287 0.13730693 0.17502978 0.51015204 0.09353386 0.14983538 0.3951527 0.29295728
-0.0777483 -0.010810432 0.22958505 0.10226029 0.016063282 0.15574762 0.31676382 0.34615725
0.2482084
00000000: 327a d23e 48f9 713d d619 103e 460d db3e
00000010: 5e72 a43e e51d 44bd acb3 9bbd 4d3b 9b3e
00000020: 17fd 943e 5f0d 543e 59b6 cd3e ea0b 213f
00000030: 857c ff3d a490 603e c610 c33e c000 8d3e
00000040: 0e3f 583e f3dc ac3e bc3b e73e 3103 073f
00000050: 20b8 133e 2466 7c3f 65d5 7b3e 51de 8e3e
00000060: 6a7c ba3e 8ec8 103f a7e2 403e 139f 313e
00000070: 3699 a93d 2a80 dd3e f1d0 bf3e b15b 353e
00000080: 52f0 e33e 309a 0c3e 023b 333e 5399 023f
00000090: ae8e bf3d 726e 193e 7451 ca3e 7ffe 953e
000000a0: 803a 9fbd 3d1e 31bc 5818 6b3e d86d d13d
000000b0: 2597 833c 4e7c 1f3e de2e a23e 863b b13e
000000c0: 582a 7e3e
