lunar_lander_continuous/models/DQN/layers_3/8_128_tanh_128_tanh_225/model.pth (torch, 188631 bytes, 6 tensors)

net.0.weight f4 [128, 8]
0	0x3fafc571	1.3732129
1	0xbe3a22ce	-0.1817734
2	0x3e7115c9	0.23543467
3	0x3f5c8ed2	0.86155427
4	0xbd733d5c	-0.05938469
5	0xbf942ff3	-1.1577133
6	0xbf48a626	-0.7837852
7	0x3e43c101	0.19116594
8	0x3f316f50	0.69310474
9	0x3ef929b9	0.48664644
10	0x3f5b8968	0.8575654
11	0x3f956c00	1.1673584
12	0xbf3f1a02	-0.7464906
13	0xbf0875ea	-0.5330492
14	0xbf6cfc65	-0.92572623
15	0xc0061789	-2.0951865
16	0xbe8d9662	-0.27653795
17	0x3f056d65	0.5212005
18	0xbe415899	-0.18881454
19	0x3df3daff	0.119070046
20	0x3e7ebe91	0.24877383
21	0x3f8e9b61	1.1141168
22	0xbf9d97f4	-1.2311997
23	0xbf15601b	-0.5834977
24	0xbd8c656b	-0.068552814
25	0x3e5a27a1	0.2130418
26	0xbe9b6c18	-0.30355906
27	0x3e8b19d0	0.2716813
28	0x3f0709d0	0.5274935
29	0x3f34d5de	0.70638835
30	0x3d847df3	0.064693354
31	0xbf2dd17c	-0.6789777
32	0x3fc70ada	1.5550187
33	0x3d3112ee	0.043230943
34	0xbf1e4cfb	-0.6183621
35	0xbf7d6174	-0.98976827
36	0x409f052f	4.969383
37	0x3fa5a290	1.2940235
38	0xbea196f4	-0.3156048
39	0xbf5da015	-0.8657239
40	0x3e18ccb5	0.1492184
41	0xbf0165f6	-0.50546205
42	0x3f630da7	0.88692707
43	0xbf7447f2	-0.9542228
44	0xbf09e7a0	-0.53869057
45	0xbf2dbeaf	-0.67869085
46	0x3fe4a507	1.7862862
47	0x3ed737b0	0.42034674
48	0xbda46750	-0.08027518
49	0x40d07637	6.5144305
50	0x3f677941	0.90419394
51	0xbfdfcd6b	-1.7484564
52	0x3ecd0663	0.40043935
53	0x3f24495e	0.6417445
54	0xbf2e7fb5	-0.68163615
55	0xbf2302b9	-0.6367603
56	0xbe230e0e	-0.1592333
57	0xbe19237b	-0.14954941
58	0xbcb2001b	-0.021728566
59	0x3ed7248a	0.42020065
60	0x3e9db94c	0.30805433
61	0x3f5245c6	0.82137716
62	0x3ff608f4	1.9221482
63	0x3e8cef1d	0.2752618
64	0xbf241397	-0.6409239
65	0x3eea42c5	0.45754066
66	0xbde40f09	-0.1113568
67	0xbecf26ca	-0.4045928
68	0x3f1cdd3c	0.61275077
69	0x3f816c36	1.0111148
70	0xc07ce3b2	-3.9513974
71	0xbf8f36c5	-1.1188589
72	0x3ea91f6f	0.33031794
73	0x3ee1fe78	0.44139457
74	0x3e937a66	0.2880432
75	0x3e652bfb	0.22380058
76	0xbf2bfb72	-0.6718055
77	0xbf503bb0	-0.81341076
78	0xbf8ee80e	-1.1164567
79	0x3f5e0dcf	0.8673982
80	0x3f0023ef	0.5005483
81	0x3eced9ef	0.40400645
82	0x3f915a43	1.1355671
83	0x3fa0f22c	1.2573905
84	0xbef99775	-0.48748365
85	0xbed379c0	-0.41303825
86	0x3ee46d22	0.44614512
87	0x4021b756	2.526815
88	0x3e7f510e	0.24933264
89	0x3f846325	1.0342757
90	0x3f5cc6a8	0.86240625
91	0xbfe8bc35	-1.8182436
92	0x3beb307c	0.0071774106
93	0x3f843b97	1.0330685
94	0xbf63ed07	-0.8903355
95	0xbf8561ef	-1.0420512
96	0x3faa465f	1.3302726
97	0xbebeee73	-0.37291297
98	0x3fec694a	1.8469632
99	0xbf801df2	-1.0009139
100	0x3ee1ed42	0.44126326
101	0xbdc84c4a	-0.09780176
102	0xbfeb01e4	-1.8359952
103	0x3f8093bd	1.0045086
104	0x3f7a6ec1	0.9782525
105	0xbf068e1f	-0.5256061
106	0xbf64e1bb	-0.8940694
107	0x3f3a5f9d	0.72802144
108	0x3faf9450	1.3717136
109	0xc00d8b3c	-2.2116232
110	0x3f4681b8	0.77541685
111	0xbe3ee015	-0.18640168
112	0x3dc6cccb	0.0970703
113	0xbe1c8f88	-0.15289128
114	0xbe007cfe	-0.1254768
115	0x3ee9b9fb	0.45649704
116	0x3eadad04	0.33921063
117	0x3f543e36	0.82907426
118	0xbf68a651	-0.9087878
119	0xbf88a487	-1.067521
120	0x3f024b7b	0.50896424
121	0xbea39c0e	-0.31954998
122	0x3ec8d25b	0.39222988
123	0xbd66921a	-0.056291677
124	0xbec1059a	-0.37699586
125	0xbee8a216	-0.45436162
126	0x3f1f87ae	0.62316406
127	0x3eb6f332	0.35732418
128	0xbfb0f056	-1.3823345
129	0xbea561ab	-0.32301077
130	0xbdf14b97	-0.11781996
131	0xbf0f4207	-0.55960125
132	0xbf9757fe	-1.1823728
133	0x3fc8485f	1.5647086
134	0xbeb188a2	-0.34674555
135	0x3f8ef785	1.1169287
136	0xbf2a504c	-0.66528773
137	0x3e1f61d1	0.15564658
138	0x3fbf6946	1.4954002
139	0xc02fd4e9	-2.74737
140	0xbe15c53e	-0.14626023
141	0x3eec7276	0.46181077
142	0x3f55e0ea	0.83546317
143	0xbf8744cb	-1.0567869
144	0xbeea73e7	-0.4579155
145	0xbd0545f2	-0.03253741
146	0xbf0eded1	-0.5580874
147	0x3ee42b4e	0.4456429
148	0xbfe0efa3	-1.7573131
149	0xbe387e22	-0.18016866
150	0x408a080d	4.3134828
151	0x3d3436ab	0.043997448
152	0x3e50d8ad	0.20395155
153	0x3e7388d3	0.23782663
154	0x3ca42da7	0.0200413
155	0x3f8d3bd2	1.1033881
156	0x3efe35d8	0.49650455
157	0x3f4a009e	0.7890719
158	0xbffb63f1	-1.9639875
159	0xbf83c34d	-1.0293976
160	0xbe745b17	-0.23862873
161	0x3ccde2c8	0.025132552
162	0xbf3051ec	-0.68875
163	0x3f836dec	1.026792
164	0x3fb8c3d3	1.4434761
165	0x3ffa261b	1.9542879
166	0xbf1fb197	-0.62380356
167	0xbe834d3e	-0.2564487
168	0x3ec91e3c	0.3928088
169	0x3f0393f5	0.5139764
170	0xbd922a7a	-0.07137008
171	0x3f8b5d53	1.0887855
172	0x3e14d408	0.14534009
173	0x3f5300d5	0.82423145
174	0xc0279442	-2.618424
175	0xbfa40c33	-1.2816223
176	0xbe3c7e7a	-0.18407622
177	0xbf145be8	-0.5795274
178	0x3d6a148f	0.057148512
179	0x3e32fbbc	0.17478842
180	0x3dbc143d	0.09183548
181	0x3f8eaeed	1.1147133
182	0x3f0fccf8	0.5617213
183	0x4019d194	2.4034166
184	0x3edf7225	0.43641773
185	0xbed862d3	-0.42262897
186	0x3e1c5f98	0.15270841
187	0xbedec47e	-0.43509287
188	0xbee1a4ff	-0.44071195
189	0xbf13bc02	-0.5770875
190	0x3ea0b138	0.31385207
191	0x3ecfb13b	0.40564904
192	0xbf1cce45	-0.6125224
193	0xbf5c41a6	-0.8603767
194	0x3ec2c9d9	0.38044623
195	0xbf868611	-1.0509664
196	0x3f278054	0.6543019
197	0x3e8bc600	0.272995
198	0x3f4fe2b6	0.8120531
199	0x3f284ab0	0.65738964
200	0xbe2e11ab	-0.16998927
201	0xbe22211d	-0.15832944
202	0xbf81dbde	-1.0145223
203	0x3f4ba36b	0.7954623
204	0x3fcd8dc8	1.6058893
205	0x3f2d86c6	0.6778377
206	0xbfe5430a	-1.7911084
207	0xbfd5d796	-1.6706417
208	0xbf82b63e	-1.0211866
209	0x3edb980e	0.42889446
210	0x3dd00017	0.10156267
211	0x3f1ea9b1	0.6197768
212	0x3e8b04ec	0.27152193
213	0xbf49592c	-0.7865169
214	0xbf502d51	-0.8131915
215	0xbd58e290	-0.05295044
216	0xbf370e20	-0.7150593
217	0xbebd32da	-0.3695286
218	0xbe6a41e8	-0.22876704
219	0x3ec9c263	0.39406118
220	0x3eaf6ee1	0.3426428
221	0xbf6c2823	-0.92248744
222	0x3fa1da42	1.2644732
223	0xbf67a1d0	-0.9048128
224	0xbf2f45f8	-0.6846614
225	0xbecff4a1	-0.40616325
226	0x3e853c11	0.2602239
227	0xbf85029a	-1.0391419
228	0xbef4aeac	-0.47789514
229	0xbf75acc7	-0.9596676
230	0x3f97bd10	1.1854572
231	0x3ffd1922	1.9773295
232	0xbfdcf1e3	-1.7261318
233	0xbf33d601	-0.7024842
234	0xbfaa51bd	-1.3306195
235	0x3ee3115d	0.44349185
236	0xbe28a9a4	-0.16470963
237	0x3fd034b0	1.6266079
238	0xbf429fff	-0.76025385
239	0x403e6381	2.9748232
240	0xbe72d5e4	-0.23714405
241	0xbcb6acc3	-0.022299176
242	0xbdb232f0	-0.08701122
243	0x3f2fa0ca	0.6860472
244	0xbf0f4d6b	-0.55977505
245	0xbf354cff	-0.7082061
246	0xbf6b6d13	-0.9196331
247	0x3afbbe71	0.0019206536
248	0x3f0ecc26	0.55780256
249	0x3d0614fa	0.03273485
250	0x3e00b7b6	0.1257008
251	0xbef7b42b	-0.48379645
252	0xbf0c909b	-0.5490815
253	0xbf4ed503	-0.8079378
254	0xbee26a3d	-0.44221678
255	0x3f371a7b	0.7152478

net.0.bias f4 [128]
0	0xbe251efb	-0.161251
1	0xbe58e7a3	-0.21182112
2	0x3e769358	0.24079645
3	0x3f955af7	1.1668385
4	0x3e94aa57	0.2903621
5	0x3d632426	0.055454396
6	0xbe35a853	-0.17739992
7	0xbee3a48f	-0.44461486
8	0xbda99fb5	-0.08282415
9	0x3f82201e	1.0166051
10	0x3d241f02	0.040068634
11	0x3e568c99	0.20952071
12	0xbe89aa8e	-0.26887935
13	0x3d9601a1	0.073245294
14	0xbf3b2075	-0.730964
15	0xbf085549	-0.53255135
16	0xbf634a39	-0.8878513
17	0x3f0a8254	0.54105115
18	0x3e6a9f55	0.22912343
19	0xbea6ca25	-0.325761
20	0x3da811e0	0.082065344
21	0xbe8330b0	-0.25623083
22	0xbe1744c2	-0.14772323
23	0xbf813741	-1.0094987
24	0xbfa1cedb	-1.2641252
25	0x3cd52354	0.026017822
26	0x3f9864b8	1.1905737
27	0x3f3ef5dc	0.745939
28	0x3dde33ef	0.10849749
29	0x3c2ac8ca	0.010423848
30	0xbf3b4ba4	-0.73162293
31	0x3f3407f2	0.70324624
32	0x3d9a52f2	0.07535352
33	0x3e964d29	0.29355744
34	0xbf2e71f7	-0.68142647
35	0xbf4f4a65	-0.8097289
36	0x3f1efc0f	0.6210336
37	0x3f29986c	0.662482
38	0x3efb7df9	0.49119547
39	0x3e7bcdd7	0.2459024
40	0xbf8a04a6	-1.0782669
41	0xbf0ee3cb	-0.55816334
42	0xbed581c1	-0.41700557
43	0xbf577f3f	-0.8417854
44	0x3f83f685	1.0309607
45	0x3f2e6cf4	0.68135
46	0x3ea04369	0.3130143
47	0xbcf1d188	-0.029518858
48	0xbf8566de	-1.0422018
49	0xbe24aeb9	-0.16082276
50	0xbe99f89f	-0.30072495
51	0x3f09eef5	0.53880244
52	0x3f24d081	0.6438065
53	0xbf257a71	-0.64639956
54	0x3ecde047	0.40210173
55	0xbeb33779	-0.3500326
56	0x3eed037a	0.46291715
57	0xbf1f2ace	-0.6217469
58	0xbf323c67	-0.69623417
59	0xbf003dd2	-0.5009433
60	0xbf945d6f	-1.1591014
61	0x3f60e52c	0.8784969
62	0x3edcaee7	0.4310219
63	0x3f479a15	0.77969486
64	0x3f5dc1bd	0.86623746
65	0x3d92a671	0.071606524
66	0xbf65c440	-0.8975258
67	0x3ed271ad	0.41102353
68	0x3d6c9277	0.057756867
69	0x3f08f0ad	0.5349224
70	0x3ec5fbdd	0.3866872
71	0x3ecd91f5	0.4015042
72	0x3eedca08	0.464432
73	0x3cdca11f	0.026932297
74	0x3f400c81	0.7501908
75	0xbf847d67	-1.035077
76	0xbf4ddbae	-0.8041333
77	0x3e2cf5b5	0.16890605
78	0xbebaf5a4	-0.36515534
79	0x3ef227cf	0.47295997
80	0x3e9b3e91	0.30321172
81	0x3e5d6b1d	0.21622892
82	0xbee45004	-0.44592297
83	0xbf48df6c	-0.78465915
84	0xbe0388b1	-0.12845112
85	0xbf05acc4	-0.52216744
86	0x3ef87192	0.48524147
87	0x3e1fe3a5	0.15614183
88	0xbe83166b	-0.2560304
89	0x3e4c8076	0.19970879
90	0x3ea349e6	0.31892318
91	0x3f88d2ba	1.0689309
92	0xbea24ae8	-0.31697774
93	0x3f02a53d	0.51033384
94	0xbec2a435	-0.38015905
95	0x3e826215	0.25465456
96	0x3e92567a	0.285816
97	0x3e5158b1	0.2044399
98	0x3ed35004	0.41271985
99	0xbf0eb4f5	-0.5574487
100	0xbf15a3f3	-0.5845329
101	0xbecfed34	-0.4061066
102	0x3ed10cae	0.40829986
103	0xbf517bc0	-0.8182945
104	0x3ef74dac	0.48301446
105	0xbcbc5390	-0.022989064
106	0x3dd9e483	0.10639288
107	0xbe511f80	-0.20422173
108	0x3e9c0a84	0.30476773
109	0x3d24e830	0.040260494
110	0x3f4cb877	0.7996897
111	0xbf24fc30	-0.6444731
112	0x3f94ad50	1.1615391
113	0xbf0e5675	-0.5560067
114	0x3f02b517	0.5105757
115	0x3e0a558a	0.13509193
116	0x3ea51fd7	0.32250854
117	0xbf192eb0	-0.59836864
118	0x3e725542	0.23665336
119	0x3e5d63d7	0.21620117
120	0x3e856d2c	0.26059854
121	0xbe5d066a	-0.21584478
122	0x3f158e27	0.5842003
123	0x3f5649d8	0.83706427
124	0x3e5fbcc0	0.21849346
125	0xbfa75987	-1.3074197
126	0x3fa5d952	1.2956946
127	0x3f1019be	0.5628928

net.2.weight f4 [128, 128]
0	0x3efc2975	0.4925038
1	0x3f2d4c08	0.6769414
2	0xbdb2fb35	-0.0873932
3	0xbe638559	-0.22218837
4	0x3efc643f	0.49295232
5	0xbea8ea36	-0.3299119
6	0x3a703427	0.0009163045
7	0xbda4a26b	-0.08038791
8	0xbe9f3121	-0.3109217
9	0xbee092dc	-0.43862045
10	0xbbc61cab	-0.006045898
11	0x3e005c78	0.12535274
12	0xbe2cd9be	-0.16879937
13	0xbf110d94	-0.56661344
14	0x3ea7aa7b	0.32747254
15	0xbdd656c7	-0.1046577
16	0xbce3de7e	-0.027816053
17	0x3f25e0f6	0.6479639
18	0xbda14f1b	-0.07876416
19	0x3e962695	0.2932631
20	0xbecb76de	-0.39739126
21	0x3ec1f59d	0.378827
22	0x3ec96750	0.39336634
23	0x3ed45da4	0.41477692
24	0x3e9fc87a	0.3120764
25	0xbeb9c1ec	-0.36280763
26	0x3cf5950c	0.029978298
27	0x3f0110c5	0.50416213
28	0xbf13174d	-0.5745743
29	0xbec3b9c2	-0.3822766
30	0x3dd2a72f	0.10285794
31	0x3d4eaca0	0.050457597
32	0xbe83d1d8	-0.25746036
33	0x3f08b931	0.5340758
34	0xbee22086	-0.44165438
35	0x3edd3abf	0.43208882
36	0x3e425f35	0.18981631
37	0x3ee0205e	0.43774694
38	0x3ef5fd80	0.48044968
39	0x3ec86130	0.39136648
40	0xbc847314	-0.016168155
41	0xbe0e6a48	-0.1390773
42	0xbd8915b3	-0.06693592
43	0xbecbd9d0	-0.39814615
44	0xbedc7447	-0.43057463
45	0xbd58f7a8	-0.05297056
46	0x3ed4dc4f	0.41574332
47	0x3d5a100e	0.053237967
48	0xbe9231df	-0.28553674
49	0xbedc78a3	-0.4306079
50	0xbce4cd5a	-0.02792995
51	0xbdb70623	-0.08936717
52	0x3f3bdb7d	0.7338179
53	0x3e7b900a	0.24566665
54	0x3df1401f	0.11779808
55	0x3dc5100a	0.096222
56	0x3f3194b9	0.6936756
57	0xbf98232e	-1.1885736
58	0xbd95ede4	-0.07320765
59	0xbea7f667	-0.32805178
60	0x3ecafc27	0.39645502
61	0x3d07f220	0.033189893
62	0x3ee338df	0.44379327
63	0xbe4fd7e4	-0.202972
64	0x3dcf2c64	0.10115889
65	0x3f2994c6	0.66242635
66	0x3e67e76d	0.22646876
67	0x3e8ef561	0.27921584
68	0x3cf03d61	0.029326143
69	0x3e847f31	0.2587829
70	0xbee0056d	-0.4375414
71	0xbed4ed15	-0.4158713
72	0x3e5ea497	0.21742474
73	0xbf06c81a	-0.5264908
74	0x3c36a87f	0.011148571
75	0x3e886b6e	0.26644462
76	0xbef81311	-0.48452047
77	0xbec4aeb5	-0.3841454
78	0x3ee669ef	0.45002696
79	0x3f054f81	0.5207444
80	0x3eb4a27a	0.3528021
81	0xbeec4e04	-0.4615327
82	0x3ef4dbed	0.4782404
83	0x3e9ecb14	0.3101431
84	0xbd9a1c03	-0.07524874
85	0x3e673c4f	0.225816
86	0xbe465428	-0.1936804
87	0x3f3bdfe2	0.73388493
88	0xbf0f0cb2	-0.55878747
89	0x3ec0eb6a	0.37679607
90	0x3e88f2ee	0.2674784
91	0xbebd1f28	-0.36937833
92	0x3edac637	0.4272935
93	0xbe2ac8ae	-0.16678116
94	0x3e095cb4	0.1341427
95	0xbdf374a1	-0.118874796
96	0xbec2263a	-0.3791979
97	0xbf51fcb0	-0.82026196
98	0x3f008279	0.50199085
99	0xbf38f03a	-0.72241557
100	0xbeabdec6	-0.335684
101	0x3e89d407	0.26919577
102	0xbe9692a9	-0.29408768
103	0x3e6b55a5	0.2298189
104	0x3e08c6bc	0.13357061
105	0x3e3e3585	0.18575104
106	0x3eb95e28	0.36204648
107	0xbe0644db	-0.13112204
108	0xbeab0f6a	-0.33410197
109	0xbee978a4	-0.45599854
110	0xbf007ac8	-0.5018735
111	0xbf74b7e2	-0.9559308
112	0xbe899048	-0.2686789
113	0xbe47dcf3	-0.19517879
114	0x3eca216f	0.39478633
115	0x3ef1863c	0.47172725
116	0x3f576b26	0.8414787
117	0x3e3cb598	0.18428648
118	0x3ed92d3a	0.42417318
119	0x3e8b4cb8	0.2720697
120	0x3e950d61	0.2911177
121	0xbe540bb1	-0.20707585
122	0x3f4c71ed	0.79861337
123	0x3e29071a	0.16506615
124	0xbef96003	-0.48706064
125	0x3ed0f0b4	0.40808642
126	0xbe0cc037	-0.13745199
127	0x3df00111	0.117189534
128	0xbe765726	-0.24056682
129	0xbe209761	-0.15682746
130	0x3d89856c	0.06714901
131	0x3ea1a5be	0.31571764
132	0xbe0767bd	-0.13223167
133	0x3e5f77f3	0.21823101
134	0xbec79c79	-0.38986567
135	0xbe0e4d6b	-0.1389672
136	0x3e35cb61	0.17753364
137	0x3e0bb8a0	0.13644648
138	0xbe3f974e	-0.18710062
139	0x3d45eae0	0.048319697
140	0x3ec57d60	0.38572216
141	0xbee9c426	-0.45657462
142	0xbde87467	-0.11350327
143	0xbe07354f	-0.1320393
144	0xbd0396cb	-0.03212623
145	0xbe677e62	-0.22606805
146	0x3e0cf744	0.137662
147	0xbf0e32c7	-0.5554623
148	0xbf5880ff	-0.8457183
149	0xbdef2ec3	-0.11678841
150	0x3d20044d	0.0390666
151	0xbe421fdf	-0.1895747
152	0x3d1ebb78	0.038753003
153	0xbee447ab	-0.44585928
154	0x3dccdd02	0.100030914
155	0xbc1d1946	-0.009588545
156	0x3e39e545	0.18153866
157	0x3e69a51e	0.22816893
158	0xbed9b095	-0.42517534
159	0x3e3c2498	0.18373334
160	0x3e375bf9	0.17906179
161	0xbf7fa7cf	-0.9986543
162	0x3e942d5b	0.28940853
163	0x3ea2b783	0.31780633
164	0xbe14fb04	-0.1454888
165	0xbda4af97	-0.080413036
166	0x3d443237	0.04789945
167	0x3ea2ea0f	0.31819198
168	0x3cc68536	0.024233442
169	0xbf0ec72f	-0.5577268
170	0x3e496b06	0.19669732
171	0xbd81621d	-0.06317542
172	0x3cf67e98	0.030089661
173	0x3f1f494a	0.62221205
174	0xbe5e4f33	-0.217099
175	0x3db61556	0.08890788
176	0x3c044de8	0.008075215
177	0x3e6dc99a	0.23221436
178	0xbe914e0b	-0.28379855
179	0x3e7a8d3d	0.2446794
180	0xbeb4b7e8	-0.3529656
181	0x3e77c35c	0.24195617
182	0xbd7c08a2	-0.06153167
183	0xbea3a544	-0.31962025
184	0xbe6d44b2	-0.23170736
185	0x3e6d0575	0.23146613
186	0x3e7f56cb	0.24935453
187	0x3e87c29f	0.26515672
188	0xbc1b33c6	-0.009472793
189	0x3e3ee864	0.18643337
190	0xbe3a318f	-0.18182968
191	0xbe056c6d	-0.13029642
192	0x3e6eddfb	0.23326866
193	0xbf156e1a	-0.58371127
194	0xbe697896	-0.22799906
195	0xbf0e1bfc	-0.5551145
196	0xbee68227	-0.45021173
197	0xbe811a95	-0.25215593
198	0x3ed59889	0.41717938
199	0x3e8b5efd	0.27220908
200	0xbe6d3ac9	-0.23166956
201	0xbe88d476	-0.26724595
202	0xbe2802f1	-0.16407372
203	0xbe375d5f	-0.17906712
204	0x3e725867	0.23666535
205	0xbe1b7d77	-0.1518458
206	0xbef8b3db	-0.4857472
207	0xbef02281	-0.46901324
208	0xbef941d4	-0.48683035
209	0x3dbacf3e	0.091215596
210	0xbeee68ee	-0.4656443
211	0xbc8e1489	-0.017343776
212	0x392bbf82	0.00016379173
213	0x3e8c8e36	0.27452248
214	0x3ef7ecfc	0.48422992
215	0xbe9c707b	-0.30554566
216	0xbd967ccf	-0.07348024
217	0x39ca8c0e	0.0003863279
218	0xbdfcdf70	-0.12347305
219	0x3dd4c525	0.10389165
220	0x3e66a382	0.22523311
221	0x3e988088	0.29785562
222	0xbc8a43a4	-0.016877957
223	0xbf7cc991	-0.98745066
224	0xbeb4f604	-0.35343945
225	0x3dba82fd	0.09107015
226	0xbf172e14	-0.59054685
227	0x3e2e313d	0.1701097
228	0x3f919d3d	1.137611
229	0xbe3ff392	-0.18745258
230	0xbddaf151	-0.10690559
231	0xbf0e62f1	-0.5561972
232	0xbeb752cd	-0.3580536
233	0xbd8cbbaf	-0.06871735
234	0x3ea7ecd0	0.3279786
235	0x3dc15e04	0.0944176
236	0xbdf2f960	-0.11863971
237	0xbdf5fb58	-0.12010831
238	0xbddaa30d	-0.10675631
239	0x3e9d3adb	0.30708966
240	0xbe3d8521	-0.18507816
241	0xbed468a3	-0.4148608
242	0xbf8cee8d	-1.10103
243	0xbe9b33c5	-0.30312935
244	0x3e43cf22	0.19121984
245	0xbe993c5f	-0.29928872
246	0x3e0e7ce1	0.13914825
247	0xbf0c7cae	-0.54877746
248	0xbf3740c6	-0.7158321
249	0xbe5e9490	-0.2173636
250	0xbe1da294	-0.1539405
251	0x3e19fad5	0.15037091
252	0x3e921be8	0.28536916
253	0x3e59ea1a	0.21280709
254	0x3dcab6f2	0.09898175
255	0x3e42c6a3	0.19021086

net.2.bias f4 [128]
0	0x3c565ac2	0.013083162
1	0x3e60f439	0.21968164
2	0xbe9f418d	-0.311047
3	0xbeaae853	-0.33380374
4	0xbe8d92ac	-0.27650964
5	0xbde8ea8e	-0.11372863
6	0xbea65837	-0.32489178
7	0xbe3f88b6	-0.18704495
8	0x3d60c110	0.05487162
9	0x3ef276f1	0.4735637
10	0x3dfbaa4c	0.12288341
11	0xbe599cf1	-0.21251275
12	0xbebb4a91	-0.36580327
13	0x3eba1e5c	0.36351287
14	0xbee74cc4	-0.45175755
15	0x3c93652a	0.017992575
16	0x3d0b3411	0.0339852
17	0x3ef97099	0.48718718
18	0x3e92eb47	0.28695127
19	0xbe4588ac	-0.19290417
20	0x3e125981	0.14291956
21	0x3ec5b961	0.38617995
22	0x3e23c358	0.15992486
23	0xbe264d37	-0.16240393
24	0xbc9a86de	-0.018863138
25	0x3e94f04a	0.29089576
26	0xbe281f4d	-0.1641819
27	0x3e437ded	0.19091006
28	0xbf177079	-0.59155995
29	0x3e757ed5	0.23974164
30	0xbf3c2dcb	-0.73507375
31	0xbf0864ae	-0.53278625
32	0xbecf7300	-0.40517426
33	0xbe9a9b91	-0.30196813
34	0xbe1f7470	-0.15571761
35	0x3e2ca6d0	0.16860509
36	0xbd6fe3b7	-0.058566775
37	0x3e8b83d1	0.27249005
38	0x3d5a61b6	0.05331584
39	0xbf1f8220	-0.6230793
40	0x3e73307e	0.23748967
41	0xbdee4a91	-0.11635316
42	0x3e5a382c	0.2131049
43	0x3e19e4d1	0.15028693
44	0x3ef1993e	0.47187227
45	0x3e0532fb	0.13007729
46	0x3e0f4757	0.13992058
47	0x3ee25fe1	0.44213775
48	0xbe200c5a	-0.15629712
49	0x3e83f155	0.2577006
50	0x3ec62afe	0.38704675
51	0x3ed5f05f	0.4178495
52	0xbef63cc2	-0.4809323
53	0x3d8163ef	0.06317889
54	0xbc68dc3a	-0.014212662
55	0xbdc8a096	-0.09796254
56	0xbe3e7667	-0.18599854
57	0xbf192e8d	-0.59836656
58	0xbe5b2d92	-0.21404102
59	0xbe20761c	-0.15670055
60	0x3ea502a6	0.32228583
61	0x3edce797	0.4314544
62	0xbc99427b	-0.018708458
63	0x3e89f568	0.26945043
64	0xbe6d9718	-0.23202169
65	0xbc793382	-0.015210034
66	0x3e62250f	0.22084449
67	0x3eee50f5	0.4654614
68	0x3de69fae	0.11260925
69	0xbe27919b	-0.16364138
70	0x3e82a30f	0.2551503
71	0xbea0a682	-0.31377035
72	0xbc423059	-0.011852347
73	0x3eaa449a	0.33255464
74	0xbd68bf00	-0.056822777
75	0x3e2ea418	0.17054784
76	0x3f0b8b50	0.5450945
77	0x3f0811e6	0.5315231
78	0x3e0a8e30	0.13530803
79	0x3ee7f505	0.45304123
80	0xbe04beaf	-0.12963365
81	0x3e8840d8	0.26611972
82	0xbd3f5223	-0.04670919
83	0xbeace64b	-0.3376945
84	0xbee54ebd	-0.44786635
85	0x3e9eefe0	0.31042385
86	0x3e9a0646	0.3008291
87	0x3cf50bbc	0.029912822
88	0xbe9bb596	-0.30411977
89	0x3e8a7b0b	0.27047
90	0xbe071d7f	-0.13194846
91	0xbef09f93	-0.46996745
92	0x3ebc64a4	0.36795533
93	0xbd4d2c7a	-0.050091244
94	0x3d4685b2	0.048467346
95	0x3ef0646a	0.4695161
96	0xbe946692	-0.28984505
97	0x3d058007	0.0325928
98	0xbda97319	-0.08273906
99	0xbe9f1947	-0.31073973
100	0x3eb60bcc	0.35555875
101	0x3ea017b1	0.31268075
102	0x3ead5b50	0.33858728
103	0x3e6c3800	0.23068237
104	0xbe99e1d4	-0.30055106
105	0xb9e24c12	-0.00043162756
106	0xbeb5e8f4	-0.35529292
107	0x3e0e7bbc	0.13914388
108	0xbd8723a1	-0.065985925
109	0xbe994a40	-0.2993946
110	0xbf127a56	-0.5721792
111	0x3e84b6cf	0.25920722
112	0xbb012880	-0.0019707978
113	0xbeb2518d	-0.34827843
114	0xbe9a3996	-0.3012206
115	0xbdd7c930	-0.1053642
116	0xbe963e6e	-0.29344505
117	0x3de37d18	0.11107844
118	0xbeac35de	-0.33634847
119	0xbec5628e	-0.38551754
120	0x3d0b0d92	0.03394849
121	0xbe01e89d	-0.12686391
122	0xbe7ba2cb	-0.2457382
123	0x3e4a2069	0.19738926
124	0x3e8d2177	0.27564594
125	0x3e87021f	0.26368806
126	0xbe1d5484	-0.15364271
127	0x3eafea22	0.34358317

net.4.weight f4 [225, 128]
0	0xbfe859da	-1.815242
1	0x3f812c1c	1.0091586
2	0xbf890a0f	-1.0706195
3	0x3fa9ce43	1.3266071
4	0xbf9e5691	-1.2370168
5	0x3f78f160	0.9724331
6	0xbf26be0e	-0.6513375
7	0xbfae1063	-1.3598751
8	0x3fcbc24e	1.5918672
9	0x3f7efa47	0.9960064
10	0xbe09ba3f	-0.13449953
11	0x3f85fafb	1.0467218
12	0xbf9e591f	-1.2370948
13	0xbf8b66e4	-1.0890775
14	0xbfa990f6	-1.3247364
15	0x3fd65eb9	1.6747657
16	0xbfe1f891	-1.7653981
17	0x3f2253cc	0.63409114
18	0x3f6a2368	0.91460276
19	0xbf27aaa5	-0.6549476
20	0x3f6da0ea	0.9282366
21	0x3f8cb2ac	1.0992026
22	0x3f836f32	1.0268309
23	0x3fb02a9d	1.3763005
24	0x3f70af59	0.9401756
25	0x3fa070cd	1.2534424
26	0xbf86afa9	-1.0522357
27	0x3dda9ccc	0.10674438
28	0xbf21cdbd	-0.63204557
29	0xbf8ec92e	-1.1155145
30	0xbf7f88b1	-0.9981795
31	0x3f983ef4	1.1894212
32	0xbf23a3fc	-0.63922095
33	0xbf709f5b	-0.9399316
34	0xbf917874	-1.1364884
35	0xbfc35a89	-1.5262004
36	0xbfa640e1	-1.298855
37	0x3fe24651	1.7677709
38	0xbfcb3a42	-1.5877154
39	0xbfca5629	-1.5807544
40	0x3d8c6dfd	0.06856916
41	0xbf953440	-1.165657
42	0xbfb57356	-1.4175823
43	0xbeeab096	-0.4583785
44	0x3f614091	0.87989146
45	0xbe9eee94	-0.31041396
46	0xbf92ca04	-1.14679
47	0x3f5d4018	0.86425924
48	0x3f91ede5	1.1400725
49	0x3fac9c1b	1.348514
50	0x3f77393a	0.96571696
51	0x3ec9b52e	0.39396042
52	0xbec4db5b	-0.38448605
53	0xbf86c4d6	-1.052882
54	0xbed19b58	-0.4093883
55	0xbe74e56b	-0.23915641
56	0xbf12d225	-0.57351905
57	0xbf65a495	-0.8970426
58	0xbf837caf	-1.0272425
59	0xbf988f7c	-1.1918788
60	0xbf517d65	-0.8183196
61	0xbf80709b	-1.0034364
62	0xbf51481b	-0.8175065
63	0x3f725f83	0.9467699
64	0x3f9b87fd	1.2150875
65	0xbf90ff45	-1.1327902
66	0x3faf8f9f	1.3715705
67	0x3f684a6b	0.9073855
68	0xbf7a5133	-0.9778015
69	0x3fbd84d9	1.4806167
70	0xbfc22ac9	-1.5169307
71	0xbf7d6951	-0.98988825
72	0xbf49cc70	-0.7882757
73	0x3f89baa0	1.0760078
74	0x3f8c9a65	1.0984617
75	0xbfaba3ac	-1.3409324
76	0x3f92360c	1.1422744
77	0x3f9dfc77	1.2342671
78	0x3f8423af	1.032339
79	0x3dea4296	0.114384815
80	0xbf24d35c	-0.6438501
81	0x3f7b670f	0.9820413
82	0x3fdf7097	1.7456235
83	0xbfc13bfb	-1.509643
84	0xbfa0ae78	-1.2553244
85	0x3f8170d9	1.0112563
86	0x3f76ad5d	0.9635828
87	0xbfb4ebec	-1.4134498
88	0xbee6bccf	-0.45065925
89	0xbfa6f366	-1.3043029
90	0x3fd00f32	1.6254637
91	0xbf806ba0	-1.0032845
92	0x3f8278cd	1.0193115
93	0xbf608418	-0.8770156
94	0xbfb97f18	-1.4491911
95	0x3fb35dd6	1.4013011
96	0x3fc64fef	1.5493144
97	0x3fa55c77	1.2918843
98	0x3f80cc64	1.0062375
99	0xbfd59da9	-1.6688739
100	0x3f6af077	0.9177317
101	0x3f9c0475	1.218886
102	0x3f0142f2	0.50492775
103	0xbe00aefb	-0.1256675
104	0xbf8d4a62	-1.1038325
105	0x3fba8b4f	1.4573764
106	0xbf91c84c	-1.1389251
107	0x3f937a21	1.1521646
108	0x3fd28487	1.6446694
109	0xbf8d1eaa	-1.1024983
110	0xbf855d7f	-1.0419158
111	0xbf7f08b9	-0.99622685
112	0xbfd766f6	-1.6828296
113	0xbfa3d86d	-1.2800423
114	0xbf9930fb	-1.1968073
115	0x3f84b59e	1.0367925
116	0xbf81aa18	-1.0130033
117	0xbf841eca	-1.0321896
118	0x3f8d8e5c	1.105907
119	0xbec9de88	-0.3942759
120	0xbf86ba64	-1.0525632
121	0xbfad9216	-1.3560207
122	0xbf714e01	-0.9425965
123	0x3f781829	0.96911865
124	0xbf99a6fe	-1.2004087
125	0x3fc23463	1.5172237
126	0xbea4f1e8	-0.3221581
127	0xbfa15287	-1.260331
128	0xbf95e3ee	-1.1710184
129	0x3f341ad6	0.7035345
130	0xbf883c6a	-1.0643437
131	0x3fd3c6d0	1.6545048
132	0xbfbd0ce3	-1.4769558
133	0x3f8cdac2	1.100426
134	0xbf7f5a5b	-0.99747247
135	0xbf55da54	-0.8353627
136	0x3fab371a	1.3376191
137	0x3f81ca9d	1.0139958
138	0xbf26b570	-0.651206
139	0x3fd28a90	1.6448536
140	0xbf533991	-0.82509714
141	0xbf8d1463	-1.1021847
142	0xbf90bd66	-1.13078
143	0x3faf4fad	1.369619
144	0xbffebc5f	-1.9901236
145	0x3f95bf01	1.1698915
146	0x3fa30f5c	1.2739062
147	0xbf90e082	-1.1318514
148	0x3f83df09	1.030244
149	0x3f81361a	1.0094635
150	0x3f7f4015	0.99707156
151	0x3fb71acc	1.4305053
152	0x3f991cd0	1.1961918
153	0x3f96b676	1.1774433
154	0xbf9735b9	-1.181327
155	0xbd7a23ee	-0.06106942
156	0xbf8b3407	-1.0875252
157	0xbf4d0d55	-0.8009847
158	0xbf0322bf	-0.51224893
159	0x3fba47f8	1.4553213
160	0xbf852c3d	-1.0404125
161	0xbf9815c2	-1.188164
162	0xbf6bcb76	-0.9210733
163	0xbfb8ad93	-1.4427971
164	0xbfb0f769	-1.3825504
165	0x3feda1f5	1.856505
166	0xbf9d78e1	-1.2302514
167	0xbfc973a3	-1.5738415
168	0x3f01c0a7	0.5068459
169	0xbfd93490	-1.6969166
170	0xbfba3cbc	-1.4549785
171	0xbf367a6e	-0.7128056
172	0x3f774e8a	0.96604216
173	0x3ddacfda	0.10684176
174	0xbf9fa4a0	-1.2472115
175	0x3fb16b0e	1.3860795
176	0x3f83e6a4	1.0304761
177	0x3efbd6cd	0.49187317
178	0x3fa83e38	1.3143988
179	0x3e2ae3ce	0.16688463
180	0xbead9974	-0.33906138
181	0xbf901f2d	-1.1259514
182	0xbee53181	-0.4476433
183	0x3d764fa9	0.060134564
184	0xbf9a6350	-1.2061558
185	0xbf9a3667	-1.2047852
186	0xbf2390df	-0.6389293
187	0xbf1baae9	-0.60807663
188	0xbff63145	-1.9233786
189	0xbf5ed83c	-0.870487
190	0xbf895486	-1.072892
191	0x3f2c3cae	0.6728009
192	0x3fb3bd0f	1.4042071
193	0xbf8596de	-1.0436666
194	0x3f92cd87	1.1468972
195	0x3fc40164	1.5312924
196	0xbf0dc50c	-0.55378795
197	0x3fa6d6b6	1.3034275
198	0xbfd03f7f	-1.6269377
199	0xbdb1332b	-0.08652338
200	0xbfafd7e0	-1.3737755
201	0xbda3a923	-0.07991245
202	0x3f8a5823	1.0808147
203	0xbfacd833	-1.3503479
204	0x3fa514e2	1.2896998
205	0x3fc5bfc3	1.5449146
206	0x3f4c61ac	0.79836535
207	0xbeb3ccad	-0.35117093
208	0xbf888728	-1.0666246
209	0x3fa8e584	1.3195043
210	0x3fe240a1	1.7675973
211	0xbfca389c	-1.5798526
212	0xbfc39cef	-1.5282267
213	0x3f8c1d38	1.0946417
214	0x3f86e687	1.0539101
215	0xbf6596a1	-0.89682966
216	0x3e1518a2	0.14560178
217	0xbf944bee	-1.1585672
218	0x3fbee612	1.4913962
219	0xbf8aba12	-1.0838034
220	0x3f7482d2	0.95512116
221	0xbf807004	-1.0034184
222	0xbfb9c4d2	-1.451319
223	0x3fe43145	1.7827536
224	0x3fc9e83a	1.5773995
225	0x3fab281b	1.3371614
226	0x3fab9cd1	1.3407232
227	0xbfede61d	-1.858585
228	0x3f1fa88e	0.6236657
229	0x3f04c9bd	0.5187033
230	0x3f4ac283	0.7920305
231	0xbed42ae8	-0.41438985
232	0xbf4d5bdb	-0.80218285
233	0x3fc93d7e	1.5721891
234	0xbf96bdb8	-1.1776648
235	0x3f8d9885	1.106217
236	0x3fd462cd	1.6592652
237	0xbf97ccf4	-1.1859422
238	0xbfb9a586	-1.4503639
239	0xbf6b4f8c	-0.91918254
240	0xbfce71b6	-1.6128452
241	0xbf9c566c	-1.2213874
242	0xbf291efc	-0.66062903
243	0x3f883bed	1.0643288
244	0xbf8ce87f	-1.1008452
245	0xbfc4fc4e	-1.5389497
246	0x3f94ba7a	1.1619408
247	0xbed6f07a	-0.41980344
248	0xbf87af75	-1.060042
249	0xbfc52957	-1.5403241
250	0xbf8508ff	-1.039337
251	0x3f273a91	0.6532374
252	0xbf1160e4	-0.5678847
253	0x3fa80023	1.3125042
254	0x3cfdd659	0.030985998
255	0xbf2872c5	-0.65800124

net.4.bias f4 [225]
0	0x3f8f10c2	1.1176989
1	0x3f93cf95	1.1547724
2	0x3fb29b9d	1.395374
3	0x3f89cebf	1.0766219
4	0x3eec85cb	0.46195826
5	0x3fa211dc	1.26617
6	0x3f8d7580	1.1051483
7	0x3f99f160	1.2026787
8	0x3f4ec518	0.8076949
9	0x3f9ced88	1.2259989
10	0x3f5bbb4c	0.8583267
11	0x3f65fd5e	0.8983973
12	0x3f8f185a	1.1179307
13	0x3f802ccf	1.0013674
14	0x3f7bb6c6	0.98325765
15	0x3f95c607	1.1701058
16	0x3fa7ae1e	1.3100011
17	0x3f6be336	0.9214357
18	0x3f59c6bf	0.8506889
19	0x3f7dcb06	0.99137914
20	0x3f4e2219	0.8052078
21	0x3f881f02	1.0634463
22	0x3f91ff76	1.1406085
23	0x3f9a7e76	1.2069843
24	0x3f6963aa	0.911677
25	0x3f950639	1.1642524
26	0x3f4fa2be	0.811077
27	0x3f48587d	0.7826002
28	0x3f92aec6	1.1459587
29	0x3f8b1307	1.0865182
30	0x3f332b69	0.69988114
31	0x3f4fa933	0.8111755
32	0x3f1f8746	0.62315786
33	0x3f544664	0.8291991
34	0x3f88e48f	1.069475
35	0x3fa17602	1.2614138
36	0x3f9c4430	1.2208309
37	0x3fc51cc9	1.539941
38	0x3f7a5947	0.97792476
39	0x3f6de454	0.92926526
40	0x3e65e34b	0.22449987
41	0x3f86e508	1.0538645
42	0x3f91b72e	1.1384027
43	0x3f91cbe5	1.1390349
44	0x3f8d3f69	1.1034976
45	0x3f840bdd	1.031612
46	0x3ee4f49f	0.4471788
47	0x3f8aa846	1.0832603
48	0x3f7e14a9	0.99250275
49	0x3f4833bd	0.78203946
50	0x3faa8b5f	1.3323783
51	0x3fa3dec4	1.2802358
52	0x3f2a948b	0.6663291
53	0x3f721662	0.94565403
54	0x3f405217	0.7512526
55	0x3f6b9b52	0.92033875
56	0x3f83a25e	1.0283926
57	0x3e50e21b	0.20398752
58	0x3f29b004	0.66284204
59	0x3e1e46af	0.15456651
60	0x3f884744	1.0646749
61	0x3f21aef1	0.63157564
62	0x3fa0bde0	1.2557945
63	0x3f8003ad	1.0001122
64	0x3f39fe94	0.7265408
65	0x3f885f52	1.065409
66	0x3f5de965	0.86684257
67	0x3fa1984f	1.2624606
68	0x3f688beb	0.908385
69	0x3fa9801e	1.3242223
70	0x3f8621cb	1.0479063
71	0x3fd19741	1.6374284
72	0x3f50ae54	0.81516004
73	0x3f8f3953	1.1189369
74	0x3f60a504	0.87751794
75	0x3f86a360	1.0518608
76	0x3f34ad36	0.705768
77	0x3fa085fa	1.2540886
78	0x3f95b7d5	1.1696726
79	0x3f8c8447	1.0977868
80	0x3fa1a2b4	1.2627778
81	0x3f94af29	1.1615955
82	0x3f5c373f	0.860218
83	0x3f1d9575	0.6155618
84	0x3fa823af	1.313589
85	0x3f4d3cff	0.801712
86	0x3edf3b54	0.4359995
87	0x3d9e6776	0.07734577
88	0x3f1ac453	0.60455817
89	0x3fb1e227	1.3897141
90	0x3f8c201f	1.0947303
91	0x3f57faca	0.8436705
92	0x3f6c706c	0.9235904
93	0x3f7664e1	0.9624768
94	0x3f7628c6	0.96155965
95	0x3f2e08bb	0.6798207
96	0x3ee495ae	0.44645447
97	0x3f338553	0.7012531
98	0x3e4f2da3	0.20232253
99	0x3fe49131	1.7856809
100	0x3f25ca9a	0.6476227
101	0x3f8fef10	1.1244831
102	0xbbf1b0d6	-0.007375817
103	0x3f9750ac	1.1821494
104	0x3f98b34d	1.1929718
105	0x3f87a694	1.0597711
106	0x3f9b6c4f	1.2142428
107	0x3f4d8774	0.8028481
108	0x3f262171	0.6489478
109	0x3fa235fa	1.2672722
110	0x3f5433a2	0.82891285
111	0x3f8c1cdb	1.0946306
112	0x3f6aaec4	0.9167292
113	0x3fa3eb32	1.2806151
114	0x3f50e80f	0.81604093
115	0x3f212b8c	0.6295707
116	0x3ef2bd2b	0.4740995
117	0x3f0f2fc6	0.5593227
118	0x3f827a8e	1.0193651
119	0x3f563c73	0.8368599
120	0x3f353888	0.70789385
121	0x3f862830	1.0481014
122	0x3f3aef4e	0.730214
123	0x3f6dd11f	0.9289722
124	0x3eae440b	0.34036288
125	0x3f36751f	0.7127246
126	0x3f8bacc5	1.09121
127	0x3f308fbc	0.6896932
128	0x3f47098c	0.7774894
129	0x3f41efad	0.7575634
130	0x3f19bdfd	0.60055524
131	0x3f4bb3d4	0.7957127
132	0x3f6870bb	0.90797013
133	0x3f03e076	0.51514375
134	0x3f8aeb13	1.0852989
135	0x3f893f4e	1.0722444
136	0x3fa63e32	1.298773
137	0x3f54b5b3	0.8308975
138	0x3f963761	1.173565
139	0x3f1dabb3	0.6159012
140	0x3f9e39bf	1.2361373
141	0xbefa49c9	-0.4888442
142	0x3f3cf285	0.73807555
143	0x3f7b6a71	0.9820929
144	0x3f30e460	0.6909847
145	0x3fa498e2	1.2859156
146	0x3f3c88c3	0.7364618
147	0x3f37bd72	0.71773446
148	0x3edb476c	0.42827928
149	0x3f360fd1	0.71117884
150	0x3f931a62	1.1492426
151	0x3f2bff79	0.67186695
152	0x3f2e89ed	0.6817921
153	0x3ecd2289	0.4006541
154	0x3dbdcf92	0.092681065
155	0x3f973430	1.1812801
156	0x3f565932	0.8372985
157	0x3f894aa7	1.0725907
158	0x3fa0b46c	1.255506
159	0xbe3806eb	-0.17971389
160	0x3f3cf199	0.7380615
161	0x3f9106d8	1.1330214
162	0x3f058aea	0.5216509
163	0x3f3a46e4	0.7276442
164	0x3f31c8db	0.69447106
165	0x3f8f97d6	1.1218212
166	0x3f45889c	0.77161574
167	0x3e42660f	0.18984245
168	0x3f620f8a	0.8830496
169	0x3f741eab	0.95359296
170	0x3f4d6fdc	0.8024881
171	0x3e97775b	0.29583248
172	0x3f8d7110	1.1050129
173	0x3f84e063	1.0380977
174	0x3eb74e84	0.3580209
175	0x3ed9eccc	0.42563474
176	0x3f60a439	0.87750584
177	0x3f76ccf2	0.9640647
178	0x3f512094	0.81690335
179	0x3f6120d0	0.8794069
180	0x3f89c5f5	1.0763537
181	0x3f14a064	0.58057237
182	0x3f889e37	1.0673283
183	0x3f58f319	0.8474594
184	0x3f7c7a22	0.9862386
185	0x3f8f1ef8	1.1181326
186	0x3f306fa1	0.6892033
187	0x3ef2fd4a	0.4745887
188	0x3f5693f3	0.838195
189	0x3f5171f1	0.81814486
190	0x3f90b427	1.1304978
191	0x3f6d6b03	0.9274141
192	0x3f54ea66	0.83170164
193	0x3f538d0e	0.8263711
194	0x3ee7ff35	0.45311895
195	0x3f5d731e	0.8650378
196	0x3f2f83f7	0.6856074
197	0x3f311f74	0.6918862
198	0x3f309e0b	0.68991154
199	0x3f60f603	0.87875384
200	0x3f762064	0.96143174
201	0x3f2f695f	0.6852016
202	0x3f152018	0.58252096
203	0x3f49c58d	0.78817064
204	0x3f27c408	0.65533495
205	0x3f5c37ce	0.8602265
206	0x3f525bf5	0.82171565
207	0x3f82d72b	1.0221914
208	0x3f5765e2	0.84139836
209	0x3f65ca65	0.89761955
210	0x3f6b89c0	0.92007065
211	0x3ee9c781	0.45660022
212	0x3f561bce	0.83636177
213	0x3eb319b9	0.34980562
214	0x3f7b509e	0.9816989
215	0x3f320977	0.6954569
216	0x3f526826	0.8219017
217	0x3e07268f	0.13198303
218	0x3f6aa9d3	0.9166538
219	0x3f897163	1.0737728
220	0x3f3b30a8	0.7312112
221	0x3f77c8a4	0.9679053
222	0xbd014ca6	-0.03156724
223	0x3ef2a038	0.47387862
224	0x3f7a2d81	0.97725683
