lunar_lander_continuous/models/DuelingDQN/quantization_49/model.pth (torch, 165255 bytes, 9 tensors)

fc.weight f4 [128, 8]
000000 3d a9 1e bf 50 aa 3c be 3c 54 3d bd 2b ac ba 3e
       -0.6197699 -0.18424344 -0.04622291 0.3645948
000010 45 9a 2a be 55 1a 7a 3e db f3 0a 40 c9 c0 0e bd
       -0.16660412 0.24424107 2.1711338 -0.034851823
000020 33 30 15 be c3 e1 c6 3e 57 52 54 bf 90 46 0b 3f
       -0.14569168 0.38844118 -0.8293814 0.54404545
000030 6c 87 a5 bf 4d 7c cd bf 94 2c 1b 3f 2f 15 18 3e
       -1.2931952 -1.6053559 0.60614896 0.14851831
000040 b5 32 f9 be a5 64 87 be d8 a6 66 3e a4 0d 35 bf
       -0.486715 -0.26443973 0.22524583 -0.7072394
000050 ca 6b 1b 3f 00 a7 38 3f 53 73 ef 3e 1c dd f5 be
       0.6071135 0.7212982 0.46767673 -0.48020256
000060 e9 0c 8e 3e f1 20 1f 3e db 37 3b 3f 60 c4 2f bf
       0.27744225 0.1553991 0.73132104 -0.6865902
000070 a0 cb eb 3e e5 10 b3 3f 2b f0 7d 3f 90 79 0c 3f
       0.4605379 1.3989531 0.9919459 0.5487299
000080 a2 bc eb bd 46 0a 09 be 4f 91 1c be c4 6b df bd
       -0.11510588 -0.13382825 -0.15289806 -0.109092265
000090 d6 cc 2a 3e e5 2f 53 be 17 54 08 3f 3d e8 aa 3d
       0.16679701 -0.20623739 0.5325331 0.08345077
0000a0 fc 95 42 bf ed c9 48 bd b7 25 ab bf 77 49 37 bf
       -0.7601011 -0.049020696 -1.3370885 -0.71596473
0000b0 cf 00 06 3f b1 1b 40 bf 08 73 44 bd 12 75 58 be
       0.52344984 -0.75042254 -0.047961265 -0.21138409
0000c0 e0 84 1a 3f a4 f7 07 3d 37 61 8c be b6 b4 1d 3f
       0.60359 0.033195153 -0.2741792 0.6160387
0000d0 f9 93 0a bf db 91 13 3f b3 dd 76 bf 2a f8 01 bf
       -0.5413204 0.5764443 -0.96432036 -0.50769293
0000e0 d1 9b 62 3f 45 18 a0 3e 2f da 27 3f 83 19 a1 3e
       0.88519007 0.31268516 0.65567297 0.31464776
0000f0 00 36 a6 3f 73 35 a5 bf c3 72 48 be 24 69 8b bf
       1.298523 -1.2906936 -0.19575028 -1.0891461
000100 a4 ed ab 3e 15 5b 7a bf 18 fd 7b 3e bc d2 04 40
       0.33579743 -0.9779523 0.24608266 2.0753622
000110 4b fc 3a bf 46 77 cf 3c c2 e2 a3 3f f6 a5 90 3e
       -0.7304122 0.025325429 1.2803576 0.28251618
000120 76 06 77 3d fe 2d 78 3e f8 b2 f2 3d 5e c9 7c bf
       0.060308896 0.24236295 0.11850542 -0.9874476
000130 71 f2 e8 3d 20 23 74 be dc cb 1a be cf fc 1b bf
       0.11374367 -0.23841524 -0.15116829 -0.6093263
000140 e5 f4 ae 3d b0 35 75 3e b8 e7 26 3f 6b b7 01 3d
       0.08542804 0.23946261 0.65197325 0.03166906
000150 5c be 51 bf 9e 63 e7 be d8 cb 9b 3e 81 8b 7a 3f
       -0.8193109 -0.4519319 0.30428958 0.97869116
000160 ad 8e 17 3f f7 0e 1f be f5 35 c4 bd 90 f6 1c 3e
       0.5920208 -0.15533052 -0.09580604 0.15328431
000170 01 34 60 3f 1e c3 16 bf 27 21 ad bf a0 6b e9 bd
       0.8757935 -0.58891475 -1.3525742 -0.11397481
000180 7d c7 94 be c0 00 08 3f 86 b0 e1 bd f0 98 29 be
       -0.29058447 0.53126144 -0.11019997 -0.16562247
000190 fc 13 a1 3f 99 ad 10 3f 0f 0f b0 3f 2a 04 0a 3e
       1.2584224 0.5651489 1.3754596 0.13478151
0001a0 17 e7 0e 40 14 8a 2a 3d 06 c3 10 40 46 86 7f bd
       2.2328546 0.041635588 2.2619033 -0.062383913
0001b0 ff 98 21 bd 61 1a 37 bf 40 31 54 bf 31 73 77 bd
       -0.03945255 -0.71524626 -0.8288765 -0.06041259
0001c0 2d ef 7a bb 13 eb 5a 3c 81 35 08 3f a7 a5 23 bd
       -0.0038289533 0.01336171 0.5320664 -0.0399529
0001d0 9a 72 b6 be 54 6d 24 bf e9 02 5d bf d5 f1 12 3f
       -0.3563431 -0.6422932 -0.86332566 0.57400256
0001e0 6e b4 8f 3d 98 43 3c 3d bc c0 76 3e fb 62 e5 3e
       0.07016836 0.0459629 0.2409696 0.4480208
0001f0 e7 3d 45 bf 56 b9 92 bf 1f 7d 76 bf b1 ed b4 3f
       -0.7704758 -1.146281 -0.9628467 1.4135038
000200 72 25 af 3e 92 6a 5a bc 77 05 0d bd 0d 0a 53 bf
       0.34208256 -0.013331072 -0.03442904 -0.8243721
000210 3f cd bd 3e 8d 16 cc be 4a 97 40 3e 12 61 47 bf
       0.37070653 -0.39860955 0.18807712 -0.7788249
000220 9a f7 1a 3e 7e a3 5c be de f2 b6 be 9b 0f 29 bf
       0.15133515 -0.21546742 -0.35732168 -0.6603944
000230 54 4c bb bd 58 2e 15 bf 80 c0 11 40 b8 d2 4d 3f
       -0.09145418 -0.5827384 2.2773743 0.80399656
000240 7b aa 51 bf a9 ab 90 3e 0f ed 6b 3f d0 d0 ce 3e
       -0.8190076 0.28255966 0.921586 0.40393686
000250 fc 9a e0 bd 6a 14 2f be 9d ba ae bf 1b cc b9 3f
       -0.10967061 -0.17097631 -1.36507 1.4515413
000260 17 98 36 3f 13 a9 c7 3d 1c 78 35 bf 12 8f cb 3e
       0.7132582 0.09749045 -0.708864 0.3975759
000270 9a cb a1 3e c2 4c bc be 24 c6 dc bd c3 44 ad 3a
       0.31600648 -0.36777312 -0.1077998 0.0013219345
000280 0a 29 9b be 7c e5 54 be f1 7e 1b 3e 0a 85 1d be
       -0.30304748 -0.20790666 0.15185143 -0.15382782
000290 fc e1 7e bf 5a ab de 3e 95 ae 18 bf 68 d3 fe be
       -0.99563575 0.43490106 -0.5964139 -0.49770665
0002a0 08 e4 ec be b6 42 9d 3d f5 ed c1 bd 14 b5 57 3f
       -0.46267724 0.0767874 -0.09469215 0.8426068
0002b0 9c 11 f8 be 24 d0 02 3f 1e 0f dd be cd 37 5b 3f
       -0.48450935 0.5109885 -0.43175596 0.8563202
0002c0 e5 7d e6 bd 41 59 a6 be 58 be 35 3e f7 4b 49 3f
       -0.11254481 -0.3248997 0.17748392 0.7863154
0002d0 27 55 91 bc 66 a5 bf be a9 29 a7 be f0 75 30 40
       -0.0177408 -0.37430876 -0.32648972 2.7571983
0002e0 ca ed 12 3e ee 27 b1 be dc 10 8e bf dc f7 ee 3e
       0.14348522 -0.34600776 -1.1098895 0.46673477
0002f0 3c 01 89 3f 84 7b b3 bf c7 06 2c 3f 60 1c 90 be
       1.0703502 -1.4022069 0.6719784 -0.28146648
000300 e0 6e 99 3e 0d a2 a6 be bb 12 d5 3d 45 07 65 bf
       0.29967403 -0.3254551 0.10403963 -0.8946422
000310 66 38 28 3f 69 1e 2c 3f ed ca 92 be 3f 70 72 3d
       0.6571106 0.672339 -0.28670445 0.059189077
000320 6f b3 dc 3e d4 37 0e bf 44 5e 12 be 12 c3 ba 3e
       0.43105647 -0.55553937 -0.14293772 0.36476952
000330 7a f3 58 3d 8b 16 13 bf a3 1e 61 bf 07 42 18 40
       0.052966572 -0.5745627 -0.8793737 2.37903
000340 ea 97 02 3e a5 e0 2b be c8 fb 28 bd 3d 43 0b 3f
       0.12753263 -0.16784914 -0.041255742 0.5439947
000350 39 db 7a be 79 56 8c 3f ef 64 1c 3f a6 be bc bf
       -0.2449769 1.0963889 0.6109151 -1.4745681
000360 ee 23 be 3d b5 d3 90 be 69 12 2a 3f 9d 40 14 bf
       0.09284197 -0.2828652 0.6643434 -0.5791109
000370 98 34 71 bf 6d c7 bb be f0 fd 20 3e 38 6c 85 3f
       -0.94220877 -0.36675587 0.1572187 1.0423651
000380 4b 76 12 3e 08 e5 84 be be 55 04 bf 87 5b 03 bf
       0.14302938 -0.25955987 -0.5169333 -0.51311535
000390 08 bc 5e 3f b3 a4 5f bf 64 b9 5d be 0a ac aa 3b
       0.8700566 -0.87360686 -0.21652752 0.005208497
0003a0 c7 7c 5f 3f a5 78 15 bf 2a 25 a7 3e 0e e9 52 be
       0.8729977 -0.58387214 0.3264554 -0.20596716
0003b0 62 ce e0 bf 65 32 24 bf a6 af f0 3e 3d 2e 05 40
       -1.7562983 -0.64139396 0.4700901 2.0809472
0003c0 d2 c6 f2 be 3f ed 15 be 04 68 54 3b 5f 54 f1 3e
       -0.47417313 -0.14641283 0.003241063 0.47134683
0003d0 ef 7c 5c 3e 6f a6 73 bf e4 cb 96 bf 5b cc 97 3f
       0.21532033 -0.9517583 -1.1780972 1.1859239
0003e0 1e 8e 82 3e 47 a2 7a 3e 32 36 84 3d ce 17 8a 3e
       0.25499052 0.24475966 0.064556494 0.26971287
0003f0 94 bc e8 bf b3 00 0c bf 20 dc be bf 30 db 22 3c
       -1.818255 -0.54688567 -1.4910927 0.009939954

fc.bias f4 [128]
000000 77 62 c9 3e 50 3d c6 3e 0c df 14 3f f7 67 ba 3d
       0.39332935 0.38718653 0.5815284 0.09101861
000010 9e 26 0e 3e c2 cd d7 3e 35 af a6 3e ae a8 4a 3e
       0.13881919 0.42149168 0.32555547 0.19790909
000020 c0 26 81 be 65 49 a6 3e 21 bb 27 3f ec 55 26 be
       -0.25224876 0.3247787 0.6551991 -0.16243714
000030 a0 6c cf 3e 70 1c 89 bf 6a 42 ce 3e 70 50 0e bf
       0.40512562 -1.0711803 0.40285045 -0.5559149
000040 87 a7 b1 3e ce 73 78 3e 02 38 05 3e a5 0c 54 be
       0.34698126 0.24262926 0.13009647 -0.20707949
000050 c1 aa 83 bd d1 c7 78 be 87 a3 aa 3e d9 b2 28 39
       -0.06429053 -0.24294974 0.33327886 0.00016088354
000060 78 5d 05 bf 3c 14 6f 3e 0b 7e b4 be 7b fb 21 3e
       -0.52095747 0.23347563 -0.35252413 0.15818588
000070 dc 54 1e 3f bf e3 cc 3e d0 c1 af 3b 22 e2 f8 be
       0.61848235 0.40017506 0.0053636804 -0.48610026
000080 a6 24 d3 3e 87 8e d7 3d d4 29 fd bd 32 5b ab bc
       0.41238898 0.10525232 -0.12361494 -0.020917509
000090 2a bf 9f 3e 86 2b 92 3e b1 02 26 bf ef f1 c8 3e
       0.31200534 0.2854883 -0.64847857 0.3924708
0000a0 7e 80 01 bd 75 a1 bf be ac e9 06 bf d7 d7 a0 be
       -0.03161668 -0.3742787 -0.52700305 -0.31414673
0000b0 f0 c1 89 be 6c 63 db bd 38 1f 2d 3e 4b 18 d2 3b
       -0.26905775 -0.107123226 0.1690644 0.0064115874
0000c0 69 62 c9 be 5f 51 07 be 1a 0d 53 bf f1 b9 62 3e
       -0.39332893 -0.13214634 -0.82441866 0.22141244
0000d0 d9 fb 11 3f 2f 8d 4f ba 1f ce fd 3e bd b5 e1 3e
       0.57024914 -0.00079174613 0.4957132 0.44083968
0000e0 fd 4c 25 3d b9 cf de 3c ec 10 82 be ca 47 62 3e
       0.040356625 0.02719866 -0.25403535 0.22097698
0000f0 16 ce 19 3e 2d 9e 9c be bc 38 ac 3e 05 bc a3 3e
       0.15020022 -0.3058943 0.33637035 0.31979385
000100 45 d8 f6 bd 39 70 e4 be a8 83 9a be ee 71 84 3d
       -0.12052969 -0.4461687 -0.3017857 0.06467043
000110 8e 18 2e bf fd 5c 8b be 09 66 e7 be 95 ca ce bb
       -0.6800622 -0.27219382 -0.45195034 -0.0063107708
000120 f9 5b 05 3e a4 b5 e5 bd 76 59 da be 7e f8 97 be
       0.13023366 -0.11216286 -0.42646378 -0.29681772
000130 55 7a b9 3e ed aa f3 3e 87 93 eb 3e c7 21 e9 be
       0.36226144 0.47591344 0.46010992 -0.45533583
000140 58 9a c1 3e a9 21 1c bf 43 60 a2 3e 80 d1 1f 3f
       0.37813067 -0.6098886 0.31714067 0.62429047
000150 02 7e 18 bf 45 ac 22 be ff 42 dc be 3a 08 0e bf
       -0.5956727 -0.15886028 -0.43019864 -0.554813
000160 e9 f4 c5 3e 27 13 d5 be e7 6f bb be de 20 90 3e
       0.38663414 -0.41616175 -0.36608812 0.28150076
000170 70 cd 0b be ae 6e ad be 68 b1 e7 3e fe 1e 2c be
       -0.13652587 -0.33873504 0.45252538 -0.16808698
000180 d2 ca 51 bd 62 f7 f1 3e 4a d7 cd 3e 85 90 d1 be
       -0.051218815 0.4725905 0.40203315 -0.40930572
000190 94 5f 23 3f 99 4b 66 be 92 80 4f 3e b5 82 19 bf
       0.63817716 -0.22489776 0.2026389 -0.5996507
0001a0 12 6a b7 3d ae 60 ee 3e 1b ef 07 bf 08 7f 25 bf
       0.08955778 0.46558136 -0.5309922 -0.6464696
0001b0 a6 0b 29 3e 48 59 23 bf 1b b3 5b be 0a 8b 22 bf
       0.1650835 -0.6380811 -0.21455042 -0.63493407
0001c0 14 cd 6f be 5f 77 1b 3e d3 dc 88 be 4a 22 e4 3e
       -0.23418075 0.15182255 -0.26730976 0.4455741
0001d0 6f 88 26 be 7e 90 ad be bb 1d 9b be d6 15 74 3d
       -0.16262983 -0.338993 -0.3029612 0.059591137
0001e0 2f 3b 1d bf e3 30 cd 3e d9 56 ef 3d ec aa e5 be
       -0.6141843 0.4007636 0.11686487 -0.44856966
0001f0 2f 29 73 3c 46 6c 7a be 7e 4c 17 bf a3 40 dd 3e
       0.014841362 -0.24455366 -0.5910109 0.43213376

fc_value.weight f4 [128, 128]
000000 51 26 24 be ff 45 62 be a9 3b a4 3e 19 78 17 3f
       -0.16030242 -0.22097014 0.32076767 0.5916763
000010 a4 93 1e be 12 0a 08 b9 70 6d eb 3d 09 f1 c8 be
       -0.15486008 -0.00012973722 0.11495483 -0.39246395
000020 3f a4 44 3e 72 b3 1f be 54 c9 ac 3e 45 b6 fd bd
       0.1920328 -0.15595797 0.3374735 -0.12388281
000030 b6 6a 55 3e 18 05 5f be 82 46 da 3e 2f 72 55 be
       0.20841488 -0.21779287 0.42631918 -0.20844339
000040 f7 21 c4 be 99 ff 86 bd 75 fa ff 3e 41 5a b9 bd
       -0.38307163 -0.0659172 0.4999577 -0.09050418
000050 10 60 34 bd f9 95 c4 3e ca 2e ee ba 6c 21 4c bf
       -0.044036925 0.3839567 -0.0018171903 -0.797385
000060 38 8e 97 bd af 5a 5c 3d a9 a5 3a be 59 a6 15 3f
       -0.07400173 0.05379742 -0.18227257 0.5845695
000070 53 fb 40 be 09 fd af 3e 6a ce bb 3c c2 ce e0 bd
       -0.18845873 0.34372738 0.022925574 -0.10976936
000080 1d ff 51 be b0 72 7e 3e 5c 44 ab 3e ed e1 b2 be
       -0.20507474 0.24848437 0.33450592 -0.34937993
000090 a1 ba 41 3e 30 24 f6 3e 85 1d aa bb d1 f6 89 be
       0.1891885 0.48074484 -0.0051915073 -0.26946118
0000a0 09 1c 0e bf 33 41 1f 3e 2d 22 3a 3c 0a 67 a7 be
       -0.5551153 0.15552215 0.011360687 -0.326958
0000b0 22 eb d6 bd 4a 2c 0c bf 83 3d 5c bd 8f c8 94 3e
       -0.10494067 -0.5475508 -0.0537696 0.29059264
0000c0 42 bc a9 3e 63 78 9c be d1 6a 91 3b e3 3b 2f 3e
       0.33151442 -0.30560598 0.0044377823 0.17112689
0000d0 e8 57 8f 3e 24 12 5d be c7 ec 80 be fa a5 18 be
       0.27996755 -0.21588951 -0.25180647 -0.14907065
0000e0 40 a3 d7 bd fe c2 6c be c4 77 a3 3e 9e b4 eb be
       -0.10529184 -0.23121259 0.3192731 -0.46036237
0000f0 b1 06 3a 3f cd e9 56 3e 77 a5 6d 3e d4 39 81 3e
       0.7266646 0.20987625 0.23207651 0.25239432
000100 d0 48 bb be 9f db 88 3e 8f d5 6e 3e fc 22 c5 3e
       -0.3657899 0.26730058 0.23323654 0.38503253
000110 33 ca 03 be b0 fe a9 39 a3 83 89 3e c4 e1 a1 be
       -0.12870102 0.0003242395 0.26858243 -0.31617558
000120 f0 02 e6 3d 66 c3 88 bd 9d 88 11 3f 8a 4b 45 3e
       0.11231029 -0.06677894 0.5684908 0.19267097
000130 2c 67 99 bc 44 0e 68 3e a1 61 47 3e 9a 14 1f 3d
       -0.018725954 0.22661692 0.19470836 0.038838007
000140 73 78 06 3e cc a0 74 be f5 12 6b be cc 6a 89 3e
       0.13131885 -0.23889464 -0.2295645 0.26839292
000150 f2 1c 51 3e 69 f7 4d 3e f2 5a 9f 3e be 52 1d 3e
       0.20421198 0.2011391 0.31124073 0.15363595
000160 30 9f 54 3d 28 f8 9f bc e7 07 28 be c3 3f cc 3c
       0.051909626 -0.01952751 -0.16409265 0.024932748
000170 21 f3 7c bd 5e 4f 53 bc 38 2f 14 be c0 3e f6 3d
       -0.061755303 -0.012897341 -0.14471138 0.12023687
000180 07 70 1c 3e b4 9c 5b bd 87 98 d7 3e 28 47 4a 3e
       0.1527711 -0.05361624 0.42108557 0.19753706
000190 18 f8 29 3e 4d cd 7f be ed f4 1a bf fd 16 18 bf
       0.16598547 -0.2498066 -0.6052998 -0.5941008
0001a0 5e a0 4e 3b 7c a0 9c 3d 41 f8 29 3d ef cd a1 be
       0.0031528692 0.076477975 0.04149652 -0.31602427
0001b0 df 9b 31 bd 4e 2c 8b bd ab 50 d8 3c 12 75 cd bd
       -0.04336154 -0.0679556 0.026405653 -0.10032095
0001c0 e5 ed 4b 3e 3b b3 24 bf 0c 58 d0 3d 31 07 99 3e
       0.19914968 -0.64335984 0.101730436 0.298883
0001d0 4e c0 87 bc 3c 09 d0 3d fb 65 23 3e 1c 29 24 bd
       -0.01657119 0.10158011 0.15956871 -0.040078267
0001e0 bc f6 45 3e 84 fc 8f 3c fd db c7 3e 7f 45 4a 3e
       0.19332403 0.017576464 0.39035025 0.19753073
0001f0 bf 3f 53 be 98 14 b9 be 2a 12 36 be 74 f9 2a be
       -0.20629786 -0.36148524 -0.17780367 -0.16696721
000200 e0 12 25 bf 8e 5d c8 be 6f 3f a5 3e 76 57 89 3e
       -0.64481926 -0.39133877 0.32274958 0.2682454
000210 4c e7 f7 be da 9c 03 bf c9 a7 d6 bd 2b b8 2e be
       -0.48418653 -0.5141121 -0.10481221 -0.17062442
000220 3e a1 80 3e ff 05 cf be b8 68 84 3e 0f 83 94 3c
       0.25123018 -0.40434262 0.25861144 0.0181289
000230 03 54 24 3e 5c 6f de 3c 9a 2b 70 3e ab d2 34 be
       0.16047673 0.02715271 0.23454133 -0.17658488
000240 db cc 19 bf 9f 07 93 be ae 90 88 bd e6 e6 98 3c
       -0.6007821 -0.28716752 -0.066682205 0.018664788
000250 03 f0 06 3d 5e a6 d1 3e b2 bc cd be ae 71 d1 3d
       0.032943737 0.4094724 -0.40183026 0.10226761
000260 21 0f c1 3d ac e8 2d bf a7 62 2b be 90 e9 c3 3e
       0.09426714 -0.67933154 -0.16736852 0.38264132
000270 95 8c 09 bf 38 a7 58 3f 0f 08 43 be 5e 7e 71 bd
       -0.53730136 0.84630156 -0.19046043 -0.058958404
000280 ba 05 b9 be e7 3b 06 3d f7 eb 84 3f fe 64 7e 3e
       -0.36137182 0.03277197 1.0384511 0.24843213
000290 55 c3 00 3e 9d 21 e6 3e 35 4a 22 bd 5a 57 84 be
       0.12574513 0.4494752 -0.03962155 -0.25847894
0002a0 3f 11 9d bf 7f a2 2c 3f 38 6a 35 3e d9 c6 88 be
       -1.2270888 0.6743545 0.177163 -0.2671421
0002b0 63 6e 5c bf e8 16 cd be db c9 27 3e 3a 9c 90 bd
       -0.86105937 -0.4005654 0.16385596 -0.07061048
0002c0 a9 40 3e be ff 11 ed bd df 25 22 bf 2c f9 56 3e
       -0.18579353 -0.11575698 -0.63339037 0.20993489
0002d0 44 d3 6b 3e d6 c1 a1 be 0b df 49 3f ff f1 09 bf
       0.2302981 -0.31593198 0.7885596 -0.5388488
0002e0 ad e3 f3 3e 88 fd 06 be a2 bb 34 be a6 da 91 be
       0.4763464 -0.13182652 -0.17649701 -0.28487128
0002f0 1d ec 2a 3e 5a 66 0f be b1 94 30 bd 1f 4c c0 3e
       0.16691633 -0.14003888 -0.043110553 0.37558076
000300 a9 29 f8 bd 02 bb 25 3e 07 07 6b 3f 01 d3 e9 3e
       -0.12117321 0.16184619 0.918076 0.45668796
000310 12 11 15 be 48 38 f4 3e 3c c6 cc 3e 08 7b 2f bf
       -0.14557293 0.4769919 0.3999499 -0.68547106
000320 b7 f0 9b 3e fd a0 53 3e b7 3f b2 3e a1 f2 b6 3e
       0.30457088 0.20666881 0.34814236 0.35731986
000330 5c 6d 1a 3d 2c 1e 8a bd e5 bb 14 3e 75 ff dd 3e
       0.03770195 -0.06744036 0.14524801 0.4335896
000340 d7 f8 ba bc d2 ad 99 bd 20 ed 31 3c b6 0a d5 3d
       -0.022823734 -0.07503857 0.010859758 0.104024336
000350 97 c4 6c 3e 0f b6 14 bf 41 4d ba be 63 71 b7 3d
       0.23121868 -0.580903 -0.36387065 0.08957174
000360 fd 33 28 3d d8 7b 5a be 6f d3 99 bd 2f 90 3e 3e
       0.041065205 -0.21336305 -0.07511031 0.18609689
000370 52 c7 73 3d 68 dc 37 be a8 ee 19 be b0 59 3c bf
       0.05951626 -0.17955172 -0.15032446 -0.7357435
000380 73 7f d4 3c 12 cb 6d be a1 34 cb 3e 44 12 39 3e
       0.025939679 -0.23221996 0.3968859 0.18073374
000390 47 46 cd 3d 44 e6 3a bf c2 3b 17 3f d6 84 84 be
       0.1002317 -0.7300761 0.5907556 -0.25882596
0003a0 57 0d 2a b9 a4 25 04 3e 08 06 1b bf 4a ce aa bd
       -0.00016217433 0.12904984 -0.6055608 -0.08340128
0003b0 a3 0c 80 be 21 67 ab 3e 7c 86 6b 3d ae c1 24 3e
       -0.2500964 0.3347712 0.0575013 0.16089508
0003c0 ad fa 9a 3e c8 22 09 3f ef 79 4f 3e c0 2f 8b 3e
       0.30269375 0.53568697 0.20261358 0.27184868
0003d0 33 39 0f bf ae 72 c3 3e 54 5e f7 3d bd d2 3c bf
       -0.55946654 0.3817343 0.120785385 -0.7375906
0003e0 65 05 59 3e ee 5f 3b bd 90 41 be 3e c9 d9 30 3e
       0.21193464 -0.045745783 0.37159395 0.17270578
0003f0 47 76 b8 be 9e bc b2 3e 7d 5c 1c 3e 9f 7b 59 be
       -0.36027738 0.34909528 0.15269656 -0.21238564

fc_value.bias f4 [128]
000000 03 7c c2 bd f2 16 32 be 51 2d 81 3d 4b 03 bc bd
       -0.094963096 -0.17391565 0.063074715 -0.091803156
000010 8b 73 08 be ec 7a 70 3e 27 7f aa bc a4 5c 1a bd
       -0.13325326 0.23484391 -0.020812584 -0.037686005
000020 45 35 88 3d d6 27 a4 3a 3e 41 fe bd 9e 6c 4a be
       0.06650785 0.0012524079 -0.12414788 -0.19767997
000030 6c b2 9e 3c 7c c2 d1 3d 2a d6 08 bb 39 7c c9 3d
       0.019372188 0.10242173 -0.0020879605 0.09838147
000040 a3 71 b7 3d a6 79 25 bd 74 d2 9b 3e ad 20 39 3d
       0.08957221 -0.040399216 0.30434 0.045197178
000050 45 70 88 3d 67 51 f3 3c b2 98 93 3e be 85 3b 3d
       0.06662039 0.029701902 0.28827435 0.045781843
000060 1a 17 75 3c 2c 01 a4 bd 3e 35 b3 3d 72 3c b2 3e
       0.014959121 -0.08008036 0.087503895 0.3481174
000070 30 41 20 3d d9 38 08 3d 4d 69 46 3e fd 98 c6 3d
       0.039124668 0.03325734 0.19376107 0.09697149
000080 a8 b7 1f 3d b0 4e 89 3d 94 5b aa 3e 18 c0 3a be
       0.038993508 0.067044616 0.33272994 -0.1823734
000090 1a 4c 4c 3e 9c ba ed 3d ea 97 9f bd 87 51 e3 bd
       0.19950905 0.116078585 -0.07792647 -0.110995345
0000a0 59 a6 e1 bd 14 c1 4d 3e 00 0d b4 be 8e e1 fe 3d
       -0.110180564 0.20093185 -0.35166168 0.12445365
0000b0 fb c1 10 3e 7c 38 20 bb 32 43 ab 3e 03 b8 ff 3d
       0.14136498 -0.002444773 0.33449703 0.12486269
0000c0 87 46 e7 3e 1c 8e fa 3d 90 f3 22 3e 70 da cc 3d
       0.45170996 0.122341365 0.15913224 0.10002601
0000d0 9d 62 6c 3e 60 95 a8 be b5 02 e0 bd bf 54 90 bb
       0.23084493 -0.32926464 -0.10938016 -0.004404634
0000e0 bd f0 1f be 42 ce 3c 3e d2 97 76 3d 5d 61 ae bd
       -0.15619178 0.18438056 0.06020338 -0.08514664
0000f0 3f 2d b6 3d 5d a4 8a be b5 5a 2f 3c 3b bc c9 bc
       0.08895349 -0.27078524 0.010702779 -0.024625888
000100 8f b0 42 be 54 8d 5a 3d ea a1 80 3e fe 62 18 3e
       -0.19012664 0.053357437 0.2512353 0.14881513
000110 e5 55 c2 3d 2f 25 66 bd f3 61 5e 3d fb 37 70 3e
       0.09489039 -0.056187805 0.05429263 0.23458855
000120 a9 f5 e3 be 55 7b ee bd 56 a2 08 bd e2 ac 9a be
       -0.4452336 -0.116446175 -0.03335794 -0.30210024
000130 ca 26 87 be 71 90 d4 3d f5 52 6d bd b5 c9 5f 3d
       -0.2639678 0.103791125 -0.057940442 0.054635722
000140 73 a0 bd bd ac 28 12 be ce 79 b2 bc 65 92 bd 3c
       -0.09259119 -0.14273328 -0.021786597 0.023141095
000150 e5 2c 60 3e 7a f7 ea bd 64 6a 6a 3e 55 72 8d 3c
       0.21892126 -0.11472984 0.22892147 0.017266432
000160 39 ee e5 3b c3 d2 88 3d b6 a8 b0 bd c0 ba 4a be
       0.0070169237 0.066808246 -0.08625929 -0.19797802
000170 0d 68 c1 3e 7e a5 f8 3d b8 02 a3 3e 57 0a de bd
       0.37774697 0.1214094 0.31838012 -0.10841816
000180 d4 9e 05 3a 5f eb 00 be c4 ae 1f be fa a0 0d be
       0.00050972146 -0.12589787 -0.15594012 -0.13830939
000190 ad c5 b1 3e 7c c9 4b 3e df 7a 47 3c d9 44 4a 3e
       0.34721127 0.19901079 0.012175291 0.19752826
0001a0 aa 40 4f be fc a7 ec bd 6d 94 1e 3e 39 2a 0b 3e
       -0.20239511 -0.11555478 0.15486307 0.13590325
0001b0 22 68 c4 bc 30 58 a7 3e f8 ce a7 3d e7 ab 8a be
       -0.023975436 0.3268447 0.08193773 -0.27084276
0001c0 28 56 87 bc e6 c3 35 bd 70 8b 05 bd 79 e1 f4 3c
       -0.016520575 -0.044376276 -0.03260368 0.02989267
0001d0 d4 30 f2 3d 4f 1c 95 3e 22 f4 ca 3e ae 88 b5 3e
       0.118257195 0.2912316 0.39639384 0.3545584
0001e0 d6 7e f1 3d 59 b1 ea 3d 75 d8 77 bd 4d f6 7b 3c
       0.1179177 0.11459608 -0.060509164 0.015378547
0001f0 ad d4 99 3e 52 40 96 3d 6f ff 4a 3d 4d ad 6c 3d
       0.3004507 0.07336487 0.049560007 0.05778246

fc_adv.weight f4 [128, 128]
000000 90 00 b8 bd 4e fd bb be 22 05 17 be 6b c9 27 3e
       -0.08984482 -0.36716694 -0.14748052 0.16385429
000010 23 2a 9f be c2 ae 27 3e fc 83 49 be f0 e9 e5 3e
       -0.31086835 0.16375259 -0.19679254 0.44905043
000020 8b f9 ef bd e4 2f e4 3d dd 1e 67 3d f4 09 3c 3d
       -0.117175184 0.11141947 0.056425918 0.04590793
000030 34 5a 32 bd ee c5 f3 3d 7b 83 25 3e c3 10 de 3d
       -0.043543056 0.119029865 0.16163437 0.10843041
000040 67 84 3d bc c0 a6 75 be a7 61 dc 3d c2 5d 5e be
       -0.011567212 -0.23989391 0.10760813 -0.21715453
000050 53 58 42 3e 01 88 ca bd a2 2f 3d be 20 eb b1 be
       0.18979006 -0.09889222 -0.18475202 -0.347497
000060 d6 30 97 bc df e8 cc 3e 04 0f 78 bc 32 e4 33 be
       -0.018455904 0.40021417 -0.015140299 -0.17567518
000070 d8 b6 52 3e 96 a1 50 be 93 e8 ac 3d 84 c7 d8 3e
       0.20577562 -0.2037414 0.084427975 0.42339718
000080 6c 3a 84 bd 27 f3 25 3e 48 3c 4e 3d f2 05 29 be
       -0.064564556 0.16206037 0.050350457 -0.16506174
000090 95 af 4f bd 0c 8a 77 3d 0e 20 8d be 25 2b a6 3d
       -0.050704557 0.060434386 -0.27563518 0.08113698
0000a0 21 68 f1 bd 9e df a9 3d c6 3c 54 be 69 74 93 bd
       -0.11787439 0.08294605 -0.20726308 -0.07199938
0000b0 8e f0 9c 3e 08 13 ca 3d dd 88 72 be b5 bf af 3e
       0.3065228 0.09866911 -0.23685022 0.34325948
0000c0 46 78 61 3e 89 bf 51 be 99 b4 bb 3e 8e 40 e5 3e
       0.22018537 -0.20483221 0.36661223 0.44775814
0000d0 63 cb 88 be a0 a3 77 be e3 6b 00 3d 29 96 f0 3d
       -0.26717672 -0.24183512 0.03135289 0.11747391
0000e0 c8 7d 1e be e9 5b 4a be b9 ad da 3d 93 85 10 bf
       -0.15477669 -0.19761623 0.10677666 -0.5645382
0000f0 69 a9 c1 bc 31 2d 99 3e 65 92 d8 be 0f e9 94 3e
       -0.023640351 0.2991729 -0.4229919 0.2908406
000100 5c 50 9f 3c d9 e8 32 be 63 f1 1c 3e 6f 5d bf 3e
       0.019447498 -0.17471637 0.15326457 0.37375972
000110 6c 45 25 be 49 91 1b bf 07 c5 03 be 3f 2c de 3e
       -0.16139764 -0.6076856 -0.12868129 0.43393132
000120 4f 6c ff 3d e6 2f 27 be ad f5 9c 3e e9 7d 05 bd
       0.1247183 -0.16326866 0.30656186 -0.03259078
000130 7a c8 e3 3d 43 60 71 3e c3 51 f9 3c 84 e0 4e bd
       0.11122222 0.23571877 0.030434495 -0.050507084
000140 e8 1b 27 be f2 77 a9 bd ae 8b fa 3d c4 c0 18 3e
       -0.16319239 -0.08274831 0.12233673 0.14917284
000150 4a dd cb bd c9 d5 de 3e ab 1a 4a bd f8 57 7e bd
       -0.09954317 0.4352248 -0.04934184 -0.062095612
000160 65 8f ef bd e5 3a 2e 3d 19 c8 0a 3d 54 f0 bf 3e
       -0.11697272 0.042536635 0.033882234 0.37488043
000170 5e 7d 79 3e 13 6e 3f bd 1d 84 72 3b 28 a0 de 3e
       0.2436423 -0.046735834 0.0037005015 0.43481565
000180 60 0f 15 bd fc a2 f8 bc bf 30 b3 bd c3 22 dd bd
       -0.036391616 -0.030351155 -0.08749532 -0.10797646
000190 41 71 af 3d 11 a5 79 3e de 1e 7f be 1d 56 8f be
       0.08566523 0.24379374 -0.24914119 -0.27995387
0001a0 ee c8 21 be 60 89 fb bd 47 43 68 3e f0 cd 9a bc
       -0.15799305 -0.122820616 0.22681914 -0.018897027
0001b0 6c 38 86 3e da 7d 0f be b3 36 92 3e 23 5b b0 be
       0.2621492 -0.14012852 0.28557357 -0.34444532
0001c0 04 74 ab bc 5a 15 15 3c 69 7b d4 be 91 1b 0e 3d
       -0.020929344 0.009099329 -0.41500404 0.034694258
0001d0 61 81 59 bd ad cc cb be 0c 6c 86 3d 92 7f 6f 3e
       -0.0531019 -0.39804593 0.06563577 0.23388508
0001e0 bb 12 0d be ef 81 0b 3e 17 96 2c 3e a9 10 24 bd
       -0.13776676 0.13623784 0.1685413 -0.04005495
0001f0 0c 64 e5 be f1 7c a5 be 8b 49 59 bd bd 12 8e 3e
       -0.44802892 -0.32321885 -0.05304865 0.2774867
000200 65 11 9f be f7 8b bb 3e a6 f5 81 bd 71 c9 d4 bc
       -0.31067958 0.36630222 -0.06345682 -0.025974961
000210 de d3 e2 bc bd d2 01 3e 32 ba 15 3f b7 7e 30 3e
       -0.027688917 0.12678047 0.58487236 0.17235838
000220 a3 a7 50 be 55 37 4c bd e4 97 b4 bc af 08 83 3e
       -0.20376448 -0.049857456 -0.022045083 0.25592563
000230 26 90 b4 3d e7 7e d5 bd f0 ba 2e 3e bc ae 5a bd
       0.08816557 -0.10424595 0.17063498 -0.053389296
000240 0d e9 98 bd 64 0f 24 bf 5c 64 98 3d 7d ef 86 3e
       -0.07466326 -0.64085984 0.07441017 0.2635459
000250 49 fb 2e be 4d 33 65 3e d8 02 bf 3e 8f 7a 88 bd
       -0.17088045 0.22382851 0.37306857 -0.06664001
000260 b4 a6 0c bd a2 dd 1e be d9 00 4d 3e d1 31 4e be
       -0.034338668 -0.15514234 0.20019855 -0.20136191
000270 d0 5e 85 3a 6c 81 10 3e 1f 3a 4c 3e 2b ff 95 be
       0.0010175351 0.1411187 0.19944046 -0.2929624
000280 c5 47 ce bd 16 e6 fb 3d 0d 1f a8 be 58 d1 2a bf
       -0.10072283 0.12299745 -0.3283619 -0.66725683
000290 0e 08 63 3d 1e 5d ab 3a 07 a2 01 bc ef 9b 54 bd
       0.055427603 0.0013074016 -0.0079121655 -0.051906522
0002a0 d8 d3 e5 3d a2 98 64 3e e7 67 8c 3e b2 79 af 3e
       0.112220466 0.2232385 0.2742302 0.34272534
0002b0 57 31 2f 3e de 07 bc 3d b3 ed 1b 3e b4 67 63 bd
       0.17108665 0.09181188 0.15227394 -0.05551882
0002c0 51 a2 a0 3c 68 3f 0e bd b0 48 2b be df f7 47 be
       0.019608648 -0.034728438 -0.16726947 -0.19528149
0002d0 89 38 73 3e 0e ad ca be 3a 8f 3f be a3 af 9f bd
       0.23752035 -0.39585155 -0.1870698 -0.07797172
0002e0 c8 6c 64 3e 4f 56 15 3e 3a 40 8f 3e 94 32 d0 3e
       0.22307122 0.14583705 0.27978688 0.40663588
0002f0 d6 aa a4 3e f3 8b 4e 3e ba 10 d2 bd e1 71 51 bd
       0.32161587 0.20170574 -0.102570966 -0.051133994
000300 34 d3 8c bd fc 7e c0 bd 6d 3a b9 3e ef c8 f7 3e
       -0.06876221 -0.0939922 0.36177388 0.48395488
000310 7b 06 29 3d b2 79 8e be a0 79 86 3b 66 a4 e3 3e
       0.041265946 -0.2782722 0.0041038543 0.44461364
000320 17 c3 72 be 43 65 a6 3d 38 85 d2 be ca 57 7b 3e
       -0.23707233 0.08124783 -0.41117263 0.24545208
000330 c1 2f a8 3d f8 1d 5c 3e 7b d8 94 3d 14 22 75 3d
       0.08212233 0.21495807 0.07267853 0.059846953
000340 5c 44 4b bc 15 0d ab bd 6f 41 30 3e d4 e2 88 3d
       -0.012406435 -0.083521046 0.17212461 0.06683889
000350 d7 e3 74 be e9 a5 8c bd 9f 94 84 be e4 c8 8d 3d
       -0.23915039 -0.06867582 -0.2589464 0.069230825
000360 4e c3 22 3e 6a 33 0b 3e f8 76 28 bc d4 6f f3 3d
       0.15894815 0.13593832 -0.010282271 0.11886564
000370 10 24 a5 3e 9e 36 bd be 10 d5 38 bd d7 96 10 3d
       0.32254076 -0.36955732 -0.045125067 0.035300102
000380 27 14 3a be 51 2c 1f be 46 64 08 bd 76 12 82 bd
       -0.1817175 -0.15544249 -0.033298753 -0.063511774
000390 ae 00 87 3e cd ee 80 be e0 16 d8 3d 73 bf 59 be
       0.26367706 -0.2518219 0.10551238 -0.21264438
0003a0 60 68 5c 3e 0b ba be 3e 4d 9a 24 3d 0d c4 41 3c
       0.21524191 0.37251315 0.040186215 0.011826527
0003b0 71 91 c9 3d be be f4 be 1f 53 91 be 0f 7f b2 be
       0.09842194 -0.47801775 -0.2838373 -0.34862563
0003c0 e3 6a 11 3e ef 05 5c 3b ec bc c1 bd 27 99 da be
       0.1420093 0.0033572873 -0.09459862 -0.4269497
0003d0 01 a6 51 3f 54 84 b1 3e 9f be 96 be 16 62 db 3e
       0.81893927 0.3467127 -0.29442307 0.4284827
0003e0 b2 4f 94 bd ef c0 aa be cd 69 b5 3a 9d 32 28 3e
       -0.07241763 -0.33350322 0.0013840735 0.16425557
0003f0 4b e4 32 bd 36 31 8e bd a6 53 75 bd a0 d1 b8 3d
       -0.04367475 -0.0694298 -0.059894226 0.09024358

fc_adv.bias f4 [128]
000000 3d 4e e4 bd 98 22 0c bd 9a 91 f8 be 5e e4 94 bc
       -0.11147735 -0.03421268 -0.48548585 -0.0181753
000010 f5 27 e5 bd 85 fe 68 3d 57 06 67 bd 7b 40 83 be
       -0.11189262 0.056883354 -0.05640253 -0.25635132
000020 bf c9 25 3e 12 07 06 be c7 6c 66 3e 26 97 20 be
       0.16190241 -0.13088635 0.22502433 -0.15682659
000030 f3 0b 13 bd 19 42 c7 3d be 88 2c 3e 56 ef c1 3e
       -0.035900068 0.09729404 0.16849038 0.3787791
000040 3d b8 0d bb 39 87 93 bc cf c7 a4 3e 5f 51 db 3e
       -0.0021624707 -0.018008815 0.32183692 0.4283552
000050 21 93 08 3c 62 42 42 3e b8 b3 32 be 68 71 57 3c
       0.0083358595 0.18970636 -0.1745137 0.013149597
000060 f5 f0 de 3d 1e a7 20 be 1b f7 b1 be 58 d2 c4 be
       0.10885803 -0.1568875 -0.3475884 -0.3844173
000070 42 de f8 3d 20 1b 13 3e 52 70 d6 3d 80 71 c8 bc
       0.12151767 0.14365816 0.10470642 -0.024468184
000080 2e c7 e6 bd d7 a4 fd bc ac 04 d5 bc e1 3a 10 be
       -0.11268459 -0.03096239 -0.026003204 -0.1408496
000090 96 f3 06 be a1 45 81 3d 7c 2a 4f 3e aa f7 f1 3a
       -0.13178858 0.06312109 0.2023105 0.001846065
0000a0 48 57 62 be 23 0c c8 bd 97 5c 4b bd e5 e8 4f 3e
       -0.22103608 -0.0976794 -0.049648847 0.20303686
0000b0 bc 43 1b 3d 57 89 e7 bc 0d 1a d8 bd 80 b7 0c be
       0.037906393 -0.02826373 -0.10551844 -0.13741875
0000c0 28 52 2e bd d7 50 9d 3c 7b 49 8a bc 7f d5 e1 3d
       -0.04255882 0.019203587 -0.016880741 0.11027049
0000d0 4d da 73 be 1d fb 80 3c 97 7a 90 3d 3f e7 bf 3c
       -0.23813744 0.01574474 0.07054632 0.023425696
0000e0 e8 2d ae 3d 94 c6 7e 3e a6 5d 19 be 06 71 9a 3e
       0.0850485 0.24880439 -0.1497713 0.30164355
0000f0 bb 10 2e 3e 41 9f d2 be f6 59 e0 be 8c d9 86 bf
       0.1699857 -0.41137126 -0.43818635 -1.053514
000100 bf 4c d1 3e b3 6b 9a bd 1f ba df bd 14 f4 0d 3c
       0.40878865 -0.07540073 -0.10924172 0.00866415
000110 db 6f ef be f7 60 d0 3e 24 65 19 be b3 b4 5f 3e
       -0.46765026 0.40698978 -0.14979988 0.21846275
000120 f7 74 b3 be 94 49 e6 be 00 f0 56 bd 18 70 02 be
       -0.35050175 -0.4497801 -0.052474976 -0.12738073
000130 f4 5d 53 bd c6 e5 c5 3e ff e8 19 3f 33 f8 b4 bd
       -0.051603273 0.38651866 0.6012115 -0.08836403
000140 50 0a 3b 3e 5a b4 08 be 8b 76 bd bc 0d 90 82 be
       0.18265653 -0.13350049 -0.023127815 -0.25500527
000150 5c d5 ba bd 2b 0d 87 3e 0a 67 6a 3e 02 70 66 3e
       -0.09122726 0.26377234 0.22890869 0.22503665
000160 76 76 1e bd f3 e7 c5 bd d8 84 29 3e c3 4e 55 be
       -0.038687192 -0.096633814 0.16554582 -0.20830826
000170 30 ad b0 3e 2a b5 27 3e 28 37 f4 3d 07 b4 3c be
       0.34507132 0.16377702 0.11924583 -0.1842805
000180 ed 3c e8 bd 40 06 a5 be 83 39 2a 3f 78 95 1f bf
       -0.11339746 -0.3223133 0.66494006 -0.62337446
000190 01 96 68 bd 29 7e 48 3c 7a 9f bd 3d b3 a2 8d be
       -0.05678368 0.01223711 0.09258933 -0.27663192
0001a0 8c c4 c3 3e 04 ea c1 3c 08 75 61 3d db ec 3e 3d
       0.3823589 0.023671158 0.05504325 0.0466126
0001b0 8b 35 b8 bd db 95 d0 3d fa 3f 92 be 5e 3a 85 bd
       -0.089945875 0.10184833 -0.28564435 -0.06505273
0001c0 b3 ab e0 bd 1a ac 7f be 71 26 31 be d1 ec 4b 3e
       -0.10970249 -0.24967995 -0.1729982 0.19914557
0001d0 e8 ff 15 3e 9a 08 50 3c c5 25 c4 bd ab 2e 4e 3e
       0.14648402 0.012697363 -0.095775165 0.2013499
0001e0 2d 3f 11 3f aa 09 97 bd db 93 c6 3e 14 11 08 bd
       0.56737024 -0.0737489 0.3878468 -0.033219412
0001f0 76 f0 99 bd e2 33 ba bd a0 ae 28 be a9 54 b5 3e
       -0.075165674 -0.09091927 -0.16472864 0.35416153

value.weight f4 [1, 128]
000000 3b fe 0e 40 55 8d 1a 40 3d 59 a0 bf 1b c7 07 c0
       2.234267 2.4148762 -1.2527233 -2.1215274
000010 25 c9 99 3f 1c a1 03 c0 6b 3d 0b 40 26 d6 e4 3f
       1.201451 -2.0567083 2.1756237 1.7877853
000020 0f 78 00 c0 1f 27 ff 3f 70 79 ff bf d0 05 0f 40
       -2.0073278 1.9933814 -1.9958935 2.2347298
000030 18 a5 29 c0 e7 78 04 c0 fb 42 47 c0 ae ea bf bf
       -2.6507015 -2.0698793 -3.1134632 -1.4993494
000040 94 5f 07 40 a9 ed de bf 85 4d 27 c0 d1 b7 1b c0
       2.1152086 -1.7416278 -2.6141064 -2.4330943
000050 ca 91 83 bf 76 02 0e c0 0a 94 ea bf 98 e9 d1 bf
       -1.0278866 -2.2189002 -1.8326428 -1.6399412
000060 c3 f3 09 40 f6 0a 0c 40 c3 78 22 c0 e4 d8 06 40
       2.155503 2.188169 -2.5386207 2.106988
000070 03 6b d7 bf f1 c0 14 c0 61 01 e2 3f 91 2d 08 40
       -1.6829532 -2.3242762 1.7656671 2.1277812
000080 f8 21 17 c0 a1 5d 53 c0 af 1a 0a c0 9b 53 8f 3f
       -2.3614483 -3.3025897 -2.1578786 1.1197389
000090 08 11 a1 bf a6 27 bd bf 0d 41 24 40 71 d6 2f 40
       -1.2583323 -1.4777725 2.5664704 2.7474635
0000a0 33 35 1b 40 5b 74 d8 3f 0d ed f9 3f fe f0 dd bf
       2.425122 1.6910509 1.9525467 -1.733917
0000b0 73 fa e0 3f 24 0a 03 40 7f 6b da 3f 69 ef 00 c0
       1.7576431 2.047494 1.7064055 -2.0146124
0000c0 5e 7d 7b bf b3 3a f7 bf 0f 78 a7 bf 3f 74 f9 bf
       -0.9823817 -1.9314789 -1.3083514 -1.94886
0000d0 23 77 85 bf c2 f0 d4 bf 66 e1 01 c0 38 d2 0e 40
       -1.0426983 -1.6635973 -2.0293822 2.2315807
0000e0 7a ae e5 3f e1 ff d0 3f 71 a0 f7 3f 79 58 e2 3f
       1.7943871 1.6328088 1.9345838 1.768325
0000f0 e1 11 0e c0 43 c1 fa 3f 4b e1 12 c0 71 81 f8 3f
       -2.2198412 1.9590229 -2.2950008 1.9414502
000100 c2 03 df 3f a1 22 08 40 21 f2 41 c0 52 65 40 c0
       1.7423022 2.1271136 -3.0304034 -3.006184
000110 1b 72 08 c0 7e 8d 02 40 e5 9d 21 c0 0c d1 09 c0
       -2.1319644 2.039886 -2.525262 -2.1533842
000120 93 49 e0 bf d7 46 9a bf 16 4c 12 40 32 83 e1 bf
       -1.7522453 -1.2052869 2.285894 -1.7618163
000130 cb 2b b6 bf af 0a b5 bf 50 2b b0 bf 19 26 01 c0
       -1.4232115 -1.4143885 -1.3763218 -2.0179503
000140 db c4 0a 40 16 c1 f6 3f 62 57 d1 3f f2 8b f5 bf
       2.168265 1.9277675 1.6354792 -1.9183333
000150 57 81 e5 bf f0 49 ed bf 85 7b ab bf 32 1c 00 40
       -1.7930096 -1.8538189 -1.339707 2.001721
000160 76 60 d9 3f aa aa 1c 40 33 20 3a 40 03 e7 53 3f
       1.6982563 2.4479165 2.9082153 0.8277437
000170 f2 3b 36 c0 f8 42 01 c0 e7 9b 10 c0 12 a0 c3 bf
       -2.8474088 -2.0197124 -2.2595155 -1.5283225
000180 72 fb 06 40 94 14 35 40 af 46 1b 40 25 60 df 3f
       2.109097 2.829381 2.4261892 1.7451216
000190 ca 8b 6c bf 0d 97 9f 3f 65 6d 2b c0 a6 4e cd bf
       -0.924008 1.2467972 -2.678552 -1.6039627
0001a0 4a 8d ec 3f 7d d2 42 40 c0 dc 0a 40 ed 56 0a c0
       1.8480618 3.0440972 2.1697235 -2.1615555
0001b0 7b 4d 02 40 0c 9c 9e bf f6 33 1d c0 4c 1f 9c 3f
       2.035979 -1.2391372 -2.4562964 1.2197051
0001c0 8c 9c 02 40 1e f4 fb bf 45 aa 15 40 c6 2d fa 3f
       2.0408049 -1.9683874 2.3385174 1.9545219
0001d0 e4 6f 04 c0 df cc 12 c0 de 02 6d bf a1 44 76 bf
       -2.0693293 -2.2937543 -0.925825 -0.9619847
0001e0 f8 3a b8 bf 31 74 0e 40 42 1e b9 3f cf bb 01 40
       -1.4392996 2.2258418 1.4462359 2.027088
0001f0 17 30 0c c0 66 7b 02 40 c6 d6 f3 bf 1c 2a f2 bf
       -2.1904352 2.0387816 -1.9049919 -1.8919101

adv.weight f4 [49, 128]
000000 59 23 00 3e 00 93 3b 3e 2f 78 32 be 8f 07 69 3e
       0.12513484 0.18317795 -0.17428659 0.2275679
000010 3f b3 54 be 25 33 ab 3e d4 b2 fd 3e 50 33 5b 3f
       -0.20771502 0.33437458 0.49550498 0.8562517
000020 03 8e 82 be b8 b8 d4 3d 3b b2 22 3e 35 05 83 be
       -0.2549897 0.10386795 0.15888302 -0.2558991
000030 02 57 98 be 00 75 c2 be 67 77 25 3e a9 40 68 3e
       -0.29753882 -0.3797989 0.1615883 0.22680916
000040 47 76 36 bd dc e5 15 be cc a8 fc 3e ba da 8e bd
       -0.04454639 -0.14638466 0.49347532 -0.069753125
000050 87 84 16 bd a3 0f 94 3e 90 2b ae be 08 9b 05 be
       -0.03674748 0.2891818 -0.3401761 -0.13047421
000060 68 1e 1c bf 7e c8 01 3f 51 e8 85 be 85 1c 22 3e
       -0.60983896 0.5069655 -0.26153806 0.15831192
000070 f5 5f 56 3e 32 86 0f bf 37 4a 8c 3e db 06 94 3e
       0.20935042 -0.5606414 0.2740037 0.2891148
000080 96 78 ee bc a8 7b ab be f9 de 8d 3e 47 ed e6 be
       -0.029110234 -0.3349278 0.27709177 -0.45102903
000090 f3 6a e3 be 03 af 6f be 7f 8c c5 be 32 ed 4d be
       -0.44417533 -0.23406605 -0.38583753 -0.20110014
0000a0 21 48 94 be 34 64 d6 bd 50 50 e5 bd e1 e5 c6 3e
       -0.2896128 -0.10468331 -0.11196959 0.3884726
0000b0 ff 15 24 be 9f af be b9 b6 ee be 3d fc 21 ca be
       -0.16024016 -0.00036370472 0.09322874 -0.39479053
0000c0 0e ff da 3e dd 74 e6 3e ee dd 6f be 36 e1 b9 3d
       0.42772716 0.45011035 -0.23424503 0.09076159
0000d0 9d 1d b3 be 2e 8b 09 3f 95 5d c8 3e 59 7e 5a 3d
       -0.3498353 0.53727996 0.39133897 0.05334315
0000e0 c5 be a3 bd 96 b4 c0 bd 0a 44 bf be cf 30 f0 be
       -0.07995371 -0.09409444 -0.37356597 -0.46912238
0000f0 59 e7 bf be 4f 22 6d 3e 8b 36 64 bf 47 75 a1 3d
       -0.37481192 0.23157619 -0.89145726 0.07883697
000100 6b 7b 89 3e c1 3c a1 3a 41 dd 0e 3e 86 73 bd 3e
       0.26851973 0.0012301431 0.13951589 0.370022
000110 28 4e ea be b8 75 9c 3e 1f 25 9d be 90 46 15 3f
       -0.45762753 0.30558562 -0.30692384 0.58310795
000120 7f c4 81 be fe 05 f6 bb d1 68 dc be 77 c4 bf be
       -0.25345227 -0.0075080385 -0.4304872 -0.37454578
000130 71 75 8f be e8 ad 14 3d 06 40 a4 3e f7 80 c3 3e
       -0.28019288 0.036298662 0.32080096 0.3818433
000140 03 9b be 3e b6 02 86 be 46 10 8c be 58 26 f3 3d
       0.3722764 -0.26173943 -0.27356166 0.11872548
000150 05 75 e9 be 49 14 db 3d 2d 5c 73 3d dd 68 19 bf
       -0.4559709 0.106972285 0.059414078 -0.59925634
000160 ad d7 4c 3d 45 95 fa 3d 86 84 1e bf c6 a1 ef 3c
       0.050010372 0.12235502 -0.61920965 0.029251944
000170 e7 9a cf 3d f9 58 2e 3e fa 19 8e be c1 67 1b bb
       0.10136967 0.17026128 -0.27754194 -0.0023712965
000180 1a 69 c7 3e 46 1c de 3c 93 40 0a 3f 92 a4 a6 3e
       0.38947374 0.027113091 0.5400478 0.32547432
000190 ce b7 57 3e 2e 49 79 3e 55 ae 9a 3e dd 9b e9 bd
       0.2106621 0.24344322 0.3021113 -0.11406682
0001a0 86 23 d2 3d 65 ea bb be e8 c6 bf 3e f2 29 24 3e
       0.10260682 -0.36702266 0.3745644 0.16031626
0001b0 a7 0a f0 be 98 5d 47 3e 19 4d fb 3d 43 f0 03 3f
       -0.46883127 0.19469297 0.122705646 0.51538485
0001c0 06 20 a1 be b9 71 b7 3e fa 94 8a 3e 7e 4e d0 be
       -0.31469744 0.3582895 0.27066785 -0.40684885
0001d0 67 2e 88 bc 12 fd 02 3f 69 72 5b 3e 2f 86 5b be
       -0.016623689 0.51167405 0.21430363 -0.21437906
0001e0 b3 d2 c1 be 47 0b 86 be 66 89 3c 3e ac 7b 03 3f
       -0.37856063 -0.2618048 0.18411788 0.51360583
0001f0 ac fb 53 3e 1d b7 1e be 71 bb ae be c4 74 eb 3e
       0.20701474 -0.1549954 -0.3412738 0.45987523
000200 12 92 8f be b8 76 60 3e 97 b7 9a be 2b 08 15 3e
       -0.2804113 0.21920288 -0.30218193 0.14553897
000210 87 f9 67 be fb 4d cb 3d 9c ca 89 3e 9a e3 5f bd
       -0.22653781 0.09926983 0.2691239 -0.054660417
000220 25 4d 8b be 01 91 6d 3e 3d fb 7a 3d 69 67 60 be
       -0.27207294 0.23199846 0.061274756 -0.21914448
000230 46 69 8c be ab 22 82 be 88 23 8f be e2 c1 c0 3e
       -0.27424067 -0.25417075 -0.27956796 0.3764792
000240 57 c7 69 be 54 62 55 3d 57 69 ef 3e 3e 60 43 be
       -0.22829948 0.052095726 0.46760055 -0.19079682
000250 d0 ce 57 3e 86 d1 99 3e 42 43 23 3f 42 ec 24 bf
       0.21074986 0.30042666 0.637745 -0.64423
000260 e2 35 b4 be 8b 3d ab 3e e1 f9 2a 3f b1 8e 71 be
       -0.3519736 0.3344539 0.66787535 -0.23589589
000270 f7 a7 78 3e 0a 89 a2 be 75 dc b8 3e fa d4 7a 3d
       0.24282824 -0.31745178 0.36105695 0.061238267
000280 82 a3 51 be ee b4 80 be fd ff be bd a9 56 92 be
       -0.2047253 -0.25138038 -0.0932617 -0.2858174
000290 36 36 84 be c1 6c 35 be eb 49 8f be 67 ff 06 bf
       -0.2582261 -0.17717268 -0.27986082 -0.52733463
0002a0 45 80 4c 3c 6a f3 a9 be de 6b 8b be 07 d3 40 be
       0.012481754 -0.33193523 -0.27230734 -0.188305
0002b0 67 a1 0a be ef a3 10 be c0 7a f8 bb db fc 0a 3e
       -0.13538133 -0.14125036 -0.0075829923 0.13573019
0002c0 47 ce ef bd 45 2d 5a 3d 06 52 25 bd 22 9d 1f be
       -0.11709266 0.05326583 -0.040361427 -0.15587285
0002d0 86 29 7e be be 9d 93 3e 80 06 dd 3d 8f 3e 68 3d
       -0.24820527 0.28831285 0.107922554 0.056700286
0002e0 a0 2e fa 3e 2c b4 81 be 04 04 9e be 42 70 fc bd
       0.48863697 -0.25332773 -0.3086244 -0.12326099
0002f0 33 2c 48 3c 63 c2 3d bd a4 01 da be 42 13 09 3f
       0.012217569 -0.04632796 -0.42579377 0.5354501
000300 9c 23 1e bf 0d 8c 96 3e 40 34 4e be 02 64 fc 3d
       -0.61773086 0.29403725 -0.2013712 0.123237625
000310 81 72 90 be f1 40 89 3e 68 ce 30 be 1b b7 43 3e
       -0.2821236 0.2680736 -0.17266238 0.19112818
000320 67 8c 9a 3d 74 8e cc 3d 28 ce b8 3d bf 1f 89 be
       0.07546311 0.09988108 0.09023696 -0.26782033
000330 a3 58 80 be 99 84 74 3e de 1f 2a 3e ab 23 9e 3e
       -0.25067624 0.23878707 0.16613719 0.30886588
000340 24 bd e4 3e 53 08 a3 bc a3 6d 5d be f3 f2 aa 3d
       0.44675553 -0.01990143 -0.21623854 0.0834712
000350 13 19 07 be da bb d8 be 76 1b 99 3e 9a 62 ea be
       -0.13193159 -0.4233082 0.29903764 -0.45778352
000360 12 3c c8 be c3 dd 06 be 81 ba 78 3e 1c af f5 bd
       -0.3910833 -0.13170533 0.24289896 -0.1199629
000370 4c a8 d8 3e 5d 93 72 3d bd ef 33 bd de 8b 01 bc
       0.423159 0.059222568 -0.043929804 -0.007906882
000380 5b df fa bd 77 55 fc be c2 84 77 3c 3f c3 da bc
       -0.12249633 -0.49283955 0.0151073355 -0.026704429
000390 c2 33 29 bd d6 02 c8 3d 44 f9 fc bc cd 4a 85 3d
       -0.041309126 0.09766166 -0.030880578 0.06508408
0003a0 f9 65 5b 3d 4f 28 a6 be 98 7b 86 3e 74 c1 20 be
       0.053564046 -0.32452628 0.2626617 -0.15698797
0003b0 a1 97 07 bf e4 da bd 3d 83 37 a8 bd 80 e4 a4 3e
       -0.5296574 0.09270266 -0.08213713 0.32205582
0003c0 c0 43 57 be 60 19 42 3d 7d 64 12 3f 54 00 f1 bd
       -0.21021938 0.04738748 0.5718458 -0.11767641
0003d0 fb 6d 73 be e7 a2 d4 3e b6 11 52 3e 0d 23 76 be
       -0.23772423 0.41530535 0.20514569 -0.24036808
0003e0 73 4d 54 be 15 ea 9d be 4a 1a 45 3f 8f cd 9f 3d
       -0.2073267 -0.30842653 0.7699324 0.07802879
0003f0 72 25 11 3e 25 db 02 be b6 b2 bb bb 99 bd 37 3d
       0.1417444 -0.1277891 -0.005728091 0.04485855

adv.bias f4 [49]
000000 48 96 9d 3e 06 e6 08 3d 03 ed 84 be 08 85 7d 3e
       0.30778718 0.033422492 -0.25962076 0.24757779
000010 a1 fe aa bd 4d 74 18 3d 7d 2c 78 be cc 8d af bd
       -0.08349348 0.037220288 -0.24235721 -0.085719675
000020 51 fb 56 3d 3e b5 8f bd f3 5e 35 3e 7c 7f 7d 3d
       0.052485768 -0.07016991 0.17712002 0.061889157
000030 ea 30 d8 3d b5 33 30 be 7e 1f a3 bd 78 5c 54 bd
       0.105562046 -0.17207225 -0.07964991 -0.051845998
000040 2b 2c 41 3d 17 56 70 bd e5 b9 af 3b 77 bf bb 3d
       0.047161262 -0.05867585 0.0053627365 0.091673784
000050 5d 1e b6 3e e6 73 6a bd b5 6b 95 3d 78 8c 78 3e
       0.3557004 -0.057239436 0.07295934 0.24272335
000060 88 86 e7 bc b9 0d 46 3e 4d bd 6a 3e f6 17 1a 3e
       -0.028262392 0.19341172 0.22923775 0.15048203
000070 70 0c 2a 3e fa cb 20 be f6 47 78 3e b5 9f 79 3d
       0.16606307 -0.15702811 0.24246201 0.060943324
000080 5e ab d8 3c af a7 36 be c6 83 24 3d d3 a5 93 bd
       0.026448902 -0.17837404 0.04016473 -0.07209363
000090 a0 9f ee 3d 60 ab 07 be 90 4e 00 be 87 4e 4b be
       0.1165154 -0.13248968 -0.12529969 -0.19854175
0000a0 7a f7 56 3d e7 f1 da bd 0f 6c bf bd 32 26 1f be
       0.052482106 -0.106906705 -0.093467824 -0.15541914
0000b0 24 1a 10 3d 0e 55 92 be 63 60 dc bb 56 df 89 3d
       0.03518118 -0.28580517 -0.0067253574 0.06732051
0000c0 58 60 48 3e
       0.19568002
