lunar_lander_continuous/models/DuelingDQN/quantization_169/model.pth (torch, 227143 bytes, 9 tensors)

fc.weight f4 [128, 8]
00000000: aa17 4bbf d489 5f3e 00f4 d73e 22cb 75be
00000010: e9b1 f03e 7068 08c0 d00b c6be e7f0 8fbc
00000020: c787 fd3f 3c1a b1be 30f2 573f 9fe5 2dbf
00000030: 5ec0 503f 8150 8cbe b818 94bf 5b71 8e3d
00000040: 412a ebbe 28b1 d7be 8c9c 223f 8352 093f
00000050: dbf4 a93e f282 ed3d ecc0 0540 070f 183f
00000060: a124 be3f e11b 6c3e 3316 433f 9fc2 2c3f
00000070: 1930 41be 1d17 603f 5a47 c3bf 209f 79bf
00000080: db73 55be 03c9 043e c929 983e 1852 123d
00000090: 0c10 753e 11d1 de3e 393e d33e 5619 963f
000000a0: 55fe 58bf ace7 083e 0e92 893e 0c58 c73e
000000b0: 5588 8fbe 172a e23e fcb8 dd3f 935e 4a3e
000000c0: e5c5 163e 7e67 743e d3ac 84be 020a 0dbf
000000d0: 8dbb 03bf b3b8 d93e 4ff2 41be d16d e93e
000000e0: 28fc 5c3f 2397 13bc 95f8 d0be 12c9 0a3f
000000f0: 5112 173f 4584 b4be 2970 72bf a1e4 b13e
00000100: 9329 3d3e db33 d83b 4848 a1be 965d d2bf
00000110: 858b 723c 246e bfbd 8aad c4be 4c28 29bf
00000120: 8c4d fe3e 3972 ee3e bb14 e43e 8c2e 8a3e
00000130: 1c8b 373f fd1b 40be 235c 4fbf 898e 61bf
00000140: 9ce7 9abf 3f38 b6be b738 06be 7792 fc3e
00000150: 245c 0f40 8fe6 043f 4f95 fd3f 149a a8bf
00000160: 5c83 ab3f 9ded 65be ec96 5b3f 3c62 e5be
00000170: a5e6 a53d 149d 44bf 7b05 803e 45fc 0d3f
00000180: 9f52 92bf 8cdc 7cbe 6a2d 463e c810 6abf
00000190: 03fa 96bf 09ea 9cbe 5b4d babd 1ccc a5be
000001a0: 6d72 213e 13c3 dbbe 1661 153f a9f1 80be
000001b0: c3ac 42bf 1e95 42bf 7616 2bbe 8a54 383f
000001c0: d46e 183c c361 363f 9595 21be 0a36 2bbe
000001d0: c493 783a 16da 58bf 19a7 d4be d62c 8b3f
000001e0: 35e1 1d3f be13 71be d353 0c3f 248f 80bf
000001f0: 11d1 b4be 82ab cbbe fb6a a4bf 9e1d 443f
00000200: 0d0e fbbe 841f ed3e b077 16be 3cf3 04c0
00000210: 0ef0 f0be c0c4 113f 4140 0abf f871 3bbf
00000220: ebb0 4d3e c9df 1a3f 3236 fabe d814 783f
00000230: 8423 95bf a6b7 20bf e107 0abc 478a fa3e
00000240: f6cc 88be 8d44 ed3d fe14 33be e684 e13d
00000250: 16ba a43f c90e 0340 b3c4 863f f435 563f
00000260: 764a 2d3f 9f55 acbe 44a0 3dbf 16a6 cf3e
00000270: 982b eebd acd8 f8be dda8 6540 6a01 a23f
00000280: 69f9 8fbe 1ac9 bc3e 0472 a03f 666d 663e
00000290: 45d9 37c0 74cf c5bf 27a2 ffbe 448f b8bf
000002a0: 494f 4abf 6026 e73d bd38 ff3e a1c0 2cbf
000002b0: 9b69 dabe d54a 703d fffd 89bd 5172 16be
000002c0: 3ba4 4fbe f7dc 023f e08f 79be 8320 95be
000002d0: 45ba 15bc 5e8f d63f ad48 743f 5110 25bf
000002e0: fe87 d43e e80a 04bf 9712 643e a76d 18bc
000002f0: 26c6 12bf 30ef 51bf f9b4 2dbf d9a7 e43e
00000300: 5c65 82be 7103 ecbe 74a7 a6bd d71d 633f
00000310: 1baf 3ec0 cc63 ccbe 1d2d 3fbf a509 c73f
00000320: 789d babe a937 173f 9d86 353d 60bb d5bd
00000330: 37ba 2c3e 45c5 6ebf 95e2 57bf 555d 873f
00000340: e6c9 943d 5176 733e 6c15 03bf 9aa4 c1be
00000350: cb15 45bf aa23 043f c1fe 3a40 ec69 a7bf
00000360: 0ce4 563f 992e b6bd 4b56 5e3e f7b5 80bb
00000370: 3308 a03f 3df4 04bf ea75 65bf bc89 a23c
00000380: 6761 4e3f a0cf 3c3f 646a b73f bd76 9bbf
00000390: e16c b53f 6dea cd3f c00d babf 5453 41be
000003a0: 8d1d 663c 1150 0dbf 348f 1e3e 6ca2 203e
000003b0: 708a 48be 81f4 61bf 5fbd 733f ae7f 0a3f
000003c0: 0124 65bd 1468 66be 5765 a6be 68da fabe
000003d0: db2d a93e 6792 df3e f201 6e3e 7124 69bf
000003e0: d2b9 26bf 07be 0a3e 972d df3e b753 27bf
000003f0: f99a 263f 57c5 943f 28fa 1f3e 8e86 65be
-0.79332983 0.21829921 0.42178345 -0.2400327 0.47010735 -2.1313744 -0.38680887 -0.017570926
1.9807061 -0.34590328 0.84353924 -0.679285 0.8154353 -0.2740517 -1.1570044 0.069552146
-0.45930675 -0.42127347 0.6352012 0.5364153 0.33194622 0.115972415 2.0899 0.5939793
1.4854928 0.2305751 0.7620575 0.6748447 -0.18866004 0.8753527 -1.525615 -0.9750843
-0.20844977 0.12967305 0.2971938 0.035722822 0.23931903 0.4351888 0.4125841 1.1726482
-0.8476308 0.13369626 0.26869243 0.38934362 -0.280337 0.44172737 1.7322078 0.1976264
0.14723928 0.23867604 -0.25913104 -0.55093396 -0.51458055 0.42523727 -0.1894009 0.45591596
0.8632226 -0.009008202 -0.40814653 0.5421306 0.59012324 -0.35257164 -0.9470239 0.34744743
0.1847289 0.0065979785 -0.3150046 -1.643481 0.014803772 -0.093471795 -0.3841365 -0.66077113
0.4966854 0.4657152 0.44547066 0.26988637 0.7169664 -0.18760677 -0.80999964 -0.88108116
-1.2101932 -0.35589787 -0.13107572 0.49330494 2.2399988 0.51914304 1.981119 -1.3172021
1.3399463 -0.22453924 0.85777164 -0.4480151 0.081006326 -0.7680218 0.2500418 0.5546306
-1.1431464 -0.24693507 0.19353262 -0.91431856 -1.1795048 -0.30647305 -0.09096786 -0.32382286
0.15766306 -0.42922267 0.58351266 -0.25184372 -0.76044863 -0.76008785 -0.16707787 0.72003996
0.009303767 0.7124292 -0.15779717 -0.16719833 0.0009482468 -0.8470777 -0.41533735 1.0873058
0.61671764 -0.23542687 0.54815406 -1.0043683 -0.35315755 -0.39779288 -1.2845148 0.7660769
-0.49034157 0.46313107 -0.14694095 -2.0773458 -0.47058147 0.5694084 -0.54004294 -0.7322078
0.2008702 0.6049772 -0.48869473 0.96906805 -1.1651464 -0.62780225 -0.00842473 0.48933622
-0.26718873 0.11585341 -0.17488477 0.110116765 1.2869289 2.0477774 1.0528778 0.83676076
0.67691743 -0.33659074 -0.7407267 0.405564 -0.116294086 -0.48602808 3.5884316 1.2656682
-0.28119972 0.36872178 1.2534795 0.2250267 -2.872636 -1.5453935 -0.499284 -1.4418721
-0.7902723 0.11286616 0.49847975 -0.6748143 -0.42658696 0.058665115 -0.06737899 -0.14692046
-0.20277493 0.51118416 -0.2437129 -0.29126367 -0.009138648 1.6762502 0.95423394 -0.6447802
0.41510004 -0.5157914 0.22272716 -0.009303487 -0.573336 -0.82005596 -0.6785427 0.44659308
-0.25467956 -0.46096376 -0.08137408 0.88717407 -2.9794376 -0.3991989 -0.7467821 1.5549818
-0.36448264 0.59069306 0.04431783 -0.104361296 0.1686791 -0.9326976 -0.8433011 1.0575358
0.072650716 0.23775603 -0.5120456 -0.37820894 -0.7698638 0.5161692 2.921799 -1.30792
0.8394172 -0.088956065 0.21712606 -0.003927942 1.2502502 -0.5193518 -0.8963305 0.019841067
0.80617374 0.7375431 1.4329343 -1.2145611 1.4173852 1.6087166 -1.4535446 -0.18879443
0.014045131 -0.55200297 0.15484315 0.15686959 -0.1958406 -0.8826371 0.9521083 0.54101074
-0.05594254 -0.2250064 -0.3249919 -0.48994756 0.33042797 0.43666384 0.2324293 -0.9107123
-0.6512729 0.13549052 0.4358947 -0.65362114 0.6508022 1.1622723 0.15622771 -0.2241461

fc.bias f4 [128]
00000000: ca9c 8abe 1f5e 223d d2ea b13e 35a1 1e3d
00000010: 8ebb 03bf 4636 b83e da70 e2be 0877 debe
00000020: 6f51 ab3e abba e1be 5950 fc3d 1535 bebd
00000030: 4307 af3e 849d 58bf feae 333e fdbe 0f3e
00000040: 50c6 bb3d 1a68 313f dd64 adbe fc6b 223e
00000050: 36cf 58bc 4b35 803e 16ab 25bc b797 debe
00000060: b091 a53e 5170 b63e f9a8 56bd 4e15 dfbe
00000070: b6bb cc3d 4604 813d fcb3 013f 47b1 e0be
00000080: 72a5 bebe 8dd6 7c3e 26c8 333f 4f8e d53e
00000090: a12d b83e d5f9 693e c7b8 a93c 9452 1a3f
000000a0: 32e6 56be 76a1 9b3e 467a 513f 3410 403c
000000b0: d7b9 abbe b0a5 eabd 4396 403d a6de b5be
000000c0: 7d5f 103e 850e b3be 40fc 003e cb1c bdbe
000000d0: 6268 d8be 1db2 923e e65f f73e eb04 71be
000000e0: d6af 0b3f 4096 ba3e 1766 33be 9091 b43e
000000f0: 3bb6 41be cefc c0be 465e 09bf 3463 ddbd
00000100: 69e7 b13e 8e95 983c 6c6c 4c3f 2b21 8bbe
00000110: b3b1 1a3e 0ada 193f 61e9 c0be ec27 313e
00000120: 17c1 a4be 8aa3 ae3d 15ad 2b3f ed13 cb3d
00000130: f610 133f 52ee cebd 9031 563e eaa4 203e
00000140: 0918 b6be 3a82 923e 96c0 b73e 36ca 85be
00000150: ef4e c63e 91cc 8abe 8ce2 0a3e 330c 193f
00000160: 1dce 913e cd6f a2be a588 c5be 8c23 823e
00000170: 2667 003f 7266 1fbf 88ff 983e 7ef4 6cbf
00000180: 8c04 a1bd 2258 8dbe 925e d53e 2f05 00bf
00000190: fccf 39bf bd30 85be 4304 d2be dca5 52be
000001a0: e204 4b3e d760 efbe f469 8a3d 380c 943e
000001b0: e88e 12bf 49cc 31be 7d1f 8ebd 2c41 7bbe
000001c0: ce1b db3e 8cc0 c73d 1839 d13c 552b aebe
000001d0: beb3 d6bb 81cf 60be dc2d 1cbf 7985 debe
000001e0: 09d0 92be fc5b 21bf d29c f9be e52b 993d
000001f0: 7c27 f5be 485e 313f c5b9 773e 233b acbe
-0.27072746 0.039640542 0.34749466 0.038727958 -0.5145806 0.35978907 -0.44226724 -0.4345019
0.33460566 -0.4408773 0.123200126 -0.09287468 0.34185228 -0.8461535 0.17547223 0.140377
0.091686845 0.6929947 -0.33866015 0.15861505 -0.013232997 0.2504066 -0.010111591 -0.43475124
0.32337713 0.35632566 -0.05240724 -0.43570942 0.099967405 0.06299643 0.5066526 -0.43885252
-0.372356 0.2469122 0.7022728 0.41710135 0.35972312 0.2284921 0.020717992 0.60282254
-0.2098625 0.30396622 0.818272 0.011722613 -0.33540222 -0.11457384 0.0470183 -0.3552143
0.14098926 -0.34972015 0.12596226 -0.3693603 -0.42267138 0.28651515 0.48315352 -0.23537032
0.5456518 0.36442757 -0.17519413 0.35267305 -0.18917172 -0.37692875 -0.53659475 -0.10809937
0.34746864 0.018626 0.7985294 -0.27173743 0.1510685 0.60098326 -0.37678054 0.17300385
-0.32178566 0.08527286 0.6706098 0.0991591 0.57447755 -0.1010405 0.20917344 0.1568791
-0.35565212 0.2861498 0.3588912 -0.26130837 0.38732097 -0.27109197 0.13562983 0.5978424
0.28477564 -0.31725922 -0.38580814 0.25417745 0.5015739 -0.62265694 0.29882455 -0.92560565
-0.078621954 -0.27606302 0.41673714 -0.5000791 -0.72582984 -0.26013747 -0.41018876 -0.20571083
0.19826081 -0.4675357 0.0675849 0.28915572 -0.5724931 -0.17363085 -0.069396 -0.2453658
0.4279465 0.09753522 0.02553992 -0.34017435 -0.0065521887 -0.21954156 -0.61007476 -0.43461207
-0.28674343 -0.6303098 -0.48752457 0.07479075 -0.47881687 0.69284487 0.24191959 -0.33638868

fc_value.weight f4 [128, 128]
00000000: 1ab4 ebbc dc9c 59bd 6df6 e2be cd0d 96be
00000010: c97b 03be 2036 c6be eb56 833e cd36 dc3d
00000020: 72fe 0abf 2b97 933e 10aa 503e 9e58 493e
00000030: 8f2a f4be af1c d8be 8be7 9b3e 6bc4 8ebd
00000040: 5ae0 fabe 7965 3b3f 9eb2 5cbd 4a3b d0be
00000050: 5cce 3b3f 74e7 51be 5335 bc3e 0cbd b3be
00000060: 5491 633f 65a3 1d3f fcf8 6d3e ce3d 823e
00000070: dc1f bebe 42bd d0bd 0128 473e 8432 d0bc
00000080: 76f7 fc3e 6d7c 923e 2a56 d23e 975d d3be
00000090: e272 ca3e 7771 ff3e 0ae9 9ebe 8372 ec3d
000000a0: 1948 c13d bad6 1cbf 1e77 c43e 69b3 37bf
000000b0: 83d0 9d3d 20f0 7d3e fda0 9d3e 85f2 08bf
000000c0: f643 4bbe 8625 c73d c88a babe 2e91 74be
000000d0: 325c 523f 7254 783e 7d97 503e de3e 233e
000000e0: 7f3b e33e a3f1 70be cadc a5be febf b83e
000000f0: 146f 8f3d 5328 893e 1dc5 c13d 9f79 d7be
00000100: fe4e 30be 63c4 82be 3996 6b3e 4d16 09bd
00000110: 028b c0be e84f 013f 23eb 2f3f 969f a8be
00000120: 4f8d 673e 1ecd b4bc 6692 abbe daa6 b9bd
00000130: 0f79 cc3e b354 10bf be76 48bc b8d2 cfbe
00000140: 6528 8c3d acd8 423c 30a5 9abe 5a3b 99be
00000150: f47b babc 8d0a 07bf 78ee 333e b818 fd3e
00000160: b939 d6be 5cc3 de3e ee5f 3a3e 445d c63d
00000170: 099d 95be fe69 fdbe d84b b63e 02c6 a9be
00000180: d7b0 a33d ec8f 31bd 6a28 7ebe f047 0ebe
00000190: fde8 8fbe 40e1 e2bd 973f 1dbe bc4a 993d
000001a0: 01b1 a33d 8d7f 5dbd 651d 31bd dde8 513e
000001b0: e1a5 f5be 2427 593f 0c2d afbe 7957 babc
000001c0: a728 1bbf bf42 073c 4471 be3e a43c e4be
000001d0: 9dc0 003d 36ce 983e ac02 f9be 6450 ce3c
000001e0: ee28 0dbe 6fac a0be d009 c13e f889 abbd
000001f0: 2d54 fb3e 581c cb3e f7a2 d53c 8641 563e
00000200: 9ec3 a5bd 3fa5 ca3e 0d94 2e3d 83fa 2a3f
00000210: c3dc af3d 7768 453e fb31 203e 4ea9 f0bd
00000220: 0fb6 b13e 1934 68bd af63 12bf 48b3 533d
00000230: 2622 873e d2e0 c33e 1a49 9dbe 0d85 8f3d
00000240: 25a8 db3e 8618 d7be 212d 453e a312 fc3d
00000250: eace aebe e2a7 0f3e 10ca 08bf ce93 be3e
00000260: 1a2d 043e 4b33 f6be 8813 413d ff68 8fbe
00000270: f0d6 1e3e 96cd d7bd 6f4a 83be 5b63 8b3d
00000280: b687 09bf 02b7 943e 0c25 f7be be7f dc3e
00000290: a0b2 abbe 0ab0 eabe 8ac3 a23e 9a36 8cbe
000002a0: b0d0 843e effa 833e 0900 2bbf a962 263f
000002b0: f48c 163e b067 e6be b008 1ebf cab4 ab3e
000002c0: f701 283d 6510 ddbe 8870 6c3e 76cf bd3e
000002d0: b99c 23be 0d95 a8be 75fa 00bf f0e8 c6be
000002e0: 8203 f7be 82dc 9c3c a5f5 0bbd 9e54 d4be
000002f0: c3c2 1c3f bf3e 93be dc71 96be 301f 7b3e
00000300: 1bb1 da3e e828 bd3d 6b62 babe 3e25 68bd
00000310: 88fd 8b3e 6824 debe 2220 fbbe 49d4 0e3e
00000320: b81a 5cbe 320b 573e b5ea 753c 1a38 e2bc
00000330: 0601 f6be b983 a43d a7c5 8cbd 252b 653e
00000340: b886 e3be 1451 f7bc 310a 693e 636f 093e
00000350: 1699 8e3d 17ca 1f3f 1dc7 86be d2fc d8be
00000360: 8ded ecbe d418 a0be afea 6abe 5258 debd
00000370: 479a 29be efe4 d03e ef74 9dbe 42b7 d93d
00000380: 634b 72be 70ea cdbe 61c5 e83e 1e07 df3d
00000390: ecc3 433e 6e6b 3b3d f4bd 84bd 421c 0e3e
000003a0: cca7 213e 4b1a c13b 41b5 27bd cc54 00bf
000003b0: 57c0 333f d626 12bf 7179 9c3e 9afb 163e
000003c0: 6a87 aa3e 736a 0abe 5042 a3bc 9e14 f13e
000003d0: 21f4 8b3d 4951 28bf 96d2 143f d4f8 4dbe
000003e0: 5bd3 783c 4d7e 163f adb2 2dbe 27a9 f0be
000003f0: 6e90 dcbe 0310 84be 12aa 093e 4ce1 dabd
-0.028772403 -0.05312811 -0.44328633 -0.29307404 -0.12840189 -0.3871317 0.2565225 0.1075264
-0.542945 0.2882627 0.20377374 0.19662711 -0.4768872 -0.42209384 0.3045009 -0.069710575
-0.48999292 0.7320171 -0.05388128 -0.40670234 0.73361754 -0.20498449 0.36759433 -0.3510517
0.8889363 0.61577445 0.23239511 0.25437778 -0.37133682 -0.10192348 0.19448854 -0.025414713
0.49407548 0.28610554 0.41081363 -0.4128234 0.39540774 0.49891254 -0.3103717 0.11545279
0.0943758 -0.61265147 0.3837213 -0.71758133 0.07705786 0.24798632 0.30786887 -0.53495055
-0.19850144 0.09723954 -0.36434007 -0.23883507 0.8217193 0.24250963 0.20370288 0.1594195
0.4438133 -0.23529677 -0.3239501 0.36083978 0.07003608 0.26788577 0.094614245 -0.42084977
-0.17217633 -0.25540456 0.23006524 -0.033468533 -0.37606055 0.5051255 0.68718165 -0.32934254
0.22612499 -0.022070464 -0.3351013 -0.090650275 0.3993611 -0.5637924 -0.012235342 -0.40590453
0.06843642 0.011892479 -0.30204153 -0.29928094 -0.022764184 -0.52750474 0.17571437 0.4943292
-0.41840914 0.43508422 0.18200657 0.09685758 -0.2922137 -0.49494928 0.3560474 -0.3315888
0.07992714 -0.043350145 -0.24820104 -0.1389463 -0.28107443 -0.11078119 -0.15356289 0.074849576
0.07992745 -0.05407672 -0.043240923 0.20498987 -0.47978118 0.8482535 -0.34214056 -0.022746788
-0.60608906 0.00825566 0.3719579 -0.44577515 0.03143369 0.29844826 -0.4863485 0.025184818
-0.13785145 -0.31381556 0.377028 -0.08375925 0.4908766 0.39670062 0.026078684 0.20923433
-0.08093952 0.39579198 0.04262166 0.667885 0.08587029 0.19278131 0.15644066 -0.11751042
0.34709212 -0.05669031 -0.57183355 0.051684648 0.2639324 0.38257462 -0.30719835 0.07007799
0.42901722 -0.42010897 0.19255497 0.12308242 -0.34142238 0.14028886 -0.5343332 0.3722214
0.1290783 -0.48086008 0.047137767 -0.28009793 0.1551168 -0.10537259 -0.25642726 0.0680606
-0.53722703 0.29045874 -0.48270452 0.4306621 -0.33534718 -0.45837432 0.3178981 -0.27385408
0.25940466 0.25777385 -0.6679693 0.64994293 0.14702207 -0.45000982 -0.61732006 0.3353637
0.0410175 -0.4317657 0.23089802 0.37072343 -0.15977754 -0.32926217 -0.5038217 -0.38849592
-0.48244864 0.019148115 -0.03416981 -0.41470808 0.6123468 -0.2875881 -0.29383743 0.24523616
0.42713246 0.09236318 -0.36403212 -0.056676142 0.27341866 -0.4338715 -0.49047953 0.13948168
-0.21494567 0.21000364 0.015009572 -0.027614642 -0.48047656 0.080329366 -0.06873637 0.2237974
-0.4443872 -0.030190028 0.22757794 0.13421397 0.069627926 0.6241774 -0.26323786 -0.42380387
-0.46274987 -0.31268942 -0.22941087 -0.108566895 -0.16562758 0.40799662 -0.30753276 0.10630657
-0.2366157 -0.40217924 0.45463088 0.10890029 0.19117707 0.04575675 -0.06481543 0.13877967
0.15786666 0.005893027 -0.04094434 -0.5012939 0.7021536 -0.5709051 0.30561402 0.14744416
0.33306438 -0.1351717 -0.019929081 0.47086042 0.06833673 -0.6574903 0.5813383 -0.20114452
0.01518711 0.5878647 -0.1696269 -0.47004053 -0.4307894 -0.25793466 0.13443783 -0.10687503

fc_value.bias f4 [128]
00000000: 548d 73bd 3aeb cf3c 6f84 86bd 0fea f43d
00000010: eed8 7a3d 33c1 5bbd 5c6f 353d f426 833e
00000020: 9581 aa3d 9af3 45be 2626 703e 8a2c 5ebd
00000030: 46c7 aabe e51c e8bc 0d09 7f3d 327d e538
00000040: e7f8 26be 09fd 083d 16b4 ffbc 0900 90bd
00000050: b30f 58be af9c 293e fea3 353e 9b41 b23d
00000060: aa3e 353e 8433 31be 82d1 f43d 3eaa 4ebd
00000070: de78 263e 0041 b43c 0935 303c eaaa adbb
00000080: 8a96 253e b9dd 83bc 874c 383d 9ae6 5d3d
00000090: 33ea a5bd 8c52 9f3d d328 42bd b81a 9e3d
000000a0: 3f61 f63d 9b94 723c 4412 27bc 5235 e2bd
000000b0: a293 f83d a24b 3a3e dca5 6b3c 6718 1ebe
000000c0: 18c8 943c dcc3 19be 4f91 fe3d 5646 883d
000000d0: c3d8 02bd fd71 5b3d c641 033d 6951 1a3e
000000e0: 2a00 48bd d500 3a3e 3726 c2bd 5d3f 46bd
000000f0: 55f2 45bd 4d82 8ebc 4890 ed3d 14be d73d
00000100: 7b9e 07bd d5b8 9ebd a90b 2f3e 4ff6 a83e
00000110: f617 883c 6aae debc 9084 323c 26f5 71bd
00000120: 71eb 27be f7ec 54be f1ef 3f3e f0c7 f63d
00000130: e59c 913e 6b17 713c 815a 0a3e 326f 323e
00000140: 1fcd 0d3d 0883 9b3e e9d7 52bd d84e 39bd
00000150: da74 19be 270b b73d 59e1 a53d 110b b93d
00000160: c958 653d af9f 0d3e 63eb 773e d8be ca3d
00000170: 8373 3a3e 5623 9b3d abf0 edbd 0746 b63d
00000180: 217c b63d 2405 cd3d 43e9 0dbd 678b 36be
00000190: 8bd9 ce3d 5205 ae3d 87ce 393e 24b0 a1bc
000001a0: 21f9 b13d a63e 24bd 9769 4d3d e010 473e
000001b0: f4db 933d 7259 db3d 11e0 8b3e 1982 343e
000001c0: cd41 2d3d 8499 913d 85c7 143a 95a1 27bd
000001d0: 1f2d 6a3d 3c42 d13c 0023 1dbd bfc1 d53d
000001e0: 3cd6 803d 8684 ed3d 0018 8cbe af04 d23c
000001f0: 06a8 9b3b 7afd 04be 9b5c f83c 7ed6 cabc
-0.059460953 0.02538072 -0.065682285 0.11958706 0.061242037 -0.053651046 0.044295654 0.25615656
0.08325497 -0.19331208 0.23452052 -0.054241695 -0.3335516 -0.02833409 0.06226449 0.000109428904
-0.16305886 0.033444438 -0.031213801 -0.07031257 -0.21099739 0.16563676 0.1773834 0.087039195
0.17699686 -0.17304808 0.11954023 -0.050455324 0.16257045 0.02200365 0.010754832 -0.0052999156
0.16170707 -0.016096937 0.044994857 0.054174997 -0.081013106 0.077794164 -0.047402214 0.0771994
0.12030267 0.014805938 -0.010197226 -0.11045326 0.12137534 0.18192914 0.014382806 -0.15438996
0.018161818 -0.1501612 0.12430059 0.066540405 -0.031945 0.053575505 0.03204515 0.15070118
-0.04882828 0.1816438 -0.09479945 -0.04840027 -0.04832681 -0.017396117 0.11599785 0.105343014
-0.033110123 -0.07750098 0.17094292 0.3300042 0.016612988 -0.027182776 0.010895863 -0.059071682
-0.16398408 -0.2079352 0.18743874 0.12049854 0.28440014 0.014715056 0.13511087 0.1742523
0.034619447 0.30373406 -0.05147544 -0.045241207 -0.14985982 0.08937674 0.08099622 0.09035314
0.055992875 0.13830446 0.24210887 0.09899682 0.18208127 0.07575099 -0.116181694 0.089000754
0.089103945 0.10010746 -0.034646284 -0.17826615 0.10100087 0.084971085 0.1814519 -0.01973731
0.08690096 -0.04009881 0.050149526 0.19440031 0.07219687 0.1071042 0.27319387 0.17627753
0.04229908 0.07109359 0.00056754827 -0.04092558 0.057171937 0.025544278 -0.038363457 0.10437345
0.06290862 0.115975425 -0.2736206 0.025636999 0.0047502546 -0.12987319 0.030317595 -0.024760481

fc_adv.weight f4 [128, 128]
00000000: 86c6 78bc d541 00bf ad9f 8dbd 9e71 5fbe
00000010: bed4 f73e 6ca1 5bbc 7d25 0c3f 7503 623e
00000020: 56eb 173e 7b64 3d3d afaa db3d a152 b0be
00000030: 85c0 953d 3eda 4b3e e7d2 1a3d 11a6 9cbd
00000040: a646 2e3d 8ed4 66be 990a f0bd 9a16 383d
00000050: 9cc5 b4be acb6 26bb 5260 12bd 818d 343e
00000060: 9ff0 113e 092d bc3d 3158 243e 8d1d 823b
00000070: da58 d03e 9911 5abd d0b6 8f3d 2084 8a3e
00000080: 55db 1fbe 85fd 143f 6561 e7bd 3082 af3d
00000090: 5bc2 c6be b553 15bc 8d6f 333f 05e3 fabe
000000a0: b9ae e03e c7cf 12be 297a 87bf 96f1 e5bd
000000b0: c2d0 52bd ea2e 883d 3ffc 07bd eafb 91be
000000c0: a2ce 6e3e 9981 ad3e 75df a33c b995 f83e
000000d0: c100 11be c9c8 4dbd 6aa1 62be 3c23 e0be
000000e0: 84ba 023e 6f81 8fbe 5c87 eebb 1a70 4cbd
000000f0: 2f10 7f3e 646e c23e cccf df3e 48a8 6fbe
00000100: 549f 14be d75e 98be bef8 5abe 05fb ff3e
00000110: ea96 7c3e 7bc3 1dbd 6880 06be 0b51 be3e
00000120: 3886 29bd e95b 60bd e3e3 c7bd d3d5 2fbe
00000130: 45a2 2dbe 218a 8a3e 1670 53bd 02a8 dbbe
00000140: c5d1 3ebf 65fb 98be bead 1bbe 6883 073f
00000150: 0d47 2b3d 58e6 5abe a9c0 1dbf 93d6 ba3c
00000160: fb82 ffbe 7c7d 8a3c a796 8f3d 3625 ffbe
00000170: 737a 753c 546d ed3e 67d2 333f 9e05 5f3e
00000180: 98b4 80bd c9c9 66be d347 643e 3560 ac3e
00000190: 3d26 413e 8d31 b23c 0d2c ef3e cfc4 7d3e
000001a0: f2d8 7cbe 1038 173e 8698 b3bc f03a 95bd
000001b0: 2945 493f cb54 d2bd c794 7fbd ce81 413e
000001c0: af03 7bbe 2d69 093e 7eb4 783d de75 32be
000001d0: 279a 65be 8662 8cbe 16ed 2a3f b5e7 9a3e
000001e0: c15c 633e b3f9 6abe 0ade c63e c050 33be
000001f0: d365 193e 29b9 0dbf 665e a0be 5e60 0a3f
00000200: 9cc6 8dbe 87c5 1ebd 8952 ef3c ad36 84be
00000210: 7216 bcbc 653c 47bd 5a8f 2c3e 8abc 5f3e
00000220: 9fbd 1dbe 7884 623e 3592 c43d 519c 1abd
00000230: 6869 8dbe 2588 5b3d d862 043e 04b6 b73e
00000240: 34d6 77be 4943 b8bc 9e7a a5be 357c 1b3f
00000250: 2c6e 96bd 607f 74bd 9b4e f8bc c036 29be
00000260: a26a c4be d62a dc3d f82e a2be 96e8 403e
00000270: a079 e63e e8b2 23be 9bf7 803e 54dd 7abe
00000280: 6b49 0dbe dc0e e4bd 2958 513e 3d8d 973d
00000290: 5eb0 343d 2fce 96be b41c 70be bbf3 3fbe
000002a0: 753d 8cbe 9702 84be 9933 9f3c 0d1c 4c3e
000002b0: 70c0 093d 715f db3e 96d3 f43e 2ebb 393e
000002c0: 8e11 243d b4c4 b33e 4ca0 a6be 3227 b3bd
000002d0: 8f97 efbd 222e a23e 74bb 763d 5d14 693d
000002e0: fbb0 aa3e b88e aebd 047b 76be 41cd f43d
000002f0: 8df7 e4be 8616 263e 37f7 503e e542 003d
00000300: 2b10 76be b35a 17be 05aa 4d3e aad1 643e
00000310: 8a9c 8fbe 2818 083e cf2a 783c 61b6 a83d
00000320: 1b35 0d3e d383 7a3d 890e 9dbe 1767 713e
00000330: 0f8e 8c3e 8cc7 213e df60 573e ba22 06be
00000340: ac94 b0be f86d abbe 0c87 13be b4af f0bd
00000350: 2d34 21be 1fb3 08bf 28d1 f3bb af96 7b3e
00000360: 536a 853e a041 363e 0291 f13e c6a2 20be
00000370: 9faa a3bd 935b db3e 3831 583e ffb1 b53c
00000380: 10b1 8e3e b4f5 013e db7a 0ebe 10e3 bdbe
00000390: 2906 45be de93 b33d 2ef8 0c3e fd62 05be
000003a0: c2f1 70be 801b b4bd c224 9ebd dc0f 6f3e
000003b0: 066d 18be aec6 1abd 2d08 1d3e 7089 c9bd
000003c0: 4c1e 93be 18a2 263e 8837 7a3e 3be8 84be
000003d0: 749e 0ebf ce60 e7be e695 1cbe 0b36 a4bc
000003e0: 6397 a23e d409 b8be eb76 cb3e abf0 b7bd
000003f0: 8aba 1dbe 2580 1b3d f707 c5be 7737 1d3e
-0.01518405 -0.5010045 -0.06915221 -0.21820685 0.48404497 -0.013405185 0.547447 0.22071631
0.14835867 0.046238404 0.10725915 -0.3443804 0.07312111 0.19907472 0.03779879 -0.07648862
0.042547844 -0.2254202 -0.11720771 0.04494343 -0.35307014 -0.002543847 -0.03573639 0.17632104
0.14251946 0.09188277 0.16049267 0.003970808 0.40692788 -0.05323944 0.070172906 0.27053928
-0.15611012 0.5819934 -0.112978734 0.08569753 -0.38820156 -0.009114196 0.7009209 -0.49001327
0.43883303 -0.14337073 -1.0584155 -0.112277195 -0.05146862 0.06649573 -0.033199545 -0.28512508
0.23321012 0.33887938 0.020004014 0.4855173 -0.14160444 -0.05024031 -0.22131887 -0.43776882
0.12766463 -0.28028437 -0.0072793197 -0.049911596 0.24908517 0.37974846 0.43713224 -0.23404038
-0.14513904 -0.29759857 -0.2138395 0.499962 0.24666944 -0.038516503 -0.1313492 0.37171206
-0.041387767 -0.054775152 -0.09760263 -0.17171411 -0.16956432 0.2705851 -0.051620565 -0.42901617
-0.7453883 -0.298793 -0.15202996 0.52934885 0.041815806 -0.21376932 -0.616221 0.022807395
-0.49904618 0.016905539 0.070111565 -0.49833077 0.014982807 0.46372473 0.70242923 0.21779487
-0.062844455 -0.22537912 0.22293024 0.3366715 0.18862243 0.021752143 0.46713296 0.24782108
-0.24692133 0.1476748 -0.021923315 -0.07286632 0.78621155 -0.10270079 -0.062397745 0.18897173
-0.24513124 0.13419028 0.060719006 -0.17427775 -0.22422086 -0.27418917 0.66768014 0.30254903
0.22203352 -0.22946815 0.38841277 -0.17511272 0.14980249 -0.55360657 -0.3132202 0.54053295
-0.2769059 -0.038762596 0.02921416 -0.25822964 -0.022959922 -0.04864158 0.1685156 0.21849266
-0.15404366 0.22120845 0.09598199 -0.03774673 -0.2761948 0.053596634 0.12928331 0.35881054
-0.24202806 -0.022493022 -0.32320112 0.607364 -0.07345232 -0.059691787 -0.03031092 -0.16524792
-0.38362604 0.10750358 -0.3167646 0.18838724 0.45014668 -0.15986216 0.25188908 -0.24498492
-0.13797538 -0.11135647 0.20443787 0.07399986 0.04411351 -0.2945418 -0.2344845 -0.1874532
-0.27390638 -0.25783226 0.019433783 0.19932576 0.03363079 0.42846254 0.47817677 0.1813781
0.040055804 0.3511101 -0.32544172 -0.0874771 -0.116988294 0.31675822 0.060237363 0.056904186
0.3333815 -0.08523315 -0.24070364 0.119532116 -0.44720116 0.1621953 0.20406805 0.031313796
-0.24029605 -0.14780693 0.20084389 0.22345605 -0.28049117 0.13290465 0.015146925 0.08237911
0.1378979 0.061160874 -0.30675152 0.23574482 0.27452132 0.15798777 0.21033047 -0.13099185
-0.34488428 -0.33482337 -0.14406985 -0.11752263 -0.1574256 -0.5339832 -0.007440705 0.245692
0.2605768 0.17798471 0.47180945 -0.15687093 -0.07991528 0.42843303 0.21112525 0.022179602
0.27869463 0.12691385 -0.13914053 -0.37087297 -0.19240631 0.08768438 0.13766548 -0.13026042
-0.23529723 -0.08794308 -0.07721855 0.23345894 -0.14885339 -0.037787132 0.1533515 -0.09840667
-0.28734052 0.16272771 0.24435246 -0.25958428 -0.5571053 -0.45191044 -0.15291557 -0.020045301
0.31756124 -0.35944998 0.39739165 -0.08981451 -0.1540319 0.037964005 -0.3848264 0.1535319

fc_adv.bias f4 [128]
00000000: 22e7 cbbe e5c9 76be c7c1 d8bc 9920 8d3c
00000010: 6d11 c3be 876b 14bf 073a 35be bbbe 6fbf
00000020: 7c33 623e 4c73 5fbe 159e 27bd 86ea 953e
00000030: 9522 c03d 193b fbbe d93f 5dbf a0d9 8ebe
00000040: 2675 5f3e ff91 a8be 96cf 3a3e d88c a1be
00000050: ac47 833e 7d51 943d 67d8 94be 4325 83bf
00000060: 0d2d 30be 7a10 593d ebbe 4c3d 3dba f6be
00000070: 28a8 4dbb 7c8a eabd 98c6 adbc b01e f5be
00000080: 4746 22be dac4 353e 6efa cd3d 17d6 debd
00000090: bb73 0a3e a261 05be a7e8 09bf 86f8 22bc
000000a0: c35c 613d 2623 5ebe 5466 8dbd 3f3f 9e3d
000000b0: f718 593e 0f6f 4dbe 559c 6f3e 02e2 e53b
000000c0: b587 843f 487a b9bd d240 cb3e 08a7 303e
000000d0: 1f9c 32be 31cf acbc a4f4 17be 423d 2bbe
000000e0: 3e9d 303f 01a3 5ebe 6710 fcbd a8db 81bd
000000f0: e221 ee3e 0bd3 e1bb 5a76 5d3e 45df a33d
00000100: 1c64 4fbe d949 663b 10cc b3bd f646 3e3e
00000110: 3bb7 2dbe 0d02 c13e 5cd1 e8bd 9f8c 1fbf
00000120: 1cb2 803e 1325 043e d98c 89bd 802e 5d3d
00000130: 7785 3b3f 789e 4bbd 09f3 19be f0f5 923c
00000140: 5ede 8cbf 0e5a 05bf 5a55 d8bd a428 3a3e
00000150: 0995 c6be fc2f 2a3e 7787 5c3e acf1 b2be
00000160: 413e 7b3c 5c7d 483e d2f2 1bbe 2010 e83e
00000170: 2566 36bd 89ad 56be ba4d 223e 69ff 053e
00000180: 7efe b63e d78d 42bc 136e 8f3d 8899 cf3d
00000190: 093d 133f 4861 003f ae5e 3cbe ad27 1abc
000001a0: c38c 693e 984b 13be b7d6 3e3c a2a1 833d
000001b0: 5c17 3c3f 19cf 373e 6066 44be 406a 84bd
000001c0: f39f d0bd 7a45 02bd 9791 c43e 37ba 983d
000001d0: 4887 c23e cda3 873c 390c 753e af57 ac3e
000001e0: 7a40 313d 6b36 f23b 83b4 c43d 42d7 a5bd
000001f0: aba8 833c 39cc b73d 0104 1bbe 48ba 423e
-0.39824778 -0.24100454 -0.026459588 0.017227458 -0.38099232 -0.57976574 -0.17697917 -0.93650407
0.22089952 -0.21821326 -0.040922243 0.2928049 0.09381596 -0.49068525 -0.8642555 -0.2790041
0.21822032 -0.32923886 0.1824325 -0.31552768 0.2564062 0.07242105 -0.29071352 -1.0245746
-0.17204686 0.05299423 0.04998676 -0.48188964 -0.0031380747 -0.11452195 -0.021212861 -0.47874975
-0.15847121 0.17750874 0.10057531 -0.10880678 0.1352071 -0.13025525 -0.53870624 -0.009946948
0.055020105 -0.21693096 -0.06904283 0.07726907 0.2120093 -0.20061897 0.2339948 0.0070154676
1.0353914 -0.090565264 0.3969789 0.17251217 -0.17442368 -0.02109489 -0.14839417 -0.16722587
0.6898993 -0.21741869 -0.12307816 -0.06340724 0.46510226 -0.0068916134 0.21627179 0.0800157
-0.20253032 0.0035139231 -0.08779156 0.18581757 -0.16964428 0.37696877 -0.11368057 -0.62323946
0.25135887 0.12904768 -0.06716318 0.053999424 0.73250526 -0.049711674 -0.15034117 0.017939538
-1.1005361 -0.5209054 -0.105631545 0.18179566 -0.3878558 0.16619867 0.2153605 -0.34950006
0.015334667 0.19579071 -0.15229347 0.45324802 -0.044531006 -0.20964636 0.15849963 0.13085712
0.35741037 -0.011874638 0.07003417 0.10136706 0.5751501 0.5014844 -0.18395492 -0.0094088735
0.22807603 -0.14384305 0.011647872 0.064273134 0.73473144 0.17950095 -0.19179678 -0.06465578
-0.10186758 -0.03180454 0.38392326 0.07457393 0.37993836 0.016557598 0.23930444 0.33660647
0.04327438 0.007391741 0.096047424 -0.08097698 0.016071638 0.08974499 -0.15138246 0.19016373

value.weight f4 [1, 128]
00000000: ace9 fa3f 9e3b eebf 1d99 f63f 871d f8bf
00000010: 72c1 1fc0 7629 b73f c092 a7bf 9985 e43f
00000020: 681c 0540 2c90 f93f 6a69 b43f e110 d53f
00000030: 48b6 b1bf 57ff 0fc0 3098 cabf d73b a83f
00000040: 6f44 b73f 9444 eebf 8c6a e1bf c767 0440
00000050: 1979 0640 19a4 2540 8462 eebf 3a3a e83f
00000060: 79f0 23bf 49bd cbbf 8659 e9bf aeb8 1bc0
00000070: 67e3 26c0 e8c2 00c0 47d1 fdbf c0e0 ebbf
00000080: bd5a e5bf ea65 ee3f 82c8 be3f 8039 02c0
00000090: c0b4 05c0 3d2b fdbf 0231 2940 4187 b9bf
000000a0: adb1 693f 9e5a e53f 9f34 1440 1e24 f5bf
000000b0: 2e89 2dc0 c2a9 0040 8713 e7bf c61c bbbf
000000c0: ffa1 d83f 2c49 0240 d632 e9bf 15e4 90bf
000000d0: 8722 f73f 1247 adbf 21fa eebf 5225 00c0
000000e0: 1ff3 fd3f 7c9a f4bf a1cc fc3f 447c 0240
000000f0: 3636 09c0 0ce9 3440 b54d 0540 3de8 9f3f
00000100: c560 0340 93e3 95bf fa71 c43f 8f2f 9c3f
00000110: b0b3 bcbf b106 f53f 6bd2 e5bf 0e6b 8e3f
00000120: b8ca 6fbf 3726 9c3f 83e5 f53f 342a 75bf
00000130: dccc 84bf 7d77 f2bf 1aae 8fbf 7a88 c63f
00000140: 48eb f93f ba51 d13f 51c0 f83f 89a3 0540
00000150: 7132 0a40 e4a0 07c0 59c9 03c0 7129 fbbf
00000160: 68cc fcbf ceda 0f40 4667 d83f 9013 acbf
00000170: 8f4b b3bf b964 10c0 c462 e43f 128e 08c0
00000180: 8d9a d8bf e576 b33f c1be e03f 1776 933f
00000190: 4d41 f8bf 3f62 03c0 dae7 0040 c061 b23f
000001a0: 514d 0ac0 169c f73f 7178 eebf c48e f2bf
000001b0: 1344 bc3f 731a a1bf 74f0 f23f d9fb 73bf
000001c0: 811e 2cc0 ad0f d3bf d7eb f83f 1a6a 0340
000001d0: 27a8 9cbf ddf9 f2bf 9a5d f8bf 3fbd 07c0
000001e0: e626 f33f 26af fabf f36f ccbf 297d 08c0
000001f0: 11f1 1fc0 b8ee eabf 4916 4d40 2dc0 f03f
1.9602561 -1.8611944 1.9265476 -1.9384011 -2.496182 1.4309528 -1.309166 1.7853271
2.0798588 1.9497123 1.409467 1.6645776 -1.3883753 -2.2499597 -1.5827694 1.3143262
1.4317759 -1.8614678 -1.761064 2.068834 2.1011412 2.5881407 -1.8623815 1.8142769
-0.6403881 -1.591714 -1.8230445 -2.433147 -2.6076295 -2.0118961 -1.9829491 -1.8427963
-1.7918316 1.8624852 1.490494 -2.0347595 -2.089157 -1.977882 2.6436162 -1.4494401
0.91286737 1.7918279 2.3157117 -1.9151647 -2.7114978 2.0103612 -1.8052834 -1.4618156
1.6924437 2.035716 -1.8218639 -1.1319605 1.9307412 -1.3537314 -1.8670083 -2.0022779
1.983982 -1.9109645 1.9749948 2.0388346 -2.1439338 2.826724 2.0828679 1.2492748
2.0527813 -1.1710075 1.5347283 1.2202014 -1.4742336 1.9142667 -1.795484 1.112642
-0.936687 1.2199162 1.9210666 -0.9576752 -1.0375018 -1.8942715 -1.1225007 1.5510399
1.9524927 1.6353066 1.943369 2.0881064 2.1593287 -2.119195 -2.0591643 -1.9622022
-1.974988 2.2477298 1.6906517 -1.344347 -1.4007434 -2.2561476 1.7842641 -2.1336713
-1.6922165 1.4020659 1.7558213 1.1520413 -1.9394928 -2.0528715 2.014151 1.3936081
-2.160969 1.9344509 -1.8630506 -1.8949819 1.4708275 -1.2586197 1.897963 -0.95306164
-2.6893618 -1.6489159 1.9446973 2.053351 -1.2238816 -1.8982502 -1.9403565 -2.1209257
1.8996246 -1.9584701 -1.5971664 -2.1326392 -2.4990885 -1.8354101 3.2044852 1.8808647

adv.weight f4 [169, 128]
00000000: 1249 19bf 0415 ac3e 42d3 2b3e e930 8f3c
00000010: 7fda cebe 9d99 7b3d 2003 d13e 277f c13d
00000020: e044 da3d e849 993e 6268 e5be e7fd b0be
00000030: ed41 0dbd 8463 90be b10f f1be c08e ffbd
00000040: 6f7a 44be 95b9 223e 2fc5 263e 952a 48be
00000050: 7e73 68be 7402 8cbe d334 cc3e 03dc d23e
00000060: 26dd 903e ce8c 90bd 289d f63e b562 0d3f
00000070: 6f79 5e3f 7e8a 37be 1cd0 a43e 8134 8a3e
00000080: 6c76 813e dac7 bdbe c57d 5a3e 2ed1 8b3e
00000090: 868b 58be 619a fb3e 6d4c 3b3d ae81 8d3e
000000a0: f651 26bf affe 453c 7753 1cbe 4467 79be
000000b0: be16 fb3d 63f0 39bf 1d7a 0d3f d0d8 85be
000000c0: 688a 08bf 9744 123f 9764 b33d 16c7 833f
000000d0: 389d 78be 0cd5 89be 68b2 5bbe 95f9 38be
000000e0: 73d5 34bf 9ad5 70be e717 da3d 4c79 7e3d
000000f0: f998 363d 0ea5 753d 11dc ed3e 3649 1e3e
00000100: eda4 133e ff40 7d3e 3808 7a3e 3e11 863e
00000110: 1dad 813d 035f b0bd 68b7 5cbe 2f2e 9bbd
00000120: 8c0f 6e3e 871c 9c3e 9f14 3ebd 37d3 023e
00000130: 62b9 77be 19ae 67bd 3a86 a63d 5837 743e
00000140: 16d6 cb3e 3bf9 843e a3b4 633d 4add b4bc
00000150: 0cb3 25be ac38 6a3b 50a0 70be 8307 eabe
00000160: 6b1d a9bd f51a cd3e 1ddd b53d 6247 1dbd
00000170: ee31 b6bb a940 293e 9380 d53e 3454 e13c
00000180: 0e61 27be 22bb fdbd d4e0 e4bd b6a1 c53e
00000190: 6a75 0cbf 6893 69bd 2235 48be 55b8 be3c
000001a0: b99e 243d 5902 2c3e 74eb 08be d2e1 733e
000001b0: e43e 71be 645a ab3d c9fc f63e 5344 aa3d
000001c0: 4a14 51be d84c a93e 35b2 f63e 48d9 8c3e
000001d0: 880b ec3e b7c7 7cbe f4be 6d3e b433 57be
000001e0: edff b3be 1953 bebe 63bb 023d 463f 99be
000001f0: 6b6f cabe 3a68 963e 63f2 59be fc34 03bf
00000200: f54a 953e 6ba5 a6be 8a30 adbe 4647 97bd
00000210: a4b8 aabd c89c 383f aa15 db3d b9fe 623f
00000220: 7e69 703d 486d f0be 5011 013d 21f6 b5be
00000230: 1c4d 59bd 1081 c43d d139 83bd 232f 57bf
00000240: d3cf d9bd 8ef1 6ebd bc81 b13e 346f 143e
00000250: cfdb 60be c349 adbe e7b5 843e 9524 e03e
00000260: 8a6a 853e f62e d8ba be21 843e ec6c aebe
00000270: 5cd9 a23c b422 413f 980c e03e 83e6 493d
00000280: 96e2 8e3d e2e3 48be 7b06 893e 97c6 9e3c
00000290: b755 dcbe 58fd cd3d 134e a8bb 46ee 573f
000002a0: e0eb 03bf f4aa fa3c bf81 0ebf 298e fabd
000002b0: ba8f 42be 7cf9 84be 4738 793d e494 e0bb
000002c0: e6b9 cdba 60be 2f3f 613f 7b3e e2ce c53e
000002d0: 1498 9abe ab2e 013c d6fe 3a3d 495d 613d
000002e0: a81c 82bc 9789 fdbe 62b0 3d3e 8980 2c3f
000002f0: d42b 8e3e 0783 9ebe 87f1 13be f979 ee3e
00000300: 568b c0be 264d 11bc d86a 403f 2197 073d
00000310: 79b4 f63c 1057 f03e 56e6 c93d c5a2 c3be
00000320: 5a75 5b3f dada 20bf 0747 1abf 618d 403f
00000330: 46ac 89be 5a87 833e e247 b4be 3f27 693e
00000340: 23b6 ab3f f54a 72be 6891 6cbe a175 5b3d
00000350: fa69 0dbe d00c 91be 53db 32bf 2962 bf3d
00000360: 04f5 1b3e 0d50 0d3e 35cc 3abf 4b7e 3ebf
00000370: ebbd 84bd ed91 5e3e 8540 86bd 56e9 433e
00000380: 95db 5b3f 29e2 d5bd 8df7 f4be 28de 873d
00000390: 2d9a 8bbc a1cc c53d 050d e4be ffa0 e4bd
000003a0: 60b1 52be ade1 3bbe 024a 3d3e ca97 943e
000003b0: 80c0 34bf 0726 3b3f 8ccf b73e 6ffe 45bf
000003c0: 99a1 c9bc 2e72 86be 3e29 613e 8155 913e
000003d0: 98b8 3e3f 06bc a2be 6b90 efbc ca57 a43e
000003e0: 744c ebbd 655d 6cbd d7b7 023f 2e55 873c
000003f0: 2530 b4be ceb6 5fbe d5ab 9f3e 0fd8 89be
-0.5987712 0.33609784 0.16779807 0.017479377 -0.40401074 0.061425794 0.40822697 0.094480805
0.10657668 0.29939198 -0.448062 -0.34568712 -0.0344867 -0.28200924 -0.47082284 -0.12478399
-0.1918733 0.15891106 0.16286157 -0.19547494 -0.22700307 -0.27345622 0.39884052 0.4118348
0.28293723 -0.07058106 0.48166776 0.5522874 0.8690404 -0.17923924 0.32190025 0.26993182
0.2528566 -0.37066537 0.2133704 0.2730803 -0.21146974 0.4914122 0.045727182 0.27638
-0.6496881 0.012084647 -0.15266214 -0.24355799 0.12260197 -0.72632426 0.55264455 -0.26141977
-0.5333619 0.5713591 0.0875942 1.0295131 -0.24278724 -0.26920354 -0.21454775 -0.18063958
-0.706382 -0.23518983 0.1064909 0.062127396 0.04457948 0.05997186 0.4645696 0.15457615
0.14418383 0.24731825 0.24417198 0.2618503 0.06331847 -0.08611872 -0.21554339 -0.07577168
0.23248118 0.30490515 -0.046406385 0.12775885 -0.24191812 -0.056562517 0.081310704 0.23849237
0.39811772 0.25971398 0.05559219 -0.022078175 -0.16181582 0.0035739345 -0.23498654 -0.45708856
-0.08257564 0.4005963 0.08880065 -0.038398154 -0.0055601513 0.16528572 0.41699657 0.027505971
-0.16345617 -0.123892084 -0.11175695 0.38599938 -0.5486666 -0.057025343 -0.19551519 0.023281256
0.040190432 0.1679777 -0.13371068 0.23816612 -0.23559147 0.0836685 0.48239735 0.08313813
-0.20417896 0.3306644 0.48182836 0.27509522 0.46102548 -0.2468556 0.23217374 -0.21015817
-0.35156193 -0.37172773 0.031916987 -0.29931086 -0.3953813 0.29376394 -0.2128387 -0.5125272
0.2915875 -0.3254808 -0.33826095 -0.07386641 -0.08335999 0.7211423 0.106974915 0.88669926
0.058694355 -0.46958375 0.03151065 -0.35539344 -0.053052053 0.09594929 -0.06407512 -0.840563
-0.106353424 -0.058335833 0.34669292 0.14495546 -0.2195885 -0.33845338 0.2592003 0.4377791
0.26057845 -0.0016493488 0.25806993 -0.34067476 0.019879036 0.7544358 0.43759608 0.0492921
0.069768116 -0.1961818 0.26762757 0.019381804 -0.43034145 0.10058087 -0.0051362603 0.8434795
-0.5153179 0.030599095 -0.55666727 -0.12234146 -0.1900014 -0.2597159 0.060844686 -0.0068536866
-0.0015695661 0.68649864 0.24535896 0.38634402 -0.3019415 0.007884662 0.045653187 0.055020604
-0.015882805 -0.49519035 0.18524316 0.6738363 0.27767813 -0.3095934 -0.14447604 0.46577433
-0.37606305 -0.008868491 0.7516303 0.033103112 0.030115353 0.46941423 0.09858386 -0.3821012
0.8572594 -0.6283394 -0.6026463 0.7521573 -0.26889247 0.25689203 -0.35211092 0.22768877
1.3414959 -0.23661406 -0.23102343 0.053578977 -0.13809958 -0.28330088 -0.6986591 0.093448944
0.15230185 0.13800068 -0.72967845 -0.7441146 -0.064815365 0.21735354 -0.06555275 0.1913198
0.8588193 -0.10443527 -0.47845116 0.0663417 -0.01704129 0.096581705 -0.44541183 -0.1116352
-0.20575476 -0.18347807 0.18485263 0.29022056 -0.7060623 0.731049 0.35900533 -0.7734136
-0.024613189 -0.26258987 0.21988389 0.28385547 0.7450042 -0.31784075 -0.029243669 0.32098228
-0.11489192 -0.057706255 0.5106177 0.016520109 -0.3519298 -0.21847078 0.31185785 -0.26922652

adv.bias f4 [169]
00000000: f53b 893c c51e 583e 7145 8bbe e099 b1be
00000010: 4e32 e03e 632d f2bd 517a bc3c cccf a73b
00000020: d904 ee3e a046 163e f7fb 6bbc c412 39be
00000030: 1a32 fd3d 12a5 e2bd 93d3 313e 47f2 38be
00000040: a201 a83d 2278 c43e 5f1e 3e3e e97a 9f3e
00000050: ed7c b13d e56e 523e c9b7 11bb b84d d5bd
00000060: 0dd5 0abf ede4 e8bc c03f 94bd 3a03 a2bc
00000070: ddab 7f3e 3f0c bbbd 4aa3 df3d 6278 123e
00000080: 9144 143d 2e89 3f3e 579f 623c 0306 ad3e
00000090: 226c aabd c84b 303d 119c e8bd c796 a4be
000000a0: 62db 773e bfd0 b23d 64b0 00be a5e0 943e
000000b0: de73 c03e 3aae c93d 3a28 bc3d 6acc 473e
000000c0: da3c 0c3e 6a97 643e 4bbe 763d 3952 953d
000000d0: a7b5 903d 863f 503e af72 113e fe59 073e
000000e0: a6b4 efbd 523d e93c 0497 e53d 2d8d 36be
000000f0: 3e7e 6a3e a896 57bc d20d b8bb 6915 fb3d
00000100: 02df 34be 0a42 323d 9c80 cebe f769 69bd
00000110: 4c13 c9be 6a75 cf3d 2983 f73d 5726 2e3e
00000120: fda3 9f3e 8c7e ad3e 1843 4f3e 6c52 0bbe
00000130: aa6f db3d e792 ba3e 06e5 b83d 856c 9c3d
00000140: 557f aabd ea4c 673e a6c5 aabd a079 89bd
00000150: 611b 6c3e b70a 803e d52e a73d a51d 9d3e
00000160: ef27 7f3e 2a64 04bd a64b 583d be97 963d
00000170: 8ac5 8d3c 1a08 b3bd 0b02 0ebe 3a4c d8bc
00000180: 7ed6 4b3e ed9e cbbe f0a7 6bbe a354 93bc
00000190: ba19 a8bd 7c7a 813e 0ce5 c2bd 89d0 1ebe
000001a0: 9809 f7bd 14b1 903e abfb 1c3e a1fb 15be
000001b0: 46fc f13b 7061 8dbe d397 38be 283b 683e
000001c0: ed10 7c3e 39f2 72be ca17 2bbe 76f8 f0bd
000001d0: 3639 503d a622 143e 03fc 37be 359b a9be
000001e0: 00ec b93d a044 33be 5fe0 0b3d 2ee0 5ebe
000001f0: 6f00 3ebe eab8 463e a0c8 5dbd 0178 68bc
00000200: 4f85 ca3d 406a 20bd 0af6 a7be 141f ad3d
00000210: 6ae2 39be 33db e4bd f035 eebd 50d3 c73d
00000220: 8a1b bfbd 6201 9ebd 2519 98bd 5235 383d
00000230: 1b67 833e ef6f 3cbe d7d2 60bd 7823 2b3e
00000240: b5ce abbd 66f8 afbd 24c6 abbe f479 74bc
00000250: 645c 19be 143a 38be 85e6 223e 1e20 77be
00000260: 5a7e 39be dfec b53d b5ef cb3d c558 81be
00000270: 4056 3c3e d2f5 e7bd d8d2 a7bd 6f7e 9bbe
00000280: 8c42 5b3e 89c2 b93d d437 15be 5356 f73d
00000290: 1187 24be f4f5 01be b3de cabd f25b a73d
000002a0: b552 f2bd
0.016752223 0.21105488 -0.27201417 -0.3468771 0.4378838 -0.11825063 0.023007544 0.005121207
0.46488073 0.14675379 -0.014403335 -0.18073565 0.12363072 -0.11066641 0.17365865 -0.18061171
0.082034364 0.38372904 0.18566273 0.3114846 0.08666406 0.20550115 -0.0022234789 -0.10415214
-0.5423134 -0.028429473 -0.07238722 -0.01977693 0.24967904 -0.09133195 0.10919817 0.14303735
0.036198203 0.18704674 0.013831935 0.3379365 -0.08321406 0.04304102 -0.11357892 -0.32146284
0.24204782 0.087312214 -0.12567288 0.2907764 0.375884 0.09847684 0.0918736 0.19511572
0.13695088 0.22323385 0.06024007 0.07291073 0.070658974 0.20336732 0.14203905 0.13217923
-0.11704378 0.028471623 0.112104446 -0.17827292 0.2289972 -0.013158478 -0.005616882 0.12259943
-0.17663196 0.04352001 -0.40332496 -0.05698582 -0.39272535 0.10129817 0.12085564 0.17006813
0.311798 0.3388561 0.20240438 -0.1360566 0.107146576 0.36440203 0.09028058 0.07637886
-0.08325068 0.22587934 -0.0833848 -0.06712651 0.23057319 0.25008175 0.081632294 0.3068668
0.24917577 -0.032322086 0.05280652 0.07353161 0.017306108 -0.087417796 -0.13867967 -0.026403535
0.19906041 -0.39769688 -0.23013282 -0.017984694 -0.08208032 0.2528876 -0.095163435 -0.15509237
-0.12062377 0.282601 0.15330379 -0.1464677 0.0073848097 -0.276134 -0.18026666 0.22678816
0.24615832 -0.23725213 -0.16708294 -0.1176614 0.05083581 0.14466342 -0.17967229 -0.33126226
0.090782166 -0.17506647 0.034149524 -0.21765205 -0.18554853 0.19406477 -0.05414641 -0.014188767
0.09888708 -0.039163828 -0.328049 0.08453193 -0.18152776 -0.111746214 -0.116313815 0.097571015
-0.093314245 -0.077151075 -0.07426671 0.044972725 0.256646 -0.18402074 -0.054888573 0.16712749
-0.083890356 -0.085923 -0.33549607 -0.014921654 -0.1497665 -0.17990905 0.15908249 -0.24133345
-0.18114606 0.0888307 0.0995783 -0.25263038 0.18392277 -0.113261834 -0.08194512 -0.303699
0.21412104 0.09070308 -0.14572078 0.12077012 -0.16067149 -0.1269148 -0.09905758 0.08171834
-0.11832181
