lunar_lander_continuous/models/DQN/layers_4/8_128_tanh_128_tanh_128_tanh_169/model.pth (torch, 226191 bytes, 8 tensors)

net.0.weight f4 [128, 8]
000000 f3 2d a4 be 32 e1 f4 bd 4d ce b9 3c 93 90 1d 3f
       -0.32066306 -0.11957015 0.02268138 0.6154873
000010 c5 62 84 bc 43 f9 a8 bd dc ce 46 3f b4 89 69 bf
       -0.016160378 -0.08250668 0.7765939 -0.91225743
000020 aa f5 e7 3e 23 77 6d be 3b 46 18 bf 70 79 b4 3e
       0.45304614 -0.23189978 -0.59482163 0.352489
000030 53 bc b0 3e 2b d2 3f bf 98 bd 0f be aa 88 5d 3e
       0.3451868 -0.74930066 -0.14037168 0.21634164
000040 dd c2 d8 3e a5 3e 94 3d 60 34 ca 3d 01 03 1a bf
       0.4233617 0.07238511 0.09873271 -0.60160834
000050 33 d7 08 3c 60 23 1a bf 39 a5 56 bf be 8c 8a 3e
       0.008352089 -0.6021023 -0.8384586 0.27060503
000060 7c 65 21 bf ae 0d 75 3d 2e da dd 3e ae b9 70 be
       -0.6304548 0.0598275 0.4333052 -0.23508331
000070 24 cb c5 bc 24 64 dc be ca cb 89 bf da 04 1a 3f
       -0.024144717 -0.4304515 -1.0765316 0.6016365
000080 57 6b 0e 3f 96 f6 42 3e 64 94 93 bb f4 a3 df be
       0.5563254 0.19039378 -0.0045037735 -0.43679774
000090 49 47 3b be 91 7f 86 bf b2 8c a0 be f9 a4 80 bf
       -0.18288912 -1.050768 -0.31357342 -1.0050346
0000a0 a9 d7 de be 14 02 9c be 40 fd 2a be 3d 5c f4 3e
       -0.4352391 -0.30470335 -0.1669817 0.47726622
0000b0 9a b0 4c 3e 37 3a 51 bf f6 7c b3 be d8 86 0a 3f
       0.19989243 -0.81729454 -0.35056275 0.54112005
0000c0 1c 53 41 3e 3b c6 b0 3f ad 2c 33 3f 1c f9 d7 3d
       0.1887936 1.3810495 0.69990045 0.10545561
0000d0 11 87 ac be 13 b9 07 3f 7b 7d 42 3f 3d 4c 3d 3e
       -0.33696797 0.53016776 0.7597272 0.18486114
0000e0 fa 57 1b bf 33 56 28 3e 35 9c 2e be ae 61 fe be
       -0.60681117 0.16439132 -0.17051776 -0.496839
0000f0 e1 d6 63 bf 4f 71 e8 3e d2 56 c0 be ad 76 34 bf
       -0.88999754 0.45398948 -0.3756624 -0.70493585
000100 98 6e 02 be 72 8a 6a 3e 35 c0 fb 3e 87 7b 13 bf
       -0.127375 0.22904375 0.4917008 -0.5761036
000110 3f 8a 28 3e 50 e3 cc 3e 42 89 3a 3f b4 f9 df be
       0.16458987 0.40017176 0.7286569 -0.43745196
000120 fc 50 15 bf 3b dd a9 3e 09 00 26 bd 25 e1 d5 be
       -0.583267 0.33176598 -0.040527377 -0.41773334
000130 91 72 f9 3e e5 5a 62 3f f9 29 1b bf 71 31 3a 3d
       0.4872022 0.88419944 -0.6061092 0.045457307
000140 ae 3f 45 be 0d d0 22 bd 43 93 b2 be a0 6e 84 be
       -0.19262573 -0.039749194 -0.34877977 -0.2586565
000150 d9 4c 0e 40 2c 01 06 bf f8 8e 7c 3e 42 c4 10 bf
       2.2234404 -0.5234554 0.24663913 -0.56549466
000160 be e8 15 bf 24 52 df bd f8 e7 6a be da 0a db 3d
       -0.5855826 -0.10904339 -0.22940052 0.10695429
000170 af 25 86 3e 8e 5d 49 3f 7f 31 c7 bf 91 fa 98 bf
       0.26200625 0.7865838 -1.556198 -1.1951467
000180 bd 97 d2 3d 0f e5 4f be be a0 ca 3e 15 69 0e bd
       0.10282848 -0.20302223 0.39575762 -0.034768183
000190 cb eb 64 3e 24 a9 28 c0 f5 d4 55 3d de 8c 09 be
       0.22355573 -2.6353235 0.052205045 -0.13432643
0001a0 c6 1a 1c bf 4f 0c b1 be f9 fa 20 bf 05 5a 00 3f
       -0.60978353 -0.34579703 -0.62882954 0.5013736
0001b0 d9 93 dd 3e b5 b6 a8 3e af b8 ae be a5 82 81 3f
       0.4327686 0.32951894 -0.34125277 1.0117995
0001c0 31 2f b0 3d a1 09 9a bc 39 5f 09 be 3c cd 6f 3e
       0.08602751 -0.01880342 -0.13415231 0.23418134
0001d0 23 ff b7 3f 40 e8 49 3e 88 67 27 3e d5 9a 2f be
       1.4374737 0.19717503 0.16348088 -0.17148907
0001e0 75 f6 1a 3e ee 96 ab 3e 3d 42 9f be c6 19 14 3f
       0.15133078 0.33513588 -0.31105223 0.5785183
0001f0 03 77 46 bf b6 f0 85 bf 18 cd c6 bf ed da 45 bd
       -0.7752535 -1.0464084 -1.553134 -0.048304487
000200 23 b1 e7 3a 95 d6 88 3e 78 04 77 3e 89 a3 18 3f
       0.0017676692 0.26726213 0.24122798 0.59624535
000210 de 83 07 3f 08 9a a4 3e af 56 be bd f6 2c 95 be
       0.5293559 0.32148767 -0.09293877 -0.29135865
000220 20 71 5d 3f 73 db c7 3c e6 45 36 3f 98 91 6c be
       0.8650074 0.024396634 0.71200407 -0.23102415
000230 08 75 f6 3e 0f c5 0f bf 43 ba f8 be a9 20 51 be
       0.48136163 -0.5616006 -0.48579606 -0.20422615
000240 c0 10 a1 3e 54 c0 af 3e f2 87 33 3e 7f ad 2f bf
       0.31458092 0.34326422 0.17532328 -0.6862411
000250 30 af 0e bf 51 f8 45 3f 28 28 9c be c4 05 0c 3e
       -0.55736065 0.77332026 -0.30499387 0.13674074
000260 9e 6b 6a 3e 04 fb f6 3e a9 c5 be bd cf cb 4f bf
       0.22892615 0.48238385 -0.093150444 -0.8117036
000270 68 88 99 bc af 00 11 3e e8 ee 4d 3e 0e e1 9f bd
       -0.018741801 0.14160417 0.20110667 -0.07806598
000280 cc 84 16 3f 4c 30 af 3c 0e 9e af be 3f 24 22 3f
       0.5879638 0.021385334 -0.34300274 0.6333656
000290 ae fa 40 bf d6 c7 51 3f 27 0b 08 3f a1 fe 10 bf
       -0.75382507 0.8194555 0.5314202 -0.5663853
0002a0 83 e2 4d be 9a a3 8c be 24 d8 62 3e c0 3f e5 be
       -0.20105939 -0.27468568 0.22152764 -0.447752
0002b0 ee 81 89 3e 53 81 23 3f 13 8c b4 3d 0e 0f 24 3f
       0.2685694 0.6386921 0.088157795 0.6408547
0002c0 a2 d2 03 bf 60 da 6f 3d 91 9c e9 bd 6c 78 8b 3e
       -0.51493275 0.058557868 -0.11406816 0.27240312
0002d0 bd 45 d2 3f 55 ad 66 3e 56 97 d8 be e7 dc 0c bf
       1.6427532 0.22527058 -0.4230296 -0.5502457
0002e0 2a a4 63 3c 01 26 3f 3c bb d5 97 be 5c f9 50 3f
       0.01389412 0.011666776 -0.2965525 0.8163049
0002f0 85 24 9a be 98 ef cf 3c f0 6a 23 3e 9c 96 e9 3e
       -0.30105987 0.025382802 0.15958762 0.45622718
000300 4d ff da 3d 6c b0 6b 3e a2 30 50 be 15 4a 33 be
       0.10693226 0.23016518 -0.20331052 -0.17508729
000310 02 55 f2 3f 31 4c 4d 3e 4c db 82 3f ac 58 01 bd
       1.8932192 0.20048596 1.0223174 -0.031578705
000320 b2 7e eb 3d 61 7e 35 3e 45 45 28 bf 53 aa 50 bf
       0.114987746 0.17723991 -0.65730697 -0.81509894
000330 d6 4d 86 3f b7 39 8d be b2 6d 7a 3e c9 8c af be
       1.0492504 -0.27583095 0.24455908 -0.34287098
000340 e7 f7 24 bf 09 f4 13 3f 50 a6 1a be af cb 54 3e
       -0.6444077 0.57794243 -0.15102506 0.20780824
000350 ee 18 fb 3e 81 3e 15 3e 8a 6f 4d be e5 cc 73 bf
       0.49042457 0.14574625 -0.2006208 -0.9523452
000360 cb ff 56 bf bc 69 ee bd 7c c9 c8 bd fb 06 e5 3e
       -0.8398406 -0.11641261 -0.09804055 0.44731888
000370 c5 46 23 bf 43 58 d7 be dd 19 2c 3d 28 ab 8b 3f
       -0.6377986 -0.42059526 0.042016853 1.0911608
000380 f0 3d 0f bf e4 bf f2 3d 7f ea bf 3e a7 51 c4 3e
       -0.55953884 0.118530065 0.37483594 0.38343546
000390 46 cf f3 3f cc 27 ef bd 7a 4d b3 be 25 8b 79 3e
       1.904763 -0.116775125 -0.35020047 0.24369486
0003a0 d7 70 e1 3e 1b ca d8 bc 34 cf 0a 3f d0 4d 84 3e
       0.44031402 -0.026463559 0.54222417 0.25840616
0003b0 12 71 18 3f 5f 95 0b bf f6 97 f1 bc 3b 5a 64 bf
       0.5954753 -0.545248 -0.029491406 -0.8920018
0003c0 80 f0 30 be f6 33 73 be 90 30 3c be a0 71 c2 3c
       -0.17279243 -0.2375029 -0.183779 0.023735821
0003d0 c9 fe 6c 3e 9b 1d 2c 3f 11 43 d7 3e b7 a9 7e be
       0.23144068 0.67232674 0.42043355 -0.24869429
0003e0 23 98 71 3f 47 b6 0b 3d 74 ed 23 be 31 d6 63 bd
       0.9437277 0.03410938 -0.1600855 -0.05562419
0003f0 f0 16 4e bf 22 60 1f bf 39 ba ae 3f c0 b3 ee 3d
       -0.8050375 -0.6225606 1.3650581 0.11655378

net.0.bias f4 [128]
000000 e2 cb 8d be 46 f1 16 be a9 eb ce bd f2 12 55 3d
       -0.27694613 -0.14740476 -0.10103542 0.05202002
000010 df b2 6b be f5 7a b6 3e bc 97 03 3e 4e 76 c1 be
       -0.23017453 0.35640684 0.12850851 -0.37785572
000020 a8 c2 9b 3e 4d e4 77 be bb 27 55 3e 21 08 61 be
       0.30421948 -0.24208184 0.20815937 -0.21975757
000030 29 9c 57 3e cc 2b bc bb 0d 1e 91 3e 99 5c 8d be
       0.21055664 -0.0057425257 0.2834324 -0.2760971
000040 e2 62 3c be 7f 46 09 bf 54 6c cf bd 4d be de be
       -0.18397096 -0.53623194 -0.10128084 -0.43504563
000050 2f 87 4a be 34 95 ee bd 8c 8f 73 3e 2d d3 d2 be
       -0.19778131 -0.11649552 0.23785228 -0.4117674
000060 a7 d5 12 bf 62 3d 20 be 75 d5 89 3e cd 22 76 3d
       -0.5735726 -0.15648416 0.26920667 0.060091782
000070 08 76 61 bd 8c a4 f4 3e 0e 0f b1 3e 19 29 99 3e
       -0.055044204 0.4778179 0.34581798 0.29914168
000080 d9 06 1b bf b9 f7 2a be ee 58 af 3d e5 b0 30 3c
       -0.60557324 -0.16696061 0.08561884 0.010784362
000090 f5 01 b2 be 6a 46 03 bf 35 56 8d be eb ea 95 3c
       -0.34767118 -0.5127932 -0.27604833 0.018300494
0000a0 1e d7 b5 3e ba 56 98 be 58 5d 4a be 4d 44 6e 3c
       0.35515684 -0.29753667 -0.1976217 0.014542651
0000b0 1d 02 d8 3d cb 05 d5 be dd 94 b5 be 40 ed 82 be
       0.10547278 -0.41605982 -0.35465136 -0.25571632
0000c0 e1 c1 22 be 47 7b ba 3e 0d 7b f8 3c 46 54 77 be
       -0.15894271 0.36422178 0.030332113 -0.24153242
0000d0 83 34 5d bd c9 87 d2 3c 52 da 5e 3e 83 69 f7 3e
       -0.054005157 0.025699513 0.2176297 0.48322687
0000e0 21 8d 32 be da d1 c9 3e 28 7a f5 bd c6 30 1e 3e
       -0.17436649 0.39417917 -0.1198619 0.15448293
0000f0 17 3d ff 3d 45 01 b7 be 87 ab a8 be 98 e5 2d 3f
       0.12462824 -0.35743156 -0.32943365 0.6792846
000100 31 f3 3c be 6e 2c 4c be f8 ba 17 be 4b 13 d3 3e
       -0.18452145 -0.19938824 -0.14817417 0.41225657
000110 96 eb 92 be d6 7a b5 3e d0 08 39 bc 40 17 c9 be
       -0.28695363 0.3544528 -0.011293605 -0.3927555
000120 57 e7 28 3e 54 87 84 be 0a 78 d9 be 0f 6b da 3e
       0.16494499 -0.25884497 -0.42474395 0.42659804
000130 d6 81 87 3e 14 52 8b be 76 b0 b2 be b9 6e c7 bd
       0.26466244 -0.27211058 -0.34900254 -0.097379155
000140 a8 e8 5a 3e 08 bc d1 be 87 63 46 3e ff f1 dd 3e
       0.21377814 -0.4096377 0.19373904 0.4334869
000150 6b 3c b5 bc cf 17 01 3e 7e 74 35 3f 03 69 d3 3d
       -0.022123536 0.12606739 0.7088088 0.10322764
000160 0c ae b0 be f1 75 b6 be 12 66 8c 3c a0 43 87 be
       -0.34507787 -0.35636857 0.017138515 -0.2641878
000170 95 68 02 be 5d db 37 3e 7c 2d a9 3d e3 17 79 be
       -0.12735207 0.17954774 0.082606286 -0.24325518
000180 fd 62 ba 3c f9 49 02 3d a4 e9 f1 3e 73 bb 1d 3e
       0.02275228 0.031808827 0.47248566 0.15403537
000190 ed c4 b6 bd ce b1 8f be b8 19 08 3f a6 85 3c be
       -0.08924279 -0.28065342 0.53164244 -0.18410358
0001a0 f7 e7 41 3e 3e ad 0c be 6b b1 aa be ac 30 70 3e
       0.18936144 -0.13737962 -0.33338484 0.23456067
0001b0 6d 3f 5a bd db ce 6d be a5 0a 28 3e ce 19 5f 3e
       -0.053283144 -0.2322344 0.1641031 0.21787187
0001c0 b2 80 a6 be 13 5c d8 3d ee b3 b2 bd e6 e3 4b be
       -0.32520062 0.10564437 -0.08725725 -0.19911155
0001d0 2e fb 98 be 77 e7 ac 3e 29 fc 8d 3e 95 b7 81 3e
       -0.29879135 0.33770344 0.27731445 0.25335374
0001e0 52 72 df 3d 5e 78 df 3e a5 9a e9 3c 61 f3 55 bc
       0.10910477 0.4364652 0.028516123 -0.013058514
0001f0 bb 24 d6 be 0e bd da be b2 73 94 3e f0 84 d6 3c
       -0.41824898 -0.42722362 0.2899452 0.026186436

net.2.weight f4 [128, 128]
000000 17 2a 18 3d 47 7d 10 3e a8 e7 50 3e b2 5f ad 3d
       0.037149515 0.1411029 0.2040087 0.08465518
000010 bd d2 7d 3e f2 8f 72 3d 95 45 a6 3d 44 f8 a3 3e
       0.24787422 0.05921931 0.081187405 0.3202535
000020 1d 1d 12 be 75 7b 3c 3e 31 ac c4 bd 26 c5 c6 3d
       -0.14268918 0.1840647 -0.096031554 0.09705572
000030 5e 37 d7 bc 33 cf aa bd 60 3d c9 bd 64 63 e3 3e
       -0.026271518 -0.08340301 -0.098261595 0.44411767
000040 14 99 75 3e 89 ed 58 3e 31 81 de bc 89 51 9e 3d
       0.23984176 0.21184362 -0.027161213 0.07730395
000050 4a dd a6 bd 23 f1 ea be 3c f7 c8 3d 90 89 ed 3d
       -0.08147676 -0.45887098 0.09812781 0.115985036
000060 01 9d 83 3d 3d 0e 05 be d8 dd 26 3e c0 52 40 be
       0.064264305 -0.12993713 0.16295564 -0.18781567
000070 15 a1 89 3d 09 cc 0d bb 14 90 bd be 27 f2 29 be
       0.06720177 -0.0021636507 -0.37023985 -0.1659628
000080 f2 cf ef bd 6a 97 1a be de b3 3b be 5a d8 91 3d
       -0.11709584 -0.15096822 -0.18330333 0.07121344
000090 6e 87 60 be f6 75 70 3d 66 ad 37 3f 62 8f a4 3d
       -0.21926662 0.058706246 0.7174896 0.080351606
0000a0 59 f7 06 3e fe bb e4 3e 8a 2e ec bd ec 3c 2a 3e
       0.13180293 0.44674677 -0.11532314 0.16624802
0000b0 80 dd b7 3e 99 cb 21 be c9 b7 65 3d 5f ab 03 be
       0.3591118 -0.15800323 0.056083474 -0.12858342
0000c0 11 58 a9 3e 36 9a 33 be 13 d2 24 3d 20 46 76 bd
       0.33075002 -0.17539296 0.040239405 -0.06012547
0000d0 2d 2e 44 3e a2 1e ab 3d 3b dd 29 be 61 9e d9 be
       0.1915824 0.08355452 -0.16588299 -0.42503646
0000e0 35 1a 27 be 9e 6e 8a 3e 14 1a 72 bd 22 53 b7 bd
       -0.16318591 0.2703752 -0.0591069 -0.08951403
0000f0 bc a7 02 3e 64 c6 19 be 14 25 19 3f b9 3c 21 be
       0.12759298 -0.15017086 0.598222 -0.1574582
000100 f7 74 19 be 8c 50 81 3e ad 21 90 be 54 51 0b bf
       -0.14986025 0.25256765 -0.28150693 -0.5442097
000110 77 05 1b be 3b a5 85 3e b1 a8 3b 3e ee d3 6d 3d
       -0.15138803 0.26102623 0.1832607 0.05806344
000120 c2 60 41 be dc 4d d2 3c be 97 f9 3e 4c a7 a8 3e
       -0.18884566 0.025671892 0.48748583 0.32940137
000130 dc d9 b9 bd 51 2c 94 3e f6 dc 32 be de 32 b7 3d
       -0.090747565 0.2894006 -0.17467102 0.08945249
000140 77 15 c4 bd 1a 97 22 3e 94 d1 b6 3e 86 b5 0d be
       -0.095744066 0.15877953 0.3570677 -0.13838777
000150 1d 51 1c be 92 ae 45 bd 8a f2 19 be da e4 f8 bd
       -0.15265317 -0.048262186 -0.15033928 -0.12153025
000160 44 c1 bc 3d 4c 76 4d be 61 70 72 bc 4c b7 d1 be
       0.0921655 -0.20064658 -0.014797301 -0.40960157
000170 7c 8c 75 3d cf 96 f1 bb d6 7c 18 3e 19 2c 11 be
       0.05994843 -0.007372714 0.14891371 -0.14176978
000180 55 99 81 3d bd 15 8b bc 64 04 7a bd 5e e4 60 3e
       0.06328074 -0.016978139 -0.061039343 0.21962115
000190 eb 52 c6 3e 45 0f 86 3b 6e 43 65 be b6 ad c8 3e
       0.38735136 0.0040911757 -0.22389004 0.3919503
0001a0 30 ce bf bc 1e 67 bd 3e b9 90 44 be 9a 9d a5 bd
       -0.023413748 0.36992735 -0.19195832 -0.08086701
0001b0 e2 40 5f 3d 90 13 85 bd c4 3b f5 b7 97 aa fc 3c
       0.054505236 -0.06497872 -2.9234106e-05 0.030843062
0001c0 36 ae 50 be c6 1d 44 bd 7a 3f 7c be fc 81 cd 3e
       -0.20378956 -0.047879957 -0.2463359 0.40138233
0001d0 2d 84 de 3d ad d3 b2 3e 92 1f c2 3d 86 6a 5a be
       0.10865054 0.3492712 0.09478678 -0.21329698
0001e0 da 7a a1 be 6a 6b 66 3d 2c 50 2d 3f be fe 23 3e
       -0.3153904 0.05625478 0.6770046 0.16015145
0001f0 27 96 21 bd 40 d7 25 3e c3 16 47 bd 99 ce cf 3e
       -0.039449837 0.16195393 -0.04860569 0.4058731
000200 d1 fb 83 bd e0 99 dd 3e 24 97 ee 3c 6e c6 fa bd
       -0.064445145 0.4328146 0.029124804 -0.12244879
000210 5f 3e 5c be f6 be c5 bd 52 f0 bc be fb 89 7c 3e
       -0.21508168 -0.096555635 -0.369021 0.2466201
000220 f7 ff f6 be 4e 8c a6 3e 05 f4 7b 3e 4a 0f b6 3e
       -0.4824216 0.3252892 0.24604805 0.3555854
000230 74 6f bf be e1 47 52 3d 02 e4 b3 3e dc 15 8f be
       -0.3738972 0.05133808 0.35134894 -0.27946365
000240 54 1c 02 3f ac 6e 4a 3e ca 79 4c bf af 77 bc bc
       0.50824475 0.1976878 -0.79873335 -0.023006288
000250 bd 7c 63 3d 85 98 6f bd 6c b2 0a 3f fd 63 9b 3d
       0.05553888 -0.058495063 0.541785 0.075874306
000260 25 ef 79 3f a1 33 e0 3c ab 77 ea 3d 24 e7 15 bf
       0.9763053 0.027368369 0.11448606 -0.5855582
000270 a9 fd 68 3f 88 83 c4 3e 69 e2 4b 3c 23 f5 71 bf
       0.91012055 0.383816 0.012444117 -0.94514674
000280 7d de be 3d a1 3e f3 3e 8f e2 d1 bd 65 cb 87 be
       0.0931978 0.4750872 -0.10248291 -0.26522365
000290 d4 c2 65 bd 1c b3 08 3f d6 b1 c8 bd ad d4 10 3f
       -0.056094006 0.533983 -0.097995445 0.5657452
0002a0 77 e7 0c be 5c 79 1a bf e6 96 f3 3e 2d 22 82 3d
       -0.13760172 -0.6034143 0.47576064 0.06354175
0002b0 3f 93 30 be f7 7d 35 be 04 f2 92 3e 89 fd c9 3e
       -0.1724367 -0.17723833 0.28700268 0.39451244
0002c0 b6 9b e2 bd 1f dd 20 be 07 22 0a 3e 41 6c a5 3e
       -0.11064856 -0.15709351 0.13489543 0.32309154
0002d0 4f d9 07 3c f6 14 14 3d 0f 91 52 3d c6 7e 4b bf
       0.0082915565 0.036152802 0.05140787 -0.79490316
0002e0 c4 98 18 3e 44 63 8b 3d e2 e7 8b bd 35 85 ba 3e
       0.14902025 0.06806043 -0.068313375 0.36429754
0002f0 b7 b1 4b 3e 4e 50 58 3e cd 19 8e 3c 8b 37 41 3c
       0.19892012 0.21124384 0.017346287 0.011793028
000300 ad 89 ee 3d c8 c0 17 be 1a b7 bc 3e 92 33 a2 3e
       0.11647353 -0.14819634 0.36858445 0.3167997
000310 aa fb a6 bd 17 05 71 3e c3 5d 03 3d b0 03 18 3d
       -0.0815347 0.23537098 0.03207184 0.03711289
000320 f7 09 23 be b0 1a 2c 3f 54 f0 10 3b 57 e8 31 3e
       -0.1592177 0.6722822 0.0022115903 0.17373787
000330 46 1b 22 be dc 6e f1 3d 8b 6c 81 3e 08 21 96 3c
       -0.15830716 0.11788723 0.25278124 0.018326297
000340 59 14 3f bf 7a d0 00 bd f4 7f f5 bd 61 06 99 bd
       -0.74640423 -0.03144882 -0.11987296 -0.0747192
000350 de cb 13 be 0e 80 ab bd b5 82 72 be 5b 9a 40 be
       -0.14433238 -0.08374034 -0.23682673 -0.18808882
000360 c6 0c 8b 3e 34 10 68 be 43 9c 04 bf b3 a6 50 be
       0.27158183 -0.22662431 -0.51800936 -0.2037609
000370 27 e4 28 bd 99 36 d3 be be af 3d be 2e a6 8d 3b
       -0.041233208 -0.41252592 -0.18524072 0.0043227887
000380 93 5b a1 be ac e5 b4 3d 6d dc b1 be c1 fd 94 bc
       -0.31515178 0.08832869 -0.34738484 -0.018187406
000390 ae bb 49 bc d2 e7 57 bb c9 68 fa be ce 2d 0c bf
       -0.012312813 -0.0032944572 -0.4890807 -0.5475739
0003a0 bb 25 dc 3e cc a0 8b 3e ea 39 e6 3e e0 f3 47 3e
       0.42997536 0.27271116 0.4496606 0.19526625
0003b0 9a b9 a2 3e 36 65 87 3d 39 21 ed 3e 24 42 d2 bc
       0.31782228 0.06611101 0.4631441 -0.025666304
0003c0 54 a5 d2 3d 48 5e 7f be a4 45 d4 3e 65 a5 cf 3d
       0.1028544 -0.24938309 0.41459382 0.101389684
0003d0 7b 84 b5 3f 81 f1 77 3e a9 a0 26 bf 65 d8 f1 be
       1.4181055 0.2421322 -0.650889 -0.47235408
0003e0 07 76 74 bf cb c0 01 3c c4 2c 7e be c7 27 de 3e
       -0.95492595 0.007919501 -0.24821764 0.43389723
0003f0 11 c4 54 3e cd 5d 27 be 7a 5e 28 3d eb 02 6b 3e
       0.20777918 -0.16344376 0.041105725 0.22950332

net.2.bias f4 [128]
000000 0f f8 df bd 69 b8 6d be 4e c6 17 be b9 00 a4 3c
       -0.10935985 -0.23214878 -0.14821741 0.020019876
000010 7f e0 9d 3e 22 c5 a2 3d e8 1c bb 3e 3d 7b 3e bd
       0.3083534 0.07947756 0.3654549 -0.046504248
000020 0d 11 3f bd a8 a5 af be 7f df 80 3d 16 b5 28 bd
       -0.04664712 -0.34306073 0.062926285 -0.041188322
000030 c0 7d 58 bd 83 2a 47 3d 95 e6 56 3d 11 5f 5c bd
       -0.0528543 0.048624527 0.052465994 -0.0538016
000040 35 9c 20 3e 39 e0 44 bd 1c 5a 93 3e 27 89 22 3e
       0.15684588 -0.048065398 0.28779685 0.15872632
000050 78 a1 83 3e 1c e1 8a 3d 22 f5 50 3d d3 bd 18 be
       0.25709128 0.067812175 0.051015027 -0.14916162
000060 81 a2 4d 3e ae 3e ad be 92 ff 3d be 65 70 91 3d
       0.20081522 -0.33836883 -0.18554524 0.07101516
000070 e6 a3 d0 bd 00 e3 d3 3e 0a ff b5 bd e4 83 5f 3e
       -0.10187511 0.41384125 -0.088865355 0.21827656
000080 27 95 c3 3d 8b f3 40 3e f1 08 ab be 70 45 12 bd
       0.09549933 0.18842904 -0.3340526 -0.035710752
000090 26 38 ae be ca 44 81 bd 75 50 c6 3e e5 8f 3a 3d
       -0.34027213 -0.063119486 0.3873326 0.045547385
0000a0 2d fd 1f be 9b 06 49 3c d7 f9 f7 bd 1f f4 83 bd
       -0.15623923 0.012269641 -0.121082 -0.06443047
0000b0 c9 c2 08 bd 3d 0d 41 3e 1b 3b 57 bd 09 4f 22 bd
       -0.033388887 0.18852706 -0.0525466 -0.039626155
0000c0 89 3b 82 be c9 13 ae 3e 45 68 1d 3e 0b e2 04 bc
       -0.25436047 0.3399947 0.15371807 -0.0081105335
0000d0 26 37 cf be d0 91 0f 3e f8 33 04 be 6b 9f 1b bd
       -0.40471762 0.14020467 -0.1291045 -0.03799383
0000e0 c4 81 e3 3d 23 9c 57 be f0 05 f4 3d b0 bb 25 3e
       0.11108735 -0.21055655 0.11915195 0.16184878
0000f0 ee c2 cd 3d a5 63 ba bd d3 60 e5 3e 55 a5 cb 3e
       0.100469455 -0.09101037 0.44800434 0.39774576
000100 99 8f c0 3e 76 64 d3 bc 72 72 9c be 64 b1 5d 3c
       0.37609556 -0.02580474 -0.30556065 0.013531063
000110 aa b4 be 3e cc 34 7c 3d f7 56 09 3e 6f 7f fa be
       0.3724721 0.06157379 0.1341208 -0.4892535
000120 7b e4 28 3e 20 70 31 3e a5 7a 4b 3e 0f 72 59 3e
       0.16493408 0.17327929 0.19871004 0.21234916
000130 30 69 2d be 2e 93 69 be 31 5b 30 be 57 28 c0 bd
       -0.16934657 -0.22810051 -0.17222287 -0.09382694
000140 4f b4 00 be e7 e0 83 3e dd 75 4d 3e 21 06 25 3d
       -0.12568782 0.25757524 0.20064493 0.040289048
000150 85 27 63 bd c0 a9 88 3d 89 4a 3f be 3f 03 be 3e
       -0.05545761 0.06673002 -0.18680777 0.37111852
000160 f1 09 27 3e 13 a0 34 be 45 61 e1 3d c2 4b e1 3c
       0.16312386 -0.17639188 0.11004881 0.027501944
000170 4e bf 0d be 4d 5b 9d be 5f 60 3f 3d 0e c3 c5 3e
       -0.13842508 -0.3073372 0.046722766 0.38625377
000180 7f b6 75 bd ed 43 48 be 95 0d 63 3d cd 8f ff bc
       -0.059988495 -0.19557162 0.055432875 -0.0311965
000190 a1 3e 58 3e 93 d7 43 be b7 54 ce be c4 ff 50 be
       0.21117641 -0.19125204 -0.40299007 -0.20410067
0001a0 b5 58 fe 3c 0f ec 91 3e 48 92 60 3c 1a ff 8e be
       0.031048158 0.2850041 0.013706751 -0.27929002
0001b0 75 46 99 3e 99 e0 8a 3d 15 9d bd be a9 56 67 be
       0.29936567 0.0678112 -0.37033907 -0.22591652
0001c0 21 33 94 be e9 02 63 be 30 19 ae bd 91 f7 3b 3d
       -0.28945258 -0.22169079 -0.08500898 0.045890395
0001d0 41 c4 fa bd e1 b8 35 bd ee f2 85 be 17 05 b9 3e
       -0.12244464 -0.044365767 -0.26161903 0.36136696
0001e0 32 47 c4 3c c1 30 e6 3e 6b ed 60 3b 1d 92 40 3e
       0.02395973 0.4495907 0.00343212 0.18805738
0001f0 bb 83 4d 3e 6b 39 03 3e 00 14 1f 3e 01 bd 9a 3e
       0.20069782 0.12814872 0.15534973 0.30222324

net.4.weight f4 [128, 128]
000000 89 c7 e4 bd 7b 9b 05 bb cb 5e 2d be 7c 26 5a 3d
       -0.11170871 -0.0020386863 -0.16930692 0.053259358
000010 dd 5f 1f bd 05 96 d5 3d d2 f1 63 3e 86 53 72 3d
       -0.03890978 0.104290046 0.22260216 0.059161685
000020 e8 9b 8b bd be a7 b4 bd c4 8a 8a bb 61 37 b7 3e
       -0.06816846 -0.08821057 -0.004227968 0.35784438
000030 58 a0 ae be 17 fc b1 be 9d 45 0a be e8 dc 11 3f
       -0.34106708 -0.34762642 -0.13503118 0.569777
000040 90 93 ca 3d 72 28 d9 3e 41 bf dd 3d 4a fd 71 be
       0.098914266 0.4241367 0.108274944 -0.23631778
000050 0f 5d c8 be 8e 50 8a 3c ab 9f 58 3e fa 71 d0 3e
       -0.39133498 0.016884115 0.21154658 0.40711957
000060 39 e5 67 be 45 d9 9a be f7 2a 53 be 3f 37 37 be
       -0.22646035 -0.30243888 -0.20621859 -0.17892168
000070 32 2b dd be f3 da da bb 02 24 4f bf ef 49 67 bd
       -0.43197018 -0.006678933 -0.8091432 -0.056466993
000080 b6 7a 1e be f6 fa 88 be 03 5a 44 3d e0 70 ad be
       -0.15476498 -0.26753968 0.047937404 -0.3387518
000090 bf fa 8c be aa 12 93 3d 85 59 ea 3d ae 42 43 bd
       -0.27535054 0.07181294 0.11442856 -0.047671013
0000a0 70 af 0f bc fa 2f 13 be 0c b3 e6 be 2d 5a 92 be
       -0.008769855 -0.1437377 -0.45058477 -0.28584424
0000b0 c5 b5 ce be 6c af f5 be ab 0e ec 3e 70 d8 71 3d
       -0.40373054 -0.479854 0.4610494 0.0590443
0000c0 ae 97 0d be 9e 69 fa bd 33 fe bb bd 24 d3 af ba
       -0.13827392 -0.12227176 -0.09179344 -0.0013414365
0000d0 f6 21 c5 bd a0 4b c9 3e 02 2c 8e be 2e a5 5b bf
       -0.09625618 0.3931551 -0.2776795 -0.8579892
0000e0 15 92 cb bd 3c 9a d3 bd e2 96 f9 3d 07 fd 32 3d
       -0.09939972 -0.10332152 0.12186982 0.043698337
0000f0 60 7d 66 3e 83 4e 09 3c 2d 6e 92 3e 9c 20 89 3e
       0.22508764 0.008380535 0.28599682 0.2678269
000100 36 7d 4a 3d c4 aa 66 be c2 44 8e be 60 ca 52 be
       0.049435817 -0.2252608 -0.27786833 -0.20585012
000110 a3 9d 8f 3e 8a a5 9c be f6 d6 0f 3e 34 11 5f be
       0.28049955 -0.30595046 0.14046845 -0.21783906
000120 db c7 30 3e 0b 7b c0 bd 34 fd c2 be 35 b4 97 3e
       0.17263739 -0.093984686 -0.38083804 0.29629675
000130 07 eb f7 3e 36 60 55 3d f2 96 9b be 97 fb 73 be
       0.484215 0.052093707 -0.303886 -0.23826443
000140 e7 7d 3e 3e 5a d9 39 be 60 e9 a9 be a5 4a 70 3e
       0.18602715 -0.1814932 -0.33185863 0.23465975
000150 b3 10 10 3f 7e 7d 86 be 87 92 f2 3d c9 bc a4 3e
       0.5627548 -0.26267618 0.11844354 0.32175282
000160 d6 0e 22 be 16 40 85 be 69 02 89 be ec c9 c0 be
       -0.15825972 -0.26025456 -0.2675965 -0.37654054
000170 59 7e 44 3e ff 2d a7 bd c8 4e 17 3e b2 b4 8a 3e
       0.19188823 -0.0816307 0.14776146 0.27090985
000180 8b 34 7e 3f 20 7f 32 3d 39 f3 5b 3e ec 5c 6e be
       0.99298924 0.043578267 0.21479501 -0.23277634
000190 e3 19 be bd e1 1a 96 3e cc 79 1e be 3a fd 2d 3e
       -0.09282281 0.29317382 -0.1547615 0.1699113
0001a0 5a 79 f9 3e 09 cb ca bd 41 cd 8d 3e 23 a6 e5 3d
       0.48725396 -0.09902007 0.2769566 0.11213329
0001b0 49 52 f0 3c 1f 5d ec be 76 08 68 bd 17 9e 0a 3e
       0.029336112 -0.46164796 -0.056648694 0.13536869
0001c0 2f 17 04 be 4a e5 e8 be 39 65 2c be cc d9 8c be
       -0.12899469 -0.45487434 -0.16835488 -0.27509916
0001d0 46 e8 43 be b7 5b e9 be be 27 b6 bd b7 98 17 3e
       -0.19131574 -0.45577785 -0.08894299 0.1480435
0001e0 61 e5 ae 3e 9e a0 c0 be 24 a2 70 3c 7c 68 62 be
       0.34159377 -0.3762254 0.014687095 -0.2211017
0001f0 4f 4a db 3e c8 f1 c7 bd 81 a4 5a be 5d bd 52 3d
       0.4283013 -0.09762913 -0.21351816 0.051450122
000200 e6 da 87 3e 94 52 92 3e 34 ac 94 3e 11 d9 97 be
       0.26534194 0.28578627 0.2903763 -0.29657796
000210 aa ef 7a 3d 10 e4 23 3e 2f 17 14 3c 51 1b b4 3d
       0.061263718 0.16004968 0.0090387305 0.08794273
000220 76 e7 1d bd a9 02 5c be 1e 40 ab 3d d2 97 45 be
       -0.038550816 -0.2148539 0.08361839 -0.19296196
000230 9d 33 5f 3f f2 e7 81 be f0 a9 b6 3d 9d 40 8c be
       0.8718813 -0.25372273 0.08919132 -0.27393046
000240 81 50 a4 3e 3c 03 30 be 34 4e 77 bf 3b d9 50 3d
       0.3209267 -0.17188734 -0.96603703 0.050988417
000250 89 a9 00 3f cf b2 1a bf a8 a2 39 be d3 2e 6a 3f
       0.5025869 -0.6042909 -0.18128455 0.914777
000260 fd 12 c6 3e e8 a3 bb 3d 47 81 a1 be d8 00 21 bf
       0.38686362 0.09162122 -0.31543943 -0.6289191
000270 00 6f 3e 3f 52 6a db bd 15 87 3b bf b8 82 f8 3e
       0.7438812 -0.10713638 -0.73252994 0.4853723
000280 ac 50 21 be 06 e4 ce 3d 82 22 7c 3e e5 bf df bd
       -0.1575343 0.10102086 0.24622539 -0.10925273
000290 85 60 21 3e ed e3 7c 3e 7a e0 dd 3d de e5 68 3e
       0.15759476 0.24696322 0.10833831 0.22743937
0002a0 08 03 35 3d 9c dd 26 3d 84 e9 33 be 1b 91 d8 bb
       0.044192344 0.040738687 -0.17569548 -0.006609095
0002b0 50 9f 49 3e 6f 24 d4 3e 05 dd b3 3e 29 77 87 3e
       0.19689679 0.41434047 0.35129562 0.264581
0002c0 33 c2 86 be 08 7e ab be 96 f6 01 bc f9 a5 65 3f
       -0.26320037 -0.33494592 -0.007932326 0.8970638
0002d0 bd a6 02 be 7f 5d b5 3e 78 8d 53 3c 04 5b 02 bf
       -0.12758918 0.35422894 0.012912147 -0.5092013
0002e0 43 ce a1 be ad c7 62 be ef 42 98 be ae e7 b5 3e
       -0.31602678 -0.22146483 -0.29738566 0.3552832
0002f0 d3 31 e3 39 14 f8 e3 bd 0f c1 3d be 60 12 08 3d
       0.00043333936 -0.111313015 -0.18530677 0.03322065
000300 1e ca 49 3e dd e7 c2 3e 0e 19 7c bd f7 15 e7 be
       0.19706008 0.38067523 -0.06154733 -0.45133945
000310 a0 cd 9d 3d 2d d4 09 be a6 1f 8d bd 06 a2 93 bd
       0.077052355 -0.13459845 -0.06890802 -0.07208638
000320 26 3b 42 3e ec 9d 82 3e 43 47 89 3e 5f 0d 17 3d
       0.18967876 0.2551111 0.2681218 0.036877986
000330 32 1c de 3d 19 87 0f 3f a4 db 8c be d5 0c a4 be
       0.108452216 0.5606552 -0.27511322 -0.3204104
000340 e3 7f 3a 3e 77 74 92 3e 10 96 03 3f dc b8 28 3d
       0.18212847 0.2860448 0.5140085 0.04119192
000350 ce 43 c3 be cd de 59 be b8 07 d5 bd 3d a7 11 be
       -0.38137668 -0.21276398 -0.10401863 -0.14223953
000360 98 51 be 3e 59 a9 98 be d7 d5 d4 bb 72 40 46 bf
       0.37171626 -0.29816702 -0.0064952183 -0.77442086
000370 fd cd 5e 3e 1d 4c 0f be a8 b9 8c be 2c ec 8e 3e
       0.21758266 -0.13993879 -0.27485394 0.2791456
000380 04 24 bf 3e e0 54 66 be da 14 89 3e 6f b7 da be
       0.37332165 -0.22493315 0.2677372 -0.42718074
000390 7f f2 64 3e 72 51 50 be a3 d9 b9 3b 5c 06 99 3d
       0.2235813 -0.20343569 0.0056716963 0.07471916
0003a0 11 fa 48 3e 56 76 98 bd 8b e3 59 be 39 b6 87 bd
       0.19626643 -0.07444446 -0.21278207 -0.06626553
0003b0 d8 68 a5 3d ad c9 b5 be 57 7a 8a 3c 35 e4 97 be
       0.08076638 -0.3550543 0.01690404 -0.29666296
0003c0 55 16 b8 be 13 d4 a2 be e7 fb f5 3d 3e 74 92 3e
       -0.35954538 -0.31802425 0.12010937 0.2860431
0003d0 97 12 a0 3b fd 6f b8 3c 9c 85 4c be d6 9d 45 3f
       0.0048850286 0.022514338 -0.19972843 0.77193964
0003e0 8d 4f 84 be 17 2c d5 3e b2 68 eb be 96 16 87 bd
       -0.25841942 0.416352 -0.45978314 -0.06596105
0003f0 53 42 2a 3e 8b df 02 3e c7 f8 86 3e 58 3f eb 3e
       0.16626863 0.12780587 0.26361677 0.45946765

net.4.bias f4 [128]
000000 d2 9f ae 3d 54 18 57 3e 06 86 a6 3d 92 61 ba 3d
       0.08526577 0.21005374 0.08131032 0.09100641
000010 13 93 6b be 45 75 a9 bd 85 06 f2 be 4f 17 73 3e
       -0.23005323 -0.082743205 -0.472706 0.2373936
000020 88 94 88 bd fb 71 66 be e6 01 a1 3d f2 ff 28 3e
       -0.06668955 -0.22504418 0.0786169 0.16503885
000030 26 f7 84 3d d1 ae 6e be d4 ae 11 bf 0c c8 39 3e
       0.06492452 -0.23308875 -0.5690739 0.18142718
000040 bb 81 d3 bd 48 a0 e7 be a9 a5 44 be b0 93 e7 bd
       -0.103274785 -0.45239472 -0.1920382 -0.11307466
000050 40 28 a9 bd e3 68 87 3c ca 3c c2 3c 23 91 11 bf
       -0.0825963 0.016529506 0.023710627 -0.56862086
000060 4a 3a 1d 3e 74 eb ad bd cd 56 2f be b2 be cc be
       0.15354267 -0.08492175 -0.17122956 -0.3998924
000070 ce 4e 77 bd 77 b4 b4 3e 97 bc aa bc fa 38 02 bf
       -0.06037789 0.35293934 -0.02084188 -0.5086819
000080 ea 39 73 3e ce f6 a9 3e 33 af fa 3e 5a bc cc 3d
       0.23752561 0.3319611 0.4896179 0.09996863
000090 3d 1b 9b 3e 49 5c b1 3e 3d fb a5 be e4 63 1d be
       0.3029422 0.3464072 -0.32418242 -0.15370136
0000a0 05 c7 ca bb a5 c8 02 be 4f f0 8e 3c 80 14 af 3e
       -0.0061882758 -0.12771852 0.017448572 0.34195328
0000b0 a6 a8 8e be 3a 68 69 3e b7 34 b7 3d 55 1c 76 bc
       -0.27863044 0.22793666 0.089456014 -0.015021403
0000c0 0f 29 50 3e 1f 2a b9 bd d7 fa 1e 3d 4f 7f 80 be
       0.20328163 -0.09041237 0.03881344 -0.2509713
0000d0 01 f0 74 be 1c 05 4d be 4a 75 48 bd b2 8d 46 bd
       -0.23919679 -0.2002148 -0.04893998 -0.048474975
0000e0 eb ba 16 be ab bf b0 3e 82 32 8e be 05 ec 2d be
       -0.14719741 0.3452123 -0.2777291 -0.16984566
0000f0 46 8c 97 3e 11 a2 8c bd 5f 47 2d 3d e1 f2 55 bd
       0.29599208 -0.06866849 0.042304393 -0.05223358
000100 89 0a f9 be 75 02 2f 3d 0b 69 d2 3d 72 60 45 3e
       -0.4864085 0.042726953 0.102739416 0.19275072
000110 21 04 04 be a9 a6 cd bd 89 a3 d9 3d 75 e2 15 3e
       -0.128922 -0.100415535 0.10626895 0.14637168
000120 13 8e 07 bd 7f e9 84 3d 89 d3 0f 3e fa 1e 11 3e
       -0.033094477 0.06489848 0.14045538 0.14171973
000130 06 50 bd be e4 d5 ff 3d a6 23 4e bd de 8b a6 bd
       -0.36975116 0.12491968 -0.050326966 -0.08132146
000140 88 ae 85 bb fb 5b 5b be 20 da 07 be 2b 38 ff bc
       -0.0040796436 -0.21421807 -0.13266802 -0.031154713
000150 28 76 1f 3f e0 de eb bd e6 47 7a 3d 08 6e 3e be
       0.6228967 -0.115171194 0.061103724 -0.18596661
000160 04 11 84 be e3 87 5a be 74 27 df bd 21 aa b4 3b
       -0.25794232 -0.21340899 -0.10896197 0.005513445
000170 63 41 d6 bd 0b d1 aa be ff a8 2b be 31 7e 3d 3e
       -0.1046169 -0.33362612 -0.16763686 0.1850517
000180 6c ca 93 3e 91 84 e7 3d 85 66 bf 3d 77 e9 62 3c
       0.28865373 0.11304582 0.09345726 0.013849608
000190 7f 78 ab 3d 6c 9a 06 3f ea 26 97 3c c4 0f be 3d
       0.08372592 0.5257938 0.018451173 0.09280351
0001a0 71 84 a0 be ae df fe bd c7 83 ee bc 4b 18 e6 bd
       -0.31351045 -0.12445007 -0.02911557 -0.11235102
0001b0 0b 36 06 be 4b 21 06 bf 8d ee 8b bb 42 4b 2e be
       -0.13106553 -0.5239455 -0.004270381 -0.17020896
0001c0 d6 87 a7 3d fd d3 82 be e5 de cb bd b8 d8 07 3e
       0.081802055 -0.2555236 -0.09954623 0.13266265
0001d0 34 fc 8f bd ea 39 5b be bc 31 fd bb 8a da 0a 3e
       -0.07030526 -0.21408811 -0.007726876 0.13559929
0001e0 c5 17 bb be c5 2c 0e bd 8f 36 1b bf bb b3 3a 3e
       -0.36541572 -0.034710664 -0.60630125 0.18232624
0001f0 c2 db 2d 3e d0 72 1a 3f b6 05 85 bd 24 c5 64 bd
       0.16978362 0.6033144 -0.0649523 -0.05585207

net.6.weight f4 [169, 128]
000000 01 11 a3 3f 53 56 72 3f b9 90 75 bf 4a 2c a4 bf
       1.2739564 0.9466297 -0.95923954 -1.2826016
000010 c5 9b 44 bf 6a 64 f2 be 12 92 49 bf 48 88 cd 3f
       -0.76800185 -0.47342235 -0.7873851 1.6057215
000020 d0 33 34 3f 41 62 1f bf 20 00 a3 3f 1d 5d 7f 3f
       0.7039156 -0.622593 1.2734413 0.99751455
000030 ea 24 ec be 0f f8 98 bf ce a6 5f bf fa 7e a2 3f
       -0.46121913 -1.1950701 -0.873639 1.2695
000040 1a 71 9e 3f 1a 2c 3e bf 12 6f 29 bf d4 e5 c9 3f
       1.2378266 -0.74286044 -0.66185105 1.5773263
000050 f3 f8 ba bf 6e 2d 67 bf 55 36 84 bf df b7 2c 3f
       -1.4607223 -0.90303695 -1.0329081 0.67468065
000060 2f 98 ae 3e 01 3c 97 bf 2c b8 61 bf 80 c8 fc be
       0.34100482 -1.1815187 -0.8817165 -0.4937172
000070 6e fe 4c 3f 49 92 8f 3f ed 88 a1 bf bf cc 8d bf
       0.8007573 1.1216518 -1.2619911 -1.1078109
000080 08 45 bc 3f a8 74 1e 3f 5c 10 79 3f 89 e2 ae 3f
       1.4708567 0.61896753 0.9729059 1.3662883
000090 53 83 0a 3f fb 11 a7 bf be d9 34 bf 8f cc 7e bf
       0.54106635 -1.3052362 -0.7064475 -0.9953088
0000a0 44 bb 04 3f f7 51 97 bf e4 4f 8f 3f b9 d6 31 3f
       0.51848245 -1.1821889 1.1196256 0.69468266
0000b0 33 e3 f9 be ec 1b b5 bf 06 3e 91 3f 07 d2 be 3f
       -0.48806152 -1.4149146 1.1347053 1.4907845
0000c0 1d b1 33 3f 0f 21 7e bf 8a a2 b2 3f da 5d c0 3e
       0.7019213 -0.99269193 1.3955853 0.37571603
0000d0 0a 56 3f bf 88 40 9b bf 45 5a 77 bf da 2b 42 3f
       -0.7474066 -1.2129068 -0.96622115 0.7584816
0000e0 76 45 b2 bf c6 2f 6a 3f 82 84 46 3f 75 9e 64 3f
       -1.3927448 0.91479146 0.7754594 0.89304286
0000f0 63 dc b8 be 21 6d a0 3f 80 ef 8a 3f d0 68 cb 3e
       -0.36105642 1.2533303 1.085434 0.39728403
000100 31 55 8f bf 7e 24 4c bf c4 c3 af bf d1 c6 6c 3f
       -1.1197873 -0.7974318 -1.3731618 0.9249087
000110 13 b1 9a 3e 9c fe 90 3f a8 3c 9b 3f a2 93 e0 3f
       0.30213222 1.1327701 1.2127886 1.7545054
000120 df 40 b4 3f 12 c4 f3 3f f2 61 1f 3f f7 c4 e4 3f
       1.4082297 1.9044211 0.6225883 1.7872609
000130 c1 58 18 bf 8e e1 aa 3f 9f 84 d8 bf 3f 9d 81 3f
       -0.5951043 1.3350084 -1.6915473 1.0126113
000140 2b b9 e2 bf 7b ce 87 bf 6f b9 82 3f e7 12 f4 bf
       -1.7712759 -1.0609888 1.021284 -1.9068269
000150 28 89 47 3f 0e bd 85 bf a7 8f 90 bf 6d 8d ec 3e
       0.7794366 -1.044832 -1.1293839 0.4620165
000160 e4 54 94 bf 1a b8 07 bf 02 14 c1 bf f1 35 76 3f
       -1.1588407 -0.5301529 -1.5084231 0.9617606
000170 3e 4c 8e bf 6d 35 6b bf c8 09 79 3f 67 17 a5 bf
       -1.1117017 -0.91878396 0.9728055 -1.2897767
000180 b4 8d 6e bf c9 10 8e 3f 6d fe 6c 3f 92 fc f5 3e
       -0.9318497 1.1098872 0.9257572 0.48044258
000190 7e df c1 3f f5 a5 45 3f 52 83 cc 3f 4e f2 97 bf
       1.5146329 0.77206355 1.5977576 -1.187082
0001a0 bd ea 84 bf 09 3f 84 bf 20 ed 4f bf 67 34 0b 40
       -1.0384136 -1.0331737 -0.812212 2.1750734
0001b0 1e d7 aa 3f f7 bc 92 bf 39 9d 9e bf 7d 93 aa bf
       1.3346899 -1.1463917 -1.239173 -1.332626
0001c0 ea 1a 44 bf 93 52 40 3f 88 b6 b5 bf d7 9d 57 3f
       -0.7660357 0.75126 -1.4196329 0.8422522
0001d0 c5 b5 c6 3f a4 ae c7 bf 3e 55 d0 bf d2 31 11 3f
       1.5524222 -1.5600171 -1.6276014 0.56716645
0001e0 f2 59 3a 3f a9 40 42 3f 60 2b 5a bf 0c 0a 8a bf
       0.72793496 0.75879914 -0.85222435 -1.0784316
0001f0 ce fd 8b 3f 05 87 ad 3f 7e 22 47 bf ac 7a 28 3f
       1.093683 1.355683 -0.77787006 0.6581218
000200 7a f3 ac 3f 0a 17 70 3f 76 53 99 bf 1e 9d b8 bf
       1.3511803 0.93785155 -1.1978595 -1.4422948
000210 a6 a4 61 bf 8c de 6c bf 27 5e 81 bf c2 2d b6 3f
       -0.8814186 -0.9252708 -1.0106858 1.4232714
000220 f9 aa c2 3f 84 4f 29 bf 9c 0a de 3f 39 de 7b 3f
       1.5208427 -0.66136956 1.7346988 0.9838596
000230 0b 8d 52 bf e0 f9 3e bf f6 53 81 bf ed c5 a9 3f
       -0.82246464 -0.7460003 -1.0103748 1.3263527
000240 a2 70 bd 3f 2b 0f 5e bf 2f f0 38 bf 6e 8b 97 3f
       1.4799998 -0.86741894 -0.7224149 1.1839426
000250 27 7e d8 bf 05 74 b2 bf c2 67 ad bf d6 12 28 3f
       -1.6913499 -1.3941656 -1.3547289 0.6565374
000260 e7 26 7f 3f 34 89 db bf 31 48 a1 bf 62 91 0e bf
       0.99668735 -1.7151246 -1.2600156 -0.55690587
000270 42 75 53 3f 13 e9 0e 3f fd 7c 91 bf 4d bc ad be
       0.82600796 0.55824393 -1.1366268 -0.33932725
000280 1b 38 b8 3f f7 a4 62 3f aa 02 89 3f a0 f9 ac 3f
       1.4392122 0.88532966 1.0703938 1.351368
000290 4b 3a 5a 3f ec 39 58 bf 2c 13 12 bf f5 62 97 bf
       0.852452 -0.8446338 -0.57060504 -1.1827074
0002a0 ca f9 47 3e aa 24 b1 bf e5 1d ff 3e 7d 8d 64 3f
       0.1952888 -1.3839314 0.49827495 0.89278394
0002b0 d2 16 09 bf 0d 4d a0 bf eb c4 9a 3f 83 6f aa 3f
       -0.53550446 -1.2523514 1.2091345 1.3315281
0002c0 58 be 05 3f f5 15 f1 be 9c ac b8 3f 2a 9c da bc
       0.52243567 -0.47087064 1.4427676 -0.026685793
0002d0 5e 20 3d bf ad 60 c5 bf e4 20 7f bf 7c 07 7d 3f
       -0.73877513 -1.5420128 -0.9965956 0.98839545
0002e0 2d 46 cf bf 7a ac 64 3f 7f e5 77 3f 9f 0b a0 3f
       -1.6193291 0.8932568 0.9683456 1.2503546
0002f0 1f ae 81 bf fa e8 a7 3f c5 ab 3a 3f dd f1 81 3f
       -1.0131263 1.3117974 0.7291835 1.0151936
000300 0c fb 5c bf b5 6e 6c bf 47 51 90 bf 9d c9 2e 3f
       -0.8632057 -0.92356426 -1.1274804 0.6827639
000310 f3 62 42 3e 95 69 60 3f b7 14 a8 3f 64 67 bf 3f
       0.18983059 0.87661105 1.3131322 1.4953427
000320 c8 d6 c2 3f ad 25 c5 3f 56 5a 57 3f 08 0f e3 3f
       1.5221796 1.5402123 0.84122217 1.7738962
000330 45 28 8a bf 04 44 c1 3f 6d 65 b5 bf 23 dd 5a 3f
       -1.0793539 1.5098882 -1.4171578 0.8549368
000340 d9 ed c8 bf 69 b5 29 bf cb 80 93 3f ee ff ce bf
       -1.5697585 -0.66292435 1.152368 -1.6171854
000350 26 6e 53 3f d7 57 90 bf 75 ac 3c bf 74 94 ac 3f
       0.8258995 -1.1276807 -0.7370065 1.3482804
000360 83 06 89 bf 6b 6e 8d bf 47 97 b2 bf fa d6 84 3f
       -1.0705112 -1.1049322 -1.3952416 1.0378106
000370 4b 4f b0 bf 35 97 3a bf 0d 29 93 3f 2f 67 b1 bf
       -1.3774198 -0.72886974 1.1496903 -1.3859614
000380 1a 13 6e bf 76 04 d0 3f 7f 19 84 3f 9f 3f e1 3e
       -0.92997897 1.6251361 1.0320281 0.43993852
000390 e1 4e 82 3f 3c 36 81 3f 11 f7 8a 3f e1 81 b2 bf
       1.0180322 1.0094676 1.0856649 -1.3945886
0003a0 3b fa 6e 3e 35 14 51 3e fa 77 6a bf 7c e6 81 3f
       0.23337643 0.20417865 -0.9158932 1.0148463
0003b0 2f 8a b4 3f 77 ce 90 bf 90 16 97 bf ab ab 7b bf
       1.410467 -1.1313008 -1.180376 -0.9830882
0003c0 99 a1 a8 bf a1 9f 86 3f b7 d6 8a bf c1 16 80 3e
       -1.3174316 1.0517465 -1.0846776 0.2501736
0003d0 32 a5 b5 3f a0 52 9d bf 28 fb df bf c0 d5 bd 3f
       1.4191039 -1.229084 -1.7498522 1.4830856
0003e0 82 9a 75 3f c7 68 4a 3f 03 1a b2 bf 61 77 98 bf
       0.95938885 0.7906613 -1.3914188 -1.1911432
0003f0 66 d6 3f 3f 61 b1 a1 3f 15 59 3a bf dc 79 19 3f
       0.7493652 1.2632257 -0.7279218 0.5995157

net.6.bias f4 [169]
000000 c9 c6 27 3f 23 57 7c 3f 8a dc 84 3f 8d 1b 76 3f
       0.655377 0.9857046 1.0379803 0.9613579
000010 9a 6e 99 3e a3 b8 5d 3f 94 15 67 3f c7 03 80 be
       0.29967195 0.8660986 0.902673 -0.25002882
000020 6a 02 aa 3e ed 0e 46 3f 73 f6 52 3f cb e4 85 3e
       0.33204967 0.77366525 0.824073 0.26151118
000030 6d 4b 95 3e 4e 16 b8 3e 55 e0 01 3f 05 5f 65 3f
       0.29159108 0.35954517 0.5073293 0.89598113
000040 2c ab 5c 3f fa 71 17 3e a3 59 4e 3f a2 e2 6f 3f
       0.8619869 0.14789572 0.80605525 0.9370519
000050 dd 45 70 3f 69 ef 4f 3f c7 26 f2 bc 62 fd 77 3f
       0.938566 0.81224686 -0.029559506 0.96871006
000060 d8 3a 3a 3f 15 db cd 3e 5a bd 73 3f 4f 72 32 3f
       0.7274604 0.4020621 0.952108 0.6970567
000070 06 80 81 3f 88 13 94 3f ae a9 a7 3f 0a a7 90 3f
       1.0117195 1.156846 1.3098657 1.1300976
000080 20 57 3e 3f 59 fc 68 3f e3 93 7e 3f 7e 06 6b 3d
       0.7435169 0.9101005 0.9944441 0.05737924
000090 4c b0 7a 3f 12 54 94 3f 3f ba 5e 3f 8d 43 2e 3f
       0.9792526 1.1588156 0.8700294 0.68071824
0000a0 8a a8 49 3f c9 71 6c 3f 92 d5 8e 3f d3 82 96 3e
       0.78772795 0.9236112 1.1158926 0.29396686
0000b0 26 06 37 3f 2f 89 cc 3e 9a 88 85 3e b5 7c 30 3e
       0.71493757 0.39948413 0.2608078 0.17235072
0000c0 38 38 71 3f ee 3b 10 3f fe b4 b1 3e 3f 2a 61 3f
       0.9422641 0.56341445 0.347084 0.8795509
0000d0 21 59 75 3f 5d 44 1f 3f 65 a2 3f 3f bb aa 52 3f
       0.95839125 0.6221369 0.7485717 0.82291764
0000e0 09 24 57 3e d7 55 3b 3f de b3 01 3f a3 49 b7 3e
       0.2100984 0.73177856 0.5066508 0.35798368
0000f0 f5 5f 21 3d f3 46 53 3f a9 3a 91 3f da 00 dd 3e
       0.039398152 0.82530135 1.1346027 0.43164712
000100 3c a5 c0 3e 8d a3 32 3f d4 48 ec 3e 98 07 78 3f
       0.37626064 0.6978081 0.46149313 0.9688659
000110 ab d6 af 3e 49 e5 d5 3e 84 15 32 3f 97 d2 1a 3f
       0.34343466 0.41776493 0.6956408 0.60477585
000120 83 72 01 3f d4 2d 5d 3f 27 45 8a 3e 19 4e 0a 3f
       0.50565356 0.86398053 0.27005884 0.5402542
000130 be 19 61 3f cc 83 74 3e 64 c2 5b 3e 83 f0 69 3f
       0.87929904 0.23878402 0.21460873 0.91382617
000140 e0 61 09 3f 02 2b ab 3e 66 3b 53 3f 1d 5e 11 3f
       0.5366497 0.3343125 0.8251251 0.5678423
000150 2f 8f 41 3f 97 c5 82 3f c2 d3 cd 3e 25 7e 70 3f
       0.75609106 1.021655 0.4020062 0.9394248
000160 70 91 57 3f 1f 86 8b 3f 6d e6 01 3f 93 23 5a 3f
       0.84206295 1.0900306 0.50742227 0.8521053
000170 f0 10 75 3f aa 2b 1f 3f c5 e3 76 3f db 23 9a 3e
       0.9572897 0.62176 0.964413 0.3010548
000180 b0 4f 83 3e 3b 51 c9 3e a7 b6 8b 3e 80 b9 94 3e
       0.25646734 0.39319786 0.2728779 0.29047775
000190 b5 97 ee bb fa 10 76 3f b5 fb d7 3c e2 27 51 3f
       -0.0072812685 0.96119654 0.02636514 0.8170148
0001a0 d5 79 46 3f 6a 1c 06 3f 5d e5 59 3f 3d 2c fb 3e
       0.7752965 0.52387106 0.85115606 0.4905719
0001b0 be 09 a0 3e 27 6e 40 3f 9a 7c bb 3e 1b bd 5f 3f
       0.31257433 0.7516808 0.366185 0.8739793
0001c0 6f 37 6e 3f 4d 3d 62 3f 1d bf 59 3f d3 fc 04 3f
       0.93053335 0.8837479 0.8505724 0.5194828
0001d0 70 e3 29 3f 19 c4 0d 3f ef bc 28 3f 84 2a 20 3f
       0.6636267 0.55377346 0.6591329 0.62564874
0001e0 17 c7 4c 3f 71 ae e4 3e d8 91 72 3f 21 d4 87 3f
       0.79991287 0.44664338 0.9475379 1.0611612
0001f0 24 c3 55 3f 4b 95 bc 3e 15 ef 42 3e 42 14 fa 3e
       0.83500886 0.36832651 0.19036515 0.4884358
000200 57 9b 44 3e 9a 44 02 3f b7 a9 92 3f 43 64 8a 3f
       0.19199882 0.5088593 1.1458043 1.0811847
000210 8f d3 5e bd db 0b 79 3f a3 5f b7 3e e3 e8 84 3f
       -0.054400977 0.97283715 0.35815153 1.0383571
000220 b8 4c 3c 3f 18 35 48 3f cf 2e 3c 3f be dc 1d 3e
       0.73554564 0.78206015 0.73508924 0.15416238
000230 f3 24 37 3f 6d 25 72 3f aa fc fb 3e 72 60 40 3f
       0.71540755 0.9458836 0.49216205 0.75147164
000240 31 4c 75 3f 06 fa 40 3f dd 94 6c 3f f7 55 05 3f
       0.95819384 0.75381505 0.9241465 0.52084297
000250 7a 0e 2c 3f 7c 88 12 3f e3 09 06 3e d6 57 7f 3f
       0.6720959 0.5723951 0.13089709 0.997434
000260 3a c3 8d 3f d6 0e 3b 3e ab 29 08 3f 1a 89 1c 3f
       1.1075203 0.18267378 0.5318858 0.611467
000270 32 73 65 3f 1a f0 66 3f 77 b7 1e 3f 67 65 4e 3f
       0.896289 0.90210116 0.61998695 0.8062348
000280 af f7 6a 3f 31 97 22 3f 41 8b c6 3e ae 13 79 3f
       0.91784185 0.6351195 0.38778117 0.97295654
000290 bc 7c 12 3f 75 fb 4c 3f 0c 14 04 3f 0b 04 3d 3f
       0.5722158 0.8007119 0.5159309 0.73834294
0002a0 0a d1 58 3e
       0.21173492
