lunar_lander_continuous/models/DQN/layers_2/8_128_tanh_225/model.pth (torch, 122207 bytes, 4 tensors)

net.0.weight f4 [128, 8]
-1.8021039 1.2986798 0.70047283 -1.022244 2.4497764 4.1646166 4.891922 -1.1026152
0.5665662 -1.6190569 -1.0958534 -0.18876857 -1.1636056 -6.312991 0.27783123 3.5294886
2.554172 1.125423 -0.18458284 0.5623982 -1.849847 -0.7990255 -14.18513 -2.7213602
0.7465611 -2.1133482 -0.32361752 0.74077904 -2.427349 -1.975392 -0.9229034 -1.5279461
-2.5924666 -1.8523064 -0.7048936 -0.53775346 1.9429982 1.1923145 0.4059148 -1.317617
-1.7418282 -2.0470157 -1.8217145 -1.9871742 1.6856308 5.4552555 1.8081249 -6.042994
1.1169112 3.4114459 0.24404308 2.1195104 -0.29454225 -2.495991 -2.8735833 2.6439438
-1.5862994 2.9502444 -0.1421573 1.1003458 0.8292329 2.0961633 3.2046683 -1.6951177
-1.151747 -2.499921 -0.9970341 0.22910476 2.3843017 3.629818 0.43468565 -4.8288813
9.942162 -1.9470108 1.89882 -3.6611142 0.98287237 -6.860046 -1.7826195 -0.73161286
-0.07443038 1.9774835 -0.5770268 0.39075488 0.43619004 3.4936547 -2.5533793 -3.0125306
1.6299042 -4.5089154 0.3105606 -1.0071888 -3.4455838 -2.9301424 -0.6444429 2.3650782
-2.3452067 -2.685097 -1.1909949 -0.3617338 1.7070576 1.0769087 1.0064095 0.5935016
-0.028143877 -0.0837709 -0.12720665 -1.3182839 9.2352295 -1.742121 -6.016269 -7.894636
-4.287251 -1.8333694 9.769054 2.88794 0.6170141 0.7769991 -1.8854719 -9.608032
-1.005618 -2.3759913 -0.23245691 0.7271234 2.8758552 3.7915163 -2.5298538 -2.8823767
-1.8796843 0.4203529 -2.130901 -1.2033741 -1.3528723 -9.73547 -5.2167506 -0.40846553
2.357115 -5.0670953 1.6437055 -1.999558 0.0940977 -0.743471 2.4966788 -2.1932445
-0.23139136 4.7481923 1.2809218 -16.970623 -2.2937217 1.481343 -2.9726455 -6.742027
0.00019382185 -0.07594202 -0.6113577 -6.2460666 0.32196566 0.8993687 -11.163576 3.040839
-2.4458795 -1.8954079 0.27558127 -6.8460107 1.5030996 1.8887546 0.14985193 0.4957277
-1.0909518 -1.3200431 2.5971315 6.1537714 1.1977855 0.37922183 -1.1934313 9.054946
-4.646805 -4.198219 -3.5376916 0.038179044 0.80073917 -0.45947737 1.3967334 1.6633226
-1.1471397 -2.6959803 1.4066713 -6.567057 2.3010943 2.3776731 3.4765844 2.1745048
0.003564278 -2.9363515 -0.5526954 -1.7928655 -0.9054175 2.6153743 3.2571013 -4.055565
2.867065 3.0460968 -0.5099407 -1.0656284 2.3077447 -0.41543373 -1.9384341 -2.4085338
-3.8226805 -2.3494592 -2.215265 -1.1260884 1.6734923 0.81139666 1.2433301 0.3323736
-0.014664235 0.03849504 3.9311464 3.8400369 -1.946873 0.14644274 0.5505364 -0.35810542
-1.1770184 -0.5092297 -0.49320835 0.47284314 -3.6340122 -3.5452933 -3.0052075 -4.2431736
1.7752178 -4.416738 0.14368506 -1.8628395 -0.8229585 -1.2257081 -1.1304007 2.424348
4.218475 -1.9077009 -0.25455022 0.82535815 -0.87022173 -0.8920955 1.6548665 2.2126498
2.21846 -2.8095012 0.6207308 -1.5583818 -3.4582624 -4.3937535 -3.3203866 0.9440902
00000000: 57ab e6bf 243b a63f 3052 333f e4d8 82bf
00000010: 23c9 1c40 8a44 8540 a08a 9c40 7f22 8dbf
00000020: 7c0a 113f 423d cfbf ed44 8cbf 8c4c 41be
00000030: 07f1 94bf 0604 cac0 e53f 8e3e 24e3 6140
00000040: 8e77 2340 dc0d 903f 4903 3dbe 54f9 0f3f
00000050: c9c7 ecbf ef8c 4cbf 4bf6 62c1 c42a 2ec0
00000060: a11e 3f3f 1941 07c0 32b1 a5be b2a3 3d3f
00000070: b059 1bc0 a5d9 fcbf 6643 6cbf bd93 c3bf
00000080: f9ea 25c0 6018 edbf e873 34bf 36aa 09bf
00000090: 2ab4 f83f c39d 983f 11d4 cf3e ada7 a8bf
000000a0: 3af4 debf 4e02 03c0 f12d e9bf b95b febf
000000b0: c0c2 d73f 7491 ae40 a370 e73f 3560 c1c0
000000c0: f2f6 8e3f 2155 5a40 6ee6 793e 0fa6 0740
000000d0: 3ece 96be 51be 1fc0 cae8 37c0 6036 2940
000000e0: dc0b cbbf ced0 3c40 af91 11be 22d8 8c3f
000000f0: 9b48 543f 8a27 0640 4919 4d40 9ef9 d8bf
00000100: 726c 93bf b5fe 1fc0 a03d 7fbf 709a 6a3e
00000110: 6698 1840 f04e 6840 1e8f de3e 3286 9ac0
00000120: 1813 1f41 a637 f9bf 890c f33f b24f 6ac0
00000130: 869d 7b3f 7f85 dbc0 e02c e4bf fb4a 3bbf
00000140: f46e 98bd 2e1e fd3f 07b8 13bf 0611 c83e
00000150: 4d54 df3e 0a98 5f40 916a 23c0 4dcd 40c0
00000160: b3a0 d03f 0949 90c0 cd01 9f3e 90eb 80bf
00000170: 7284 5cc0 7487 3bc0 36fa 24bf 715d 1740
00000180: de17 16c0 a1d8 2bc0 8572 98bf 2c35 b9be
00000190: dd80 da3f 25d8 893f 07d2 803f b9ef 173f
000001a0: fd8d e6bc 1490 abbd 7642 02be 87bd a8bf
000001b0: 80c3 1341 d2fd debf 4785 c0c0 dca0 fcc0
000001c0: 2931 89c0 d9ab eabf 0c4e 1c41 02d4 3840
000001d0: a3f4 1d3f 6ae9 463f 2557 f1bf 80ba 19c1
000001e0: 17b8 80bf 3e10 18c0 2f09 6ebe c224 3a3f
000001f0: 030e 3840 34a8 7240 20e9 21c0 dc78 38c0
00000200: 7f99 f0bf 7f38 d73e af60 08c0 2a08 9abf
00000210: eb2a adbf 7cc4 1bc1 9fef a6c0 6522 d1be
00000220: f9da 1640 a525 a2c0 f164 d23f 84f1 ffbf
00000230: 4cb6 c03d 1e54 3ebf 96c9 1f40 1e5e 0cc0
00000240: dbf1 6cbe 31f1 9740 3ff5 a33f d6c3 87c1
00000250: 56cc 12c0 a69c bd3f d33f 3ec0 afbe d7c0
00000260: a83c 4b39 7d87 9bbd f081 1cbf c7df c7c0
00000270: afd8 a43e 073d 663f 029e 32c1 1b9d 4240
00000280: 4a89 1cc0 ba9c f2bf fd18 8d3e 8512 dbc0
00000290: 9165 c03f b6c2 f13f c972 193e 05d0 fd3e
000002a0: 4fa4 8bbf 2cf7 a8bf 6737 2640 b2eb c440
000002b0: 0951 993f 5d29 c23e 5bc2 98bf 0fe1 1041
000002c0: a0b2 94c0 cf57 86c0 8a69 62c0 a161 1c3d
000002d0: 3efd 4c3f 9e40 ebbe 29c8 b23f c1e7 d43f
000002e0: 79d5 92bf f18a 2cc0 ce0d b43f 5525 d2c0
000002f0: 2145 1340 cc2b 1840 5c80 5e40 162b 0b40
00000300: a996 693b 2fed 3bc0 727d 0dbf 9e7c e5bf
00000310: 71c9 67bf 4b62 2740 5974 5040 30c7 81c0
00000320: fe7d 3740 40f3 4240 798b 02bf 8366 88bf
00000330: 17b2 1340 bbb3 d4be 9c1e f8bf 6b25 1ac0
00000340: cca6 74c0 8a5d 16c0 e7c6 0dc0 aa23 90bf
00000350: ff34 d63f b1b7 4f3f 7125 9f3f df2c aa3e
00000360: 4242 70bc faac 1d3d e797 7b40 2ac3 7540
00000370: 2233 f9bf 16f5 153e f4ef 0c3f 9859 b7be
00000380: 8aa8 96bf e15c 02bf ce85 fcbe 7f18 f23e
00000390: a893 68c0 16e6 62c0 5255 40c0 14c8 87c0
000003a0: 563a e33f eb55 8dc0 2d22 133e 8671 eebf
000003b0: 69ad 52bf 01e4 9cbf f8b0 90bf 8528 1b40
000003c0: bffd 8640 8b2f f4bf 6854 82be ac4a 533f
000003d0: dac6 5ebf 5f60 64bf aad2 d33f 0e9c 0d40
000003e0: 40fb 0d40 dece 33c0 37e8 1e3f 0e79 c7bf
000003f0: 2c54 5dc0 a199 8cc0 3781 54c0 e5af 713f

net.0.bias f4 [128]
4.240404 4.1344666 2.9707296 -4.9104443 -3.0716937 -3.3075342 3.2955387 2.4264405
-3.5023456 -0.6451917 2.4453585 -3.1575594 -3.3103032 -1.8598287 3.6923902 -3.6030889
-2.2623055 -2.6269264 0.5882327 -3.8217714 0.69698906 3.124245 -1.5903122 1.7162696
-2.8898394 2.1233895 -2.7309537 -0.676824 -4.42185 -3.4366074 -3.0457804 -2.717678
3.717522 -4.453529 -0.13402742 4.4822326 -3.0895627 -1.9593772 1.1349695 3.6214511
4.4577465 3.3990464 -3.6529367 2.3768091 4.571328 -2.4767659 2.9676125 2.2715805
3.7727973 -3.9992826 2.1535368 -3.2665842 -0.65238905 2.3152158 -4.101759 4.0849223
-3.8320084 -4.0648956 -2.247428 3.4058955 2.8790066 -4.0256195 0.19795395 3.8560898
-3.5894415 0.34047076 3.2311077 -2.5029712 1.0182306 -2.9887142 2.4641583 -3.8852587
3.2861125 -3.4025717 3.295371 2.2839124 1.5040073 -3.1347563 0.763292 -4.1776123
-2.460145 -1.3681518 -2.7437053 4.010832 0.5091013 3.7843227 3.9408586 3.4566817
-4.639457 -3.3482947 -3.5716548 2.007315 -3.4242384 -2.9613576 3.7170374 3.2003894
3.6762717 3.03986 3.923637 -3.557909 -3.7056236 -0.53226 -2.1107364 -3.6662054
-4.0582156 3.166787 -3.2707758 -3.5327275 -0.451679 2.402745 1.1999259 -3.8763742
1.9792427 3.9408388 0.46041417 3.7371013 -3.2608428 1.1791153 3.3339114 -3.6445553
3.9121892 4.2186203 -1.9890097 -4.5085793 -1.4907312 2.3972514 -2.7724166 -3.471672
00000000: 64b1 8740 8d4d 8440 6f20 3e40 5c22 9dc0
00000010: a196 44c0 a4ae 53c0 1bea 5240 cd4a 1b40
00000020: 6e26 60c0 492b 25bf c180 1c40 7415 4ac0
00000030: 02dc 53c0 de0e eebf 1f50 6c40 0299 66c0
00000040: 9dc9 10c0 901f 28c0 6b96 163f e797 74c0
00000050: e06d 323f a1f3 4740 5a8f cbbf b9ae db3f
00000060: 21f3 38c0 9de5 0740 f2c7 2ec0 5644 2dbf
00000070: cc7f 8dc0 60f1 5bc0 11ee 42c0 70ee 2dc0
00000080: e1eb 6d40 4f83 8ec0 7c3e 09be 736e 8f40
00000090: 65bb 45c0 dfcc fabf ae46 913f dbc5 6740
000000a0: dca5 8e40 fa89 5940 b7c9 69c0 a41d 1840
000000b0: 5248 9240 5583 1ec0 5ded 3d40 9361 1140
000000c0: 8375 7140 3ff4 7fc0 8cd3 0940 b70f 51c0
000000d0: f802 27bf 7f2c 1440 9c41 83c0 afb7 8240
000000e0: a03f 75c0 a013 82c0 dcd5 0fc0 31fa 5940
000000f0: a541 3840 e0d1 80c0 71b4 4a3e 2dca 7640
00000100: 69b9 65c0 2f52 ae3e 78ca 4e40 ae30 20c0
00000110: 6155 823f 1847 3fc0 c5b4 1d40 14a8 78c0
00000120: ab4f 5240 bcc3 59c0 5ce7 5240 9f2b 1240
00000130: 5083 c03f d99f 48c0 1b67 433f 00af 85c0
00000140: 0473 1dc0 991f afbf de98 2fc0 bc58 8040
00000150: 7654 023f 5832 7240 0737 7c40 463a 5d40
00000160: 6f76 94c0 764a 56c0 fe95 64c0 d977 0040
00000170: b926 5bc0 e286 3dc0 f1e3 6d40 2ed3 4c40
00000180: 0948 6b40 118d 4240 de1c 7b40 c8b4 63c0
00000190: f028 6dc0 3142 08bf 4e16 07c0 1ca3 6ac0
000001a0: e7dc 81c0 a3ac 4a40 6454 51c0 3518 62c0
000001b0: 7842 e7be 93c6 1940 2c97 993f 8416 78c0
000001c0: d357 fd3f b436 7c40 68bb eb3e ab2c 6f40
000001d0: a6b1 50c0 40ed 963f ce5e 5540 6540 69c0
000001e0: 4f61 7a40 f0fe 8640 df97 febf 4846 90c0
000001f0: 48d0 bebf 916c 1940 466f 31c0 e02f 5ec0

net.2.weight f4 [225, 128]
1.6769772 1.7405951 1.252271 -1.6042808 -1.1998487 -1.2117866 1.7332778 1.0348256
-1.5433297 1.5190626 1.5579487 -1.7406578 -0.9176961 0.043675777 -1.7796941 -1.6057079
-1.7735491 -1.7076925 -2.348689 2.358118 1.7753258 -1.6645842 -1.935015 1.2756569
-1.201282 0.7815147 -1.1992328 2.3817983 -1.9162856 -1.0598105 -1.8013809 -0.8330693
1.3532808 -1.3259071 -1.74043 1.6495708 -1.2890146 -0.7066204 2.0918255 1.5000646
1.1050332 1.5753528 -0.88452923 1.135525 1.428876 -0.9701924 -1.4180126 0.93313426
1.5436798 -1.0817654 -1.4765934 1.8535221 -1.9775823 -2.3455749 -1.9908731 1.8457445
-1.6357418 -1.5328386 -1.284131 1.9517834 1.250382 -1.2077559 0.19174604 1.3061724
-1.776438 -1.1397368 1.2718695 -1.077672 2.2155383 2.040126 0.8344389 -1.7880762
1.0392147 1.8131152 1.8044834 2.1325355 -1.383581 2.76534 1.4166282 -1.661684
2.014859 2.755013 -1.2013558 -2.503591 -1.6283057 1.3289204 -2.0261438 1.5250345
-1.8189198 1.0182703 -1.4850409 0.81218517 -1.5485724 1.134931 -2.0928311 1.9830747
1.1168373 1.2186869 1.5338557 -1.622458 -1.7911308 1.7285146 -1.4477879 -1.5265529
-1.2348526 2.351875 2.6974084 -2.104199 1.2628129 1.3456976 1.7006617 2.002687
1.3164759 1.0344518 0.95863104 0.9800376 -1.2320229 -2.7590182 -2.6255805 -1.2143971
1.8439785 1.4650036 -1.3664942 -1.5779593 -1.8259948 -2.0301275 -0.62089723 -1.2350854
1.7327739 1.6440926 1.3074758 -1.7363917 -0.88693297 -1.5189887 1.2398928 1.3112385
-1.306166 1.9952021 1.5705636 -1.3396276 -1.4005749 0.7533586 -1.9141331 -1.4088485
-1.6717827 -1.400082 -2.2429454 1.882601 1.6058717 -1.5887425 -1.4437255 1.0153327
-1.253635 1.7922215 -1.4487281 1.1777085 -1.6805476 -1.0848014 -1.5540566 -1.2711343
1.2216493 -1.722021 -1.8348088 1.406557 -1.465707 -1.15354 1.7729685 1.5069062
1.4000384 1.3909678 -1.3771172 1.4298888 1.6183014 -1.7141733 -1.5024356 0.80812836
1.5766921 -1.523551 -2.0574596 1.9542276 -1.8193171 -2.2011504 -1.7619116 1.7364044
-1.4993974 -1.5617399 -1.1965436 1.7082571 1.3240494 -1.2517126 0.6194943 1.2530702
-1.2962927 -1.4007858 1.3796366 -1.3786085 1.7605364 1.990123 1.252497 -1.6987022
1.3185408 1.8476745 1.4409419 1.8314916 -1.8975389 2.8710802 1.6131344 -1.548858
2.3610358 3.200527 -1.1809149 -2.0268278 -1.3649967 1.4548216 -2.421114 1.5562207
-1.6262425 1.918307 -0.4622704 1.6371685 -1.5239624 1.6560198 -1.7686619 1.4170105
1.1627594 1.5650758 1.3614839 -1.7813925 -1.5186923 1.6231816 -1.616146 -1.861155
-1.558802 1.5765259 2.545614 -1.2449497 0.9761371 1.177402 1.5622066 1.9096788
1.3593142 1.4054525 0.88020694 1.326638 -1.2519125 -2.8518095 -2.0183723 -1.291537
1.5442201 1.3816898 -1.5214853 -1.4883229 -1.6098701 -1.6135952 -1.5344226 -0.90040916
00000000: 30a7 d63f d2cb de3f 6b4a a03f 1359 cdbf
00000010: a494 99bf d31b 9bbf 0cdc dd3f 2a75 843f
00000020: d48b c5bf a570 c23f dd6a c73f e0cd debf
00000030: 22ee 6abf 5fe5 323d 04cd e3bf d687 cdbf
00000040: a803 e3bf ab95 dabf ec50 16c0 68eb 1640
00000050: e03d e33f 1811 d5bf 92ae f7bf ba48 a33f
00000060: 9cc3 99bf 5911 483f 7680 99bf 626f 1840
00000070: d948 f5bf dfa7 87bf a693 e6bf 0844 55bf
00000080: 4e38 ad3f 53b7 a9bf 69c6 debf 2325 d33f
00000090: 6efe a4bf 13e5 34bf 78e0 0540 1e02 c03f
000000a0: ba71 8d3f 29a5 c93f 8270 62bf e258 913f
000000b0: 69e5 b63f 875e 78bf 7081 b5bf e3e1 6e3f
000000c0: 4d97 c53f 4a77 8abf 0301 bdbf 3640 ed3f
000000d0: 6b21 fdbf e61d 16c0 eed4 febf 5b41 ec3f
000000e0: fd5f d1bf 0e34 c4bf 685e a4bf 0ad4 f93f
000000f0: 840c a03f bf97 9abf 1359 443e a830 a73f
00000100: 5262 e3bf e5e2 91bf 9fcc a23f 28f1 89bf
00000110: 61cb 0d40 6d91 0240 ca9d 553f aedf e4bf
00000120: fd04 853f 2914 e83f 50f9 e63f 767b 0840
00000130: 2f19 b1bf 55fb 3040 1354 b53f 10b2 d4bf
00000140: 73f3 0040 2252 3040 07c6 99bf d63a 20c0
00000150: 526c d0bf 101a aa3f 57ac 01c0 5534 c33f
00000160: 5dd2 e8bf ae56 823f d215 bebf 5eeb 4f3f
00000170: 9f37 c6bf 6b45 913f f2f0 05c0 64d5 fd3f
00000180: 86f4 8e3f effd 9b3f 6255 c43f b4ac cfbf
00000190: c643 e5bf f73f dd3f 1d51 b9bf 1666 c3bf
000001a0: a60f 9ebf 1f85 1640 57a2 2c40 32ab 06c0
000001b0: daa3 a13f d23f ac3f 48af d93f 062c 0040
000001c0: 4882 a83f eb68 843f d868 753f bfe3 7a3f
000001d0: edb2 9dbf c193 30c0 8309 28c0 5d71 9bbf
000001e0: 7d07 ec3f 3d85 bb3f 48e9 aebf 92fa c9bf
000001f0: 33ba e9bf 9ced 01c0 1ff3 1ebf 4717 9ebf
00000200: 89cb dd3f a071 d23f 5e5b a73f 1542 debf
00000210: 0a0e 63bf 396e c2bf cfb4 9e3f aad6 a73f
00000220: 7330 a7bf c862 ff3f 3a08 c93f eb78 abbf
00000230: 0a46 b3bf 1cdc 403f 5002 f5bf 2655 b4bf
00000240: fafc d5bf e335 b3bf 6b8c 0fc0 12f9 f03f
00000250: 348d cd3f ea5b cbbf ffcb b8bf 6cf6 813f
00000260: 1d77 a0bf 8467 e53f ec6f b9bf 27bf 963f
00000270: 2f1c d7bf c6da 8abf 54eb c6bf 87b4 a2bf
00000280: 015f 9c3f 2f6b dcbf 04db eabf 0f0a b43f
00000290: 499c bbbf 33a7 93bf a2f0 e23f 4de2 c03f
000002a0: 7534 b33f 3c0b b23f 6045 b0bf 9906 b73f
000002b0: 8024 cf3f 086a dbbf cf4f c0bf 80e1 4e3f
000002c0: 0cd1 c93f b803 c3bf 6bad 03c0 2124 fa3f
000002d0: 62df e8bf a6df 0cc0 5286 e1bf 8042 de3f
000002e0: 41ec bfbf 18e7 c7bf 5728 99bf 2ba8 da3f
000002f0: 737a a93f 1e38 a0bf 2e97 1e3f 9b64 a03f
00000300: ebec a5bf f34c b3bf ef97 b03f 3e76 b0bf
00000310: 4259 e13f 5abc fe3f d251 a03f 136f d9bf
00000320: f2c5 a83f 9980 ec3f c970 b83f 516e ea3f
00000330: 8ee2 f2bf c7bf 3740 307b ce3f fb40 c6bf
00000340: 361b 1740 6fd5 4c40 3828 97bf 8cb7 01c0
00000350: 36b8 aebf 9837 ba3f 88f3 1ac0 3d32 c73f
00000360: b728 d0bf 158b f53f b5ae ecbe bd8e d13f
00000370: 3311 c3bf 75f8 d33f 8363 e2bf 9a60 b53f
00000380: 4dd5 943f 6754 c83f 1b45 ae3f ab04 e4bf
00000390: 8264 c2bf 6ac4 cf3f dfdd cebf 543a eebf
000003a0: d386 c7bf 9acb c93f 57eb 2240 835a 9fbf
000003b0: 1fe4 793f 1cb5 963f 63f6 c73f 5b70 f43f
000003c0: 02fe ad3f dee5 b33f 3e55 613f 46cf a93f
000003d0: ab3e a0bf 0c84 36c0 032d 01c0 1651 a5bf
000003e0: 01a9 c53f 36db b03f 08c0 c2bf 5d81 bebf
000003f0: 3910 cebf 4a8a cebf f667 c4bf 3781 66bf

net.2.bias f4 [225]
1.5135689 1.2670221 1.3553709 1.3574493 1.4795927 1.3373493 1.750426 1.3256156
1.0992125 1.3085132 1.446484 1.605272 1.6707966 1.4263341 0.83730525 1.4533341
1.2029532 1.2970629 1.5768114 1.4932048 1.5716718 1.5022585 1.4096477 1.3425459
1.2150046 1.3773075 0.74448884 1.1640091 1.5328993 0.67782843 1.2976617 1.0560414
1.4640602 1.7940129 1.5210809 1.3040118 1.479099 0.94796526 0.9549241 0.80892545
1.9508786 1.1205314 1.291769 1.5541452 1.3231759 1.3991416 1.1551443 1.91471
0.6957034 1.6189852 1.53912 1.524608 1.6909245 0.9559935 1.0643219 1.5198972
1.5986309 1.3515742 1.1269326 1.2997692 1.3138174 1.2808841 1.5992842 1.2657995
1.3892671 1.2298956 1.1017787 0.6312503 1.385544 1.2319415 1.139836 0.66128784
1.2472872 1.5196508 1.4489865 1.2795594 1.2038106 1.2257776 1.1463952 1.0992507
1.6508943 1.679728 1.1927234 1.2412876 1.2952461 1.503667 1.143174 1.378473
0.37057582 1.2330317 1.3081115 1.0811585 1.3931625 1.3416287 1.2583447 0.92400646
1.2719691 1.3947291 1.0998697 1.3731325 1.11387 0.9231753 1.3563943 1.1116734
1.739358 1.1899966 1.5589399 -0.3818124 1.2292827 1.4775804 1.2323332 1.675042
1.6245692 0.70457226 1.721813 1.4241881 1.533007 1.2279317 1.1896378 1.2942876
1.3394544 1.1209856 0.7571197 1.1259058 0.41904497 1.0737306 1.146069 1.3179153
1.2612875 1.1572604 0.84599435 1.7031658 -0.10993178 1.2728548 0.8048213 0.86837226
1.2762977 0.60020787 0.6164172 1.0815783 1.2105999 0.6957686 0.85382515 1.0882357
0.4372056 0.8754015 1.0703077 1.3491806 1.1816671 0.8401977 1.4307318 1.0893891
1.0862283 0.5842545 0.91982335 1.0009652 0.79342496 1.254151 1.2520425 0.96822983
1.2066346 1.1144756 0.86118627 1.8199426 1.5846323 1.1222124 1.495833 0.7611748
0.89064103 0.7257125 1.2513578 1.1725032 1.127747 1.0932953 1.2980206 0.86853874
0.79970366 1.390789 1.0201873 0.68998516 1.429566 1.18932 0.79540133 1.3464819
0.9798536 0.95272917 1.3530744 0.5909243 1.2185239 0.9477241 0.6715776 0.8323691
1.109593 0.87935036 1.1326383 0.6629227 0.42782688 1.0936623 0.7317993 0.6274373
1.3216578 0.57725084 0.83210546 1.1016363 0.80321753 0.8376523 0.91000986 1.1677673
1.0753926 0.9887136 0.98801714 1.2652136 1.0918775 1.0044681 0.91129774 0.9427842
1.0292175 0.74870247 1.2130154 1.204017 1.129114 0.35462514 1.0315816 0.9416258
1.0962188
00000000: a0bc c13f c82d a23f cb7c ad3f e6c0 ad3f
00000010: 4b63 bd3f 432e ab3f f60d e03f c6ad a93f
00000020: ffb2 8c3f 5c7d a73f 6326 b93f 8e79 cd3f
00000030: aadc d53f 1e92 b63f a359 563f da06 ba3f
00000040: 5ffa 993f 2806 a63f f5d4 c93f 5621 bf3f
00000050: 8b2c c93f 024a c03f 566f b43f 8bd8 ab3f
00000060: 4585 9b3f 9d4b b03f d296 3e3f 40fe 943f
00000070: 0b36 c43f 2a86 2d3f c719 a63f 5d2c 873f
00000080: 5366 bb3f 37a2 e53f c7b2 c23f dce9 a63f
00000090: 1e53 bd3f daad 723f e875 743f bd15 4f3f
000000a0: 64b6 f93f 936d 8f3f b058 a53f 3bee c63f
000000b0: d45d a93f 1217 b33f c5db 933f 3815 f53f
000000c0: 9e19 323f e83a cf3f e201 c53f 5b26 c33f
000000d0: 3770 d83f fdbb 743f b33b 883f fe8b c23f
000000e0: f09f cc3f 6200 ad3f 543f 903f d65e a63f
000000f0: 2b2b a83f 03f4 a33f 58b5 cc3f b805 a23f
00000100: 81d3 b13f 386d 9d3f 1607 8d3f 9f99 213f
00000110: 8159 b13f 42b0 9d3f 25e6 913f 294a 293f
00000120: 1ba7 9f3f eb83 c23f 6478 b93f 9ac8 a33f
00000130: 7716 9a3f 48e6 9c3f 14bd 923f 3fb4 8c3f
00000140: 8150 d33f 5401 d73f 29ab 983f 83e2 9e3f
00000150: a0ca a53f 2978 c03f 8753 923f ce71 b03f
00000160: 1dbc bd3e fcd3 9d3f 3370 a73f 6763 8a3f
00000170: 2653 b23f 7dba ab3f 7011 a13f b08b 6c3f
00000180: e2cf a23f 7c86 b23f 88c8 8c3f cec2 af3f
00000190: 4b93 8e3f 3755 6c3f 549e ad3f 504b 8e3f
000001a0: 48a3 de3f cf51 983f 588b c73f ea7c c3be
000001b0: 2359 9d3f 5b21 bd3f 18bd 9d3f c767 d63f
000001c0: e2f1 cf3f d95e 343f 5e64 dc3f cc4b b63f
000001d0: 9339 c43f de2c 9d3f 0d46 983f 37ab a53f
000001e0: 3e73 ab3f 757c 8f3f 99d2 413f ae1d 903f
000001f0: 108d d63e 0170 893f 64b2 923f 73b1 a83f
00000200: de71 a13f 1c21 943f 1693 583f 5601 da3f
00000210: ea23 e1bd e8ec a23f c508 4e3f a54d 5e3f
00000220: b95d a33f 39a7 193f 85cd 1d3f 2871 8a3f
00000230: f0f4 9a3f e41d 323f 4994 5a3f 4f4b 8b3f
00000240: 6ad9 df3e 501a 603f d8ff 883f f3b1 ac3f
00000250: de40 973f 3217 573f 3822 b73f 1a71 8b3f
00000260: 8709 8b3f b491 153f 8b79 6b3f a11f 803f
00000270: e61d 4b3f 0588 a03f ee42 a03f e9dd 773f
00000280: 0173 9a3f 23a7 8e3f b476 5c3f e1f3 e83f
00000290: 3bd5 ca3f a8a4 8f3f 7577 bf3f 5adc 423f
000002a0: 0d01 643f 4bc8 393f 7e2c a03f 9614 963f
000002b0: 045a 903f 1af1 8b3f 8a25 a63f 8e58 5e3f
000002c0: 61b9 4c3f 6005 b23f 7f95 823f dea2 303f
000002d0: 05fc b63f a33b 983f 6c9f 4b3f 8559 ac3f
000002e0: afd7 7a3f 0fe6 733f 8b31 ad3f d146 173f
000002f0: 97f8 9b3f 0c9e 723f 82ec 2b3f 2416 553f
00000300: 2507 8e3f 1b1d 613f 4bfa 903f 4db5 293f
00000310: 200c db3e 20fd 8b3f 3357 3b3f bb9f 203f
00000320: 152c a93f b6c6 133f dd04 553f 6b02 8d3f
00000330: aa9f 4d3f 6270 563f 68f6 683f 6679 953f
00000340: 77a6 893f 561c 7d3f b1ee 7c3f 85f2 a13f
00000350: a4c2 8b3f 6992 803f cf4a 693f 4e5a 713f
00000360: 66bd 833f f7aa 3f3f 1744 9b3f 3b1d 9a3f
00000370: cf86 903f 6d91 b53e de0a 843f 630e 713f
00000380: e650 8c3f
