lunar_lander_continuous/models/DQN/layers_4/8_128_tanh_128_tanh_128_tanh_225/model.pth (torch, 255119 bytes, 8 tensors)

net.0.weight f4 [128, 8]
000000 d1 3e 1b 3f 0d 74 4f 3e c7 25 38 3f 98 f6 36 bf
       0.60642725 0.20259114 0.71932644 -0.7147002
000010 33 3a 1e bd 51 3a 56 3f 4c 17 1b 3f 58 a5 49 bf
       -0.03862972 0.83682734 0.60582423 -0.7876792
000020 f5 1f ed bc d9 0f c3 bf 32 ae 99 3e 37 bc b8 3e
       -0.028945902 -1.5239211 0.30015713 0.36081097
000030 ae f7 b0 3e 3e 14 89 be 34 12 39 be 5e a5 ee 3e
       0.34563965 -0.26773256 -0.1807335 0.4661054
000040 b9 36 3c bf ba 64 04 bb f2 c5 f5 be b7 a2 1b bf
       -0.73521 -0.002020164 -0.48002583 -0.6079516
000050 5f 6b 87 bd e2 0b 82 bf 41 74 96 be cf 59 8d 3f
       -0.06612276 -1.0159876 -0.2938557 1.1043032
000060 96 49 53 bd 0f 4c 2f be 27 30 31 3e 2c 71 29 3f
       -0.05158385 -0.17118858 0.17303525 0.6618831
000070 3e ba 1a 3f ed 8a 79 be 60 31 83 bb 92 99 a5 be
       0.60440433 -0.24369402 -0.0040036887 -0.32343727
000080 f9 ff f5 be f3 8a 4a bd a0 7b 2a bf af 1f 94 3e
       -0.48046854 -0.04944892 -0.66594887 0.28930423
000090 7e 53 e2 3e d7 9c 50 3f 2a b2 3f 3f ef 61 0d bf
       0.44204324 0.8148932 0.7488123 -0.5522756
0000a0 bc ea c9 be fe 43 50 be 12 36 6f 3f 0f 6d 92 bf
       -0.394369 -0.20338437 0.9344188 -1.1439532
0000b0 0a 41 20 3d aa 1f 83 3f f2 6f 5f 3e 82 aa 0b bf
       0.039124526 1.0244038 0.21820047 -0.5455705
0000c0 f7 4e 91 3e 93 f5 80 3e d8 bb 82 3e a1 97 38 3e
       0.28380558 0.25187358 0.25533938 0.18026592
0000d0 a2 fb 5b bf 32 33 29 bf 13 96 86 bd 45 db 5c 3d
       -0.85930836 -0.6609374 -0.06571593 0.05392005
0000e0 13 6c 58 3e 75 b3 71 3e f0 2a 8b 3e 84 46 58 3e
       0.21134977 0.23603614 0.27181196 0.2112065
0000f0 55 d7 bf 3e 37 d8 96 bf 75 d7 47 bf 95 98 10 bd
       0.37468973 -1.1784734 -0.78063136 -0.035301764
000100 28 42 c8 3e f6 58 40 bf c3 28 da 3e 19 64 c9 3e
       0.39112973 -0.75135744 0.42609224 0.3933418
000110 3a 83 02 3e 6a 9c 6c 3d bd 4e 8b 3e 9a cb 3c 3e
       0.12745371 0.057766356 0.2720851 0.18437043
000120 a4 67 b4 be 7a d2 ea be ff 05 36 bf c8 68 e0 be
       -0.35235322 -0.45863706 -0.711029 -0.43829942
000130 70 b3 79 bf 1c e6 41 3f 83 d7 12 3f 25 d1 0f 3f
       -0.97539425 0.75741744 0.57360095 0.56178504
000140 3f fb 15 bf 71 b3 d7 3e dc e0 92 be d4 de 21 3e
       -0.58586496 0.4212909 -0.2868718 0.15807658
000150 fe a8 1c 3e fd e5 86 bf 48 4b 99 3d 23 05 15 3f
       0.1529884 -1.0538937 0.07485062 0.58210963
000160 6d 5d 80 3d 44 f7 9f be f7 b2 e6 3c f2 58 20 3f
       0.062678196 -0.31243336 0.028161509 0.6263572
000170 59 01 33 bf e3 02 4b bf f4 d0 8b 3c fd 6a 89 bd
       -0.6992393 -0.7930128 0.01706741 -0.067098595
000180 af 2b 1d bf 1b 6d 42 3d 29 3a c3 3e 9b 31 4b bf
       -0.6139478 0.047467332 0.3813031 -0.79372567
000190 fd f1 1b 3f 2e c2 ac 3d e6 2e 96 3d c6 24 31 bf
       0.6091612 0.08435474 0.07333164 -0.69196737
0001a0 e5 05 67 bf dd 30 84 3f 3b f7 cb be 60 86 1d 3f
       -0.9024337 1.0327412 -0.3983706 0.61533165
0001b0 8b d1 f1 bd fb 68 87 3e c2 f7 18 3e 3c cb 05 bf
       -0.11807545 0.2644728 0.14938262 -0.52263236
0001c0 99 bb 4a 3e 26 80 c5 be ec 9c 96 3e 30 c4 c4 3e
       0.19798125 -0.38574332 0.29416597 0.3843093
0001d0 22 78 a7 be df 36 31 bf 6b 08 88 3d 4d bf 87 3e
       -0.32708842 -0.6922435 0.066422306 0.26513138
0001e0 0b 76 ae 3e 82 d2 43 be 91 c0 85 be 72 0a 10 be
       0.34074435 -0.19123271 -0.2612348 -0.14066485
0001f0 e4 16 4f 3f 93 de 6b 3f 98 b6 11 3f f0 7c 17 bf
       0.80894303 0.92136496 0.5691924 -0.59175014
000200 f0 5d a9 be b4 80 b2 be fc 1f 20 3f de ca 31 3f
       -0.3307948 -0.34863818 0.62548804 0.69450176
000210 95 b4 18 3f c8 2c 24 3f 81 be 2a 3e 81 16 16 3f
       0.59650546 0.6413083 0.16674234 0.5862809
000220 f6 ff 62 bf a7 0f cc be 40 cf d9 3e 7a 76 03 bf
       -0.88671815 -0.39855692 0.42540932 -0.51352656
000230 1d 2a 22 3e b8 a9 69 be 0d a2 08 be ca 69 08 bd
       0.15836377 -0.22818649 -0.13343067 -0.033304013
000240 b8 75 1d 3f 0f ed 77 bd 50 a9 c3 bd 54 cf cf be
       0.6150775 -0.06052881 -0.09553778 -0.40587866
000250 e5 54 14 bf f6 1c 57 bf 92 1e 22 3d 28 1c a9 ba
       -0.5794204 -0.84028566 0.039579935 -0.0012902068
000260 d3 1f 35 bf d5 d3 b0 3e fe 52 af be 97 74 b6 be
       -0.70751685 0.34536615 -0.34243006 -0.35635826
000270 2d 19 38 3e 01 98 b7 bc db 88 ac 3e a6 ac eb bf
       0.17978354 -0.022411348 0.33698162 -1.8412063
000280 7f 31 6d 3d ed 56 3c be 7e 48 88 bf c6 c6 55 bf
       0.05790853 -0.18392535 -1.0647123 -0.8350643
000290 c4 c4 64 3e eb 91 38 bf f2 56 5f 3e be c2 13 bd
       0.22340685 -0.72097653 0.21810511 -0.036074392
0002a0 c1 0f 5a bf 58 96 4c 3e 12 c1 92 3e c9 13 21 3f
       -0.8518029 0.19979227 0.28662926 0.62920815
0002b0 b7 64 9e bf b3 15 c3 3e f1 28 91 3c 90 2a 59 3d
       -1.2374486 0.38102493 0.017719718 0.053019106
0002c0 2e de f4 be c6 e3 61 bf 36 4c b8 be 33 99 05 bf
       -0.4782576 -0.8823818 -0.35995644 -0.5218689
0002d0 e8 cd 2f be d5 8e a0 3e 77 c9 1e bd c8 b3 08 3f
       -0.17168391 0.31358972 -0.03876635 0.53399324
0002e0 39 e7 bd be 10 b4 90 3e cd 43 c4 3e d6 42 05 bf
       -0.3709047 0.28262377 0.38332978 -0.5205511
0002f0 90 09 94 3e 6f 8d 45 3f 90 5d a5 3d 47 d6 18 be
       0.28913546 0.77168936 0.08074486 -0.1492549
000300 bb e9 4b 3e 0d 7f 32 be 08 8b bf bd fb d9 18 3f
       0.1991338 -0.17431279 -0.0935269 0.5970761
000310 08 7f 2d 3e 22 e3 d3 3e 7a 97 23 bb f0 a5 b1 be
       0.1694299 0.41384226 -0.0024962113 -0.34696913
000320 58 40 bb 3e d8 f6 89 be 40 b6 e8 3d 12 24 bb 3e
       0.36572528 -0.2694614 0.113628864 0.36550957
000330 6a 2c d9 bf a3 84 d7 be 0d 08 8b 3e ce e4 01 3e
       -1.6966679 -0.4209338 0.2715458 0.12684938
000340 44 ab 84 3f 9f 6d 87 3e dd f5 37 3f 0d 54 c2 be
       1.0364766 0.26450822 0.7185953 -0.3795475
000350 7c d6 e7 bf 9f 53 3d 3f 63 1a a2 be bb 9d 07 3d
       -1.811233 0.7395572 -0.31660756 0.033109408
000360 27 20 c5 3e d1 c9 7f be ed 74 a1 be 5d df b0 3e
       0.38501093 -0.2497933 -0.3153452 0.34545413
000370 bc e6 bb 3b f0 b2 4c 3f b8 6b 4a 3e 95 5c 29 bf
       0.005734293 0.79960537 0.19767654 -0.66156894
000380 7a 4d 9b 3e 1e 34 54 3e 3c 38 bb 3e ad ab d3 be
       0.30332547 0.20723006 0.3656634 -0.41341916
000390 4d a1 58 be 9c d5 b5 be 97 d2 6e be 0f 6c e9 3e
       -0.21155281 -0.35514534 -0.23322521 0.45590255
0003a0 d3 fb 1f bf 7d 70 0b 3e 97 39 ff 3e cd 44 06 bf
       -0.6249363 0.1361713 0.49848625 -0.5244873
0003b0 cc 3f 4a bf 1c 37 17 bf 5d 3f 21 3f c2 60 af 3d
       -0.79003596 -0.59068465 0.6298731 0.08563377
0003c0 36 cb a4 be ef 86 77 be 63 90 45 3e d7 a6 71 bd
       -0.32186288 -0.24172567 0.1929336 -0.058997
0003d0 34 b1 10 3f ff 40 85 be ec ce b9 3e 4e 92 fb 3e
       0.5652039 -0.2602615 0.3629068 0.4913506
0003e0 70 97 d5 3e ed cb ad 3e e1 7c d1 be b9 2e 39 bf
       0.417171 0.33944646 -0.40915588 -0.7233692
0003f0 c4 c3 ac be e5 d8 f2 3d 9a 81 c6 3f 11 6c a8 bd
       -0.33743107 0.118577756 1.5508301 -0.08223737

net.0.bias f4 [128]
000000 30 ee f1 bd 6f 44 2a be 6a 4d 25 bd e2 38 d5 3e
       -0.11813009 -0.16627668 -0.04035703 0.4164496
000010 fd e4 c7 be 4c 18 c0 3e 5e 67 d8 be 1b 62 2f be
       -0.39041892 0.37518537 -0.42266363 -0.17127268
000020 1f 46 8a be 8a 38 dc bc a7 3f c9 3e 31 14 b7 3e
       -0.27006623 -0.026882429 0.39306375 0.35757592
000030 b9 c3 1e 3e 55 7a b9 3e 56 b0 c0 3e 48 d8 a7 3e
       0.1550435 0.36226144 0.37634534 0.32782197
000040 12 66 68 3e 95 12 09 be d1 5c 30 bd b3 ef 31 be
       0.22695187 -0.13385995 -0.043057267 -0.17376594
000050 57 f9 c4 3e 83 d8 11 3e 4d c9 cd be 7a 88 de be
       0.3847148 0.14242749 -0.40192643 -0.43463498
000060 0a 93 e0 3e 45 75 e8 3e 46 84 8d 3c d7 cd 69 3e
       0.43862182 0.4540197 0.017274987 0.22832428
000070 3d e8 86 be 16 c3 7b be a3 52 a0 be 5e 38 a1 3e
       -0.2634906 -0.24586138 -0.31313047 0.31488317
000080 e5 b5 8d bc 7d 66 70 be 83 54 0c bf b5 ef f5 3e
       -0.017298648 -0.23476596 -0.54816455 0.48034444
000090 f1 46 de 3e 7f e6 bb be 14 88 b1 3c ca 84 96 3e
       0.434135 -0.36699292 0.021671332 0.29398185
0000a0 71 12 da be ee 06 8c be f0 1f c7 bd c5 4c 12 3e
       -0.42592195 -0.27349037 -0.097228885 0.14287098
0000b0 18 cf 95 bd 6b 99 9d 3e cf 57 be 3d d6 e1 ca 3e
       -0.073148906 0.3078111 0.09294092 0.39625424
0000c0 f1 59 96 be 00 c0 b4 bd 42 32 82 be b9 f5 b6 be
       -0.29365495 -0.088256836 -0.2542897 -0.35734347
0000d0 7c 11 de 3e c4 de c1 bd f7 78 a8 3e f2 be a3 bc
       0.43372715 -0.09466317 0.3290479 -0.01998851
0000e0 1b e4 93 bd 82 1f 36 be 78 8e c4 3d dc 6f 31 3e
       -0.07221242 -0.17785457 0.09597486 0.17327827
0000f0 cd 6f e1 be 42 d3 73 3e 25 88 d1 be 9a 42 67 bd
       -0.4403061 0.23811057 -0.40924183 -0.05646
000100 d4 e2 12 3e c1 b6 b8 3e e5 9c c6 be 48 24 fe 3e
       0.1434434 0.3607693 -0.38791576 0.49637055
000110 7e 33 92 be 58 9c 2a be d9 d0 a9 bc 6a 5f 86 be
       -0.2855491 -0.16661203 -0.02072947 -0.2624467
000120 fa b4 04 3f 74 97 d2 3e ef 14 94 3e 70 78 04 bf
       0.5183865 0.41131175 0.2892222 -0.51746273
000130 b2 55 03 3e f6 18 e6 be b2 4f 5a 3d b1 36 41 3e
       0.12825659 -0.4494092 0.05329866 0.1886852
000140 e2 b3 8e be 44 66 1d 3f 11 c3 c8 3e 2b ce 0a 3c
       -0.27871615 0.6148417 0.39211324 0.008472006
000150 ca c9 12 3e b3 5f 16 3e bc 8a 92 3d 87 73 65 3e
       0.14334789 0.14684944 0.07155368 0.22407351
000160 3c a4 ea 3e 99 ba 0d 3c 57 45 f1 bc f1 3b d5 be
       0.45828426 0.008650445 -0.02945201 -0.41647294
000170 cd 95 ff 3e 12 60 d3 3e 31 01 d4 be 5e 15 9f bd
       0.49918976 0.41284233 -0.4140716 -0.07767747
000180 7b f8 c7 bd aa 8d 91 3e 04 5f 9e 3e b2 d0 83 3e
       -0.09764191 0.28428394 0.30931866 0.2574516
000190 b3 0f d2 be be 97 fc 3c c7 0f d9 bd 7e 97 5f bd
       -0.41027603 0.030834075 -0.105987124 -0.054587834
0001a0 e5 d6 b5 3d fc da 16 3e 44 2e eb be e7 aa e6 bc
       0.088788785 0.14731973 -0.45933735 -0.028157664
0001b0 4e c9 ae bd 63 ab 64 be d0 9c b2 be 09 fa 08 3f
       -0.085344896 -0.22331004 -0.34885263 0.53506523
0001c0 fb a6 31 3e 65 3a a5 3d 8f 3e c5 bd 55 33 84 be
       0.17348854 0.080677785 -0.09631073 -0.25820413
0001d0 d4 4b b5 be a8 ed 83 3e b7 02 ec bb 69 86 3c 3e
       -0.35409415 0.25767255 -0.007202472 0.18410648
0001e0 f3 14 ad bd 47 ec 3f be c3 0f 9a be ca 5f 07 3f
       -0.08451261 -0.18742476 -0.3009015 0.5288054
0001f0 dd 8f 32 3e 97 16 6f be 6b c4 ab bc 06 31 de bd
       0.17437692 -0.23348461 -0.020967683 -0.10849194

net.2.weight f4 [128, 128]
000000 36 e6 10 bf ba 74 19 3e 92 d2 c8 3d ff b4 a1 3f
       -0.56601274 0.14985934 0.09805788 1.2633361
000010 ec ba ab 3e ba 26 37 bf 1c dc ee bd 60 25 5a be
       0.33541048 -0.7154347 -0.11663076 -0.2130332
000020 02 fd 80 3e 00 9c 9e bd e4 07 93 bd 16 76 92 bd
       0.2519303 -0.077445984 -0.071792394 -0.07151429
000030 a1 55 b2 be 66 7b 7a be 96 1e 28 3c 89 c7 dd 3e
       -0.34830955 -0.24461135 0.0102611985 0.43316296
000040 f5 5a bf 3c f5 a1 8c bd bd a2 dd 3d 97 42 b6 3e
       0.023358801 -0.06866828 0.108220555 0.3559768
000050 67 e3 2d 3e ea 36 e9 be c7 4a 2a be 4e f0 4e bf
       0.16981278 -0.4554971 -0.16630088 -0.80835426
000060 26 f0 91 3e 80 c2 cb bd 35 b9 d7 be 3f 3c a8 3e
       0.2850353 -0.09949207 -0.4213349 0.32858464
000070 63 2b 18 be 05 4a b0 be 72 54 9a 3d ed f5 2b bd
       -0.148603 -0.34431472 0.07535638 -0.04198258
000080 e4 75 c3 3d 3b 04 e0 3c f2 80 d4 3e 85 a0 11 bd
       0.0954397 0.027345767 0.41504627 -0.035553474
000090 dd 6b 1c 3c 25 a8 89 3d e1 6e 18 be 1a c1 12 be
       0.009547201 0.06721524 -0.14886047 -0.14331475
0000a0 28 2a d5 3e 61 3b 10 be 3e a1 58 be 22 d2 14 3f
       0.41633725 -0.14085151 -0.21155259 0.5813314
0000b0 1e ee a1 be 83 2d 1d 3d 0e 89 c6 3e fa fd 54 3e
       -0.31626981 0.03837348 0.3877644 0.2080001
0000c0 91 00 29 3e 53 26 eb 3c 02 a4 57 be 1f cc 8b be
       0.16504122 0.028704798 -0.21058658 -0.2730417
0000d0 62 7e 82 3d 4b d3 3c be 3f 6e 42 3b b4 87 00 3f
       0.06371762 -0.18439977 0.0029667763 0.50207067
0000e0 d0 d7 20 be 4f 5f 6b 3e e0 45 a2 bd 28 1c a5 be
       -0.15707326 0.22985576 -0.07923484 -0.32248044
0000f0 ef d4 77 3e 00 0e 4e be 31 99 82 3e 42 0c 2d be
       0.24202321 -0.20122528 0.255075 -0.16899207
000100 ba c9 36 3e ad 03 8e 3e c1 bd 56 3e 02 39 e8 bd
       0.1785039 0.2773718 0.20970823 -0.113389984
000110 06 12 28 be be 68 2d 3d d0 39 ac bd da 72 07 3f
       -0.16413125 0.042336218 -0.08409464 0.52909625
000120 19 52 a0 be 75 5e 6b bf 97 d2 97 3d 80 35 91 bd
       -0.31312636 -0.91941005 0.07413214 -0.070902824
000130 34 ac b0 3d aa c1 a4 3e 33 b3 96 3e d2 e9 b7 3d
       0.08626595 0.32179004 0.29433593 0.089801446
000140 5b 97 4d 3d ac 8c 85 bd 21 1e e3 3d d5 5b cb 3c
       0.050193172 -0.06520972 0.11089731 0.024824062
000150 3c 9a 98 3e 49 17 1f bc 7e 54 a4 bc 35 2b 97 3e
       0.2980517 -0.009710141 -0.02005982 0.29525152
000160 f0 01 71 3e 06 ed a3 3e a0 bc 46 be e8 90 87 be
       0.23535895 0.32016772 -0.19407892 -0.26477742
000170 56 f0 34 3e 2a 14 6e be b8 04 08 3f 17 c0 df 3c
       0.17669806 -0.2324988 0.531322 0.027313275
000180 d3 ee 28 3e 2a 20 0a bf 14 b1 6a 3e 87 38 e4 bd
       0.16497354 -0.5395533 0.22919112 -0.11143594
000190 ff de 3f 3e 95 64 f1 3d 0a 02 8e bb 97 f7 fc be
       0.1873741 0.117867626 -0.004333739 -0.49407646
0001a0 c9 59 80 3e be 39 32 bf c3 b6 c8 bc d3 c1 b3 be
       0.250685 -0.6961936 -0.02450121 -0.35108814
0001b0 dc 7e cd 3c 49 95 f6 3c e4 1e a4 be 0b 07 9f bd
       0.025084905 0.030100482 -0.32054818 -0.07765015
0001c0 be c2 42 bb 47 47 92 bd 73 b9 e9 3d 32 9e 13 bf
       -0.0029718126 -0.07142501 0.11412325 -0.5766326
0001d0 5d 46 9c 3e 8f 1f 6e be 3d 8a 6d bd 46 ee 9b 3e
       0.30522433 -0.23254226 -0.057993162 0.30455226
0001e0 cd 10 6e bd 63 a4 1b 3e 6d 86 b1 3e 9f 29 ef 3c
       -0.05812149 0.15199427 0.3467287 0.029194651
0001f0 0c 72 8b 3d 3a c4 3e bf 4c 6b 22 bf 84 4e 23 3e
       0.06808862 -0.7451817 -0.6344497 0.1594792
000200 5a 7f 76 bd 42 6b 5e be 65 65 e9 3e 9d dc 08 3e
       -0.060180046 -0.21720603 0.4558517 0.13365407
000210 56 54 a6 be 55 44 c0 3d d9 dc ea be 33 b5 9c bd
       -0.32486218 0.09388033 -0.45871618 -0.076517485
000220 6c 8e 86 be de 45 0f bc 65 6e db 3e 8c 6c db be
       -0.26280534 -0.008744685 0.42857662 -0.42856252
000230 7a b1 76 3e e6 08 1e bd f7 30 c5 3d d2 f7 83 3f
       0.2409114 -0.038582705 0.0962848 1.0310004
000240 c7 02 12 bf 6b 0f 67 bd 36 df c1 3e 9a 71 c2 bc
       -0.5703549 -0.056411188 0.3786561 -0.02373581
000250 1e ab d4 3f f3 ee a2 be f1 ca 96 be d5 65 c9 be
       1.6614721 -0.3182293 -0.29451707 -0.39335504
000260 0e 1d ad bd 75 64 14 be a2 e1 02 3c a8 bd 5d 3e
       -0.08452807 -0.14491446 0.007988365 0.2165438
000270 3d e2 3d 3d a7 42 b6 be 76 30 59 be 0a 73 44 3e
       0.046358336 -0.35597727 -0.21209893 0.19184509
000280 cf 5e 11 be cb 99 1d be bd a1 04 be 1d e7 7e 3f
       -0.14196323 -0.15390699 -0.12952323 0.995714
000290 2f 96 a1 bd bd 87 2f bf 65 98 e1 3c 00 8f 92 3d
       -0.07889973 -0.68566495 0.027538488 0.07156181
0002a0 a2 37 8b bd fa b1 83 be 54 2d d1 be cd 06 32 be
       -0.067977205 -0.25721723 -0.40854895 -0.17385407
0002b0 9b d4 d3 3e c0 8e bc 3e 95 c7 90 be 7d d9 75 3f
       0.41373143 0.3682766 -0.2827727 0.96034986
0002c0 9b cd ee 3e 89 03 36 be a6 f0 36 3e c1 f6 b1 be
       0.4664124 -0.17774786 0.17865238 -0.3475857
0002d0 06 07 ef 3d a3 20 3c 3e 76 a8 61 be 4c 59 19 be
       0.116712615 0.18371825 -0.22036919 -0.1497547
0002e0 fb 17 9e 3d f1 df c0 3d e3 ef 8a bf e3 31 81 be
       0.07719418 0.094177134 -1.0854458 -0.25233373
0002f0 2a 32 67 be 66 40 fe bd b6 29 73 bd 13 9c 79 3e
       -0.2257773 -0.12414627 -0.05936595 0.24375944
000300 60 76 ca be 14 bf 00 3f 38 ee 29 3d 43 5d 87 3e
       -0.39543438 0.5029156 0.04148695 0.2643834
000310 a4 ac 0e be ce 1f fa bd 34 ce 46 3f 61 fd e0 be
       -0.13933045 -0.122130975 0.7765839 -0.43943313
000320 52 22 b9 3e 9b 82 71 3e 2f cc fd be 9f ef 08 bf
       0.36158997 0.23584978 -0.49569842 -0.5349063
000330 1f c3 ef 3e e2 df d9 bd 97 f8 83 3e ad 65 82 3d
       0.46828553 -0.106384054 0.25775596 0.06367049
000340 b0 cd 4c bd 88 24 bd 3d 2a 6e 8d 3e 0c 4b c2 bd
       -0.050000846 0.092354834 0.2762311 -0.0948697
000350 42 31 8c bd 94 1f b2 3e 9b 7a a8 3e 22 e4 fe 3e
       -0.06845333 0.34789717 0.3290604 0.49783427
000360 ba ff 0f 3f 7b 07 3d be de 79 d0 bd ee 6f f3 bd
       0.5624958 -0.18459885 -0.10179494 -0.11886583
000370 7e 02 d9 3f f6 10 4f be 4f 23 dc 3e b9 61 f5 3d
       1.6953886 -0.20221314 0.42995688 0.1198153
000380 48 5b 9d 3d 9f 9f 31 3e cb c6 f8 3d 56 90 d3 bd
       0.07683426 0.17346047 0.12147292 -0.10330264
000390 4a e1 50 be de 5c a0 be 84 69 09 bf c9 d8 35 3e
       -0.20398441 -0.31320852 -0.5367663 0.17758478
0003a0 8d 70 14 3f 14 ad 57 3d ea 67 33 3e 1d d9 3d 3e
       0.5798424 0.052655295 0.17520109 0.18539853
0003b0 cb fc 60 be a7 a4 b3 bd 9a ed d5 be de 1d c8 3e
       -0.21971433 -0.08771639 -0.41782838 0.39085287
0003c0 81 5f 5c 3e 52 c6 11 3f 06 7c 58 3d 39 b7 0d be
       0.21520807 0.5694324 0.052852653 -0.13839425
0003d0 97 ff 0b bf 7e 67 ef 3d 2e f6 e5 bb 51 48 a7 3e
       -0.54686874 0.116896614 -0.0070178723 0.3267236
0003e0 5a 20 b7 be 55 bc 8f bd 77 5c d0 be ca 2f 81 3f
       -0.3576687 -0.07018343 -0.40695545 1.0092709
0003f0 f9 d3 c8 3e d2 be 44 be eb af 31 3e b8 4b ff 3e
       0.39224222 -0.19213417 0.17352264 0.49862456

net.2.bias f4 [128]
000000 fb 54 0f be b6 53 9f 3e ab c5 40 3c a3 82 c0 3d
       -0.13997261 0.31118554 0.011765878 0.09399917
000010 23 0e ae 3c 84 0c 5e be ff 7c a6 bd 25 68 07 3e
       0.021246975 -0.21684462 -0.0812931 0.13223322
000020 ad 36 aa bc 55 67 b8 bd be 4d 89 3e 46 ef 8c 3e
       -0.020778025 -0.09004084 0.26817125 0.275263
000030 63 b5 4d be f0 82 a4 3d 29 b1 3f bd 8a 3e e4 bd
       -0.20088725 0.08032787 -0.046799812 -0.11144741
000040 35 d4 ec 3d e9 8c 49 3d 7b f7 30 3d ed 35 4f 3c
       0.11563913 0.049206648 0.043204766 0.012647134
000050 74 bd a5 be 68 19 61 3d d6 5e 78 3e 92 24 b2 be
       -0.32371104 0.05495587 0.24254927 -0.34793526
000060 6e 7c 89 be 50 f0 00 bd 0d 1d 0a be 86 ab 83 3d
       -0.26852745 -0.03147918 -0.13487644 0.064292
000070 ed c3 60 3e 85 ce 11 3d 9d fc 6a 3e 40 e3 8e 3d
       0.2194974 0.035597343 0.22947927 0.06976938
000080 71 71 19 bc 95 9e d6 3e 19 15 58 be f6 2b 08 bd
       -0.009365425 0.41917863 -0.21101798 -0.03324505
000090 d5 db 93 3d 54 6e 02 bd 9e 82 82 ba 6e 43 99 be
       0.07219664 -0.0318435 -0.000995714 -0.29934257
0000a0 42 be 3c be f8 71 7a bb 82 5b 8a bb 1d d6 be be
       -0.18431953 -0.0038214903 -0.0042223344 -0.3727273
0000b0 d5 53 3a be ad 83 fa bd 33 68 01 3e 5a 90 c8 bc
       -0.18196042 -0.122321464 0.12637405 -0.024482895
0000c0 06 b0 bf 3e 4c b8 59 be 05 60 90 3e e4 fb f4 3d
       0.37438983 -0.2126171 0.28198257 0.11962107
0000d0 e4 07 54 3d 3a 2e 88 3e 70 37 31 be d6 97 8d bd
       0.051765338 0.26597768 -0.17306304 -0.06913726
0000e0 9c 2b 22 bd 09 51 78 be e0 d6 21 be 99 56 a4 be
       -0.03959237 -0.24249662 -0.15804625 -0.3209732
0000f0 d1 10 83 be 30 5a a1 be 55 56 f4 bc 3c 4e ef 3d
       -0.25598767 -0.3151412 -0.029826323 0.11684844
000100 5d bf 3b 3e 15 bb 83 be a6 ce 96 be 50 98 10 be
       0.18334718 -0.2572867 -0.29454535 -0.14120603
000110 6d da 9f 3e 67 94 81 3e 23 41 dc 3e aa 57 e5 3d
       0.31221333 0.25308535 0.43018445 0.11198361
000120 82 a1 f4 bc 61 41 14 be 9a 2a 75 bd ac 38 9f 3e
       -0.02986217 -0.14478065 -0.05985508 0.31097925
000130 d3 6f 5c be de f0 c3 3e ef c7 a8 3e 24 5b f2 3c
       -0.21527033 0.38269705 0.32965037 0.029584475
000140 c1 9d 97 3c 13 fa da bd 41 98 8a bd bd 22 26 bd
       0.01850784 -0.10692229 -0.067673214 -0.040560473
000150 32 32 37 3e af e4 a4 3d 0e 5c 0f 3e fb 8a 37 3e
       0.17890242 0.080514304 0.1399996 0.1792411
000160 ff bb 78 3e 07 0d a2 3e 30 27 a0 be b7 60 85 3e
       0.24290465 0.31650564 -0.31279898 0.2605035
000170 01 09 67 3d 98 89 2b be 98 3d 67 3e 81 a8 15 3e
       0.05640507 -0.16751707 0.2258209 0.1461506
000180 43 6b c5 3e 81 90 8c be 9e f8 96 bd 05 56 27 bd
       0.38558397 -0.27453998 -0.07371639 -0.04085352
000190 43 fa 20 3e 45 02 a1 bd 93 ae 35 3e 21 c5 4d 3d
       0.15720467 -0.07861761 0.17742376 0.050236825
0001a0 bf ab 96 3e 97 27 d8 bb 80 9c 2c 3e 2b a0 f7 3d
       0.29427907 -0.0065965164 0.16856575 0.120910965
0001b0 98 b9 ec 3d f0 27 1e 3e 3e a0 35 3d 37 2c 6f bb
       0.11558837 0.15444922 0.044342272 -0.003649486
0001c0 9d a5 41 bc fe d5 cb 3d fb b2 cb 3d 32 ab b2 bd
       -0.01181927 0.09952925 0.09946247 -0.08724059
0001d0 fd 25 47 3d 5b c5 e1 3d ef 4c 91 3e fd 99 5a 3e
       0.048620213 0.11023971 0.28379008 0.21347804
0001e0 3e 26 b4 bd ed 3b b0 bd dd 9d d3 3d 31 16 89 be
       -0.087963566 -0.0860518 0.103328444 -0.26774743
0001f0 28 25 9b bd 21 e9 02 3c fd d8 71 3c b7 c0 15 3e
       -0.07575446 0.007990153 0.014761207 0.14624296

net.4.weight f4 [128, 128]
000000 3d d5 e3 be 3f 33 78 bf 19 84 83 3d 41 cc fd be
       -0.44498625 -0.96953195 0.0642168 -0.49569896
000010 34 a3 e8 3c e5 1b c3 be 2e 65 16 bc 78 4b 18 3f
       0.028398134 -0.3810722 -0.009179397 0.59490156
000020 52 5e 65 3e 0a ef 85 be 2a 12 76 be 0e 4a 1e 3e
       0.22399262 -0.26158935 -0.24030367 0.15457937
000030 49 f4 ce 3e 81 8a c8 3e 9c eb 63 3e 7e b6 c1 be
       0.4042075 0.3916817 0.22257847 -0.37834543
000040 b7 55 78 be 5e 41 d4 bd 1c e7 3d 3e 8d 93 ae 3e
       -0.24251448 -0.1036403 0.18545192 0.34096947
000050 f0 db 91 be e3 9f c0 bd 84 3d 1e 3f 10 48 da 3e
       -0.28488111 -0.09405496 0.61812615 0.42633104
000060 60 70 b4 3e 90 0b 5f be 84 27 b2 be 14 7d c3 3e
       0.35241985 -0.21781754 -0.34795773 0.38181365
000070 44 a5 4c 3f 3e 0b 82 3f 5f 89 86 be c1 1c ce 3e
       0.79939675 1.0159681 -0.2627668 0.40256312
000080 a2 9c c4 3e 52 94 2a 3e 7f bb a3 3c d6 55 6a 3e
       0.3840075 0.16658142 0.019986866 0.22884306
000090 49 73 26 bf 4b a9 3d be d5 1f 78 3e 67 4d 3c 3d
       -0.6501966 -0.18521611 0.24230893 0.045972254
0000a0 8a dd 93 be 1f 4a 02 bc 47 63 5e bd bb 7a a6 3d
       -0.28879958 -0.007952242 -0.054293897 0.08128878
0000b0 ad 86 c4 be 18 b5 17 bf 42 05 a5 3e 0d ab 1c bf
       -0.38384 -0.592607 0.32230574 -0.611985
0000c0 35 f0 51 3f 64 d8 11 be 75 3f d7 3d 36 78 9b 3d
       0.8200715 -0.14242703 0.1051015 0.07591288
0000d0 2c 0a ce be 5a 3c 96 be 74 fa b5 be d6 4a 3f be
       -0.40242136 -0.2934292 -0.35542643 -0.18680891
0000e0 4b 98 1f 3f 3d d4 a3 be 27 24 8f be 8b 5a cd 3c
       0.62341756 -0.31997862 -0.2795727 0.025067588
0000f0 6d 75 23 3e ad 11 90 bc ac e5 ab bd d3 52 60 bc
       0.15962763 -0.017586553 -0.08393416 -0.013691622
000100 1f 72 0a bf 1c 11 f6 3e 9c df d3 3e b9 a5 1e 3e
       -0.54080385 0.48059928 0.41381538 0.15492906
000110 c8 05 98 bd b9 ce d9 3e 87 fb df 3d 1b 48 6d be
       -0.07422978 0.4254053 0.10936647 -0.23172037
000120 e8 79 74 3e a3 a1 24 3e 61 2d ff bc 7a a1 1f 3d
       0.23874629 0.16077285 -0.031149568 0.038972355
000130 2f 21 8a be bf c0 0b be 6e c4 39 3e 66 93 dc 3b
       -0.26978442 -0.13647746 0.18141338 0.0067314385
000140 17 73 74 be 8e 78 84 be 5a 21 be bc bb 51 c5 be
       -0.23872028 -0.25873226 -0.023209263 -0.38538918
000150 46 8a 0c be b1 7f 6a be 55 d3 b3 3d 7d c6 e9 3e
       -0.13724622 -0.22900273 0.08780543 0.45659247
000160 e0 76 b3 3c a2 a7 1d 3d 26 24 34 3e f3 9a de be
       0.02190727 0.038489945 0.17591915 -0.43477592
000170 5b 71 15 bd 43 34 6d bc 6d f7 ff 3d 44 24 87 bd
       -0.036485057 -0.014477792 0.124983646 -0.06598714
000180 f0 c8 75 3f f7 87 8b 3e 56 8a 53 3d 67 41 cf 3e
       0.9600973 0.2725217 0.0516456 0.40479586
000190 fb 98 f5 3d ac 3c b2 be 63 ec 1f 3f c9 53 ea 3e
       0.11992069 -0.34811914 0.6247007 0.45767048
0001a0 c0 e9 ad be a4 2c 59 be 58 41 c1 3e 65 db 23 3e
       -0.339674 -0.21208435 0.37745166 0.16001661
0001b0 fa 76 eb 3e e6 19 0c bd 85 ed de 3e a4 9a 1d be
       0.4598921 -0.034204386 0.43540588 -0.15391022
0001c0 55 c4 f3 3e 7e f0 58 be 64 27 9b 3d ad 0e 00 3e
       0.47610727 -0.2118549 0.075758725 0.12505598
0001d0 8d 60 bd be 4d 54 3f 3e f0 d7 1d 3d 2c 3a 02 bd
       -0.36987725 0.18684502 0.038536012 -0.03179376
0001e0 78 25 e0 bd 19 ae 3e be 05 ce 9d be 9c 29 1c bf
       -0.109446466 -0.186211 -0.30821243 -0.6100099
0001f0 3a cc 26 3f e5 cc 25 3f 2d ff 0f bf 4e 64 87 3e
       0.65155375 0.6476577 -0.5624874 0.26443714
000200 be 1a 98 3e 09 0c 39 3e 1f 1a 98 be d4 91 21 3e
       0.29707903 0.18070997 -0.2970743 0.15778285
000210 68 2b 29 3f 95 91 bc be 98 43 c2 3e 82 46 e6 3e
       0.6608186 -0.3682982 0.37942195 0.44975668
000220 67 47 e2 3d 4f 9b 94 bd 94 a7 4a bd 98 3e 86 3e
       0.11048775 -0.07256185 -0.04947622 0.2621963
000230 bc bc 2d 3e 96 61 9c 3e 8f 8b 32 3e 98 f2 00 3e
       0.16966528 0.30543202 0.1743605 0.12592542
000240 5f eb 73 3d c7 0b c9 3e 55 49 18 bf 56 80 2a 3f
       0.05955064 0.39266798 -0.59486896 0.66602075
000250 d2 c7 da be ff 0d 06 be 6c 36 5f bd 83 6f 11 3e
       -0.42730576 -0.13091277 -0.05449526 0.14202695
000260 91 f2 e7 3e 88 1d 35 be 50 78 c6 bd fe 21 69 3e
       0.4530225 -0.17687047 -0.096909165 0.22766873
000270 3f 47 d3 3e e1 7c ae 3e 09 c0 00 3f 86 05 24 3f
       0.41265294 0.3407965 0.5029302 0.6407093
000280 d9 c2 07 bf 59 69 e5 3e 0e 99 b6 3e 88 91 16 3f
       -0.5303169 0.44806936 0.35663646 0.58815813
000290 9c 22 be be b5 a0 02 bf e6 b4 19 be 80 18 e2 3e
       -0.3713578 -0.5102647 -0.15010414 0.44159317
0002a0 09 4f 0d be 3f 84 ce be 4c 6b c5 be af a1 de 3d
       -0.13799681 -0.4033527 -0.38558424 0.108706824
0002b0 65 00 64 bf 4d fe d2 be 5a c3 06 3e 56 de 9b be
       -0.890631 -0.4120964 0.13160458 -0.30443066
0002c0 25 16 b1 be 94 96 2d 3e 54 2e 35 3d ed 4b 7a be
       -0.34587207 0.16951972 0.044233635 -0.24443026
0002d0 e7 f3 ae be 41 41 d8 be d6 bd db 3c d4 7d b0 be
       -0.34170458 -0.42237285 0.02682392 -0.34471
0002e0 45 5b 1e 3e 93 ca 28 3e b1 ff b1 3e 34 18 20 3f
       0.15464504 0.16483526 0.3476539 0.6253693
0002f0 eb 2b ea 3e a2 96 19 bf 4b 36 83 be 47 06 dd 3d
       0.45736632 -0.5999547 -0.2562736 0.10792213
000300 43 04 2a 3e aa 66 a8 3e f8 bb 2d 3e 1c 57 5b be
       0.16603188 0.32890826 0.16966236 -0.21419948
000310 fc 39 3d 3e ef b7 7a 3e 5d c3 32 3e 91 e5 8c be
       0.1847915 0.24484228 0.17457338 -0.27518895
000320 da f2 e5 3c 60 ad e8 be c8 8e 3f bc e9 4b 45 3e
       0.028069902 -0.45444775 -0.011691757 0.19267239
000330 7c 44 32 be 5d 79 14 3d c5 a9 78 3e b2 a5 b5 be
       -0.17408937 0.036248554 0.24283512 -0.35477978
000340 b5 13 4c bf 01 6c 61 bd 40 e6 32 be 48 7e a9 3e
       -0.7971757 -0.05503464 -0.17470646 0.33104157
000350 02 e4 1f be a3 07 f0 be c3 42 75 3d 63 a4 68 3e
       -0.15614322 -0.46880826 0.059878122 0.22718959
000360 92 79 1e ba 74 76 f9 be af ad de 3d b7 ff fa be
       -0.0006045337 -0.48723185 0.10872971 -0.4902322
000370 a6 79 d7 bd dd 11 73 3e e2 e3 ec be 2d ad f8 3c
       -0.105212495 0.23737283 -0.4626761 0.030356014
000380 4e 5d 05 3f 43 03 03 3d 68 0f 73 3e d7 dd f0 be
       0.52095497 0.031985532 0.23736346 -0.4704425
000390 e3 d1 2a bd da 78 c1 be 31 cb 74 3e ba 71 0e 3e
       -0.04170407 -0.37787515 0.23905636 0.1391057
0003a0 df f2 b7 be de f0 61 bc cc a7 11 bd 37 c7 e2 bd
       -0.35927483 -0.013790337 -0.035560414 -0.110731535
0003b0 93 35 30 be 9a a4 95 3c fa 74 09 3d f6 4a 08 3a
       -0.17207937 0.018266965 0.033558823 0.00051991583
0003c0 90 9b 1c 3f 6e f7 63 3e 2e 51 1c 3d e7 6e 59 3e
       0.6117487 0.22262356 0.038163356 0.21233712
0003d0 b9 c5 e8 bd 8a 75 29 3d 6c 52 f9 be 59 e6 b4 3e
       -0.113658376 0.04137186 -0.48695695 0.3533199
0003e0 5b 16 cd be c9 7f e3 bc d5 b2 04 bf 9b 43 99 be
       -0.40056118 -0.027770894 -0.51835376 -0.2993439
0003f0 d1 62 50 3d 0f 4f 45 3f 8d b8 7a 3d 11 c9 ba 3e
       0.05087549 0.7707376 0.061211158 0.36481526

net.4.bias f4 [128]
000000 f8 bf 82 be 2d ad 09 3f 77 78 c1 3d 9e 97 99 3e
       -0.25537086 0.5377987 0.09446805 0.29998487
000010 8b 82 aa 3e 92 18 5b 3d 40 14 1e be 60 01 9b 39
       0.3330272 0.05349023 -0.15437412 0.00029564928
000020 fd d1 8f 3d c8 8e 10 bf d4 85 75 3d 39 9d 3a 3e
       0.07022474 -0.56467867 0.05994208 0.18224038
000030 f2 f8 fc 3d 2e c3 a5 be cd 8f 84 be a0 53 9e 3d
       0.1235217 -0.32375473 -0.2589096 0.07730794
000040 93 13 65 bd 82 4d 71 3e 59 6e cb 3e d1 59 05 bf
       -0.05592687 0.23564723 0.39732626 -0.52090174
000050 ad 7d f2 bd 8a 6a c0 be ac b4 93 bd 92 2b 8b be
       -0.11840377 -0.37581283 -0.07212195 -0.2718168
000060 92 50 57 3e 69 a4 9b bd 53 1b 01 bf b3 33 48 3e
       0.21026829 -0.07599718 -0.5043232 0.19550972
000070 19 a9 51 3e 84 83 9d 3e 62 02 04 3d c8 51 c4 3a
       0.20474662 0.307644 0.032228835 0.0014977986
000080 8f 76 8d 3e f1 2f 5a be 96 29 d6 bd f5 c7 28 3c
       0.27629516 -0.2130735 -0.10457151 0.01030158
000090 25 bc 8f be d1 38 ef be 45 ad 96 bd db ee 39 be
       -0.2807323 -0.46723035 -0.07357267 -0.18157522
0000a0 c9 8d b5 bd 44 64 de 3e 82 18 d5 be 95 f8 6e 3e
       -0.08864934 0.43435872 -0.4162026 0.23337014
0000b0 cf 02 a8 3e 36 1c 23 3e 79 3d 76 bd e5 f4 40 be
       0.32814643 0.1592873 -0.06011722 -0.1884342
0000c0 d1 f1 29 3b 6d 42 56 3e 1e a5 28 bc ab c3 81 bd
       0.0025931487 0.20923777 -0.010293273 -0.06336149
0000d0 1d 88 42 bf ee db 2c be 67 c7 b7 bd a6 8e 0e bf
       -0.7598894 -0.16880772 -0.0897358 -0.55686414
0000e0 9b 99 3b bd ed ec 58 bd d6 7b 68 3e e1 0d 07 be
       -0.045800786 -0.052960325 0.2270349 -0.13188888
0000f0 09 9d f3 be 4b 5d f9 bd a9 2d 69 3d 95 0a 22 be
       -0.47580746 -0.12175997 0.05692831 -0.15824349
000100 06 9a bd bb 62 33 b6 3e fb 80 63 bd 80 e7 20 3e
       -0.0057861833 0.35586077 -0.055542927 0.1571331
000110 91 c7 ae 3e eb 18 e3 bd ad 9e ad 3d 86 b7 03 bd
       0.34136632 -0.11088737 0.08477531 -0.032157443
000120 71 4e b5 bd 1d cd 14 3e 16 13 6c bd e8 54 00 be
       -0.08852852 0.1453137 -0.05763539 -0.12532389
000130 8c bd 44 be 31 4d 3a 3e 14 e5 db 3b f7 db 5e 3e
       -0.19212931 0.18193509 0.006710658 0.21763597
000140 5f 88 1b 3e 16 cd 8b be d7 a0 8c bd 80 0d 6d be
       0.1518874 -0.27304906 -0.06866615 -0.23149681
000150 fb 7f af 3e 80 9c 30 3d f1 c0 82 3c d7 a5 83 be
       0.3427733 0.043118 0.015961142 -0.25712463
000160 be 29 16 3c 49 8d a7 3e 69 43 58 3e d5 52 e1 3d
       0.009165226 0.3272498 0.21119465 0.11002127
000170 16 04 ad bd 08 61 e9 3e ba c2 84 be 45 67 73 3e
       -0.08448045 0.4558184 -0.25929815 0.23769863
000180 e2 5f 9f 3c 30 73 11 be 9b ad 41 3e 92 28 71 bd
       0.0194549 -0.14204097 0.18913881 -0.05887658
000190 64 87 dc be 69 7c 23 bd a2 97 1f be b3 2c 2d 3d
       -0.43072045 -0.03991357 -0.15585187 0.042278957
0001a0 a6 91 13 be cf 81 52 3d 23 5e 91 bc 0c d2 ba 3c
       -0.14411029 0.051393326 -0.017745083 0.022805236
0001b0 ec 72 81 bd eb 29 e0 3d 21 e5 cf be 83 42 5a bd
       -0.06320748 0.10945495 -0.406045 -0.053286087
0001c0 57 b1 c7 3e e1 78 02 be 1f d8 90 3e 00 e1 20 be
       0.39002487 -0.12741424 0.28289887 -0.1571083
0001d0 c4 38 68 be 01 9d ea bc 68 13 02 bd b2 29 b9 bc
       -0.22677904 -0.028639318 -0.03175679 -0.02260289
0001e0 86 53 a0 3b 94 4b 51 be 3b fb 5d be 45 ae 8d be
       0.0048927693 -0.20438987 -0.21677868 -0.2767202
0001f0 16 50 95 be 5c 1d 27 3b 40 e6 31 3e b9 b1 d9 3d
       -0.29162663 0.0025499677 0.1737299 0.10629601

net.6.weight f4 [225, 128]
000000 4b 48 92 3f 07 df 79 3f b4 47 7d 3f 72 40 19 3f
       1.1428312 0.9760594 0.98937535 0.5986396
000010 d6 79 22 3f c3 be 0a 3f a6 6f 82 3f 2f f4 be 3f
       0.63467157 0.5419733 1.0190322 1.4918269
000020 fb 7f cb 3f a2 5d 92 3f 14 c6 c5 3f db f9 82 3f
       1.5898432 1.1434824 1.5451074 1.02325
000030 73 df ec bf cf 4c a4 3f 06 6a a8 bf 24 c9 ae bf
       -1.8505691 1.283594 -1.3157356 -1.3655133
000040 8e d0 ee 3e 63 04 86 bf a1 f4 83 3e fb de 06 bf
       0.4664349 -1.0470089 0.25772575 -0.5268399
000050 21 54 52 bf b5 cb 76 bf fe 51 c0 bf 11 ea 1d bf
       -0.8215962 -0.9640458 -1.5025022 -0.6168528
000060 fb 08 e2 bf 41 86 ce 3f c8 f8 d0 3f 38 1c 04 3f
       -1.7658991 1.6134721 1.6325922 0.5160556
000070 4b c1 c2 bf ff 8a f5 3e 04 c1 ab bf ae d1 ef 3e
       -1.5215238 0.47957608 -1.3418279 0.4683966
000080 c1 07 cf 3f 00 d2 8f 3f 95 31 cd bf 66 32 9a 3e
       1.6174241 1.1235962 -1.6030756 0.30116576
000090 ac 3c 4b bf d0 d6 fd 3f b0 22 6b bf c4 a1 8c 3f
       -0.7938945 1.983118 -0.91849804 1.0986867
0000a0 40 01 b7 3f 56 f3 bd bf 92 4d 80 3f d5 1a e0 3e
       1.4297256 -1.4839885 1.0023673 0.4377047
0000b0 d3 cb a4 bf a3 59 90 3f c8 0d ad 3f 23 e1 5c bf
       -1.2874702 1.1277355 1.3519831 -0.8628103
0000c0 12 2d a7 be 5c c9 3e 3f 1b 12 8d bf 52 84 2b 3f
       -0.32651573 0.74526 -1.102115 0.6699878
0000d0 d9 e0 6d 3f 18 0d 8a 3f 3e 92 2a 3f e9 0b 29 bf
       0.92921215 1.0785246 0.666294 -0.660338
0000e0 5d 46 dd 3f 2f 70 86 3f bd 56 bc bf af 2f ab 3f
       1.7287098 1.0502986 -1.471397 1.3373927
0000f0 6b 3b 4b 3f 3d 9b 75 bf b5 37 9f bf e3 83 be 3f
       0.7938754 -0.9594 -1.2438875 1.4883999
000100 f0 3b 74 3f 23 a3 85 3f a7 ec 2d 3f 66 db 7f bf
       0.9540396 1.044041 0.6793923 -0.9994415
000110 aa 5b e9 bf f6 4e b6 3f 99 53 ad 3d c5 c1 d8 bf
       -1.8231099 1.4242847 0.084632106 -1.6934134
000120 29 66 9a 3f c0 2c b3 3f 28 bf 66 3f 09 e9 34 bf
       1.2062427 1.3998032 0.9013543 -0.70668083
000130 a6 17 d4 be 69 78 78 3f 65 da bb 3f d3 1e 4b bf
       -0.41424292 0.9705873 1.4676024 -0.7934391
000140 52 26 74 3f 82 bb 03 bf 75 6f ab bf ef 39 84 3f
       0.9537097 -0.5145799 -1.3393389 1.033018
000150 b8 b4 5e 3f 64 ac 63 bf 59 1a 8f bf 3f 8a ed bd
       0.86994505 -0.8893492 -1.1179916 -0.11598634
000160 54 93 f9 be 5d a7 59 3f ee 37 26 3f 6b fe 91 3f
       -0.48745215 0.85021 0.6492909 1.1405767
000170 3c 1e 2c 3f 45 bd 9d bf 79 8d 26 bf 27 27 5f 3f
       0.67233634 -1.2323385 -0.6505962 0.87169117
000180 44 0c 90 3f d2 53 73 3f 9b 64 af be cc 7c d6 bf
       1.1253743 0.95049775 -0.34256443 -1.6756835
000190 ff 5d 8f 3f f3 88 5e 3f d9 bc 85 3f f6 30 ce bf
       1.120056 0.8692772 1.0448257 -1.6108692
0001a0 dd 40 84 bf d8 c9 87 3f b9 14 71 bf a7 87 29 bf
       -1.0332295 1.0608473 -0.94172245 -0.66222614
0001b0 4c 06 f5 bf db 8b 05 3f 48 34 21 bf 5e 63 8b 3f
       -1.9142547 0.5216653 -0.629704 1.08897
0001c0 36 0d bb bf 81 f4 6f 3f 98 ff 40 3f 0d 12 40 bf
       -1.4613407 0.9373246 0.75390005 -0.75027543
0001d0 bc 6d bb 3e 60 53 b6 bf 10 37 32 bf 15 9a d5 bf
       0.36607158 -1.4244194 -0.6961527 -1.6687647
0001e0 6b ab 99 3f 20 53 db 3f e6 62 bb 3f bd a0 96 3f
       1.2005438 1.7134743 1.4639556 1.1767803
0001f0 a6 4e ab bf de 05 81 bf 4f b0 af 3f de 84 26 3f
       -1.3383377 -1.0079916 1.372568 0.6504649
000200 58 ab 07 3f 45 71 3d 3f da 0c 93 3f ff 36 84 3f
       0.52995825 0.7400096 1.1488297 1.0329283
000210 c4 e0 8c 3e 81 f0 14 3f fa ff fd 3f e8 53 b7 3f
       0.27515233 0.5817948 1.9843743 1.4322481
000220 33 6a 99 3f 79 c5 ec 3f d2 61 b6 3f df 9a 91 3f
       1.1985534 1.8497764 1.4248602 1.1375388
000230 e0 3f ac bf 2b 27 a1 3f b2 eb 64 bf d0 b6 89 bf
       -1.3456993 1.2590078 -0.8942214 -1.0758915
000240 26 ce 32 3f a6 2b 86 bf 2e 01 cb 3e 87 0f 01 bf
       0.6984581 -1.048207 0.39649338 -0.5041432
000250 56 f2 8e bf b0 bb a5 bf 15 2c d3 bf 82 7e 6e bf
       -1.1167705 -1.2947903 -1.6497828 -0.93161786
000260 ce 71 61 bf 17 54 93 3f f5 26 dd 3f 38 8b 2c 3f
       -0.8806428 1.1510037 1.7277514 0.6739993
000270 5b ae 90 bf 6e 37 ad 3e 3c c6 d5 bf 7f 3f d0 3e
       -1.1303209 0.33831352 -1.6701121 0.40673444
000280 6e 16 a2 3f 03 7b 94 3f c2 b1 f5 be a5 85 06 3f
       1.2663095 1.160004 -0.4798718 0.52547675
000290 a2 2b 7b bf 7b 59 b7 3f 49 ce 43 be da a1 7f 3f
       -0.98113453 1.4324182 -0.1912166 0.9985634
0002a0 4b ca a9 3f ce 80 ab bf ce 68 8a 3f e4 19 4d 3f
       1.326486 -1.3398683 1.0813234 0.8011763
0002b0 dc 35 b7 bf 2f 24 c5 3e e6 66 a7 3f 9d 01 6a bf
       -1.4313312 0.38504168 1.3078277 -0.9140871
0002c0 a9 ef 53 bf d7 54 55 3f 99 45 b8 bf 44 dd 19 3f
       -0.8278757 0.8333258 -1.439624 0.6010325
0002d0 31 d1 f5 3f 3d 33 8f 3f 70 63 6f 3f 9a c6 23 bf
       1.9204465 1.1187512 0.93511105 -0.63974917
0002e0 5b dd cc 3f a8 d2 0e 3d bc db 9b bf 74 cf a3 3f
       1.6005052 0.034868866 -1.2176433 1.2797685
0002f0 c9 c6 47 3f ed eb 50 bf a9 db a0 bf 7a 12 a0 3f
       0.780377 -0.81609994 -1.2567035 1.2505639
000300 df 78 55 3f 73 f8 bf 3f 3c 70 07 3f 12 58 1e bf
       0.8338756 1.4997696 0.5290563 -0.61853135
000310 56 0a b7 bf da 6d 9b 3f 54 ae 53 bf 11 89 ce bf
       -1.4300029 1.2142899 -0.8268788 -1.6135579
000320 b5 90 92 3f ba a0 95 3f e4 0d 65 3f 38 90 f5 be
       1.1450411 1.1689675 0.8947432 -0.47961593
000330 87 55 28 bf 53 17 35 3f d4 2c 95 3f 64 f9 0b bf
       -0.65755504 0.70738715 1.1654305 -0.54677415
000340 0e ac 63 3f ea c4 7c be db 86 a0 bf d5 6a 8d 3f
       0.8893441 -0.24684492 -1.2541155 1.1048228
000350 8f 54 c9 3e c6 f6 99 bf f2 c4 bb bf 67 50 4b bf
       0.39322326 -1.2028434 -1.4669478 -0.7941956
000360 c8 77 23 bf 78 b7 f4 3e 55 e2 63 3f d9 90 e9 3f
       -0.63854647 0.47796226 0.8901723 1.8247329
000370 c2 7b 1b 3f 65 54 97 bf 87 47 37 bf c7 ee 87 3f
       0.60735714 -1.182263 -0.7159352 1.0619744
000380 bd 6e 5c 3f e4 7c eb 3f bc 55 18 bf 82 6a d8 bf
       0.86106473 1.8397489 -0.5950582 -1.6907504
000390 38 9b 6a 3f fe 6f ed 3e 41 06 af 3f 54 53 cb bf
       0.91643095 0.46374506 1.3673784 -1.5884805
0003a0 4c 44 8c bf 72 2d 1e 3f 01 62 4e bf 40 d8 cd bf
       -1.0958343 0.61788094 -0.8061829 -1.6081619
0003b0 80 ff fb bf b0 7a 8c 3f 71 b9 83 bf 89 2f c1 3f
       -1.9687347 1.0974941 -1.0290967 1.5092632
0003c0 bb e5 a1 bf 38 4f 4e 3f c9 cf 80 3f e9 94 22 bf
       -1.2648233 0.8058963 1.0063411 -0.6350847
0003d0 bc 8c 8f 3f 2a 2a d7 bf de dd 20 bf 31 87 bc bf
       1.1214824 -1.6809742 -0.6283854 -1.4728757
0003e0 fa 36 84 3f f6 ff c6 3f d2 c3 c9 3f f7 8a e2 3f
       1.0329278 1.5546863 1.5762885 1.7698659
0003f0 b9 a7 b5 bf f3 37 80 bf b0 a1 aa 3f fa 2e 59 3f
       -1.419181 -1.0017074 1.3330593 0.84837306

net.6.bias f4 [225]
000000 bf 8a 27 3e 63 9b 12 3f e3 8f fe 3e d0 cd 73 3e
       0.16361521 0.5726835 0.49719152 0.2380898
000010 bd 03 60 3f 5b 1d a2 3f 62 dc 92 3f a9 9a 8b 3f
       0.87505704 1.2665209 1.1473505 1.0906574
000020 c5 c8 a9 3e a2 5a 66 3f 63 c4 2b 3f 54 75 9b 3f
       0.33160987 0.89982045 0.6709654 1.2145181
000030 4f 67 73 3f 31 c3 97 3f 8b ac 10 3f 39 f3 80 3f
       0.9507951 1.1856443 0.5651328 1.0074226
000040 29 e1 6f 3f bb b4 04 3f 25 4a 81 3f ef e0 68 3f
       0.9370294 0.5183827 1.0100752 0.9096822
000050 fe b4 2f 3f 7b 17 e0 3e fd d7 cb 3e bb 3e 33 be
       0.6863555 0.43767914 0.39813223 -0.17504399
000060 69 32 f6 3e 7d 17 b7 3f 7d 3c 8c 3f b2 2b 88 3f
       0.48085335 1.4304043 1.095596 1.0638335
000070 34 71 32 3f eb 0f 54 3f 20 60 a3 3f f6 61 a4 be
       0.69703984 0.8283679 1.276371 -0.32105988
000080 23 de 99 3f 91 1e 5a 3f f8 0c 93 3f 82 c5 27 3f
       1.2020916 0.8520289 1.1488333 0.6553575
000090 07 82 85 3d a1 5e 5e 3f d3 36 80 3f 22 37 a4 3f
       0.065189414 0.8686314 1.0016731 1.2829325
0000a0 eb 20 ad 3f 2c a3 56 3f 35 34 69 3f a3 d9 92 3f
       1.3525671 0.8384273 0.91095287 1.1472667
0000b0 ab 19 c6 3e d6 b5 4e 3f 86 7c 81 3f 16 bf f0 3e
       0.38691458 0.8074621 1.0116127 0.47020787
0000c0 55 73 5f 3f 9c 8c 9d 3f 5a e9 cf 3f 38 b3 90 3f
       0.8728536 1.2308536 1.6243088 1.1304693
0000d0 c5 9d 47 3f bd 71 c3 3d be 83 e2 3e 47 ef a7 3e
       0.7797511 0.09543178 0.44241136 0.32799742
0000e0 b2 78 8f 3e cf 3c c4 3f 6b 23 89 3f 15 27 3a 3f
       0.2802177 1.5331057 1.0713934 0.72715884
0000f0 44 c1 93 3f 2b d1 82 3f 46 18 bf 3e 56 65 47 3f
       1.1543355 1.0220083 0.37323207 0.77889
000100 91 70 37 3f c0 6e a9 3f 83 26 3b 3f ba 0b c0 3f
       0.7165614 1.3236923 0.7310564 1.5003579
000110 2e 21 5a 3f f0 3c 1c 3f 1d 54 db 3e 8e df 93 3f
       0.8520688 0.61030483 0.4283761 1.1552598
000120 db 67 83 3f a0 40 28 3f a9 3c 01 3f 1c 2f 77 3f
       1.0266069 0.6572361 0.50483185 0.9655626
000130 e9 71 42 be 5f db ae 3f 48 79 6a 3f 4a dc 19 3f
       -0.18988766 1.3660697 0.9159131 0.6010176
000140 f0 2f ca 3f 20 21 9f 3f a7 d3 b7 3f 7d 86 01 3f
       1.5795879 1.2431984 1.4361466 0.5059584
000150 64 ce 1d 3f b1 8a d4 3d fd bc 80 3f 02 30 1c 3f
       0.6164305 0.10378016 1.0057675 0.61010754
000160 30 ee 90 3f ee 18 a9 3f b9 f2 22 3f 9e c0 93 3f
       1.1322689 1.3210733 0.63651615 1.1543157
000170 85 9c 7a 3f 7a 7e 42 3f a9 a1 11 3e 68 ba ab 3f
       0.9789508 0.7597424 0.14221825 1.3416262
000180 d9 ea 5e 3f 14 07 17 3f 02 dc 9c 3e b0 46 8f 3f
       0.870771 0.58995175 0.30636603 1.1193447
000190 aa 30 9d 3f 7c 38 9c 3f 33 1f 87 3f 05 a7 bb 3f
       1.2280476 1.2204738 1.0556396 1.4660345
0001a0 c3 0f 57 3f b1 db 21 3f 41 88 f4 3e 17 e6 5c 3f
       0.84008425 0.6322585 0.47760203 0.8628859
0001b0 e7 cb 4a 3e 0d b3 b5 3f cf ac 52 3f dd 40 5e be
       0.19804345 1.4195267 0.82294935 -0.21704431
0001c0 3e 43 73 3f 98 ab 54 3f cb e5 ca 3f cd 7e ad 3f
       0.9502448 0.8307433 1.5851377 1.3554322
0001d0 ab be b6 3f 91 d4 58 3f f6 be 8b 3f e7 b0 82 3f
       1.4276937 0.8469935 1.0917652 1.0210236
0001e0 3b d7 fd 3d 22 fe c5 3f 85 96 ba 3f 21 23 12 3e
       0.123945676 1.546818 1.4577185 0.14271213
0001f0 59 0b af 3f 10 f1 66 3f c1 59 36 3f 0b 68 35 3f
       1.3675338 0.9021158 0.71230704 0.7086188
000200 85 25 e3 3d 00 41 6d 3e c6 ff 92 3f f1 80 5e 3f
       0.11091141 0.23169327 1.1484306 0.869155
000210 05 cb 86 3e c9 3e 0d 3f f3 68 6b 3f 92 bc 8d 3f
       0.26326767 0.5517393 0.91957015 1.1073172
000220 4e a3 9f 3e e2 8c 3e 3f 25 7d 63 3f af 39 6c 3f
       0.3117928 0.7443372 0.8886283 0.9227552
000230 1f b4 5f 3f fe 5c 22 3f 9b 9d d6 3e 32 6b c8 3e
       0.8738422 0.63423145 0.41917118 0.39144284
000240 96 0a 48 3f 14 d5 65 3f 5e a4 16 3f 3f 87 87 3f
       0.7814115 0.89778256 0.58844554 1.0588149
000250 16 dc 16 3f f8 ec 09 3f ed 40 06 3f 6a cd 6f 3f
       0.58929574 0.5387721 0.5244282 0.9367281
000260 b4 e6 64 3e aa ee 54 3f a6 c4 4e 3f 7d f5 77 3f
       0.22353631 0.8317667 0.8076881 0.9685896
000270 a0 4d 0f 3f a7 8f 4f 3f dd ec 5b 3f 86 b1 00 3f
       0.5597782 0.8107857 0.859083 0.5027088
000280 af 45 86 3f 62 09 6b 3f c6 9a 4b 3d 67 3a 9c 3f
       1.0490016 0.9181119 0.04970815 1.2205323
000290 89 77 57 3f ee f7 0e 3f c1 c1 5d 3e ba 1e 05 3f
       0.8416677 0.5584706 0.21655942 0.5200001
0002a0 dc 76 4a 3f 61 24 3d 3f 9d a0 87 3f fb 13 d9 3e
       0.79087615 0.73883635 1.059589 0.42398056
0002b0 b5 b8 89 bb ab 44 8d 3c f2 ba 77 3f 2b 53 f1 3e
       -0.004202927 0.017244658 0.9676963 0.47133765
0002c0 2d 51 0f 3f 3c ff 56 3f de d1 4d 3f 2a e4 66 3f
       0.5598324 0.83983207 0.80398357 0.901919
0002d0 b4 3a 2e 3f 72 77 6a 3f 77 52 78 3f 17 45 8d 3f
       0.68058324 0.9158851 0.9700083 1.103671
0002e0 82 b7 5a 3f b5 e6 9a 3f 21 6b 69 3f 8a 75 81 3f
       0.8543626 1.2101656 0.9117909 1.0113995
0002f0 17 ad fd 3e 18 43 1b 3f 93 1f 28 3f 78 b4 1d 3e
       0.4954612 0.6064925 0.6567318 0.15400875
000300 f5 48 55 3f 18 14 37 3f 1f e4 3d 3f 13 1f 5e 3f
       0.8331445 0.71515036 0.7417621 0.86766165
000310 72 9c 33 3f c5 3d 06 3f 97 09 1c 3f 83 a8 b8 3f
       0.7016059 0.52438 0.6095213 1.4426426
000320 62 d9 6c 3f c2 60 60 3f ed 72 81 3f 59 e5 37 3f
       0.925192 0.8764764 1.0113198 0.7183433
000330 17 ee 8a 3f 62 f3 cb 3d 8d 42 8f 3e 4d 4e 9f 3e
       1.0853909 0.09958531 0.27980462 0.31114426
000340 76 0a 6b 3f 4a 5d 36 3f 85 84 1e 3f ca 70 65 3f
       0.9181284 0.712361 0.6192096 0.8962523
000350 5d 9a d9 3e eb 50 41 3f 63 9a 52 3f b6 ee 6b 3f
       0.42500582 0.75514096 0.82266825 0.9216112
000360 53 9a 48 3f b2 be 30 3f 7f 16 36 3f a4 c0 19 3f
       0.7836048 0.6904098 0.71128076 0.6005957
000370 a2 46 59 3f bc a2 34 3f 35 61 26 3f e9 2e 6b 3f
       0.848734 0.7056081 0.64992076 0.91868454
000380 ef d3 05 3f
       0.5227651
