lunar_lander_continuous/models/DuelingDQN/quantization_225/model.pth (torch, 256071 bytes, 9 tensors)

fc.weight f4 [128, 8]
00000000: 3a3d 2b3f 082e 47be 3970 e1be ca6a 1c3f
00000010: 57dd 2c3f 6413 a5be b4be 83be c84c 40be
00000020: a635 6b3f e6cb bf3d 26c9 aabe 596d 5e3e
00000030: dadd af3f 444d 383c 7ae5 ecbd 84bc 8abe
00000040: 34af 773f 90b0 abbd 707f 123f a6ae 483f
00000050: df5b 6c3e 521e 3e3f 864d 163e 0d48 6f40
00000060: a792 68be 5fde 24be d8fc a5be 9138 6abc
00000070: 6971 f73e e3ee 383f f6df 243e fb81 13bf
00000080: d326 873f 852d 4e3d 097e 81bf 22dd 3dbe
00000090: 85e8 a63f 1484 0bbf 92b6 42bd 6254 aabe
000000a0: 447e 5bbe b05e 923e 5825 a1bd 1d0c 8c3f
000000b0: 7836 bf3e 1799 f03e 9e1b d4bf c721 7ebe
000000c0: ada9 f03e 5726 a4be 3945 323f 1ad2 d73e
000000d0: 283d eebe 2046 1ac0 5771 173f 08e0 283f
000000e0: 3529 1a3d 8ec1 d53e 4369 993e 54d7 e03e
000000f0: 6c26 0b3e 74c8 b3bf 36b0 76bf dd9c f9bf
00000100: 8946 733d 3d95 f2be 0dd8 813e 6bc6 09bf
00000110: 18be 86be 19b6 fbbe 0c48 113f b4f1 b33e
00000120: 6636 9f3e c617 52bd ccc5 85bd 957e e13e
00000130: 5284 78bd 7d06 fcbd 6840 b43e d4b9 4e3f
00000140: a811 51be 7d1a b43b 86af a1be d47f 37bd
00000150: 6039 383f efaa 473f 7804 8f3e e2fd 6abf
00000160: 2561 1c3f 5769 bfbc e28c 213e d8da fd3e
00000170: 759a 863e 3648 e73e 0ab2 96bf 67cf aabf
00000180: 236e 19bf be83 c83e 6637 173d f303 eebd
00000190: 6f18 bb3d 6ad3 c73e 8b45 d2bf 0654 273f
000001a0: 508f 37be a196 593b a54a 44bd aa11 0e3f
000001b0: 4e29 4fbd 7736 843f f14c 8e3f 992e 2fbf
000001c0: 0564 80be 0841 7fbd a5fc c4bd fb95 f73d
000001d0: f6de 883e 1e48 1c3f 48b7 873d 347e debd
000001e0: e759 883e c111 993e 2880 fb3c d1df 1ac0
000001f0: 84d9 acbe a0d2 24be f06e 18bf 61a8 31bf
00000200: a199 9ebf b087 4c3e e408 f63e 0849 24bf
00000210: 1e54 b0bf 68e5 63be f231 0f3e f599 e33e
00000220: e7ac d93d b7f8 5c3f 956e b2bd 9f30 f0bf
00000230: f8ab b73d 979b 743d d917 f1be caba 31bf
00000240: 83f1 c0be f8df a33e 136d 62bd d54c 16bf
00000250: e6ad 713e 144c 463e 9b75 b0bf bfd7 1bc0
00000260: 68dc a23e 184e cb3e f532 e13e 3a41 2f3f
00000270: aa0e 753e 4137 ca3e 64ce 39bf 9156 8fbf
00000280: a749 653f 0067 0ebe 862a 52bf 293d 0a3f
00000290: f4f6 383f cee7 99bf 91b1 b93d 7744 1f3f
000002a0: 940d 28be 5d1a bc3e 8ce9 38be 189a cfbf
000002b0: 03ce 403d 6f25 913d 567e 10bf a8e2 2fbe
000002c0: 8542 343e 1d8b ddbe 24e8 643e 1d1a 92bc
000002d0: 7c7a 4f3e f6fe 5c3b 6904 ff3f 7c17 163f
000002e0: 8838 063f cdd0 c23e 2fab 463e 176e c7bd
000002f0: 8afc 01bf 379f 27bf 105c 3d3e f1b7 053f
00000300: 6623 70be b5a3 eb3e 0c07 afbe 7c99 14c0
00000310: 8f18 6a3d 6b86 733a 5ce4 2dbf d407 eabe
00000320: 9f5f f63e 0937 413e 630f 433e c318 f6be
00000330: a672 cebd 81cb a03f dc5f 1640 3829 683f
00000340: cd4c 00bd 101c 0dbd 25c3 43bf 73ff 2fbf
00000350: 5e50 fa3e 6284 b73f d771 913f e89f 91bf
00000360: a57d 133d a6cf 19c0 19bb 90bd 051f 89bf
00000370: 1a4c 503e fc61 013f 973a 463e de60 473f
00000380: 9f5c e63e ff0b c9bc 2e2a b7be 4e28 b3bf
00000390: 0cc9 543f 876a 0abf 088d b7be bce6 8dbd
000003a0: e648 1e3f 21a4 f2be 5540 923e 17e2 47bf
000003b0: 62f9 9b3d 2595 653f da94 8c3e 15e4 4e3e
000003c0: 268a ca3c 6000 1cbd f88b f0be d2e2 a13d
000003d0: 33b3 583f ee33 653f 2970 a13f dbd4 f0be
000003e0: b905 0b3e f19c 08be 648b ca3d cfa1 543e
000003f0: 323c 00be 49df 223f 9ae9 2a3f 96cf b0bf
0.668903 -0.19451153 -0.44030932 0.6110045 0.6752524 -0.32241356 -0.25731432 -0.1877929
0.91878736 0.093650624 -0.3335659 0.217214 1.3739579 0.01124889 -0.11567207 -0.2709695
0.96751714 -0.08383286 0.57225704 0.7839149 0.23081921 0.74265015 0.1467801 3.7387726
-0.22712193 -0.16100453 -0.32419467 -0.014295713 0.48328713 0.7223951 0.1610106 -0.5762021
1.0558723 0.05033638 -1.0116588 -0.18541387 1.3039709 -0.5449841 -0.047537394 -0.33267504
-0.21434885 0.28587866 -0.07868451 1.0941197 0.37346244 0.46991798 -1.6570928 -0.24817573
0.47004452 -0.320605 0.69636875 0.42152482 -0.46531034 -2.41053 0.5915732 0.65966845
0.037636954 0.41749233 0.2996312 0.43914282 0.13588876 -1.4045548 -0.96362627 -1.9500996
0.05939344 -0.47379485 0.25360146 -0.53818387 -0.26316905 -0.49162367 0.5675056 0.35145342
0.3109619 -0.051292203 -0.065318674 0.44041887 -0.060673065 -0.12305925 0.35205388 0.807523
-0.20416892 0.0054963217 -0.31579226 -0.04479964 0.7196255 0.779952 0.27933097 -0.91793644
0.6108573 -0.02336566 0.15776399 0.49581027 0.26289716 0.4517228 -1.1773083 -1.3344544
-0.5993368 0.3916301 0.036918066 -0.11621847 0.0913552 0.39028484 -1.6427473 0.65362585
-0.17925763 0.0033201354 -0.04792275 0.55495703 -0.0505765 1.0329121 1.1117231 -0.6843048
-0.2507631 -0.062317878 -0.096185006 0.120891534 0.26732606 0.6104754 0.06626755 -0.10863915
0.2663109 0.29896358 0.030700758 -2.4199107 -0.337597 -0.16095972 -0.5954428 -0.6939755
-1.2390634 0.19973636 0.48053658 -0.64173937 -1.377567 -0.2225548 0.13983896 0.44453397
0.10628682 0.8631701 -0.08712498 -1.8764838 0.08968347 0.059718695 -0.47088507 -0.6942564
-0.3768426 0.32006812 -0.055279803 -0.58710986 0.23601493 0.19364959 -1.378589 -2.435043
0.31808782 0.39708018 0.4398419 0.684589 0.23931375 0.3949528 -0.7258055 -1.1198293
0.8956551 -0.13906479 -0.82096136 0.53999573 0.7225182 -1.2023866 0.09067071 0.62213844
-0.1641143 0.36738864 -0.18057841 -1.6218901 0.047071468 0.07087218 -0.56442773 -0.17176306
0.176035 -0.43270198 0.2235418 -0.017834717 0.20261568 0.0033721304 1.9923221 0.58629584
0.5243001 0.38049927 0.19401239 -0.09737795 -0.5077597 -0.6547732 0.1849215 0.522338
-0.23451003 0.46023336 -0.34185064 -2.321868 0.057152327 0.0009289744 -0.67926574 -0.45709097
0.48119828 0.1886865 0.19048838 -0.48065767 -0.10080461 1.2562104 2.3496008 0.90687895
-0.031323243 -0.03445059 -0.7646964 -0.6874916 0.4888944 1.4337275 1.1362866 -1.1376925
0.036008496 -2.4032989 -0.07066936 -1.0712591 0.2034153 0.5054014 0.19358288 0.7788218
0.4499254 -0.024541853 -0.35774368 -1.3996675 0.83119273 -0.540688 -0.35849786 -0.06928775
0.61829984 -0.47390845 0.28564706 -0.7807936 0.07615925 0.896807 0.27457315 0.20204194
0.024724077 -0.038086295 -0.46981788 0.07904591 0.84648436 0.89532363 1.2612354 -0.47037396
0.13576402 -0.13341118 0.09889868 0.2076485 -0.12522963 0.63621956 0.667627 -1.381335

fc.bias f4 [128]
00000000: 4efe 52be a94b e1be 3546 013f 14cc 2cbf
00000010: 8571 c8be 7d0e 0ebf 3a14 ff3e 91b0 ef3d
00000020: 82a8 55bf 0a2b 893e ab9d 1bbf b536 47be
00000030: 4ed9 2c3e 8713 95be 0db7 37bf 14b5 84be
00000040: 3af3 b13e 47f1 b23c cd88 6cbd b557 5dbe
00000050: 0dd6 0c3e 8164 6abd e5d2 8dbe a5de 0b3f
00000060: 2310 59be 3d8a 81be defd 14bd 1666 7bbf
00000070: b256 a93e aaa3 b63e fa04 0c3f 6d85 b5be
00000080: 5da7 683c 2ac5 2d3e 84ea 063e 06cc fa3c
00000090: 0166 8d3e 0ef5 353e 668f 993e 5ce3 76bd
000000a0: 9754 26be 807c 0d3f c939 1bbf f041 e7be
000000b0: 8d19 6bbe 557c 8e3d 06d9 0fbf d370 e73e
000000c0: 97f9 e2be 928c 043d fae0 993d e285 f7be
000000d0: c51c 54be 0afa ba3e 81dd 9b3e 8cf4 03bf
000000e0: 4d15 25be e14e 963e d874 06bf 21f5 1f3f
000000f0: a2fd a33c 15b2 8c3e 97ba b63d 0a65 fcbe
00000100: d5a7 d13e 6d8d 8c3e 2cb8 433e 1f71 b1be
00000110: 19da d83e d71e 163e 240a 473e 822b c6be
00000120: 5b82 8e3e f534 f4bd 98d3 ebbe afd6 2bbd
00000130: fe17 c8be 4d58 ebbe 377c d8be 5a04 453e
00000140: 051e 8d3e b3c7 b43c e772 ec3e e96c b0be
00000150: b2b3 b93e e686 3d3f fc3f 2a3f 68f6 913e
00000160: c10a 813e b684 8dbe 507c a13e 3735 abbe
00000170: c71d 463e 5dba b5bd fb3f 06bf 7cda 833e
00000180: f2ef 47bd d5ef f73d d486 603c c42c 563d
00000190: 4dc3 db3e b981 73be 5555 943e 127c 003f
000001a0: 3b0d bbbd 1b71 29bf 2b14 393d baff c23e
000001b0: 48de 01bf f594 c33e 5c87 973e b8b0 663f
000001c0: 2d8e d73d 456a cbbe 315f dabc 700b 35be
000001d0: 02ab 063f 6c6a c03d 1705 e2be b452 28be
000001e0: 58ad b33e e42d dbbe 96ce 823e 9e1e e93e
000001f0: 4edb 11bf 8e08 b03d 34da 193f c225 19bf
-0.20604822 -0.44003037 0.5049775 -0.674989 -0.3914911 -0.5549086 0.4982012 0.11703599
-0.8346025 0.2679065 -0.6078746 -0.19454463 0.1687977 -0.2911646 -0.7176369 -0.25919402
0.3475588 0.021843566 -0.05774765 -0.21615489 0.13753529 -0.057224754 -0.27699962 0.54636604
-0.21197562 -0.2530078 -0.03637492 -0.98202646 0.33073956 0.3567174 0.54695094 -0.35453358
0.014200059 0.16969743 0.13175398 0.030614864 0.27616885 0.17769262 0.29992217 -0.06027542
-0.16243206 0.55268097 -0.6063505 -0.45167494 -0.22958966 0.06957308 -0.56190526 0.45203266
-0.44331047 0.03236062 0.07513614 -0.48344332 -0.207141 0.3651889 0.30442432 -0.51545024
-0.16121407 0.29357055 -0.5252204 0.6248341 0.020018402 0.27479616 0.08922308 -0.49295837
0.40948358 0.2745165 0.19113225 -0.34656617 0.42353895 0.14660202 0.19437462 -0.3870507
0.27833828 -0.11924163 -0.4605987 -0.041952785 -0.39080805 -0.45965806 -0.42282268 0.19239941
0.27561966 0.02206788 0.46181414 -0.34458092 0.3626991 0.74033964 0.6650388 0.28508306
0.25203517 -0.27640313 0.31540155 -0.33439037 0.19347297 -0.088734366 -0.52441376 0.25752628
-0.048812814 0.12106291 0.0137040205 0.052288786 0.4292244 -0.23779954 0.28971353 0.50189316
-0.09133383 -0.6618821 0.04518525 0.3808573 -0.507298 0.38199583 0.29595459 0.901134
0.10525165 -0.39729515 -0.026656719 -0.17680144 0.5260469 0.09395298 -0.44144508 -0.16437799
0.35093188 -0.4280845 0.25548238 0.45531172 -0.5697526 0.08595382 0.60098577 -0.5982324

fc_value.weight f4 [128, 128]
00000000: 4661 80be 4867 523e 884e 253e 872b 93be
00000010: df8d a53e 8e78 f6be b331 05be 0594 28bf
00000020: 6740 593e cb36 bdbe ee79 72be 4d63 dfbe
00000030: 4f62 4e3e 8e0a cdbe e7a6 81be 5b2d d9be
00000040: f71d e73d 2e60 b0be e0b6 a9bc ad4b 0cbf
00000050: 9ff8 bbbd 54a1 8cbe ec11 033e 0cae c9bd
00000060: 998a 06bf b92d ed3e 70f6 9a3e 2a79 e63e
00000070: 569b c3be ab39 d63e 0184 273f 4e95 a2be
00000080: 59f7 f7be 1430 2fbd 25a0 e9bc 3b78 93bf
00000090: 4a55 083f 8dff 1ebd f853 a0be 092a 0b3f
000000a0: 6c82 99be dbb8 973e d48e aabe b919 8fbe
000000b0: 54c3 9c3e e934 203f c785 d4be 2f4d 8e3e
000000c0: 72eb aebe f105 213e 7326 7ebf 5220 30be
000000d0: 05be ce3d 1481 10bf 926c df3c 234d 973e
000000e0: 28a0 5cbd 5ab0 e5bc 4ead b8bd 51f0 d53d
000000f0: 5417 603e 70a9 52bf 4ae1 e7bd 4091 893f
00000100: 8173 823e ea9b b5be 7d28 29be c5ac 1a3f
00000110: cf74 e23e 7727 14be 4ad3 d3be 3b89 4c3e
00000120: e641 cf3e 3d4d 0b3e df24 d73e c41e 1bbf
00000130: 3250 143f 8318 693e 7a28 163e c8a6 83bf
00000140: c73d 1dbf eea6 aa3e 7523 91be 6a63 90bc
00000150: 1900 a9bd ba50 40be d23c a7be be08 3f3f
00000160: 1fcd 85be ed7a ddbe 79a6 8bbc 1941 153f
00000170: 22d6 6d3d 86c2 723e 090a 6d3e 3161 073d
00000180: 82b9 493e dbf0 b33d 9f66 9c3d aae6 873e
00000190: e5de 81bf 56f5 cfbe 1e9b efbe 8ba6 9dbd
000001a0: 62ad 89be 4897 4c3d 075d 0bbd 8d14 2dbe
000001b0: d6b1 1bbf 689f 9b3e 4ebf 2dbe 9c02 2dbe
000001c0: 7836 a93e 8b42 48bf bc36 86be e561 75be
000001d0: ae9b 60bf 7468 1d3d 050f 683e df6e 80ba
000001e0: 4215 883d 88a1 4b3f d637 6a3e 5ef3 d63e
000001f0: 9453 f3be 10e0 25bf 1279 e4bd b3e6 bbbe
00000200: d076 9e3e 41fc db3e 5068 9ebe 27a3 8dbc
00000210: 3b2b 093f e668 afbe 970f d23e c0aa 40be
00000220: 559e 62be e59b 49be 8f93 8bbd 623b 103e
00000230: ff5a 1fbd f2da 48be abc5 0dbe 0c49 96bd
00000240: 8f15 e9be 3ece 05be a69c 813c bdcf e63c
00000250: 4b64 0dbf 5e83 49be c781 883c 7258 283e
00000260: 5ded fcbd b04e cd3e 6c7d f7bd 366f 33be
00000270: 2639 cabd 8455 053f ebc0 98bd 90cf 8c3d
00000280: f6d7 38be 8180 6dbe c79b ba3d 9e15 ecbd
00000290: b381 383e 4aed fabd 1951 ba3c 9dfb 28be
000002a0: fcb5 e8be 2cd8 e43d d0cc 1fbe 2eed b8be
000002b0: fa05 d93d 98d0 3c3d ca0e d2be e381 9d3e
000002c0: 9918 93be 0b4d e6be d8a4 38be ce5a 903e
000002d0: 7feb b93c e71a f4be 2f3b f7be b20a 66be
000002e0: 51c2 083f db81 cbbd 9f41 04be c7e6 bf3d
000002f0: 52e2 01be 637c 3cbe 3377 313e 9de1 703e
00000300: 7b51 083e 06e4 90be ffaf 353d 898f aa3e
00000310: 585c dc3e d656 45bf 69bf 203e 86c9 5abb
00000320: bf74 30bb 6585 713e 39c6 a33e 8d72 013f
00000330: bb20 b0bc 9536 3a3e faf0 e23e 6543 76be
00000340: eedb 96be a068 093e 6687 b3bc 6bf5 19be
00000350: 8ab0 ff3d a3e2 073e b163 843e 3021 f03d
00000360: d401 bbbd f145 9dbe 8b4f 13bf a06d c73e
00000370: bed5 cb3d 38cb b53e 7ca3 873c e78f 20be
00000380: 66b0 103e 3b9d 053e 7392 0d3e c5e6 f33d
00000390: f237 e93d 9f2d 643f f183 66bc 9339 923d
000003a0: 3949 153f 65eb 24be e0b6 8fbe f560 67be
000003b0: 1141 18be 192d dd3d b1f4 8c3d 5405 b63d
000003c0: 700d a93e 513f 993e 54df 41bf c614 28be
000003d0: cc5c 78bd 0c6e ac3d b867 433d 2ec2 7a3e
000003e0: c8b6 2bbf a6ef 35be a648 86bd dd20 5cbd
000003f0: c400 37be 2a72 5abe a803 f53e 90bb 77bb
-0.25074214 0.20547211 0.16143239 -0.28744146 0.32334802 -0.4813885 -0.1300724 -0.6585086
0.21215974 -0.36955866 -0.23679325 -0.43630448 0.20154689 -0.40047115 -0.2532265 -0.42417416
0.11285012 -0.3444838 -0.020717084 -0.5480297 -0.0917828 -0.27466834 0.12799805 -0.0984765
-0.52555233 0.46323946 0.30266142 0.45014316 -0.3820445 0.41840872 0.65435797 -0.31754535
-0.484309 -0.04277046 -0.028518746 -1.1521066 0.5325514 -0.03881793 -0.31314063 0.54361016
-0.29982316 0.2963322 -0.33312094 -0.27949312 0.30617774 0.62580734 -0.41508314 0.2779326
-0.34164006 0.15724923 -0.9927742 -0.17199829 0.10094837 -0.5644696 0.02727345 0.29551038
-0.053863674 -0.028038193 -0.0901743 0.10446227 0.21883899 -0.8228979 -0.11322267 1.0747452
0.25478747 -0.35470515 -0.16519351 0.60419875 0.44229743 -0.1446818 -0.41372138 0.19974224
0.40479964 0.13603683 0.42020318 -0.6059382 0.5793487 0.22763257 0.14663878 -1.0285273
-0.6142239 0.33330482 -0.28347364 -0.01762553 -0.08251972 -0.18780795 -0.3266359 0.74622715
-0.26133057 -0.43257847 -0.017047154 0.58302456 0.05806554 0.23707017 0.2314836 0.033051673
0.19699672 0.08786174 0.07636761 0.2654317 -1.0146147 -0.40616864 -0.46798033 -0.07697781
-0.26890093 0.04994896 -0.034024265 -0.16902371 -0.6081823 0.30395055 -0.16967508 -0.16895527
0.3304937 -0.78226537 -0.26213634 -0.23963125 -0.8773755 0.038429692 0.2266198 -0.0009798667
0.066446796 0.7954335 0.22872862 0.4198255 -0.47524703 -0.6479502 -0.11155905 -0.36699447
0.30950022 0.42965892 -0.3093896 -0.017289711 0.5358159 -0.3425972 0.4102752 -0.18815136
-0.22130711 -0.19688375 -0.06815254 0.14085153 -0.03890514 -0.19614771 -0.13844936 -0.07338151
-0.4552426 -0.13066956 0.015821766 0.02817523 -0.5523116 -0.19679019 0.016663445 0.16439989
-0.12349961 0.40099096 -0.12084469 -0.17522892 -0.098741814 0.5208361 -0.07458671 0.06875527
-0.18051133 -0.23193552 0.091117434 -0.11527561 0.18018226 -0.122522905 0.022743749 -0.16502233
-0.45451343 0.11174044 -0.15605474 -0.36118454 0.10596843 0.046097368 -0.41026908 0.30763158
-0.28729704 -0.44980654 -0.18031633 0.28194278 0.022695301 -0.47676775 -0.4828734 -0.22465017
0.53421503 -0.09936877 -0.12915657 0.09370189 -0.1268399 -0.18406825 0.17330627 0.23523565
0.13312332 -0.28298968 0.044357296 0.33312634 0.43039203 -0.77085626 0.15698017 -0.0033384277
-0.0026925055 0.23586042 0.3198717 0.50565416 -0.021499982 0.18184884 0.44324476 -0.24049146
-0.29464668 0.13418818 -0.021915149 -0.15035026 0.12484844 0.13270049 0.25857309 0.1172508
-0.09131208 -0.30717424 -0.5754325 0.38950825 0.099528775 0.35506606 0.016557448 -0.15679894
0.1412979 0.1304826 0.13825397 0.1190925 0.11387624 0.8913211 -0.014069543 0.07139888
0.58314854 -0.16105421 -0.2806921 -0.2259558 -0.14868571 0.10799617 0.06882609 0.08887735
0.33018064 0.2993112 -0.75731397 -0.16414174 -0.060635373 0.08419427 0.047706336 0.24488136
-0.6707578 -0.177672 -0.06556825 -0.05374228 -0.17871386 -0.21332613 0.47854352 -0.0037801005

fc_value.bias f4 [128]
00000000: dc08 d2bd fb28 92bd 8c52 03bd 0c3d d1bd
00000010: 4f85 9fbd 4449 2c3e 05a6 d93d 2327 f1bc
00000020: 7de9 773e 03ef c6bd 4f16 d03e 03e3 9abe
00000030: ebc5 c83d 5674 babd 40e9 883e 123d 253d
00000040: da94 f33e bb8d f5bc 86cf 333e fd9f 87be
00000050: 542a 0dbd a4e4 073d 8d42 c5bd 5eb2 1f3e
00000060: d112 c03e 522a eabe cf8f 3ebe 965e 083d
00000070: 0c32 85bc 86c6 2b3e e9f6 b03d 59f7 a43d
00000080: c5d6 d2bd c486 3abe 6c17 8bbd f880 aa3c
00000090: c258 a1bd 122f 493c ec54 073e f6a0 aa3e
000000a0: 3907 87bc 9a22 fdbd 904e 503c b04d eabc
000000b0: 100d 2d3d 929d a1bd e9e6 0ebd 20fa 623d
000000c0: 0884 50bd 8d73 983e b4d3 9dbd 512c 39be
000000d0: 8e2d 98be 0ff7 0b3e ff74 2dbd 58ff fc3b
000000e0: 413d 803e f772 85be a1cb 5d3d a1ee cb3e
000000f0: a505 b4be fe14 e1bd 7e1d 1fbe 7738 bbbe
00000100: 47d8 0ebc f68c 8dbd 9565 b43e 5f63 b83c
00000110: 121d d13e fb9b 9f3e 3c41 51be bf71 1e3a
00000120: 55ef 933e a83f 25be 0bf7 a83d 190f 523d
00000130: 06d5 283e 00a1 d5bc b44d 97bd 0da0 543c
00000140: 6fad af3e ac9b 2cbd 4505 653e 2b44 82be
00000150: fd51 c9bb b1a5 4fbd 1232 93bc fa82 88bd
00000160: 3e03 5d3e de0d 44be 8455 dfbd a73e 9b3e
00000170: d36d d63d 32b0 03bd 534a 10be 1e3e 163e
00000180: e5a1 79be e417 363d 9d81 c0be c2f5 37be
00000190: 3e58 3dbe d91c 01bd aeea d33d c002 9eba
000001a0: fd86 c9be e23e 6fbc d06c a63e ee4a 53be
000001b0: 4ec8 e63b 8d68 e7bc f1dd 863d 2fc4 babc
000001c0: 6995 ea3d d1de 493d d276 34bd 43c0 40be
000001d0: 8b01 34bd 26da a1be 4494 2d3d ed67 2f3e
000001e0: 64d4 05bc 2aed cdbd 2b0e 2bbc 4054 e93c
000001f0: d56c b73d cda9 a13e 5abe 853d bd27 143e
-0.10255596 -0.07136723 -0.032061145 -0.10216722 -0.077890985 0.16824824 0.10627369 -0.029437607
0.24210162 -0.097135566 0.4064202 -0.3025132 0.09803375 -0.091042206 0.26740456 0.040341444
0.47574502 -0.029974809 0.17559633 -0.2648925 -0.034464195 0.033177033 -0.09631834 0.15595385
0.37514356 -0.45735413 -0.18609546 0.03329333 -0.016259216 0.1677495 0.086408444 0.0805499
-0.1029487 -0.18215472 -0.06791577 0.02081345 -0.07878257 0.012279289 0.13215989 0.33325928
-0.016482936 -0.12360115 0.012714043 -0.028601497 0.042248785 -0.07891382 -0.03488818 0.05541432
-0.050907165 0.29775658 -0.07706395 -0.18083312 -0.29722255 0.13668464 -0.042347904 0.007720869
0.25046733 -0.26064274 0.054149274 0.39830497 -0.35160556 -0.10990332 -0.15538594 -0.36566517
-0.008718557 -0.06911652 0.3523375 0.022508321 0.4084249 0.3117369 -0.20435041 0.0006044171
0.28893533 -0.16137564 0.08250245 0.05128393 0.16487512 -0.026077747 -0.073878676 0.012977612
0.34312007 -0.042140648 0.22365291 -0.25442633 -0.006143807 -0.050695125 -0.017968211 -0.06665607
0.21583268 -0.19145915 -0.10904983 0.30321237 0.10470166 -0.032150455 -0.14090852 0.14672133
-0.24378164 0.044456378 -0.37598887 -0.17964843 -0.18490693 -0.031521652 0.10347496 -0.0012055263
-0.393608 -0.014602395 0.32504892 -0.20634052 0.007042921 -0.028248096 0.06585301 -0.022798626
0.11454279 0.04928476 -0.04405863 -0.18823342 -0.043946784 -0.31611747 0.042377725 0.17129488
-0.008168314 -0.10055001 -0.01044039 0.028482556 0.08956305 0.3157486 0.06530447 0.14468284

fc_adv.weight f4 [128, 128]
00000000: 1356 993e 5e7a 463f 867b 533e cda3 5f3e
00000010: 4b6c 8a3f 5aa0 e83e 40ae 89be 63b6 b23d
00000020: 30bd 303f c733 12be 952e 4d3e e8c7 d9bd
00000030: 4b5c 73be 66d5 523e 921f 3b3e 9138 063c
00000040: 9ca8 e1be eba0 503d edcb 0abf ce97 73be
00000050: f6ca 613e f332 913e c8e6 de3d d849 a7be
00000060: 88cc ad3e c738 d33d 408c aa3e 88d4 5a3f
00000070: f6ea 533e 9105 253a a254 b5bc ae60 9abe
00000080: 4332 4c3e b5a1 113e 1b3b 0abe 372c 3b3e
00000090: f296 41bf 7662 283e 5669 443e 8885 093f
000000a0: 1858 3b3e 583c 33be 9b29 8c3e 7bad 263e
000000b0: e03b 91bd c965 84bd d12f 853e 7fb6 cfbd
000000c0: ac06 ce3d 603b 863e a302 29bf 6d4b bcbd
000000d0: 4df0 d9bd 0ce5 dabd 3872 a23d 961f 0a3f
000000e0: 3fe1 f53d 3950 b63e cedf 8b3e 014f 15bf
000000f0: ed0b 86bd 1a03 3cbe 694d 683e b59a c53e
00000100: 0c4c b4bc ab2d 00bd 7ee4 45be 466c 4c3f
00000110: a961 46bd 2ddc 243e 85bb 27bf 5e7f 55be
00000120: 7cf9 1ebe a622 54bc e182 99be 6f6c 2c3e
00000130: 0f92 173f 5a29 633d f94d 56bf 7551 68be
00000140: 29d6 36bd f14f b3be e4ad efbd 04da aa3d
00000150: 044f 123e bfdf e1be b458 14bf 99f8 d43c
00000160: 5f55 e23d a9be 1e3e 4e61 b8be 39df f6bd
00000170: 064d 62bd 6141 b2be 8c56 0f3f c5a1 49bd
00000180: d51f 8f3e 7acd 723e b11a bebd 47e9 eabe
00000190: a503 22bf a37d 99bd bf4c e3be 1dc6 73bd
000001a0: 5018 b4be c689 0e3f c8c4 633e afb6 6f3e
000001b0: 69ff 783d 9e92 2b3d 25be 023e 3484 2ebf
000001c0: be44 f1bd b4da 72be fc5e 2b3f 0232 bebe
000001d0: e361 07bf d76b 4b3e 839e 13bd 3082 653e
000001e0: 6d26 26be 222f d43e 1b8a a83e 360f 5dbe
000001f0: 982d 8cbc c862 7c3e 6120 1dbf 9b54 68be
00000200: 1676 03be bc00 4b3e 2d25 46bf b68d c43e
00000210: e0d1 ed3e 1023 be3d 5415 d1be 0b2a c03e
00000220: 15e6 2c3f 1dc4 9e3e 5527 073f 4724 bd3e
00000230: 139b 0bbf 2ffa 013e b815 e33d cbe2 f03e
00000240: 2061 bc3d 61ed 9e3d 978b 2c3e 21f5 3f3d
00000250: 6ada b3be 309f 523d 6a50 2a3f f897 92bd
00000260: 07e8 f13c e62f 953e 2dc0 273d ea9c afbc
00000270: b6fb 2f3e 34b4 af3e 0930 ebbd 0cb6 ac3e
00000280: cd2b 78ba 9dcb ebbd f618 e8bd 3732 7abe
00000290: 6dec db3e 4723 2dbe 360e e6bc 62c5 23bf
000002a0: c04e 043e c4d1 21be 5ccd b93e 9170 d53c
000002b0: c21b fcbd 65aa 1f3e 8bda 6c3e 5df0 ffbd
000002c0: 0c0d 543d 6ac3 cd3e 1a5c 92be d345 6dbd
000002d0: a130 493e b16e 93be 2c5c 41be a982 b43e
000002e0: b893 9d3d 32ea b1be 8fcd 5b3e 43ff 7bbe
000002f0: cacf 8bbe 64c6 b33e 2a76 4b3e a36f c53e
00000300: 0188 ecbd 47d7 83be a422 8a3e 5113 383f
00000310: 8337 123e fd5c 0d3e a5cf 8abd c0f5 963e
00000320: 7791 71be 24a6 39be 8f69 89be bfba aebd
00000330: e728 ddbe fbc0 773e f7b2 0fbe e599 eabe
00000340: 49dd 483d 08af 9f3e 6e64 b8be 46f9 4a3f
00000350: d56b b03e 0972 593e 8058 8bbe 4cef 1dbe
00000360: 0a38 883d 0cb2 ab3d 9416 553d b25f 8f3d
00000370: 7c64 443e ae3d 413f ef62 9cbd 3f0c 733e
00000380: 5a13 ba3e ea5c 803e fa9c adbe ac53 463d
00000390: 3c03 1bbe 919a a33e 7f92 b2bc eb24 4ebe
000003a0: 04a7 c33e b134 f73d 2154 0c3e 1d02 60be
000003b0: de7b 8b3e 8a2b 2b3c c54d 44bf b481 f2bd
000003c0: 69a5 04be 0274 3d3e 05b9 9bbd 2c43 afbe
000003d0: b99f ccbe 3d32 113f 7a60 423d 5743 80be
000003e0: 59c8 22be f9c8 61bc 3ce4 37be 9b34 8f3d
000003f0: e07e bd3e 539d 0bbd 5454 5b3e b290 083f
0.29948482 0.7753047 0.20652589 0.21839829 1.0814298 0.4543484 -0.26890755 0.08726194
0.6903868 -0.14277564 0.20037301 -0.10633832 -0.23765676 0.20589218 0.18273762 0.008192197
-0.4407395 0.050934713 -0.54217416 -0.23788378 0.2205008 0.28359184 0.10883862 -0.32673526
0.33945107 0.10313564 0.33310127 0.85480547 0.20695099 0.000629508 -0.022135083 -0.30151886
0.19941048 0.14221843 -0.1349911 0.18278585 -0.7562095 0.1644381 0.19180807 0.5371938
0.18295324 -0.17503488 0.27375492 0.16277115 -0.070914984 -0.064647265 0.26013044 -0.1014223
0.10059866 0.26217175 -0.6601965 -0.09194074 -0.10641537 -0.106882185 0.07931942 0.53954446
0.12005853 0.3560808 0.27319187 -0.58323675 -0.065452434 -0.18360558 0.2268578 0.38594595
-0.022008918 -0.031293552 -0.19325444 0.7985271 -0.04843298 0.16099615 -0.6552051 -0.20849368
-0.15524858 -0.012947714 -0.29982665 0.16838239 0.5920724 0.055459358 -0.83712727 -0.22687323
-0.044637833 -0.35021928 -0.11703089 0.083423644 0.14287955 -0.44116017 -0.5794785 0.025997447
0.110514395 0.15502419 -0.36011738 -0.12054295 -0.055249237 -0.34815505 0.55991435 -0.04922654
0.27953973 0.23711196 -0.09282435 -0.458811 -0.6328681 -0.074946664 -0.4439449 -0.059515107
-0.351748 0.55678976 0.22243035 0.23409532 0.060790453 0.041887872 0.12767847 -0.68170476
-0.1178069 -0.23716241 0.6694181 -0.37147528 -0.5288374 0.19865356 -0.03603984 0.22412944
-0.16225596 0.4144221 0.32917866 -0.21587834 -0.017111585 0.24647057 -0.6137753 -0.22688524
-0.12838015 0.19824499 -0.77400476 0.38389367 0.46449184 0.092840314 -0.40836585 0.37532076
0.6753858 0.31008998 0.5279439 0.3694174 -0.545335 0.12693094 0.11088127 0.4704803
0.091982126 0.0776012 0.16850124 0.046864633 -0.35127574 0.051421344 0.6652895 -0.07157892
0.029529585 0.29138106 0.040954757 -0.021437127 0.17185864 0.34317172 -0.11483771 0.3373264
-0.0009466976 -0.115134455 -0.11332886 -0.24433218 0.42953816 -0.16907988 -0.028082948 -0.6397306
0.12920666 -0.15802675 0.3628949 0.026054652 -0.12309982 0.15592344 0.23130243 -0.124970175
0.051770255 0.40188152 -0.28585893 -0.057927918 0.19647457 -0.28795388 -0.18882817 0.35255936
0.07694191 -0.3474899 0.21465133 -0.24609093 -0.27306968 0.35112298 0.19869295 0.38561735
-0.11549378 -0.2575018 0.26979554 0.71904474 0.14278989 0.13805003 -0.06777886 0.29484367
-0.23590647 -0.18129784 -0.26838347 -0.08531713 -0.4319527 0.2419471 -0.14033113 -0.45820537
0.04903916 0.31188226 -0.36014122 0.7928661 0.3445727 0.21234907 -0.27215958 -0.15423316
0.066513136 0.08383569 0.052023485 0.07000674 0.19178957 0.7548474 -0.076360576 0.2373514
0.3634289 0.25070888 -0.33908826 0.04841964 -0.15137953 0.31953862 -0.02179837 -0.2013127
0.3821336 0.12070597 0.13703968 -0.21875806 0.2724294 0.010447392 -0.76681167 -0.11841145
-0.12953724 0.18501285 -0.07603649 -0.34230936 -0.3996561 0.5671728 0.04745529 -0.25051376
-0.15896739 -0.013780826 -0.17958158 0.069924556 0.3701086 -0.034085583 0.21418887 0.5334579

fc_adv.bias f4 [128]
00000000: 2004 0fbe 5cb7 febd 8f7a 123e a266 ee3d
00000010: 6470 26bf bfee 8fbd d264 85be 4ccd c4bd
00000020: e9fe 0b3e 7d16 37bf 6b7a e73d 58d5 d13e
00000030: ebf1 083e ca4f 42be f7f8 51bd 6297 883e
00000040: bdeb c83e 7fc8 7fbe be5b 623e e585 aabe
00000050: fee3 ed3e f5a2 8ebe cd9c b73d 2180 173f
00000060: 490f 49be bed6 06bf 39fc 463d 3ca7 a9bd
00000070: a551 65be d086 f8bc f488 1bbe 0299 f1bd
00000080: f749 c9be 6762 873e a5de a3bd a690 21bd
00000090: 581f a53e 0128 50be fadb 173f 5260 003e
000000a0: 04af abbd 0a53 5a3d 05d6 0bbe a588 b6bd
000000b0: c974 57bc ca23 8c3e 2283 20bc d651 e63d
000000c0: 97a8 0abf c14f 23be 2e8c 723d 8b97 fcbe
000000d0: f22d 3abd 168c 82be 911b eabe 0c1e 4a3f
000000e0: 5277 82bd 4cab 29be 95d3 64be 3fee 343d
000000f0: 68d9 50be 7219 23bd 4490 65be 9563 b2bd
00000100: c20c 803d 1112 1f3e 68ca b7bd 6f02 02bd
00000110: c33c 803e 5e6c ecbe 98fa 81be fb7e 053f
00000120: f296 48bd e868 07be 8311 4f3e a6f3 7cb9
00000130: 29c7 033f eae6 d73e c883 93be e9a7 0cbe
00000140: 84c0 bd3d 4198 873d 3a33 bfbd c19c 0abe
00000150: 3c0f 1abd 1e0b 92bc 7432 9bbe db8e 053e
00000160: fdda 4c3d b521 ba3d d534 9abe e2cb bd3d
00000170: 7685 91bd 1abd 5a3d de62 e93e c00f bc3d
00000180: 2258 bd3e 0488 16bb 1e50 0dbf 1e96 113e
00000190: 6d06 8f3e 44e8 32be 2033 903e 8792 483e
000001a0: 7459 8db9 ad81 fc3d 361b bb3d 0f49 68be
000001b0: cae7 24bd 2857 a83e 0068 38be 54f7 c33e
000001c0: 006a 96be fd0c 863e 0bbe 8f3b c583 fd3e
000001d0: bfb3 59bd fda1 88be 53f3 9ebd 450d 353f
000001e0: da84 18be a209 47be e4bc 11be a246 5d3e
000001f0: 5f7b 1e3e aeca 213f 4499 c63d 2946 c9be
-0.13966417 -0.12437317 0.14304565 0.116406694 -0.65015244 -0.07027959 -0.26053482 -0.0960947
0.1367146 -0.7151869 0.11302646 0.4098308 0.13373534 -0.1897575 -0.051262822 0.26677996
0.39242354 -0.24978827 0.2210531 -0.33305278 0.46463007 -0.278587 0.08965454 0.59179884
-0.19634737 -0.5267142 0.048580382 -0.082838506 -0.22394426 -0.030337721 -0.15188962 -0.11796762
-0.39314243 0.26442263 -0.080014504 -0.039444588 0.32250476 -0.2032776 0.5932003 0.12536743
-0.08382991 0.05330185 -0.1365586 -0.089127816 -0.013150402 0.27371055 -0.0097968895 0.11246078
-0.541635 -0.15948392 0.059215717 -0.49334368 -0.045453973 -0.25497502 -0.45724156 0.789521
-0.06370415 -0.16569251 -0.22346337 0.04417252 -0.20395434 -0.03981919 -0.22418314 -0.087104
0.06252433 0.15534236 -0.08974153 -0.031740602 0.25046358 -0.46176428 -0.253865 0.5214688
-0.048972078 -0.13223612 0.20221524 -0.00024123359 0.5147577 0.4216836 -0.2881148 -0.13735928
0.09265235 0.06620837 -0.093359426 -0.1353636 -0.037612185 -0.017827567 -0.3031193 0.13042776
0.05001353 0.0908846 -0.30118433 0.09267403 -0.07105534 0.053402998 0.45583242 0.091826916
0.36981302 -0.0022969255 -0.55200374 0.14217421 0.2793459 -0.17471415 0.28164005 0.19587146
-0.00026960263 0.12329421 0.091360494 -0.2268412 -0.040260114 0.32878995 -0.18008423 0.38274634
-0.29377747 0.26181784 0.0043866686 0.49514595 -0.053149935 -0.26686087 -0.07761254 0.7072337
-0.14894429 -0.19437268 -0.14232212 0.21608976 0.1547675 0.6319989 0.09697202 -0.3931134

value.weight f4 [1, 128]
00000000: 8e8f 653f c8be 4f40 fe7b 7b40 6504 22c0
00000010: a065 2ec0 c5c0 3ec0 cf80 b63f 2ac2 0c40
00000020: 8cb0 95bf 60c8 f73f a5a2 ac3f b7c1 c9bf
00000030: 81b6 15c0 ccd8 2940 6779 8a3f 3c17 12c0
00000040: 4809 b13f 476c fb3f f51f 86bf f7aa d5bf
00000050: b6e0 0140 420c 0cc0 f666 ddbf cbd8 45bf
00000060: 811f a43f 1104 b8bf 76cc 1040 a2c8 0b40
00000070: 3493 bfbf 1de0 0bc0 d1ae 07c0 6d31 1e3f
00000080: 767f 0a40 5c4e aa3f fe05 0840 89dd 4abf
00000090: 95e8 0c40 3b33 4b3f c822 09c0 41b9 8c3f
000000a0: 35c2 edbf f12b 0040 25fc e6be 42aa 2ec0
000000b0: 398b 2940 5e85 0140 394b f43e 0432 11c0
000000c0: bcbb 65c0 aa4f 1140 58b9 04c0 a00d 99bf
000000d0: a1e9 b3bf dcf0 0ac0 68e6 673f 8dcd 1e3f
000000e0: c10d 97bf 26b5 00c0 3fe1 5fc0 7cfb a03f
000000f0: 586d 94bf 5802 f1bf 00d6 31c0 ff40 92bf
00000100: 0687 0dc0 61f5 25bf 8016 1640 9a36 06c0
00000110: 57f6 9b3f bd0f 973f f927 973f bd2e 0640
00000120: 6cfb 993f eac2 e3bf 1cf4 fe3f 05ca 0bc0
00000130: 2eb7 2740 6cf7 c23f 3881 0740 ff78 5bc0
00000140: aa3a 8c3f 9b3b b93f 6e03 bf3f 25b3 65bf
00000150: a8dd 20bf a896 0dc0 9ba0 573f 0a5b 09c0
00000160: f8f6 44bf d38a 10c0 10a9 1fbf 41bc 9e3f
00000170: baa8 2e40 4b69 59c0 4c4d 3540 1345 07c0
00000180: 7d30 38bf 8c01 e13f e527 a0bf a48a c33f
00000190: f71e c9bf 58e0 83bf 941c 0fc0 6707 20c0
000001a0: 283c 8bbf ffe4 1940 1b9b 9b3f c188 9b3f
000001b0: 0408 3940 cfd9 6ac0 2a34 8abf 5c89 0ac0
000001c0: 7102 31bf fc5c f63e 5cde 0940 1595 90bf
000001d0: 6099 4c40 3a30 95bf 28c0 5fbf 4ccd 1540
000001e0: 3f9c 1940 2a7f 0dc0 d4ff 543f 8e15 6cc0
000001f0: 594a ca3f c52e 903f babd 3fc0 aecc 3cc0
0.8967217 3.2460194 3.929443 -2.5315182 -2.7249527 -2.9805157 1.4258059 2.1993508
-1.1694503 1.9358025 1.3487135 -1.5762242 -2.3392642 2.6538572 1.0818299 -2.282668
1.3830957 1.9642419 -1.0478503 -1.6692799 2.0293403 -2.1882482 -1.7297046 -0.77283925
1.2822114 -1.4376241 2.2624793 2.1841207 -1.4966798 -2.1855538 -2.120045 0.6179417
2.1640296 1.3305163 2.1253657 -0.79244286 2.2016957 0.79375046 -2.1427479 1.0994035
-1.8574892 2.002682 -0.45114246 -2.7291417 2.6491225 2.023765 0.4771364 -2.2686777
-3.5895834 2.2704873 -2.0738125 -1.1957283 -1.4055673 -2.170951 0.9058595 0.62032396
-1.1801072 -2.0110564 -3.498123 1.2576747 -1.1595869 -1.882884 -2.7786865 -1.1426085
-2.2113662 -0.64827543 2.3451233 -2.0970826 1.2184552 1.1801678 1.1809074 2.0966027
1.2029853 -1.7793858 1.9918246 -2.1842053 2.6205554 1.5231757 2.117262 -3.42926
1.0955403 1.4471315 1.4922922 -0.8972648 -0.6283822 -2.2123203 0.8422944 -2.1461816
-0.76939344 -2.2584732 -0.62367344 1.24012 2.7290483 -3.3970516 2.8328428 -2.113591
-0.7194899 1.7578597 -1.2512175 1.5276685 -1.5712575 -1.0302839 -2.2361193 -2.5004518
-1.0877733 2.4046018 1.215671 1.2151109 2.8911142 -3.669544 -1.0797169 -2.1646338
-0.6914435 0.48117816 2.1541967 -1.1295496 3.1968613 -1.1655343 -0.8740258 2.3406553
2.4001615 -2.2108865 0.8320286 -3.6888156 1.5803939 1.1264273 -2.995955 -2.9499927

adv.weight f4 [225, 128]
00000000: 2892 89be 8e61 0f3e 9e4a 13bf 47b4 e63d
00000010: 81f5 e7be 94c4 ec3c dcb0 623e da88 873e
00000020: ab48 68be 8ea1 bf3e 717b ce3b 2114 25bf
00000030: 133a 02be 2a71 793e 0fe6 973e 2741 103f
00000040: 0ce9 93be 30e1 b93e e03c 113f 373a 393e
00000050: 33fa 8dbe a13f 8ebe ec43 373f 7e99 b1be
00000060: 4f62 673f 2775 af3e c702 d6bc f413 b23d
00000070: b1ba 0abf cd67 c7bd 1b44 0e3e 34aa e7bd
00000080: 32dd d43e b898 cdbb b4bc bdbd c29b 673e
00000090: ea2f b0be 1bc7 97be bd37 2abe 610c c9be
000000a0: dc3e 37bf 9fb9 ad3e 7c1c e43e ef98 2fbe
000000b0: 620d 2f3e 7c16 1d3e 0c92 ad3e ef30 823e
000000c0: 95a0 07bf ce02 8f3e dfc5 36bf 5585 61bf
000000d0: 8a23 6cbe bd21 1bbe a7e6 4dbd 7b58 71be
000000e0: dd2e b9bd de48 01bf b0d1 8bbf a441 c4bd
000000f0: b05d 91be bb7f 793e ffe1 3d3e 02c4 10bf
00000100: 9786 c43d 3cde ad3d 9c4f c33d 9379 c73e
00000110: 9456 8b3e 9658 e43e cae7 85be c2b6 f03e
00000120: 230d 2e3e 5c1a 08bf f9d5 ccbd 5ef2 d23e
00000130: a9e6 f83e 9784 89bd 5877 adbe 717c 293e
00000140: 995f 643d 6d4a ddbd 9b6b 4bbf a741 bcbe
00000150: 1122 febc 32b8 a7bc 8d7a 413d 1041 363f
00000160: dbb4 09bf 84fa 4c3e 4356 b23e bab2 453f
00000170: aa72 77be 6bdb 8c3d 192d 8abf f0c5 1d3f
00000180: 34a0 11bd cf01 263e 3473 2d3e 6c4e 963e
00000190: f93a dabd 2495 fbbd fd60 fdbd 79f2 11bf
000001a0: b686 983d dfaf a83d 706b 46bf e767 553e
000001b0: 0637 d63e d421 5cbe ad85 8e3e d41b ed3e
000001c0: d5d9 753e 2831 1b3d d303 98be b7dd 8ebe
000001d0: 3d3f 8b3e cbf1 ecbe 52bb 323d 072d e0be
000001e0: a556 22bf 4669 72be 2daf 163f 3603 f8be
000001f0: d3a3 18bf ccd9 523b d186 c4bd 9f09 1bbf
00000200: 18f8 14bf 2132 683f 9fd5 9fbe 9729 74be
00000210: 0ee9 88bf ff54 163f 1c9f b23e 7ab1 92be
00000220: 839e 13bf f918 02bf aed1 49bd fb79 18bf
00000230: 8e17 033d fc2f 7c3e 9486 3bbd 38de b53d
00000240: 3ccc 2b3e c2a3 dc3e e1f1 21be 4867 e73e
00000250: 869c fa3e 16cc 063f 3ba6 633f c00f dd3e
00000260: 5e20 60be b783 27bf 5390 433f e9e4 bcbd
00000270: 80dd ad3e 2178 a0bc ed2e da3e 4e8b 7bbf
00000280: ee65 93bc c608 05bf 21fc 71be b1ed 19be
00000290: 143a 94be 643d 173f 2c14 c83e 9011 2b3f
000002a0: be61 fe3e 32af 0fbf 92f7 083e b210 1abe
000002b0: b590 ab3e e431 b3be d0d7 b2be 5faf 993e
000002c0: 9712 13bf bcd7 763e 8b6e 8dbd 61d8 213f
000002d0: 8f40 5a3d 6f97 cfbc 8994 013f 4905 bebe
000002e0: 35c0 263f 06e7 403f 424c 14bf c706 3cbe
000002f0: 9423 373f f5cf c33d 974c b33c 3bc5 b8ba
00000300: a7d3 0dbe adfc 9c3e f50c 0b3f 0f05 33bd
00000310: 8359 c23c 3d30 013e 41ee 15bf 65ef d23e
00000320: 26d5 19be b4f9 ddbe 512d 56bf 17d2 e43e
00000330: 8931 063f 9ecd 4c3f 0651 fe3e f871 0a3f
00000340: 68a5 bdbe 9f99 cbbe 1200 2ebe 2aee 233f
00000350: 5fc3 7f3e cc8a fdbe 05e9 7c3f b065 2cbf
00000360: b116 e2be 9501 813e 8d3e ae3e aa0c bb3e
00000370: e9dc d1be 9064 d5bd d8c5 0f3e 153b 413d
00000380: 76cb 24bf f7f9 b03e 6f0a 3a3f 3290 983e
00000390: 1b85 9cbe 4528 bfbc bf97 24bf 76f8 19be
000003a0: 06d2 d7be 031a 39bd c012 353e a2a3 88be
000003b0: 30d4 c9ba e058 c1be 40e9 15be baef 333f
000003c0: 726a 1fbf fdd6 0d3f 1935 3d3f 3be3 e93c
000003d0: b4cf 523e cd7b 403e 86c3 b6be 3b0f 173f
000003e0: a0fd 19bf e995 9cbd edb6 0ebf d36f 1fbf
000003f0: d2d7 55bf 579d 633d 9284 ebbe 8fb9 623f
-0.2686932 0.14002058 -0.5753573 0.11264854 -0.45304492 0.02890233 0.22137779 0.26471597
-0.2268397 0.37427944 0.0063013365 -0.6448384 -0.12717466 0.24359575 0.29667708 0.56349415
-0.28888738 0.36304617 0.5673351 0.18088613 -0.2772995 -0.2778292 0.71588016 -0.34687418
0.9038438 0.34269068 -0.026124371 0.08695212 -0.5419112 -0.09736595 0.13893168 -0.113117605
0.4157501 -0.006274309 -0.09264508 0.2261801 -0.34411556 -0.29644093 -0.16622825 -0.39267257
-0.7158029 0.3393068 0.44552982 -0.17148183 0.17094949 0.15340608 0.33900487 0.25427958
-0.52979404 0.27931827 -0.7139568 -0.88094074 -0.23060432 -0.15149589 -0.050268795 -0.23568909
-0.090421416 -0.5050181 -1.0923367 -0.095828325 -0.2839179 0.24365132 0.18543242 -0.56549084
0.095959835 0.084896535 0.09536669 0.3895994 0.2721449 0.44598836 -0.26153404 0.47014433
0.16997199 -0.5316522 -0.100017495 0.41200536 0.4861348 -0.06714743 -0.33880115 0.16551377
0.05575523 -0.10805211 -0.7946107 -0.3676884 -0.031022104 -0.020473573 0.047236014 0.7119303
-0.5379159 0.20017439 0.34831437 0.7722584 -0.24164835 0.06877788 -1.0795013 0.61630154
-0.035553172 0.16211627 0.16938478 0.29356706 -0.106557794 -0.12284306 -0.12372015 -0.5701061
0.07447569 0.0823667 -0.77507687 0.20840417 0.41838855 -0.2149728 0.27836362 0.46310294
0.24008878 0.037888676 -0.29690418 -0.2790353 0.27196684 -0.46278223 0.043635674 -0.43784353
-0.6341346 -0.23672971 0.5886105 -0.4843995 -0.59624976 0.0032173274 -0.09596027 -0.60561556
-0.5819106 0.9070149 -0.31217667 -0.2384399 -1.0696123 0.58723444 0.34887016 -0.2865103
-0.57663745 -0.50819355 -0.04927223 -0.5956113 0.032004885 0.2462768 -0.04578264 0.088802755
0.16777128 0.43093687 -0.15814926 0.45195985 0.48947543 0.5265516 0.8892552 0.4317608
-0.21887347 -0.65435356 0.76392096 -0.09223349 0.33958054 -0.019588532 0.42613927 -0.9825944
-0.01799294 -0.5196651 -0.23631336 -0.15032078 -0.2895056 0.5907805 0.3907789 0.66823673
0.49683946 -0.561267 0.1337569 -0.15045431 0.3350884 -0.34999 -0.34930277 0.3001661
-0.5745024 0.24105734 -0.0690585 0.63220793 0.053284224 -0.025340764 0.5061727 -0.37113407
0.65137035 0.75352514 -0.5792886 -0.1836196 0.7153866 0.09561149 0.021887107 -0.0014096865
-0.1385027 0.30661526 0.54316646 -0.043705996 0.023724323 0.12616058 -0.5856667 0.4119827
-0.15022716 -0.4335457 -0.836629 0.44691536 0.52419335 0.80001247 0.4967119 0.5408015
-0.37040257 -0.3976564 -0.16992214 0.64035285 0.24976872 -0.49519956 0.9879306 -0.6734266
-0.44157937 0.2519652 0.34032097 0.365331 -0.40988854 -0.104195714 0.14040315 0.047175486
-0.64372957 0.34565708 0.7267217 0.29797512 -0.305703 -0.023334632 -0.64294046 -0.15036187
-0.42152423 -0.045190822 0.17682934 -0.26687342 -0.001539832 -0.3776312 -0.14639759 0.7028767
-0.622718 0.5540617 0.73909146 0.028550735 0.20587045 0.18797226 -0.35696048 0.59007615
-0.60152626 -0.076457806 -0.5574787 -0.62280005 -0.8353244 0.055569973 -0.4599958 0.8856439

adv.bias f4 [225]
00000000: 51de aebd 5a40 fdbd 6c22 f9bc 5588 84bd
00000010: 2e17 27bc 2cf8 403e 3ff0 c9bd ff2c 873e
00000020: 435f e23d 140d 26bf cf07 4b3e 27b0 d73d
00000030: 6f33 85be 704c 1cbe 16fa 93bd e90c b03d
00000040: 80f1 323e 1c1a a3be d3af 593e 9ff2 a53d
00000050: f363 a23d b02a adbe bba2 b73e 7e88 19bd
00000060: 4e0b 5dbc 7288 233d bbd7 033f b2c0 92be
00000070: 3441 383e 08d3 58bd 0899 643c 43ca 8c3e
00000080: 0fd6 603e 5dd4 343e c6ac 0d3e baeb b1be
00000090: aab9 ea3d 4a3c cb3d 1daa 083e 95d3 413e
000000a0: 6d3f e53c b9d9 03be 6e56 113e 9f1a babe
000000b0: ceb9 ebbd 4085 133c d71e 4f3e a600 423e
000000c0: 36d2 b93e d85b 9e3d 91d1 843e a55d 21be
000000d0: 5886 783e 392a b7bd e19c d83e 84ae 3d3d
000000e0: f9f7 2a3d f892 a9be bdc3 833e 99e1 e8bd
000000f0: 4903 163d 044f cdbc 2a0f 343e bd2c 0abf
00000100: c380 423d 2fcb 1a3d 3aca 4d3d 6cee 383e
00000110: 8e28 463e f5ef 1bbf 00ba 6f3e ebe6 07bf
00000120: f0d2 813e 3bf0 0e3e 9e74 26bd 3236 013e
00000130: c70b 09bd fbe7 43be ca34 753c fe67 22bc
00000140: 4e43 923e 7974 c63d 2fc0 7a3e 40b6 013e
00000150: d0af fd3d f0de ab3e b140 803d 58b5 2d3d
00000160: 111d 3abe b42e 95be 4d8f a03d f6ca 613e
00000170: c814 743e c58f 66bd d89c 2a3e 735f 723e
00000180: ca79 0a3e 7b13 dbbc 2825 92bc 65a4 713e
00000190: 985b 0b3e c5c2 95bc 1acf 693e fd50 e7bd
000001a0: c75a 1cbe 44fc fe3d bb99 093d 4afb 443d
000001b0: c54c 7c3d a51d 94bc 420e 31bd 6cff 98be
000001c0: 17d2 953e f02f bc3c adf5 803e 1f71 253d
000001d0: 144b dd3d b401 a83c d09c 083f ab04 113e
000001e0: 3778 1b3d fb06 003e b0db 6cbd a26a 123e
000001f0: 59cb 5e3d 3afe 81b9 fb66 db3e 9c6f 7b3d
00000200: 436b b7be 90bb 00bf c43d d83d e89c cabc
00000210: e327 613e b798 fabc 0cdb 493e b740 733d
00000220: 2129 dfbe 902d a53d 6c6f ffbc 83e6 223e
00000230: b7cd c63c 071a 373e 86d1 9ebd 90b8 0e3d
00000240: a183 513d a2bb 71be ba1f fa3d 324f 413e
00000250: 9cf4 87bd bf9d b73c 2fdd dbbd b4ca 283d
00000260: e79c e03d 3ee2 39bd c9a7 943d a95b 483e
00000270: 05fd 0cbe 7548 d33d 2258 c4bd 6752 ebbd
00000280: 306a 1dbe b4d4 d23d 1a79 9fbd 9bc1 62bd
00000290: 8430 42bd c574 1c3d 687d 913d 0cb4 843e
000002a0: 3ec4 2bbe 593c 5c3e 6b81 cb3d 29d7 29be
000002b0: 10c0 c7be 3136 9cbe 562e 60bd 53c9 55bd
000002c0: 60cd e43c 194f 98bc b0b2 0a3d ff49 d03c
000002d0: c0c7 283e c3c8 23bd 4a46 363e 81a4 87bd
000002e0: dbaa 9abc 9d20 803d 23ea ecbd 2a91 b5bc
000002f0: b5a4 a93d 37e2 c6be 25a8 22bd 6edb 1cbd
00000300: c8d6 efbc fb7e c63d aecf 64be 2d21 f43c
00000310: 86eb 99bd 5bd1 b4bd 37c5 2abe 1e53 6bbe
00000320: 4dd3 03be 238e 603c f95d fdbd b281 1a3e
00000330: ce9c eb3d d5a2 0abe 3eee a4bd 63ee b6bc
00000340: dcaa 84bd a7c3 96bd c0e1 f2be 57f8 0dbc
00000350: eaf7 13bf 1bd0 823c 601a b63c 7c7a d9be
00000360: a9ca f03b 3137 813d dcce 8e3d 0bcc dabd
00000370: 0333 dd3d 9c43 e3bd c961 27bd bb94 bf3d
00000380: ecc2 913b
-0.08538497 -0.1236579 -0.030411921 -0.06471316 -0.010198398 0.1884467 -0.098602764 0.26401517
0.11053326 -0.64863706 0.19827197 0.10531645 -0.26015803 -0.15263534 -0.072254345 0.085962124
0.17474937 -0.31855857 0.21258478 0.08102917 0.0792922 -0.3382163 0.3586634 -0.037483685
-0.013491465 0.039925046 0.51501054 -0.2866264 0.17993623 -0.05293563 0.013952501 0.27498063
0.21956657 0.17659135 0.13835439 -0.34750158 0.11461194 0.099236086 0.13346143 0.18928368
0.027984345 -0.12876023 0.14193127 -0.36348435 -0.11510049 0.009003937 0.20226608 0.1894556
0.3629319 0.077323616 0.25941136 -0.15758379 0.24269998 -0.089436 0.4230719 0.04630901
0.04174039 -0.3311994 0.25735274 -0.11371154 0.036624227 -0.025062092 0.1758391 -0.53974515
0.047486078 0.037791427 0.050241686 0.180597 0.19351408 -0.6091302 0.23410797 -0.5308673
0.25356245 0.13958828 -0.04063856 0.1261833 -0.033458497 -0.19131462 0.014966199 -0.009912489
0.28566974 0.09690184 0.24487375 0.12667179 0.12387049 0.33568525 0.06262339 0.04240927
-0.1817515 -0.29137194 0.078398325 0.2205008 0.23836052 -0.056289453 0.16661394 0.23669223
0.13523021 -0.026742687 -0.017839983 0.23597868 0.13609159 -0.01828135 0.22832909 -0.11294744
-0.15269004 0.124504596 0.033593874 0.04809121 0.06159665 -0.018080542 -0.043226488 -0.2988237
0.29261848 0.022972077 0.25187436 0.040391084 0.10805336 0.020508625 0.53364277 0.14161937
0.037956443 0.12502663 -0.057826698 0.1429849 0.054393146 -0.0002479421 0.42852005 0.061385736
-0.35824022 -0.502862 0.10558656 -0.024733022 0.21987872 -0.030590398 0.19712466 0.05938789
-0.43586066 0.08065331 -0.03118106 0.15908246 0.024268014 0.17881022 -0.07754807 0.03484398
0.05115092 -0.23606732 0.122130826 0.18877867 -0.066384524 0.022414086 -0.10735547 0.041208938
0.10967427 -0.045381777 0.07258565 0.19566216 -0.13768394 0.103165545 -0.095871225 -0.114903264
-0.15372539 0.10294476 -0.0778677 -0.055360418 -0.04740955 0.038197298 0.071039975 0.25918615
-0.16774079 0.21507396 0.09936794 -0.16585983 -0.3901372 -0.30510095 -0.05473169 -0.05219395
0.027929962 -0.018592404 0.033861816 0.02542591 0.16482449 -0.039986383 0.1780025 -0.066231735
-0.018880298 0.062562205 -0.115680955 -0.022163946 0.082833685 -0.38844463 -0.039711136 -0.038295202
-0.02927722 0.09692188 -0.22344849 0.029800976 -0.07515626 -0.08828994 -0.16676794 -0.22980925
-0.12873574 0.013705763 -0.123714395 0.15088537 0.115045175 -0.13538678 -0.080532536 -0.022330469
-0.06477901 -0.073615365 -0.4743786 -0.008665166 -0.5780016 0.015968373 0.022229373 -0.4247626
0.0073483777 0.06309355 0.06973049 -0.10683449 0.10800745 -0.1109688 -0.04086474 0.0935454
0.0044482853
