lunar_lander_continuous/models/DuelingDQN/quantization_25/model.pth (torch, 152839 bytes, 9 tensors)

fc.weight f4 [128, 8]
00000000: 8047 383d bce2 bc3e ff86 0dbf f710 e0bd
00000010: 6c20 8840 9c54 b5be c387 fbbe e446 bf3f
00000020: 95f3 3ebf 7fc4 80bd bd5e 8e3e ef7d 5cbf
00000030: 3869 bebe c625 28bf c83d ae3f 0025 b33f
00000040: 0637 6abe 1850 bb3f 7fb3 873e 48fe 643f
00000050: 5386 04be 4053 a5be 55d1 36be 5707 0b3d
00000060: e26a 76bf 4711 60bf a73f 5e3f 84d7 abbe
00000070: bd8a efbd ca96 fabf 0cf0 c83f f8c2 e83d
00000080: 37b9 21bf c6a3 b8be d1b2 a2be aa60 f2be
00000090: 3064 413f 9e11 303f 7880 a13e b728 bebd
000000a0: ef9e 243e c586 4cbe 3956 8f3e 0fae 983e
000000b0: f467 75bf c254 3abf fc8b e8bf 0ab4 903f
000000c0: 8aeb 7ebf b1eb bb3e d985 aabf 0aa8 e3be
000000d0: d612 32c0 d9b6 123f ce4d 08c0 b546 f2bd
000000e0: fa2b 043f 616f ff3e fd92 a73e f2d1 61be
000000f0: 8701 12bf b633 a6be b0ea 2e3f cf8a 353f
00000100: 9a18 b23e d64c 18bf 6365 a03c dc39 353f
00000110: 9f30 09bf 2d33 f6bf d076 2fbf 766b 8f3f
00000120: e0b4 0dbe c2c1 adbd 153a e03f 74ba 3d3f
00000130: ffba 40c0 8934 44c0 7169 bdbe 5986 95be
00000140: 85e6 aa3f 0d96 ebbe ae46 4b3e 6e0b 01be
00000150: 6b0b 21bf 90fb 08bf bad8 9cbe 4f43 7f3f
00000160: 318c 61bf 6c4e 5abe c90a 02bf 392d 343e
00000170: 047e 04c0 9ebc d9bd bc59 dbbd 2ebb 923f
00000180: b080 c33e 1c00 933d 3537 eebf ef46 393f
00000190: 84c7 babf 6ba9 313e 27ee a7be ff4c d53e
000001a0: 5e12 ed3e f610 673e 3605 2d3e f405 b53e
000001b0: 5676 a6be 6a46 9abf a504 f0bf 9088 a83d
000001c0: d992 563f 3078 36bf 096c 04be d82f 9fbf
000001d0: 297d 07bf a003 f1be 3a0b 533d bd7a 24bd
000001e0: 3e0b 873f fd1e f6bd 6090 4f3f 889f 70bf
000001f0: b04f c33e ab22 e4bd ea05 5cc0 cfa3 f33e
00000200: e71f 9fbd af92 a63e 595d c23f 80b3 ae3e
00000210: fc34 af3f ae2f 06bf bd36 fcbe ef57 3240
00000220: 149e 903d fd5c 7abe a9b6 293e bf97 67bf
00000230: a169 03be a438 f9be ebab ed3f a130 763f
00000240: 7da5 18bf c2d1 3b3c 8442 28bf 0cd2 d0be
00000250: f8d1 6e3e 16fe 09bf c482 adbd fff3 89c0
00000260: 29ea ce3e 89fa 533e 70f0 3a3e 7db5 f63e
00000270: 3857 1cbf fb32 1cbf cb23 14c0 6430 c0bf
00000280: 56b5 ba3e 7db5 a0bd d8bd 153d 1d40 04bf
00000290: 42d2 61bd 4c2a 4cbe 1358 2b3e 8d65 8f3f
000002a0: 98ae 79bf 6ac8 32be 5609 18bf 0ab6 e93e
000002b0: 99c6 77bf 1e55 323f 39c8 1e3f 53d4 64bf
000002c0: 0d04 503e bacf 893e a04f f6bb 83a0 cc3b
000002d0: f73f 1140 d2ec 8abe 6d88 9c3d ae74 ac3e
000002e0: 53fd 71bf 5486 58be 77c6 433e 636b f2be
000002f0: fdc7 01bf 07c0 b23e 0e38 7f3f 797c f03d
00000300: fe15 1dbf f827 1abf f40b 4cbe dcc1 763e
00000310: 86e3 ec3f 5ccd c03f b98c 36bf 796a 3cbf
00000320: 0d0f 39bd 6241 88bf 5dcd ef3f 66a6 f63f
00000330: b1fe b63f 1355 693e 418e 7bbe 50d7 563f
00000340: 6f7d f13e e2d1 f43e 0019 b63e e82f 47bd
00000350: 9718 d73e c6bb 0a40 754e 17c0 9dc0 a93e
00000360: 1526 963e 3357 3cbf 3f35 9ebf e47a 81be
00000370: 5e3f ecbe b6af 803f d1c2 89be 14c1 2f3f
00000380: 4ad5 2a3e 6259 91be 67c3 8f3b cb6d 6fbe
00000390: 8376 923e 1dd4 8e3f d0be ab3f e91f be3e
000003a0: 1c16 acbd d1d9 0a3f 6c6f b9bc 9357 eebe
000003b0: 74a3 8cbf 650f f83e ae47 95be 478a 25bf
000003c0: eff5 153f 6d4a 24bf d411 9f40 f2bd f3bf
000003d0: 1617 4d3e c601 593f ed07 69be 5e65 49bd
000003e0: 342c fc3e 3f5c 843e fa93 a13e 2b93 8ebe
000003f0: e374 ddbf aeb6 b8be e374 d53e af76 bf3f
0.044990063 0.36891735 -0.5528411 -0.10940736 4.2539577 -0.35416114 -0.49127015 1.4943509
-0.74590427 -0.06287479 0.27806655 -0.8612966 -0.3718965 -0.6568264 1.3612604 1.3995667
-0.22872552 1.4633818 0.26504132 0.894505 -0.12941866 -0.32290077 -0.17853291 0.033942547
-0.9625684 -0.87526363 0.86815876 -0.33562863 -0.11696384 -1.9577267 1.5698256 0.11365312
-0.6317324 -0.3606245 -0.3177705 -0.47339374 0.755435 0.6877688 0.31543326 -0.092851095
0.16076253 -0.19973285 0.2799547 0.29820296 -0.95861745 -0.7278558 -1.816772 1.1304944
-0.99578154 0.36703256 -1.3322097 -0.4446414 -2.7823997 0.57310253 -2.1297488 -0.118298925
0.516296 0.49889663 0.3272933 -0.22052744 -0.5703358 -0.32461327 0.68326855 0.7091493
0.34784395 -0.5949224 0.019579595 0.7079141 -0.53589815 -1.9234368 -0.6854067 1.120467
-0.1383853 -0.08484222 1.7517725 0.7411263 -3.0114133 -3.0657065 -0.36994508 -0.29204062
1.3351599 -0.46012917 0.19851181 -0.12602016 -0.6290805 -0.53508854 -0.306341 0.9971208
-0.8810454 -0.21318978 -0.50797707 0.17595376 -2.0701914 -0.10631679 -0.10710475 1.1463373
0.38184118 0.07177755 -1.8610598 0.7237386 -1.4592137 0.17349784 -0.32798883 0.41660306
0.46303076 0.22565064 0.16896519 0.35356104 -0.32512158 -1.2052739 -1.8751417 0.08229172
0.8381782 -0.7127714 -0.12931837 -1.2436476 -0.52925354 -0.47073078 0.05152438 -0.040156115
1.0550306 -0.12017629 0.81079674 -0.93993425 0.38146734 -0.11139425 -3.437861 0.47585914
-0.07769757 0.32533786 1.5184737 0.34121323 1.3688045 -0.52416503 -0.49260512 2.786617
0.07061401 -0.24449535 0.16573586 -0.9046592 -0.12833263 -0.48676026 1.856809 0.9616795
-0.59627515 0.011463584 -0.65726495 -0.40785253 0.23322284 -0.5390333 -0.08472207 -4.3110347
0.40413025 0.2070104 0.18255782 0.4818534 -0.61070585 -0.6101529 -2.3146846 -1.5014768
0.36466473 -0.07847116 0.036558002 -0.5166033 -0.055132158 -0.1993801 0.16732816 1.1202866
-0.97532034 -0.17459264 -0.59389246 0.45646697 -0.9678741 0.6966113 0.62024266 -0.8938648
0.20314045 0.26916295 -0.0075168163 0.0062447204 2.269529 -0.27133805 0.07643209 0.3368277
-0.9452717 -0.21144992 0.19118677 -0.47347555 -0.5069578 0.3491213 0.9969491 0.11742491
-0.6136168 -0.6021724 -0.19926435 0.24097389 1.8506935 1.5062671 -0.71308476 -0.73599964
-0.04518037 -1.0644953 1.8734547 1.9269531 1.4296476 0.2278636 -0.24565984 0.8392229
0.4716601 0.47816378 0.35565948 -0.04862967 0.42010948 2.1677108 -2.3641636 0.33154765
0.2932593 -0.73570555 -1.236 -0.2528907 -0.46142095 1.0053623 -0.26906446 0.6865399
0.16682926 -0.28388506 0.0043873074 -0.23381726 0.28606042 1.1158482 1.3417606 0.3713372
-0.084026545 0.5423861 -0.022636138 -0.4655119 -1.0987382 0.48449245 -0.2915625 -0.6466412
0.5857839 -0.64176065 4.9709263 -1.9042342 0.20028338 0.8476833 -0.2275693 -0.049168937
0.49252474 0.25851628 0.3155821 -0.27846655 -1.7301296 -0.36076874 0.4169074 1.4958094

fc.bias f4 [128]
00000000: f0b8 4e3e 6710 66be 8ea7 313f 04c7 23bd
00000010: 7539 fe3e 81e1 e2be 479c 95bd dfba 473f
00000020: 55d3 9cbd 0bf7 213e 87cb 55be 1114 7bbe
00000030: 35bd 1cbf 98b7 cebe 9dfb 1cbf f6d2 2b3d
00000040: 6917 9d3e 275f 383e 0f3d 653e 369a 09be
00000050: 9b73 c93e 963f 653d 9d48 1bbf 6b37 8c3e
00000060: ed23 b3be 85bd f9be 6a75 85be ca54 a33d
00000070: 8fbe 5cbe db94 f5be c306 a53e d6fd f33e
00000080: 0694 d73e 14dd 983e 553f acbe ed66 263d
00000090: dc34 4a3f e886 813e 04b1 b8bd 401f 37be
000000a0: baab 07bf 58f0 863e 40d4 ce3e e229 05bf
000000b0: 817d dd3e bef5 6a3e a633 6c3e ba74 963d
000000c0: f0a3 0cbf afed 973e 59f9 393e 296d b0bd
000000d0: df09 183d 3a3b 053f f038 18bd 7c75 31be
000000e0: 75da b13d 13b4 a13c f6b6 aa3d 260b 21bf
000000f0: cb01 e63e 64b5 bd3e 2d23 013f 0b1a 433d
00000100: fb74 dbbd 2b0e 7a3e 9a1f 26be 36b2 25be
00000110: 0455 1fbe 0feb 97be 48c8 39be ffff 043f
00000120: 3162 dcbe 92cd b13e 7971 8d3d 2db5 fdbd
00000130: 2cb5 bfbe ca2f 593f bf69 3fbd ef38 a8be
00000140: 2a8d 3c3d 0102 023f 9d40 3e3d cb25 c2bd
00000150: d952 14bf bd3a 633e da4e 02be 4704 7f3e
00000160: 7c9d f53e 210c 9d3d 4369 0bbe 4dae e33e
00000170: 77f2 e63e 129a c13d a8ed 243f 1422 83bd
00000180: 424a e4bd 1789 f43e e1d1 823c e0b0 3bbe
00000190: 54ba 863d 28f9 153f be3c 36bd 7089 3d3e
000001a0: f89a 0c3f 6863 b73e a35a 923d fd9c 9b3f
000001b0: b068 a33c 8798 fc3e 2170 d9bd d1c5 58be
000001c0: aca5 c43d 3e4e 8e3b 6ac1 43bd 59a0 563d
000001d0: f26b e9be 4899 91be db30 f4be 103e 583e
000001e0: 57c3 35bf 3756 1ebf 207f 88bc 19f0 1b3f
000001f0: 9f9e 2cbe c7cb d43e 75cd c3be a080 9c3e
0.20187736 -0.22467194 0.69396293 -0.039984718 0.4965321 -0.4431267 -0.07305198 0.7801952
-0.07657496 0.15816896 -0.20878421 -0.24519373 -0.61226207 -0.40374446 -0.6132143 0.041949235
0.30681923 0.18005048 0.22386573 -0.13437733 0.39346012 0.055968843 -0.60657674 0.2738603
-0.34988347 -0.48777404 -0.26066142 0.079751566 -0.21557067 -0.4796513 0.3223172 0.476546
0.4210512 0.2985617 -0.33642069 0.0406255 0.78986907 0.25298238 -0.09018138 -0.17883015
-0.5299641 0.26355243 0.4039631 -0.52017033 0.43259814 0.22945306 0.23066577 0.073464826
-0.5493765 0.29673526 0.18161525 -0.08614571 0.03711879 0.520435 -0.037163675 -0.17329973
0.086842455 0.019739186 0.08335678 -0.62907636 0.44923243 0.37052453 0.504443 0.04763226
-0.10715672 0.24419467 -0.16222993 -0.16181263 -0.15559775 -0.29671523 -0.18142807 0.5195312
-0.43043664 0.3472715 0.06906409 -0.12388072 -0.3744291 0.84838545 -0.046731707 -0.32855937
0.046033062 0.5078431 0.04644834 -0.09479865 -0.57938915 0.22190376 -0.12725392 0.24903975
0.47971714 0.07668329 -0.13614373 0.44468918 0.4510686 0.09453215 0.64425135 -0.06402984
-0.11146976 0.4776084 0.015969219 -0.18329191 0.06578508 0.5858331 -0.044491522 0.1850946
0.54923964 0.35818028 0.07146194 1.2157284 0.01994738 0.4933512 -0.1061709 -0.21169211
0.09601912 0.0043428233 -0.047791876 0.052399013 -0.45590168 -0.28437257 -0.47693524 0.21117425
-0.7100119 -0.61850303 -0.01666218 0.60913235 -0.16857384 0.4156172 -0.3824269 0.30566883

fc_value.weight f4 [128, 128]
00000000: 1e3f a63e 01f2 0fbd 504d 633f a20e 293d
00000010: 0971 863e 80b8 e4be 2486 5a3d fed3 e63e
00000020: 55bf a0be df74 053f 6358 07bf 86e3 c03e
00000030: bcbc b63e 42d3 7b3d ed6f 95bf 421a ce3c
00000040: c82a e63b d7ca 5d3e 3588 283d 8c7b e63d
00000050: fe4d 873d 782a f83e ea1d dbbe d0f4 8abe
00000060: 0b4b 0fbf 462f fe3e 1f70 c4be 7560 adbe
00000070: bf75 24be e0ca 9b3b ff1f 6b3e ec8e 0a3f
00000080: 5b5d 613e 4049 8ebe c659 07bf 7d54 0a3f
00000090: fbb6 833e c843 943f f535 143f fc1e e83e
000000a0: cd27 bbbe ab4a 8bbe 8de8 6d3f 9b87 ccbe
000000b0: 4599 b93e 152c f2bd 5154 27be 2946 e43d
000000c0: eaea 22bf 930b a13e 11a4 0b3f 7d48 7cbe
000000d0: e8f0 e8be d43f 293f 696c ecbe 6bb9 fb3e
000000e0: ddaf 4bbf 5691 a93d de2b dbbd b189 41be
000000f0: e38b 443f 35fc 5fbf a267 d23e 7958 a23e
00000100: dab1 a53d d82a 14be bfd6 7c3d b90f ab3e
00000110: 2b32 93be a278 673d 33c9 c0bd 59f9 013f
00000120: a970 223d cbbe 9f3e 9a87 c5be 5687 12bf
00000130: f5a7 babc aeaa 743f d0e8 e6be 76af c63c
00000140: b2e4 c53e 34f5 a93e fbd8 453d a0fd 4b3f
00000150: fcd3 0abf 882b ddbe ced9 cfbd 98c0 88be
00000160: 4076 413f abd6 d3be f5ea f33d 2ba1 2b3f
00000170: ed9e de3e f8b7 dd3d 2621 4e3f 1001 963e
00000180: 2069 b83d 858e 66be 4356 093f b641 233f
00000190: 406c debe 9f89 643f 8662 10bf e03d adbe
000001a0: 9de4 db3e b814 823e ac28 9b3e 4a14 203f
000001b0: 6254 17bf f95e 75bc 9a69 de3b 8d1b 893d
000001c0: ce1b 86be 4463 1ebf c7b1 5bbe 3f43 823e
000001d0: 4ccd 96be e6dc 7b3e 244d 343c 1ae9 28be
000001e0: fbb2 1dbf ebb2 5fbf bee3 7638 a34f 7d3e
000001f0: 7f6e 0bbc 3390 fd3d ecbf fe3d 0c9f c0be
00000200: 1a6d 2dbe dcde c13d 00e8 9d3f 7381 3ebf
00000210: b3b7 fd3e db70 55be b04a 913f 6de8 ae3e
00000220: 8799 f6bd 6e66 963e a1d2 dabe b821 70be
00000230: 70c8 ffbd 8561 ebbe 141d 05bf 4142 b73e
00000240: 9f70 07bd 7d72 a03c 85c7 ca3e efc9 f7be
00000250: c90b 3a3d b647 91be 8353 30be 028a fdbe
00000260: a558 a23c d8c4 d93e df82 303f b72a 43bf
00000270: 83a4 15be 6956 803d 49bd 653f 6fd6 8f3d
00000280: 70bb 32bf 3b05 7c3c 73a1 60be 317b 083e
00000290: d9fc db3e 180a 263f fe50 493f b3d2 38be
000002a0: ebcb c83d 6196 8bbc c420 d0bd fb9b 59be
000002b0: dc01 373e 4af8 ad3e 4bfe dcbc ebb2 ef3d
000002c0: 5c28 74be dfa8 543e f79e 9b3e 226a 9fbe
000002d0: 7006 17bf a6d9 ae3e ae13 f33d 5653 93bd
000002e0: b5fc 95be a290 c63e 4bc3 08be 28dd b93e
000002f0: afbe be3e d9f8 eb3e e8f0 163f 19cd b33e
00000300: 2f31 a63d 3e89 6abe aaa6 8bbe 6e07 2d3e
00000310: 94ed b1be 050b ac3e 25c2 d2bc c406 143f
00000320: e168 db3d 027c 85be e0a5 583e b80a 30bf
00000330: 6387 613e f57c b93e bb68 4dbd e5b8 b8be
00000340: c210 0e3f d2c3 833e 139d a83e 7d90 943f
00000350: 054d 8dbe e4d9 57be 8d33 0d3e 80d8 03be
00000360: bfd9 653d 5ea9 39be b6ea 343e 5616 2f3e
00000370: f5ba 793e 8ec0 fdbd 7935 433f 25a9 d43b
00000380: 5e5b 32bf c7be fa3e 2fc5 4d3e f545 513f
00000390: e6c6 c6be 48d4 08bf b040 92be 74a5 5fbe
000003a0: 8218 6ebf 3983 493e 0fe9 4b3e b610 023f
000003b0: 8842 82bf 8edf 213d f94f 9e3e efd9 0bbd
000003c0: b338 e73c 1866 b0bd 4a36 4ebe d3b0 e43e
000003d0: 61b2 19be abc0 0abf 63fd 8ebf e1bd 2dbe
000003e0: eb97 95be b4c3 233f 4f3d e43e 8878 243f
000003f0: d128 8fbe 1a53 2cbe 4914 cf3e ca70 bfbe
0.3247003 -0.035142902 0.88789845 0.04127372 0.26258114 -0.44672012 0.053350583 0.45083612
-0.31395975 0.52131456 -0.5286924 0.37673587 0.35690868 0.061480768 -1.1674782 0.025159005
0.007024143 0.21659409 0.041145522 0.112540334 0.06606673 0.484699 -0.4279626 -0.27139902
-0.5597388 0.49645442 -0.38366792 -0.33862653 -0.16060542 0.004754409 0.22961424 0.5412433
0.22008269 -0.2779026 -0.5287136 0.5403517 0.2572554 1.1583185 0.5789483 0.4533614
-0.36553803 -0.27205405 0.9293297 -0.3994721 0.36249748 -0.11824814 -0.16340758 0.111461945
-0.636397 0.31454143 0.5454722 -0.24637027 -0.45496297 0.6611302 -0.4617646 0.491649
-0.7956522 0.08279674 -0.107017264 -0.18900181 0.7677595 -0.8749421 0.4109469 0.31708124
0.08090563 -0.14469469 0.061728235 0.33410433 -0.28749213 0.05651153 -0.09413376 0.507711
0.039658222 0.3120025 -0.38580018 -0.57237756 -0.022785166 0.95572937 -0.45099497 0.024253588
0.38651043 0.33194888 0.04830263 0.79683876 -0.5422971 -0.43197274 -0.10148965 -0.26709437
0.7557106 -0.41374716 0.11910049 0.670428 0.43480626 0.10826105 0.8051933 0.29297686
0.09004426 -0.22515304 0.5364725 0.6377214 -0.43441963 0.89272493 -0.56400335 -0.3383627
0.42947856 0.25406432 0.30304468 0.6253096 -0.5911313 -0.0149762565 0.006787491 0.06694708
-0.26193088 -0.6187022 -0.21454535 0.2544193 -0.29453504 0.24595985 0.01100472 -0.16495171
-0.6160123 -0.8738238 5.8863072e-05 0.2473741 -0.008510231 0.123810194 0.1243895 -0.37621343
-0.1693615 0.09466335 1.2336426 -0.74416274 0.49554214 -0.20843832 1.1350918 0.34161702
-0.12041002 0.29375023 -0.42738822 -0.23450363 -0.12489402 -0.4597284 -0.51997495 0.35792735
-0.03306639 0.019585842 0.39605346 -0.4839625 0.045421395 -0.28375024 -0.17219357 -0.49519354
0.01981766 0.42532992 0.68949693 -0.7623705 -0.14613537 0.062664814 0.8974195 0.07023322
-0.69817257 0.015382106 -0.21936588 0.13328244 0.42966345 0.6485915 0.7863921 -0.18049125
0.09804519 -0.01703948 -0.101624995 -0.21250908 0.17871803 0.33978492 -0.026976725 0.11704048
-0.23843521 0.20767544 0.30394718 -0.3113566 -0.589942 0.34150428 0.11868988 -0.071936294
-0.29294363 0.3878222 -0.13355748 0.3630154 0.37254855 0.46088293 0.58961344 0.35117415
0.0811485 -0.22903916 -0.27275592 0.16897365 -0.3475157 0.33602157 -0.025727341 0.57822824
0.107133634 -0.26071173 0.21157026 -0.68766356 0.22024302 0.36228147 -0.050148707 -0.36078563
0.5549432 0.25735337 0.32932338 1.1606594 -0.27597824 -0.21079212 0.13789196 -0.12875557
0.056115862 -0.18131015 0.1766766 0.17098364 0.24387725 -0.123902425 0.7625347 0.00648989
-0.69670665 0.48973677 0.20094751 0.8174737 -0.38823622 -0.53448915 -0.28564978 -0.21840459
-0.93006146 0.19678964 0.19913124 0.5080675 -1.0176554 0.03951984 0.3092039 -0.034143385
0.028225278 -0.08613223 -0.20137897 0.44666156 -0.15009452 -0.5420024 -1.1171077 -0.16966964
-0.29217467 0.63970494 0.44578025 0.64246416 -0.27960828 -0.16828576 0.40445164 -0.3739074

fc_value.bias f4 [128]
00000000: 7e7b e23d a253 ae3d e320 e0bd 2644 103e
00000010: 7ccf 68bd 6d9a 043e c213 a5bd a637 e8bd
00000020: 6efb efbd 4e5b a13c 6294 a2bb e19a 30bd
00000030: 0209 173d ae57 a8bd 881a c8be 6a23 c93d
00000040: 1a39 09bd 037d 053e 683a a63d 208a 40be
00000050: 3e9c 5e3c 01b3 073e c15d abbd ac57 46bd
00000060: 04a6 eb3b 88a5 ed3d 303f 703d 9a0e dbbe
00000070: 32ff b93e a28d 84be fe37 883b 3a8e 153e
00000080: 4abb 883e bb98 2d3b 3633 acbc de76 1f3e
00000090: 5910 82bd 5b58 05be cf83 53be 81bb 443d
000000a0: befc 013e a260 31bd e66c 913d 336c 9dbd
000000b0: c765 04bd 9d31 d03e c743 d13e 5d35 59bd
000000c0: 0fde 323d 1150 93bd a526 c1bd 031d 83bd
000000d0: 85d4 0dbe 9427 393e dc51 083d 79a5 123e
000000e0: f554 3d3e 1525 d83d 5885 d53c afa6 28bd
000000f0: 68cc c0bd 03ba 2d3e 4525 b2be 5d6e 433e
00000100: 2b00 fe3d d3e8 043e e4ad bbbd 150b 27be
00000110: 3c6b 603e 63a1 e93d 1f23 b93c 2310 1cbe
00000120: e94e c0bd 5a35 eabd 6468 323c 5ba8 56be
00000130: 56a0 05be 3333 0c3e 6fda a63c af27 f53d
00000140: f2f1 a7be c2b1 6bbd 520b f53c 118d dfbd
00000150: 8b0a 3dbe 49af 2e3e 3ccf ecbe d68c 143f
00000160: fcfc 0dbe bac7 d33e bc6d f13d 780e 5bbd
00000170: b3a9 f53d 9732 afbe 4e32 dabd 4c66 953d
00000180: 5d7d 77bd 53ad e6bd cf34 fd3d 6e31 03be
00000190: f86a aa3b 60be 3cbe 3d9a 16be a60a c03d
000001a0: d088 57bb 48bb 33be 8d0f 213d 5a67 713d
000001b0: 30fd bf3d 2484 243c 5c08 893e c3eb 20be
000001c0: a124 22be 5222 5fbd f9c4 453c 3a71 29be
000001d0: 9836 afbe 8bad 94be 24e3 47be 070e babd
000001e0: 2170 3d3e 5098 523c 3c71 253e c992 d8bc
000001f0: fba8 c43d 9808 b53d 9a22 d2bc 6205 783e
0.110587105 0.085120454 -0.10943773 0.14088497 -0.056838498 0.12949534 -0.08060409 -0.11338739
-0.11717878 0.019696858 -0.0049615363 -0.043116454 0.036873825 -0.082198486 -0.39082742 0.09821208
-0.033501722 0.1303597 0.08116609 -0.1880269 0.013587056 0.13251878 -0.083674915 -0.048423454
0.0071914215 0.11603838 0.05865401 -0.42784578 0.3632751 -0.25889307 0.0041570654 0.14605036
0.2670539 0.002648874 -0.021020513 0.15572688 -0.06350774 -0.13021986 -0.2065575 0.04803038
0.1269407 -0.043305047 0.07100849 -0.07686653 -0.032323625 0.40662852 0.40872023 -0.053029407
0.043668803 -0.07193006 -0.09431199 -0.06402018 -0.13850601 0.18081504 0.033281192 0.14320935
0.1848944 0.10553948 0.02606456 -0.041174587 -0.094139874 0.16965489 -0.3479406 0.19085069
0.12402376 0.1297944 -0.091640264 -0.16312821 0.21915907 0.11407735 0.022599755 -0.1524053
-0.09390051 -0.11435957 0.0108891465 -0.2096266 -0.13049445 0.13691406 0.02036783 0.1197046
-0.32801777 -0.05754257 0.029912625 -0.10915578 -0.18461053 0.17059053 -0.46251857 0.580274
-0.13866037 0.41363317 0.11788508 -0.053480595 0.11995258 -0.34218284 -0.10654126 0.07294902
-0.06042229 -0.11263528 0.12363588 -0.12811825 0.00520074 -0.18431997 -0.14707275 0.09377031
-0.0032887943 -0.17551911 0.03932147 0.058936454 0.093744636 0.01004127 0.2676419 -0.15714936
-0.15834285 -0.05447609 0.012070888 -0.16547099 -0.3422134 -0.29038653 -0.19520241 -0.09084707
0.18499805 0.012853697 0.16156477 -0.02643718 0.09602543 0.0883953 -0.025651265 0.24220803

fc_adv.weight f4 [128, 128]
00000000: f4ac 993e a0f4 333d 0a4e d53e c4bd 60be
00000010: 290b ccbd d49b ee3d e825 9b3d e61f 7d3e
00000020: 56b4 a6bd 1a5c 9a3e 67d5 a0bd ffdd 83be
00000030: 4c82 dcbd f1b5 e5bc 3199 8bbf d7aa 8dbe
00000040: 3d0f 0f3f 6800 843b 1491 34be f850 c0bd
00000050: b3db 9f3e df98 f5bd 1f5f 393e ea73 88bd
00000060: aa70 37be 1699 66be 07a2 15bf 9f75 0bbf
00000070: b693 ffbd 14d7 d6be 1bf2 2d3e 83dc 433e
00000080: f5c8 c73d b267 223f 9b5b ddbd e58d 883e
00000090: 11f2 90be 8522 5e3f 0438 abbe a99c 9bbd
000000a0: dbd7 293f c0c3 0a3e 4803 0a3f 5e21 85be
000000b0: 2f73 a83c 979e e9bc bcda 63bc ce6f 293e
000000c0: 8b2d a3be 2055 aebe 3fe2 173f 65eb 833e
000000d0: d327 0e3e 49ce 25be 218b 953d f12a 38bf
000000e0: 5b44 57be cac6 f23d ebea f53e 2d5a 18be
000000f0: f8a8 9e3e f0ab a83d 893a 35be bb8c 1f3e
00000100: b740 33be 5635 b43d 4506 93be b0b2 ea3d
00000110: 0056 3c3d 3a2d 10bf 3ee0 ff3c 847e 1d3d
00000120: 704b 19be 0aad 0abe 38c1 d33e c97c babe
00000130: 05a1 a23e 6e81 de3e 1811 bbbc fa43 db3e
00000140: 9f3a 2ebe 5329 053f cf1f 7abe b0fe 7fbc
00000150: eb54 50be 3004 173e d112 363b 3074 e1be
00000160: 20fb 723e 8ef6 993e 3e4d 443e ac18 553e
00000170: 12a4 9e3e 89bf 9c3e dfd0 eb3b ffe1 89ba
00000180: 8aa2 9abe f4a2 e13e 9561 e93d 401f f93e
00000190: dc9f ce3d 64eb 0d3f e324 3a3e df40 9cbf
000001a0: 82c9 76bb b536 73bd 190c dabd 6b11 f03e
000001b0: 454c 6e3e 0a49 1fbe a9ed 0e3f 5eb8 51be
000001c0: cee0 ae3d 4077 513f 1d69 3abe e727 20be
000001d0: 20eb 5dbe 3db5 4b3d 1ec0 06bf 4c4a 24bf
000001e0: 1c87 61bd 8802 e4be b01f 83bd bfe0 863c
000001f0: 6277 703e 5a05 1c3f 51ea edbe 8399 643d
00000200: 9c70 22be 2bc7 e53e 0942 90be 4990 35be
00000210: 9ac7 b23d 821a 0f3e 0cf8 5dbc e8f7 fdbe
00000220: 6a72 df3e e276 3d3f 1b6b df3e f4ea ae3e
00000230: ca1c 203e 2722 3bbf 2fa0 99be a3a3 1dbe
00000240: e642 ba3e cc98 3e3e 1b92 15bf 0201 febe
00000250: 2336 87be 4ef0 05bc b4ce 0b3f 7120 573e
00000260: 65e5 bd3e 667e ee3e 4216 193f 04e0 6dbe
00000270: 3de9 b73f 6326 d4be 98ec 183e 693e 10bf
00000280: 0ce9 21be c33a 813d 2aea 293f 5760 b43d
00000290: 0160 d83d c189 cc3e 9ba5 2a3c b570 ffbd
000002a0: 165c b83e 6adf bcbe 8f7f 1c3e eef3 7b3e
000002b0: 63d6 81be 8f64 22bf b74c 44be 1da4 5a3e
000002c0: 6f8c 9dbe 40cc 113d 20ca 04be 9b39 56bc
000002d0: a850 c4be a9f1 56be dbc6 f73d 173f bbbe
000002e0: 61b2 943e 182d 22be edc7 993d dbeb 0f3d
000002f0: 29bf 043f c729 c7be 4984 30bf 1f4a 183e
00000300: b732 af3e 3c63 79be 203c cf3d 82a0 933e
00000310: 34c2 03be 2f44 2fbe 41c5 003e 6b95 0f3d
00000320: 8cae b13e 463e 63be bd7b b43c c4f1 c13e
00000330: db2d 7a3e 290f dbbe 1697 a73e ca1e d83e
00000340: 2b31 263e 96e6 d2be 098c 443e 3e68 b73d
00000350: 2c42 ee3e dcb7 a8be f91f 843d caef 9c3b
00000360: ce1e 84be a48b 75be 9195 2dbe 5fe7 da3b
00000370: ece7 c03e c684 e63e b5ba 5dbe 6297 5dbd
00000380: 96e9 3dbe c9f4 933d 23f0 4abd 5797 0abd
00000390: 8814 23bd b417 d23d e494 0a3f 312a bbbe
000003a0: 0681 e2be c4fc bcbe cfd4 023f ec20 233f
000003b0: 3818 21bf 398b bcbf f862 d73e b4b2 3abe
000003c0: 6e29 eabd 647e de3e f924 53b8 5886 cb3c
000003d0: 8612 203d 8da3 a03e 3195 9b3e 849f 04be
000003e0: 42bd 033d 2344 d03e f86d 353e e28a f63e
000003f0: ae46 09be 6bb2 5e3f 47aa 7c3c c27a 56be
0.30014765 0.043934464 0.41661102 -0.2194739 -0.09963066 0.116508156 0.075755894 0.247192
-0.08139865 0.30148393 -0.07853203 -0.25755307 -0.1076704 -0.028040858 -1.0906125 -0.27669403
0.55882627 0.0040283687 -0.17633468 -0.093904436 0.31222305 -0.119920485 0.18102692 -0.06662734
-0.17914072 -0.22519335 -0.5845036 -0.5447635 -0.124793455 -0.41960967 0.16986887 0.19127087
0.097551264 0.63439476 -0.10808488 0.26670757 -0.28309682 0.8677142 -0.33441174 -0.0759824
0.66344994 0.13551235 0.53911257 -0.2600202 0.020562736 -0.028518004 -0.013907131 0.16546556
-0.31870684 -0.3404932 0.593296 0.2576553 0.13882379 -0.16191973 0.07301927 -0.71940523
-0.2102217 0.11854322 0.4803079 -0.1487815 0.30988288 0.082359195 -0.1769811 0.15581028
-0.17505156 0.087992355 -0.2871572 0.11459863 0.045980453 -0.5631901 0.031234857 0.038450733
-0.14970183 -0.13542572 0.41358352 -0.3642333 0.31763473 0.43458122 -0.0228353 0.428253
-0.1701455 0.5201618 -0.24426197 -0.015624687 -0.20344894 0.14747691 0.0027782212 -0.44033957
0.23728609 0.3007092 0.1917009 0.20810193 0.3098455 0.3061488 0.0071965302 -0.0010519623
-0.30202132 0.44069636 0.113955654 0.48656654 0.100890845 0.554373 0.18178134 -1.2207297
-0.003765673 -0.059378345 -0.10646839 0.4688829 0.23271282 -0.15555206 0.5583139 -0.20480487
0.08538972 0.81822586 -0.1820416 -0.15640222 -0.21671724 0.04973339 -0.526369 -0.6417587
-0.05506049 -0.4453318 -0.06402528 0.01646459 0.23483041 0.60945666 -0.46467832 0.055810463
-0.1586327 0.44878516 -0.2817538 -0.17730822 0.08729477 0.13974956 -0.0135479085 -0.496032
0.43641979 0.74009526 0.43636402 0.3416363 0.15635982 -0.7309899 -0.30005023 -0.15394454
0.36379164 0.18612975 -0.58426064 -0.49610144 -0.2640849 -0.008174969 0.5461228 0.21008469
0.37089077 0.4658081 0.5979959 -0.23229986 1.4368054 -0.41435537 0.14934003 -0.5634523
-0.15811557 0.06310036 0.6637293 0.08807438 0.10565186 0.39948848 0.01041546 -0.12472669
0.36007756 -0.368892 0.15283035 0.2460477 -0.25358877 -0.6343469 -0.1916989 0.21351667
-0.30771205 0.03559518 -0.1296773 -0.013075258 -0.38342786 -0.20990624 0.120984755 -0.3657157
0.29042342 -0.15837514 0.07508836 0.03513704 0.5185419 -0.3889906 -0.6895185 0.14872025
0.3421838 -0.24354261 0.1011889 0.28833395 -0.12867051 -0.17115854 0.12575246 0.035054605
0.3470348 -0.22191724 0.02203166 0.37879765 0.24431555 -0.42785004 0.32732457 0.4221099
0.16229694 -0.41191548 0.19194044 0.089554295 0.4653486 -0.32952774 0.06451411 0.0047893273
-0.25804752 -0.2397905 -0.16951586 0.0066804136 0.37676942 0.45023173 -0.21653254 -0.054099448
-0.18546137 0.072244234 -0.04954542 -0.033835735 -0.039814502 0.10258427 0.5413344 -0.36555627
-0.44239062 -0.36911595 0.5110597 0.6372211 -0.6292758 -1.4729987 0.42067695 -0.18232232
-0.11433683 0.43455803 -5.0340754e-05 0.024844334 0.039080165 0.3137478 0.30387262 -0.12951475
0.032162912 0.40676984 0.17717731 0.48152834 -0.13405868 0.86990994 0.015421457 -0.20945266

fc_adv.bias f4 [128]
00000000: b105 303e 7ddb b0bc 0894 55be 7037 693e
00000010: 22d1 49be c187 e5bd 498b 77bd 1b3a 1ebe
00000020: f388 68bd 1ef9 6d3c 1bc2 05bf b0ab c7be
00000030: 8eab f2bd a1e0 1a3d 88db e93d 5ef1 0bbe
00000040: 0b8f 793e 5289 ad3e 865d 053e 2652 8e3d
00000050: 9780 29bf 25cc dbbd 32dc 613d eb31 373e
00000060: ba64 d73c 7290 3d3d 8e4f 2abe 36ab 8d3d
00000070: 830e 3f3e 97fc 98bd d2e4 f93e 4e08 c73d
00000080: f66d 7d3d cc67 503d 7db9 343e 2e53 a43d
00000090: 1626 dabd 2a4b d0bd 69f3 d93c db4c 0bbe
000000a0: 3701 273c cda0 1ebd f823 aa3e 5241 34bf
000000b0: 3f1a 9c3e 3461 883d f5fc 263e a1d7 833e
000000c0: b2d4 473c 6139 4dbd 874a b3bd e17d 43be
000000d0: 0414 453e 5c40 0cbf cadd d6bd 0aa1 c43e
000000e0: 8823 213e b07e 16bf 5f06 d73e 234c cabb
000000f0: 0520 55bd c173 983e 2697 99be c546 c33e
00000100: ce07 c93d 9d85 573d 558c 89be 0dfa bbbe
00000110: 796f 27be 16b4 d83d 02cc 2a3e 8f18 173f
00000120: c0be 57be 980c fb3d 7874 debd a1f7 793d
00000130: 42ea 01be f195 4c3e 2eef de3c 8384 103d
00000140: 43de 5a3e 6bc2 3c3e 3689 f6be 3632 413d
00000150: e5f0 edbb be3b f63d 3a1f b8be d668 f93d
00000160: b370 76bf 9a3d 4abd cbad e53e 30d0 033d
00000170: d032 ed3e 44d8 0bbf 8d7f 183e fd21 bd3c
00000180: 19ae d03d 7c86 e2bd 3f8d 1c3f 13d2 84bd
00000190: f012 e4bd 4c80 fabd 2070 c3be 2e39 373e
000001a0: 47d7 c4be 5a54 8ebd 41c0 cfbe 5e87 90bd
000001b0: aa94 e0be 7cc2 b53d 35fe 72be 05c2 9dbd
000001c0: c48a acbe dad0 bcbd 9d75 bebd ffdf a0be
000001d0: 7b72 0ebe f937 45bd 86c6 9cbd b317 c2bd
000001e0: 6b75 5ebe 9762 343f f98a 9e3d bf1c 513d
000001f0: 66b7 e1be ad63 0f3e d1fd 09bd 5fc1 37bd
0.17189671 -0.021589035 -0.2085725 0.22775054 -0.19708684 -0.11207534 -0.060435567 -0.15451853
-0.05677123 0.014524726 -0.52249306 -0.38998175 -0.11849128 0.03781188 0.114188254 -0.13666293
0.24370973 0.3389383 0.13023958 0.06949262 -0.6621184 -0.10732297 0.055141635 0.17890136
0.026293147 0.046280332 -0.1663191 0.069174215 0.1865788 -0.07470053 0.4880739 0.09718381
0.061872445 0.05088024 0.17648883 0.08023678 -0.106517956 -0.101705864 0.026605325 -0.13603537
0.010193161 -0.03872757 0.33230567 -0.7041217 0.30488774 0.06659165 0.16307433 0.2575045
0.012196707 -0.05010355 -0.08754449 -0.19090988 0.19245917 -0.54785705 -0.10491522 0.38404113
0.1573621 -0.5878706 0.41997048 -0.006173627 -0.05203249 0.29775813 -0.2999813 0.3813993
0.09815942 0.052617658 -0.26864877 -0.3671421 -0.16351117 0.10581224 0.16679385 0.5902185
-0.21068859 0.122582614 -0.108620584 0.061027173 -0.12687019 0.19979073 0.02721366 0.035282623
0.21373849 0.1843354 -0.4815156 0.047167026 -0.007261383 0.12023114 -0.35961324 0.12178199
-0.96265715 -0.049375154 0.44859156 0.032180965 0.4632783 -0.5462687 0.14892407 0.023087496
0.101894565 -0.11060807 0.61153024 -0.06485381 -0.111364245 -0.12231502 -0.38171482 0.17892906
-0.38445494 -0.069496825 -0.40576366 -0.07057069 -0.43863422 0.088749856 -0.23729785 -0.07703022
-0.3369962 -0.09219523 -0.09299777 -0.31420895 -0.13910858 -0.048149083 -0.07655053 -0.094771765
-0.21724479 0.70462936 0.07741351 0.051052805 -0.44085234 0.14002867 -0.033689324 -0.044862147

value.weight f4 [1, 128]
00000000: 9ed5 3e40 c5d1 e43f 2793 1ac0 a18f dc3f
00000010: 916d d13f 4685 0040 5d07 41c0 b1ea 11c0
00000020: 6cd7 52c0 c1ab d8bf 55e0 ca3f a2b3 3740
00000030: ce8c f33f 96e2 0c40 1d1d 0dc0 0ea9 2940
00000040: 39fd 4540 fa03 1fc0 0788 973f 275e a93f
00000050: 1d5c 0540 1a72 1940 6bb0 ecbf 38b2 eebf
00000060: 9363 2bc0 0d38 28c0 1f4f 1840 8a9c 1240
00000070: 0d1f 2fc0 6ee7 0bc0 970f 6040 c31b acbf
00000080: f6e8 f23f 299d 3640 a03c 2b40 e844 2840
00000090: 4e98 1140 69fe 2cc0 f003 a1bf b2e5 49bf
000000a0: 481e e53f 84f7 1cc0 e2e5 1ec0 a73b d4bf
000000b0: 036d 1340 e173 0840 7444 fa3f 02b5 f43f
000000c0: 6dab 643f 1b20 0b40 5037 04c0 4677 933f
000000d0: 7dc2 0e40 f239 8a3f 1d18 f7bf 05ae f8bf
000000e0: a441 0340 c23c 3b40 ca66 c13f e055 2f40
000000f0: cf63 04c0 5934 47c0 ff30 06c0 118d f03f
00000100: 8932 15c0 77c5 dabf 627d 0bc0 479d 0240
00000110: f265 3040 fa9e f63f b201 f5bf 294a 06c0
00000120: 2254 18c0 db43 00c0 6378 883f 18aa 1940
00000130: 4a0d 62c0 6046 1540 63dc 803f 2e42 0940
00000140: 8bd0 0dc0 fc4a c0bf 74e2 c8bf dbe9 fcbf
00000150: 9303 10c0 ca78 1540 1162 f3bf e58b 6bbf
00000160: 77e6 1840 36e7 0bc0 1d9e 0b40 8931 0d40
00000170: 5d46 f93f 3b5d 0bc0 480d 1740 1a19 3bc0
00000180: 4caa 3dc0 14d5 5c40 883e 823f 4705 e0bf
00000190: b5dd eebf a230 4540 c608 3840 aa25 8c3f
000001a0: 1d94 4640 fbfc 31c0 c044 0040 74b1 0c40
000001b0: ffeb 0240 6cd8 0e40 155a 8cbf 20b2 2c40
000001c0: 2d00 e53f 00ac 11c0 cd33 8e3f 09cd f13f
000001d0: d23d 16c0 464b 1d40 cec8 c8bf 341b 33c0
000001e0: 94b2 3040 3928 06c0 70d1 e83f a0ad 1c40
000001f0: 6e76 0540 a813 32c0 c900 0ec0 a466 e53f
2.9817882 1.7876517 -2.4152315 1.7231332 1.6361562 2.0081344 -3.0160744 -2.2799494
-3.2943983 -1.6927415 1.5849711 2.870339 1.9027345 2.2013297 -2.204902 2.6509433
3.0935805 -2.4846177 1.1838387 1.3231858 2.0837471 2.3975892 -1.8491338 -1.8648138
-2.6779525 -2.628421 2.3798292 2.2908044 -2.7362702 -2.1860003 3.5009515 -1.3445972
1.8977344 2.8533423 2.6755753 2.6292057 2.274921 -2.703028 -1.2579327 -0.7886611
1.7899866 -2.4526072 -2.482781 -1.6580704 2.3035285 2.1320727 1.955214 1.9117739
0.89324075 2.1738346 -2.065876 1.1520774 2.2306206 1.0798934 -1.9304234 -1.9428107
2.0508814 2.9255834 1.5109494 2.7396164 -2.0685918 -3.11257 -2.0967405 1.879305
-2.3312094 -1.7091511 -2.1795278 2.0408494 2.7562222 1.9267266 -1.9141142 -2.0982764
-2.380135 -2.0041416 1.0661739 2.4010067 -3.532061 2.3324203 1.0067257 2.1446643
-2.2158535 -1.5022883 -1.5694108 -1.9758867 -2.2502182 2.3354974 -1.9014302 -0.9201034
2.3890665 -2.185987 2.1815255 2.2061484 1.9474598 -2.1775653 2.3601856 -2.923407
-2.963519 3.4505053 1.0175333 -1.750161 -1.866141 3.0810933 2.8755355 1.0948994
3.10279 -2.7810657 2.0041962 2.1983309 2.045654 2.2319593 -1.0964991 2.698372
1.7890679 -2.276123 1.1109558 1.8890697 -2.3475232 2.4577193 -1.5686281 -2.7985353
2.7608995 -2.096205 1.8188915 2.4480972 2.0853534 -2.7824497 -2.218798 1.7921948

adv.weight f4 [25, 128]
00000000: 5e58 6dbe 0710 d53d 581d 1c3f 3548 be3e
00000010: 7fe8 c7be 374b 7abe 1e3b 833d 664d 58bf
00000020: ccc9 293e c462 4dbf b17d 91be f00b ba3d
00000030: 6407 0bbf cccf 203e 489a 06bf ee8c c7bc
00000040: 271e 49bf 466e 2d3e c3c3 163f d1d3 ce3d
00000050: 528d 05bd 9641 74be 00f1 ac3e 0ed2 903e
00000060: 6330 1d3d 1188 0c3e 5a09 aebe 1a36 d03e
00000070: 98ad 023f 52ed c3be 92b8 9fbe 74c4 9c3e
00000080: 4af6 35bf 2165 f9be d9af d6be 58d6 e83e
00000090: 046f 5f3e 45cf c73d 7574 9f3e 7745 b03e
000000a0: bcfb 26be 540d eabe ccf6 dfbd 3b88 ad3e
000000b0: c84d bfbe 2a0d 373e a640 223e 39e9 73be
000000c0: d375 ad3e 9a5a 17bf f30a 1bbe 927a 67be
000000d0: fd9b 843e 7094 50be d9ce 0cbf 7906 38be
000000e0: 24f2 f73b 3c41 94bd f9b4 b93d 074e 3dbe
000000f0: ddb8 c3be 2a5f f63e a057 273f 6f08 ebbe
00000100: bbb5 d5be 858c 24be 7e30 913c a2b5 4abf
00000110: fec4 053f be30 99be c4de 5fbd 0c40 f5be
00000120: aff9 03bf db44 93bf c85e 83bf fb97 16bf
00000130: d962 17be 1d3d dabe 76df ecbe dabd 8f3d
00000140: 5171 c83e f337 0dbf 9a29 87bf 2557 e83c
00000150: 796e 0f3f 0587 283b cd5e 0fbf 5304 203e
00000160: d946 483f 7a10 353d 0359 28bf 31f6 9fbe
00000170: a58a 98be 73e8 16bf 578d 33be 5f11 8f3e
00000180: ce89 2dbf 7a90 993e bafc 4abe 1d38 1a3e
00000190: 720f 28be 69dd 793f ba96 e63d 20ac d23e
000001a0: 6404 223e acb0 163f 12c4 5f3f 4e2d a33e
000001b0: 529c 90bf 0095 063f ae4d 003d c5e1 c7be
000001c0: d267 7fbe 4f23 243f b329 2c3e fb5c 1b3f
000001d0: 0489 c9be 8968 89be 176b dd3e 0340 cf3e
000001e0: 044e 98be 5e9e 08bf 4064 16bf deed 813e
000001f0: 1d17 8abe 3355 aa3b a8ce 3dbf 574d 923f
00000200: e38f 113f 20b4 53be 63c1 e6bd 5f48 383e
00000210: e0c5 e23e cb3e d23c efb5 64bf 5777 d5be
00000220: 7294 30be 2f07 12be a8fc 96be 8ba3 aebf
00000230: 246d c23e fd15 f63d ed42 8fbe 0f85 a2bd
00000240: 6881 71be daa6 81bd d92a f23e 3647 6dbd
00000250: 4271 58be 9069 983d 2b6d 083e ec8b 22be
00000260: d61a 163e bc00 0e3e 9515 20bf c648 5a3e
00000270: a8db 113f ad15 e5bd f012 163d a833 9f3c
00000280: bd9b 3fbe 07d4 43be 55d3 87be 3d61 f13e
00000290: f6ce 8dbe 72ee 953d a566 da3d fae6 cebd
000002a0: bc60 df3d 02d2 bc3d 02ca aa3e 5f2e 69bf
000002b0: 004a 32bf 09b9 a23e 95a3 ae3d d0ac 2ebe
000002c0: 84d4 153e 3efd edbd b101 14bf b4fa c2be
000002d0: d047 263e f630 b63e 4ff3 cbbe 8a81 ecbe
000002e0: 3d74 7e3e fd8d 673f 8fd8 cbbd bcf5 a9bd
000002f0: ba66 91be 975b 953e c656 123f 93e5 68be
00000300: 15e5 10be d522 37be cd34 72bb badd 2fbf
00000310: 034b ee3e 8c25 06bc 55ed 56be 2962 31bf
00000320: d555 bdbe b133 38bf d39b 4c3d 8924 cabe
00000330: 6a20 b2bc 4745 f8bd ce43 c2be 4c12 5cbe
00000340: 0bac 043e 7c54 113e 6b00 17bf c2ab 9e3e
00000350: 9a6d c83e 6c48 b83d bf29 973d 3ec9 a03d
00000360: 354d 273e fa7d 1abe e4df 0fbe ba21 6e3f
00000370: fea1 24bf 47b9 d8be 40ec 7cbd 7dd1 113e
00000380: 80c7 2dbe 6bd4 ebbd 001f 4c3e 160f 513d
00000390: b638 63be dcc2 b33f 135f 213c 53ba e93d
000003a0: 561a ac3f f71c ad3c afb2 323e 84a9 113e
000003b0: aaf2 ccbd 3119 9abd 3fba 9f3e 3e9f 28be
000003c0: 3b93 20be e90b 943d 652e 70bd aaf1 633f
000003d0: 79bb 8abd b994 d5bd 29db 2a3f 690b 7c3e
000003e0: 0a2b c7be 9a69 9b3e 41bb 61be 4da9 583e
000003f0: f09d 33bc e4c5 683e 31df 33bf 31a4 243f
-0.2317824 0.104034476 0.60982275 0.37164465 -0.39044568 -0.24442755 0.0640776 -0.844931
0.16580886 -0.8022883 -0.28416207 0.09084308 -0.5430815 0.15704268 -0.52579165 -0.024359193
-0.78561634 0.16936597 0.5889246 0.100989945 -0.032605477 -0.23853144 0.33777618 0.2828526
0.038376223 0.1372378 -0.3399151 0.40666276 0.51046133 -0.38267 -0.31195503 0.30618632
-0.7107893 -0.48709968 -0.41931036 0.4547603 0.21819693 0.097563304 0.31143537 0.34427997
-0.16306967 -0.45713294 -0.10935745 0.33892998 -0.3736403 0.17876115 0.15844974 -0.23819436
0.33878955 -0.5912262 -0.15140896 -0.2260535 0.2590026 -0.20369124 -0.55003124 -0.17971219
0.007566707 -0.07239005 0.09067721 -0.18486796 -0.38226977 0.4811948 0.6536808 -0.45904872
-0.41740212 -0.16069229 0.017723318 -0.791834 0.5225371 -0.2992 -0.054655805 -0.47900426
-0.5155286 -1.1505388 -1.02633 -0.58825654 -0.14783801 -0.4262475 -0.46264237 0.07018633
0.39148954 -0.55163497 -1.0559571 0.028361866 0.5602794 0.0025715244 -0.5600403 0.1562665
0.78233105 0.044205166 -0.6576082 -0.31242517 -0.29793277 -0.5894844 -0.17534386 0.2794294
-0.677884 0.2999304 -0.1982297 0.15060468 -0.16412142 0.9760347 0.112592176 0.41146946
0.15821987 0.5886333 0.87408555 0.31870502 -1.1297705 0.52571106 0.03132408 -0.39039436
-0.24941948 0.64116377 0.16812782 0.6068875 -0.39362347 -0.26837566 0.43245766 0.40478525
-0.2974702 -0.5336665 -0.5874672 0.2537679 -0.2697076 0.005198145 -0.7414346 1.1429852
0.5686018 -0.20674181 -0.11267354 0.17996357 0.44291592 0.025664708 -0.8934011 -0.41692612
-0.17244127 -0.14260553 -0.29489636 -1.3643659 0.37973893 0.12015913 -0.27980748 -0.07935535
-0.23584521 -0.063306525 0.47298315 -0.05792924 -0.21136954 0.074420094 0.13322894 -0.15873688
0.14658675 0.13867468 -0.6253293 0.21316823 0.56975794 -0.11185775 0.036639154 0.019433811
-0.18711753 -0.19123851 -0.2652842 0.471445 -0.2769696 0.073208705 0.10664109 -0.10102649
0.109071225 0.09219743 0.33357245 -0.9108638 -0.69644165 0.31781796 0.085272945 -0.1705811
0.1463185 -0.11620568 -0.5781508 -0.38081896 0.16238332 0.3558423 -0.39834067 -0.4619258
0.24849029 0.9045103 -0.09953415 -0.08298823 -0.28398687 0.2917144 0.57163656 -0.22743826
-0.14149888 -0.17884381 -0.0036957741 -0.686977 0.46541604 -0.008187663 -0.20988972 -0.69290406
-0.36979547 -0.71953875 0.049953293 -0.39481 -0.021743972 -0.121225886 -0.37942356 -0.21491355
0.12956254 0.14192384 -0.5898501 0.30990416 0.3914612 0.089981884 0.07381009 0.07850884
0.16338046 -0.15087119 -0.14050251 0.9302021 -0.6430968 -0.42328855 -0.061748743 0.1424007
-0.16970634 -0.11515125 0.199337 0.051039778 -0.22189602 1.4043841 0.009849328 0.11412492
1.3445537 0.021131976 0.17450975 0.14224821 -0.10007222 -0.07524336 0.31196782 -0.16466996
-0.15681164 0.07228834 -0.058637995 0.89040625 -0.06774039 -0.10428757 0.6674066 0.24613728
-0.38900024 0.30354005 -0.22044088 0.21158333 -0.010962948 0.2273174 -0.7026244 0.64313036

adv.bias f4 [25]
00000000: 15d8 cabd a3ed 0c3c 991e e2bc ba36 403e
00000010: 6dc6 283e 1ff4 8a3d 3fd7 6abd 7b29 84bd
00000020: b466 b3bd cefb ab3d c5ef 08bd a06d e4bd
00000030: 3b58 1a3e 3a9f c03d a1f0 aabd d598 9ebd
00000040: c87c 41be 3c57 f2bc d476 aa3b 967d 863c
00000050: 2406 453e bd3f a03e f9cd 1d3e 30ea 8fbd
00000060: 3500 30bd
-0.099044956 0.008601579 -0.02760248 0.18770877 0.16481943 0.06784844 -0.05733418 -0.06453224
-0.087598234 0.08397637 -0.033431787 -0.11153722 0.1507272 0.0940537 -0.083466776 -0.07743994
-0.18895257 -0.029582612 0.0052021537 0.016417306 0.19240624 0.31298628 0.15410604 -0.070270896
-0.042968947
