lunar_lander_continuous/models/DQN/layers_3/8_128_tanh_128_tanh_169/model.pth (torch, 159703 bytes, 6 tensors)

net.0.weight f4 [128, 8]
000000 e6 fd 0a bf 9a 2f f7 3e bc 27 03 3e 8f a8 7b 3d
       -0.5429367 0.48278505 0.12808126 0.061440047
000010 2e fb 17 3c c1 9d ca 3f f1 8d 01 bf 16 98 23 bf
       0.0092761945 1.5829393 -0.5060721 -0.6390394
000020 7f 05 b0 3e 31 cc 9b bd f1 e5 2a bf c1 3b 98 be
       0.34379193 -0.07607306 -0.6675711 -0.2973309
000030 8f d0 e1 be b5 4c 33 c0 da d4 7b 3e c9 99 01 bf
       -0.4410443 -2.8015568 0.24592915 -0.5062528
000040 18 09 0a 40 0e d9 0f bd 4b dd bd be 65 ac be bc
       2.156805 -0.03511911 -0.37082896 -0.023275563
000050 d4 dc ca 3f 55 6c fe bf c9 38 b9 be 4e 22 dd 3f
       1.5848641 -1.987681 -0.36176136 1.7276094
000060 65 8f 31 3e 07 15 5b bf a1 ac 8f be 37 3c 4f 40
       0.17339857 -0.8557896 -0.28061393 3.2380502
000070 75 db 39 bf 54 6e 89 3f ee 66 64 3f f0 31 b0 3f
       -0.7260049 1.0736794 0.8921956 1.376524
000080 b7 cc 88 bd fa 60 49 be 42 3a 7c 3e 99 7b 40 bf
       -0.06679671 -0.196659 0.24631599 -0.75188595
000090 01 41 03 bf 89 84 66 be 02 72 e5 3e 3d dc 26 3d
       -0.51271063 -0.22511496 0.44813544 0.04073738
0000a0 f6 af e9 be 84 2b a0 c0 2b d0 8f 3f 4e 17 22 40
       -0.4564206 -5.005312 1.1235403 2.5326724
0000b0 ec 47 60 bf 06 72 50 3f 51 4e ef 3e 6a b3 a9 3f
       -0.87609744 0.81423986 0.46739438 1.3257878
0000c0 b5 10 7e 3e bd 05 30 3e 7c 26 ed 3e 1a 38 8b be
       0.2481106 0.17189689 0.46318424 -0.2719124
0000d0 e0 e7 8f 40 75 7e 7c bf ec 32 82 be 48 43 c2 bf
       4.497055 -0.9863046 -0.25429475 -1.5176783
0000e0 68 80 94 3e 8e 81 dd bd 11 eb 9e 3e 8e b5 d0 bf
       0.29004216 -0.10815726 0.31038716 -1.6305406
0000f0 9b 5d 08 3f b7 fe 1a 3f 93 67 94 3f 39 a4 df 3f
       0.5326783 0.60544914 1.1594108 1.7471992
000100 eb 52 22 3f 8a 91 ae be d8 c2 c5 be 9e 2e 48 3f
       0.6340777 -0.34095412 -0.38625216 0.7819613
000110 26 f6 c5 40 82 1d e1 3e 93 a9 0a 3f 30 e7 df bd
       6.1862974 0.43967825 0.54165 -0.109327674
000120 65 1f 67 3d b0 15 94 3e 9d a1 94 3d 75 5e 2b be
       0.056426425 0.28922796 0.07257388 -0.16735251
000130 c5 63 65 3e 0a da 0c 40 b9 5e 62 c0 26 84 38 be
       0.2240134 2.200808 -3.5370314 -0.1801916
000140 95 0b b5 3f db 91 bb bf aa 4b 36 3f 8b bf 23 bf
       1.414416 -1.4653887 0.71209204 -0.63964146
000150 d7 60 15 3f 51 b6 f4 3e ee d8 1f 3f c6 0f 9a 3f
       0.5835089 0.47795346 0.62440383 1.2036064
000160 23 29 97 be 2f fa 02 be 9d 13 16 3f 3b 24 b1 3e
       -0.29523572 -0.1279075 0.5862368 0.34597954
000170 09 c7 f2 c0 7f 6d 04 bf a7 88 98 be e6 7c 33 3f
       -7.5867963 -0.5172958 -0.29791757 0.70112455
000180 3f 57 47 bf 78 21 df be be bc 44 3e 1b f0 e0 3d
       -0.778675 -0.43580222 0.19212624 0.109832965
000190 f7 e9 25 3e c2 59 b6 3f 92 9e 31 3f 4b db 18 3f
       0.16202532 1.4246142 0.69382584 0.59709615
0001a0 e6 3b 22 bf 58 44 ba 3e ea 13 6b 3d ea 07 69 3f
       -0.6337265 0.36380267 0.05739204 0.910277
0001b0 86 80 a8 3f 9f e2 72 c0 64 d5 ad be 45 01 00 be
       1.3164222 -3.7950819 -0.33951867 -0.12500484
0001c0 4a eb cf 3e c7 5d 9d 3f cf 5a 47 be 6b 66 56 3f
       0.406092 1.2294244 -0.19468234 0.8375003
0001d0 7d 66 8c 3e 8e 78 65 bf 66 ed 5c 3f d5 48 6c 3e
       0.27421942 -0.89637077 0.8629974 0.23074658
0001e0 11 2d 9f 3d fd a4 95 3e 3f c3 ad bd 3b 24 2c 3f
       0.077722676 0.2922744 -0.08484506 0.67242783
0001f0 de ae 9a c0 8f 95 0e 3f 4a 90 f8 3f bb 1c 69 3f
       -4.833846 0.5569696 1.9419034 0.91059464
000200 ad 3a 2f bf 04 43 02 be e2 64 a3 3e cf 1f 8c 3f
       -0.6844891 -0.12720877 0.31912905 1.0947207
000210 f2 c2 c7 3e c1 60 7e 3f 35 8e 40 bf 6e ca a2 bf
       0.3901592 0.99366385 -0.7521699 -1.2718027
000220 d8 98 41 3f d8 f9 74 3e 4f e7 02 3f 23 b3 52 3f
       0.75623846 0.23923433 0.511342 0.8230459
000230 30 06 0a bf f7 87 15 bf c8 66 24 3e dd 49 da be
       -0.5391569 -0.5841059 0.16054833 -0.42634478
000240 49 71 33 bf d3 55 ad be 43 7a db 3d 68 9e ef be
       -0.70094734 -0.3385454 0.10716679 -0.46800542
000250 09 76 08 c0 fa a5 af 3f 35 e5 b5 3f 2a 2f 8e 3f
       -2.1322043 1.3722527 1.4210573 1.1108143
000260 fc 8e e9 bd f9 f3 bd 3e cd df b0 be 96 80 0b 3e
       -0.11404225 0.371002 -0.34545746 0.1362327
000270 0e 99 1d 3f c5 24 2c 3f ef 9a 7c 3f ba 38 53 bf
       0.6156167 0.67243606 0.9867391 -0.8250843
000280 a8 39 a3 bf fb 7f 86 3e 79 b1 34 3e c3 f2 a1 bf
       -1.275197 0.26269516 0.17645825 -1.265221
000290 44 37 1a c0 a5 df 22 3f 7a b4 58 bf 0e 82 94 be
       -2.4096231 0.63622504 -0.84650385 -0.29005474
0002a0 c2 fd d7 3e 3a f1 e4 bd 87 40 d1 3f 12 ab a9 3f
       0.4218579 -0.11178823 1.6347817 1.3255332
0002b0 a7 e4 9d 3f 8b 37 15 3e e0 f2 1e bf 5a 7b 9c 3f
       1.2335404 0.14571969 -0.6208935 1.2225144
0002c0 29 23 6b 3f 32 23 a0 3f ee 3e 97 3e a3 03 19 3f
       0.91850525 1.2510741 0.295402 0.59771174
0002d0 3a ae 3f bd 6e 96 9b 3f 74 13 e5 3e 1e 00 8c bd
       -0.046797015 1.2155282 0.44741404 -0.0683596
0002e0 b9 92 f9 3c ea 37 99 bd 3e 16 14 c0 52 9a 21 40
       0.03046547 -0.07481368 -2.3138576 2.525044
0002f0 7c 4a ff bf 26 16 a1 3e 60 c1 c3 3e 38 1e d1 bf
       -1.9944606 0.3146221 0.3823347 -1.6337347
000300 2f 90 0e 40 1f 72 a3 3e 70 a9 66 3f eb 56 9c 3e
       2.2275503 0.31923005 0.9010229 0.30535063
000310 06 49 34 40 e1 c1 bd 3f a2 17 0f bf 10 94 b1 3f
       2.816957 1.4824792 -0.55895436 1.387331
000320 bf ca f8 bc 2b 15 f4 3e 21 b3 b7 be 3f 7a b3 3e
       -0.030370114 0.476724 -0.35878852 0.35054204
000330 62 c0 e4 3e b9 8c 1b 3f 63 b9 ba 3e 49 5f 17 bf
       0.44678026 0.607616 0.36469564 -0.5912977
000340 99 4d 8d 3f 99 7b ed 3e 4c c4 35 bf a5 8a 78 3e
       1.1039306 0.4638336 -0.7100265 0.24271639
000350 bb e2 02 3f 96 48 91 bf 9d 50 31 40 42 1e 4e 3f
       0.51127213 -1.1350276 2.7705452 0.8051492
000360 c4 07 38 bf 63 c4 c5 be a2 15 b4 bd 6d 13 90 bf
       -0.7188685 -0.38626394 -0.08793189 -1.1255928
000370 5d df 2f 3f 02 96 1d 3f 00 98 9e 3f 7a 42 a0 3f
       0.687002 0.6155702 1.2390137 1.2520287
000380 d9 05 dd be 72 c1 52 3f a1 5e fd bd c4 bf 16 3f
       -0.43168524 0.82326424 -0.12371565 0.5888636
000390 87 37 29 3f 4b 11 eb 3e 3f 92 87 bd 27 f4 21 bf
       0.66100353 0.4591163 -0.06619691 -0.6326317
0003a0 72 f7 65 bf 69 d0 93 bd c9 52 0d 3d 86 ab 57 be
       -0.89830697 -0.072174855 0.03450278 -0.21061525
0003b0 a3 71 0d c0 bc f7 ad 3e aa 92 af be 7b 10 13 c0
       -2.2100608 0.3397807 -0.34291583 -2.297881
0003c0 d1 0f 08 3f 49 03 28 be b4 17 9b 3f 41 01 21 bd
       0.53149134 -0.16407503 1.2116609 -0.039307836
0003d0 93 22 7f bf ea da 7e bf 8c 24 23 bf 1d 22 54 3f
       -0.9966213 -0.99552786 -0.6372764 0.8286455
0003e0 96 bc c5 3f e0 b8 06 bf f0 e6 a2 3f 8c 75 8c bf
       1.5448177 -0.52625847 1.2726727 -1.0973372
0003f0 98 98 46 3f eb c5 86 3f 99 e9 a0 3f 1f 20 45 3f
       0.7757659 1.052915 1.2571288 0.7700214

net.0.bias f4 [128]
000000 55 df 89 3d 77 4f 63 3e 82 f5 01 be 65 98 86 be
       0.0673205 0.22198282 -0.1269131 -0.26288143
000010 5b 3c 3c bf 4f c2 ee bd f1 3e 08 3f 54 92 72 3e
       -0.73529595 -0.11658155 0.5322104 0.23688632
000020 58 c8 07 bd 80 3d b9 be 36 62 e2 be 14 78 01 bf
       -0.033150047 -0.36179733 -0.44215554 -0.5057385
000030 03 4a 0b bf 91 6d 15 bf 77 0a 90 3d 33 22 09 3f
       -0.5440981 -0.5837031 0.07033246 0.5356781
000040 10 43 22 3b 86 83 e2 be f0 0a 2b bf 08 0a 3c 3f
       0.002475921 -0.4424097 -0.66813564 0.73452806
000050 c5 d8 39 bd 86 37 96 be f1 b0 15 3f c4 f8 08 bf
       -0.045372743 -0.29339236 0.58473116 -0.53504586
000060 fe b6 6d 3d f3 3a 89 3f 17 64 0f be d1 13 e8 3e
       0.058035843 1.0721115 -0.14003025 0.4532762
000070 0f 41 9a 3f f9 00 0d bf 91 92 2f 3f da 0d 10 3e
       1.2051104 -0.5507961 0.6858302 0.14067784
000080 bc 5d f2 bc d8 35 a2 3e 3f 69 09 3f 1b 39 ac 3e
       -0.029585712 0.31681705 0.5367622 0.33637318
000090 d9 c4 77 bf 83 24 45 3d 26 8e c1 3e b2 95 2f bf
       -0.9678474 0.048130523 0.37803763 -0.6858779
0000a0 2b 44 21 bf e6 a4 9e 3d 6e ef 54 be fc 27 1d bf
       -0.6299464 0.07746296 -0.2079446 -0.61389136
0000b0 b2 0e 07 bf 50 3d 85 3e 1e e2 a0 3e 6e 46 17 bf
       -0.527568 0.2602334 0.31422514 -0.5909184
0000c0 e4 4e f1 3e 60 9a ba 3e 61 8e 55 3e 70 9c ef be
       0.471305 0.36445904 0.20855094 -0.4679904
0000d0 78 38 18 3f 2a 07 66 be ce 4f f1 3e 1d e4 e1 3e
       0.59461164 -0.2246367 0.471312 0.4411935
0000e0 4d e7 94 3e 12 c5 cb bd 82 1e 83 3e b1 13 8a bf
       0.29082718 -0.099496976 0.25609213 -1.0787259
0000f0 f9 f1 30 3f ee aa c6 be db 7a 01 bf e9 a9 83 3e
       0.6911922 -0.38802284 -0.5057809 0.2571557
000100 4b b6 6c bf ca 7b 00 3f 84 1d af bd 5c 34 86 be
       -0.92465657 0.5018889 -0.085505515 -0.26211822
000110 d7 0a 5a 3f a4 20 2d bf d5 73 56 be 72 c0 f4 3e
       0.8517279 -0.6762793 -0.20942624 0.47803074
000120 e0 f1 f1 be f9 e7 0e be d6 df d0 3c 15 f2 07 3f
       -0.47254848 -0.13955678 0.025497358 0.5310376
000130 59 25 2e be ec a6 7a 3e 92 e4 1d bf 55 b7 25 3f
       -0.17006435 0.24477738 -0.61676896 0.6473287
000140 25 c8 a6 3d 41 40 91 3e 9c 66 eb 3e cc 31 fb be
       0.08143643 0.28369334 0.45976722 -0.4906143
000150 42 b8 10 bf 11 b9 e8 be ec 9e b7 be 9f 75 0d bf
       -0.56531155 -0.45453694 -0.35863435 -0.552576
000160 a8 8e 07 bf 7a 3b fe 3e 8f 99 27 3f a7 54 d5 3c
       -0.5295205 0.49654752 0.65468687 0.026041342
000170 bd cd b2 be aa a6 55 3e 60 0f e7 3e 8a c1 1d bf
       -0.3492259 0.20864359 0.45128918 -0.6162344
000180 b0 70 9e 3e 71 5e 12 3f 30 d7 31 3f 16 3b 1b be
       0.3094535 0.57175356 0.69468975 -0.15159258
000190 af 0b 23 be 5d 60 8a bd 27 a5 33 3f d1 4c d2 3e
       -0.15922426 -0.06756661 0.7017388 0.4107423
0001a0 4a b6 11 3e d2 88 75 be 09 c1 c5 be 43 5f 09 3f
       0.14229694 -0.23977974 -0.38623837 0.5366098
0001b0 91 16 56 bf 60 b0 27 be 3e 8a 40 be 9d 50 2b 3f
       -0.83628184 -0.16375875 -0.18802735 0.6691988
0001c0 64 18 57 bf 87 cb 32 3e 20 2a 0d bf 4b 24 9d 3e
       -0.8402159 0.17460452 -0.551424 0.30691752
0001d0 e2 32 39 bf 02 a0 02 3f 53 e0 dd 3e 6c ba c6 3e
       -0.72343266 0.510254 0.43335208 0.38814104
0001e0 a3 f9 34 3f ad 52 d6 3d c2 62 09 3e fc e7 c2 3e
       0.70693415 0.10464988 0.1341658 0.38067615
0001f0 33 d3 6b be aa c7 f7 3e 70 99 ed 3d 7a dc a4 3e
       -0.23029785 0.4839452 0.116015315 0.3219946

net.2.weight f4 [128, 128]
000000 f0 ef 14 be 19 cd f7 be 7a 51 77 bf 23 20 fd 3d
       -0.14544654 -0.48398665 -0.966087 0.12359645
000010 d9 69 fa be 38 01 71 be 0a 7f 46 3f 3c f9 4a be
       -0.4890888 -0.23535621 0.77537596 -0.19821638
000020 72 46 05 3f d6 5d 78 3e 26 b9 93 bf 15 c5 e5 be
       0.52060616 0.24254546 -1.1540878 -0.44876924
000030 0d 12 fd be 26 15 14 bf 40 e5 b4 3e 7f 67 70 be
       -0.49427834 -0.5784477 0.35331154 -0.2347698
000040 c4 cc a0 3d eb e5 c9 3c 4d dc 07 bd 14 9b f6 3e
       0.07851556 0.024645766 -0.03316908 0.4816519
000050 a1 c2 2b bf db a1 85 3e 77 94 12 3f 90 78 00 3e
       -0.67093855 0.26100048 0.5725779 0.12545991
000060 90 e4 ac 3e d1 a4 19 3f bd fe 4d be 54 bc 31 3f
       0.3376813 0.60017115 -0.20116706 0.6942799
000070 05 73 75 3f 7e dd 4c 3e 91 d1 f1 3e 77 9d 09 be
       0.9587863 0.20006368 0.472302 -0.13438974
000080 70 0d 1f 3e 03 54 ac 3e 34 cf 81 bd ed 0d 2b 3e
       0.1553247 0.33657846 -0.06338349 0.16704531
000090 98 30 cd be 27 d7 4c 3e 46 74 eb be 82 48 19 bf
       -0.40076137 0.20003949 -0.45987147 -0.59876263
0000a0 72 17 a4 3d db 00 2a be 8d 10 80 3c 89 ff 9b bd
       0.08012284 -0.16601889 0.015632892 -0.07617099
0000b0 91 f0 33 be e8 8c d9 be 69 82 16 3f 5b c8 87 bd
       -0.17572238 -0.42490315 0.5879274 -0.06630012
0000c0 50 6f 86 3c 0d 78 a9 be fa 98 b5 bc 9f e8 08 3e
       0.0164105 -0.33099404 -0.022167671 0.13369988
0000d0 13 b2 6d 3f 4b 9c 1d 3f 9b ae 42 3e fe fd d9 3e
       0.92849845 0.6156661 0.19011919 0.42576593
0000e0 48 4b 07 3f d4 78 ab 3d 8e 75 ad be 1f 5a d2 be
       0.52849245 0.083726555 -0.3387875 -0.41084382
0000f0 c3 54 3b 3f d8 4b 6e be 32 d0 c4 3d 56 51 f9 3e
       0.7317621 -0.2327112 0.096100226 0.48694867
000100 17 31 97 be 85 36 e0 3e ec 2d 6b 3e ac f3 66 3e
       -0.2952964 0.43791595 0.22966737 0.22553891
000110 89 39 a5 3e 84 45 18 bf c8 46 21 3f a5 7b 37 3e
       0.32270458 -0.5948107 0.6299863 0.1791826
000120 30 7c 11 3e 43 28 97 3e e2 66 af 3d 54 79 cc 3d
       0.1420753 0.29522905 0.08564545 0.09984079
000130 e3 50 c7 be 8f c7 36 3e 0e 41 a4 3e 4a b7 cc 3e
       -0.389289 0.17849563 0.32080883 0.39983588
000140 43 c5 91 3e e2 15 7f bc 15 bf 88 3c 29 d5 3a bf
       0.2847081 -0.015569182 0.016692678 -0.72981507
000150 69 dc a6 bf f9 07 a1 3e fa 70 52 be ab 0f 50 bf
       -1.3036014 0.31451395 -0.2055091 -0.8127391
000160 f2 07 2c 3e aa 15 4e 3d 70 8b 96 3f 70 5c 8f ba
       0.16799906 0.05031363 1.1761303 -0.0010937583
000170 07 e6 2f 3e 80 a3 36 bf 65 bb dd 3e 59 c5 6c be
       0.17177592 -0.7134323 0.43307033 -0.23122157
000180 73 59 1d 3f 75 b9 fe 3e 02 14 c9 3e dc 5d a9 3e
       0.61464614 0.49750867 0.39273077 0.33079422
000190 89 32 50 3e 45 b1 28 3d e5 81 dc 3e 48 e3 b8 3e
       0.20331778 0.041184682 0.43067852 0.36110902
0001a0 05 db 9e be cb 8a 53 3e 9b 3b ec be d8 9c 15 bf
       -0.31026474 0.20658414 -0.46139225 -0.5844245
0001b0 18 ed 2c bd 65 85 49 bf b3 3f 18 3e 89 7f 9b 3e
       -0.042218298 -0.7871917 0.1486805 0.3037074
0001c0 38 5e 3b bf 27 91 c2 be aa 98 77 bd 01 38 0d be
       -0.7319064 -0.38001367 -0.060448326 -0.13790895
0001d0 c2 4e dc 3e 0a 5b d1 bd 64 23 49 3e 2a e7 56 3e
       0.43028837 -0.102224424 0.19642407 0.2098662
0001e0 5e 13 7a 3f f2 03 97 3d 9a a7 04 bf 76 63 3b bf
       0.976858 0.073737994 -0.5181824 -0.7319864
0001f0 2a f5 0c 3f e0 a8 15 be 09 0f a0 3e b5 77 c5 3e
       0.5506159 -0.14615202 0.3126147 0.38567892
000200 d7 73 d4 be dc 5c fa 3e 0c 36 01 3f 52 e4 2b be
       -0.4149463 0.4889897 0.50473094 -0.16786316
000210 42 76 77 3e 69 c2 a2 3e 60 c4 50 be e6 12 41 be
       0.24166206 0.31788948 -0.20387411 -0.18854865
000220 17 fa 1a be 46 cb 91 be e6 47 ed 3e 64 1a dc 3e
       -0.15134464 -0.28475398 0.46343917 0.42988884
000230 b8 a6 66 3d a6 d2 1b 3f 89 93 23 bf ff 1c e7 be
       0.05631134 0.608683 -0.63896996 -0.4513931
000240 c9 5a 9e be dc 00 69 3e 28 58 38 be 6c 67 53 be
       -0.3092864 0.22754234 -0.18002379 -0.20644921
000250 7a 6f 96 be 54 eb 88 3e f0 35 9e bf be fc aa bd
       -0.29381925 0.2674204 -1.236021 -0.08348988
000260 99 70 5e 3c 8c 04 ed be 6f eb a6 be cf c6 ce be
       0.01357665 -0.46292531 -0.32601497 -0.40386054
000270 d4 24 09 be f4 1b 86 3e 5f cd 00 3e 2c 9b be be
       -0.13392955 0.26193202 0.12578343 -0.37227762
000280 90 d4 c8 bd e8 d8 fb be de e3 ec 3e 03 2d 72 bd
       -0.09806168 -0.49188924 0.462676 -0.059124958
000290 99 90 db 3e 96 a0 19 3f f0 cd 17 be 99 7f d3 be
       0.42883757 0.6001066 -0.14824653 -0.41308287
0002a0 62 ad f9 bd 89 19 d1 3e 6b ea ed be c9 c9 ae bc
       -0.12191273 0.40839794 -0.4646791 -0.021336453
0002b0 7d 64 74 3d 7e d4 1a 3e 5e fc 6a 3d b3 6d f4 3c
       0.059666146 0.15120122 0.057369582 0.029837465
0002c0 d0 82 e1 be ba 83 34 3f 2c f6 bd bc 4d aa da 3e
       -0.44045115 0.705135 -0.023188673 0.42708054
0002d0 87 4f 32 be df 35 e1 bd 5f e7 0a bf 26 fe c2 be
       -0.1741315 -0.10996603 -0.54259294 -0.38084525
0002e0 c8 ea 87 bd 8c c8 99 3e e9 fe d3 be e0 a8 89 3e
       -0.06636578 0.30035818 -0.4140542 0.26886654
0002f0 19 d7 4d be d8 74 02 3e 2b 0e 1d 3f c6 df 28 3f
       -0.20101584 0.12739885 0.61349744 0.6596645
000300 57 99 01 3f 66 43 2f 3c 95 29 9e 3e fd 27 99 be
       0.50624603 0.010697221 0.308911 -0.2991332
000310 43 fb 96 3d 4b c7 61 3f a7 2a aa be 39 69 b9 bd
       0.07372143 0.8819472 -0.33235666 -0.09053273
000320 47 ad 1e 3f 34 f1 62 bd 7b 2d 0b bf 3c 7d e8 3d
       0.6198315 -0.05540581 -0.5436627 0.113520116
000330 5b 24 b7 3e da 6b d3 3e ff 6a 8d be 6d 43 91 be
       0.35769925 0.41293222 -0.27620694 -0.28371754
000340 43 4b 0b 3f 04 9d c2 be e1 ab 89 3d df 78 60 3f
       0.54411715 -0.38010418 0.067222364 0.87684435
000350 90 d3 48 3d 9a be 6a 3e bc d4 d3 3e a5 10 0b 3e
       0.049029887 0.22924271 0.4137324 0.13580568
000360 10 55 5f 3c d3 a9 14 bf 5b 3f 43 be ed 71 99 be
       0.01363112 -0.5807163 -0.19067137 -0.2996973
000370 8d 52 89 bd ea c1 b3 3e 27 05 9f bc aa f5 cf bc
       -0.067051984 0.35108882 -0.019411637 -0.025385696
000380 1a 90 b2 be 29 50 a3 bc 48 02 4b bf 29 e4 41 be
       -0.34875566 -0.019935684 -0.79300356 -0.18934692
000390 23 8c 2b be 00 70 22 bd 94 ff be bc 94 2c 27 bf
       -0.16752677 -0.039657593 -0.023315229 -0.65302396
0003a0 af a8 ef be 6c 54 6b be 2d 57 e5 3e 83 21 bb be
       -0.46808383 -0.22981423 0.44793072 -0.36549005
0003b0 fa f7 ab 3c 33 1c d3 be d6 1f 79 3e 66 6f 8c 3e
       0.020992268 -0.41232452 0.2432855 0.2742874
0003c0 11 cf 9d 3e 68 ee 04 bf 71 13 95 be b3 bb 64 3e
       0.30822042 -0.5192628 -0.29116395 0.22337227
0003d0 09 d5 fa 3d 9b d1 36 bf c3 ab 13 3e 15 1c a7 3d
       0.122476645 -0.7141358 0.1442099 0.08159653
0003e0 30 af 8a 3d 9c 00 14 3f fb 3b 9a bd c6 21 42 be
       0.067716956 0.5781343 -0.075309716 -0.18958196
0003f0 7d 76 b1 be f1 5c a8 3e ed 93 24 bf 64 03 af be
       -0.34660712 0.3288341 -0.64288217 -0.34182274

net.2.bias f4 [128]
000000 00 b6 c1 bc 01 03 9a be 47 b3 f3 3d 32 10 e5 be
       -0.023646355 -0.30080417 0.11899429 -0.4473892
000010 13 29 91 bd 06 73 a3 3e 32 98 01 bf 01 09 38 be
       -0.070879124 0.31923693 -0.50622857 -0.17972185
000020 ce 2a b0 3a f1 8e d2 bd 36 b5 d2 3b 3c db 0f 3e
       0.0013440491 -0.1028117 0.0064302934 0.14048475
000030 71 54 99 be 32 21 bd be 43 8a 5e bd b0 77 c0 bc
       -0.29947236 -0.3693939 -0.054331075 -0.023494571
000040 81 42 5a bc 7d 72 88 3c 42 0d b8 be 7b 10 81 3e
       -0.01332152 0.016656155 -0.35947615 0.25207886
000050 cf ee f6 be 1d 7f 41 be ce 53 d2 be 18 43 c5 3e
       -0.48229071 -0.18896146 -0.41079563 0.3852775
000060 8e b6 97 3e 0b d8 e1 bd 44 1a f8 3e fa 0c f8 bd
       0.29631466 -0.11027535 0.4845754 -0.1211185
000070 5e cd 73 be ba a0 34 be 9b b0 0c 3f bf 16 0f bf
       -0.2380881 -0.17639437 0.5495698 -0.5589408
000080 9c 5a e7 3d 0a 11 8b be 42 04 bd be 74 4e 7e be
       0.11296579 -0.27161437 -0.3691731 -0.24834615
000090 d5 e8 b5 3d eb c9 66 3e 04 c9 80 3e 02 9a 23 3e
       0.088823 0.22537963 0.25153363 0.15976718
0000a0 c3 6a 81 3e 4b ad f3 3e 0b 56 09 3b b8 4f 80 be
       0.25276765 0.4759315 0.0020955827 -0.2506082
0000b0 d7 d9 04 3d 2c 61 a3 3d dc 03 9c be 9c 51 3f be
       0.03243431 0.079775184 -0.30471694 -0.18683475
0000c0 1a 97 21 3e fb f6 16 3d 56 3d 61 3e f9 fe 72 bc
       0.15780297 0.036856633 0.21996054 -0.014831298
0000d0 b8 70 d8 bc 24 2f a8 be 5a 3d d7 bd 58 cb bf bd
       -0.026420936 -0.32848465 -0.10509749 -0.093649566
0000e0 74 e2 bc 3e d0 83 59 be dd 91 cc be 82 d9 c5 bd
       0.3689152 -0.21241689 -0.39955035 -0.09660627
0000f0 bb 1e 0c bd 70 aa 78 be b2 8d ae 3e 26 1f b1 3e
       -0.034208994 -0.24283767 0.3409248 0.34594077
000100 1c a8 ff 3d 40 12 cd bc 46 f4 10 be 93 53 99 3d
       0.12483236 -0.025033116 -0.14155683 0.07486644
000110 5b 73 da 3d 7f 3d b7 bc a5 2d a4 3e b4 ec 85 3e
       0.106665336 -0.02236819 0.32066074 0.26157153
000120 d9 8f 88 3e 78 23 2a 3e 67 d6 58 3e 21 c1 37 bd
       0.26672247 0.16615093 0.21175538 -0.044861916
000130 89 8d e9 bd 5e b6 7b bd a2 d6 d8 3e cf 84 5c 3e
       -0.11403949 -0.061453216 0.42351252 0.21535037
000140 c8 e9 4b bd 77 ca 23 3e 4e 74 a9 bd df 45 77 3e
       -0.049783498 0.15995203 -0.082741365 0.24147747
000150 23 9a a6 be cd cb 02 3f 8f c4 b5 3e 71 f1 9c bd
       -0.32539472 0.51092225 0.35501525 -0.07663239
000160 05 37 f2 3e 7e 40 ff 3e 12 23 16 3e 07 b4 da be
       0.47307602 0.4985389 0.14661816 -0.42715475
000170 70 cc e3 be 60 4b 8f 3e 5f 68 84 3d 39 8b 43 be
       -0.4449191 0.27987194 0.0646522 -0.19096078
000180 82 ca be 3e a7 16 90 3e 5f 1f bd bc d7 6e 7c 3c
       0.37263876 0.28142282 -0.023086248 0.015407286
000190 ac e5 9b 3e b9 3d 59 3e 93 5c 86 3c 03 e4 40 bc
       0.30448663 0.21214952 0.016401565 -0.011773112
0001a0 0f 70 88 3e a6 96 1e be 33 78 cb 3e 16 07 cd bc
       0.26647994 -0.15487155 0.39740142 -0.025027793
0001b0 c3 86 6b 3e 1e 60 f9 3d 28 70 1f 3e 73 e5 86 bd
       0.23000626 0.12176536 0.15570128 -0.06586733
0001c0 18 8f 72 be 71 54 3d 3d b0 d0 88 3e a1 77 b7 be
       -0.23687398 0.046223108 0.26721716 -0.35833457
0001d0 92 b3 ad be cd 0c d6 3c 32 21 0f 3c 96 b0 11 be
       -0.33926064 0.02612915 0.008735942 -0.14227518
0001e0 ab 4f b8 3d 69 1b 49 3e 07 6b a1 3c d9 4a 09 be
       0.089995705 0.19639362 0.019704355 -0.13407458
0001f0 24 77 35 3e 4a 6d df 3d ce b7 bf be 43 c5 e1 be
       0.1772123 0.10909517 -0.3744492 -0.4409581

net.4.weight f4 [169, 128]
000000 ff 7d d5 3f f8 92 83 bf 7a c0 20 bf 87 0f 8f bf
       1.6679076 -1.0279226 -0.62793696 -1.1176614
000010 a6 60 b5 3f e4 ed a4 3f a4 03 2c bf 22 57 cd bf
       1.417012 1.2885098 -0.67193055 -1.6042216
000020 c8 74 62 bf 60 27 ae bf d1 9a a4 bf 8c 01 9c bf
       -0.88459444 -1.3605766 -1.2859746 -1.2187972
000030 ec 45 01 bf 10 21 47 bf f5 c9 15 bf 4c 08 b1 bf
       -0.5049732 -0.77784824 -0.58511287 -1.3830657
000040 02 66 c0 bc cd d0 fc bf 97 8a 67 be a2 27 8c bf
       -0.023486141 -1.9751221 -0.22611462 -1.0949595
000050 35 a4 3f bf aa d3 0e bf cc 80 b9 bf 83 da 5e 3f
       -0.74859935 -0.55791724 -1.4492431 0.8705217
000060 6f 0f 11 bf 57 50 6c bf 3b f3 8c bf e4 d6 87 bf
       -0.56664175 -0.9231009 -1.1011728 -1.0612454
000070 ca 1a 75 bf 23 d9 1b bf 9a 01 08 c0 ec 52 8c 3f
       -0.95744 -0.608782 -2.1250978 1.0962806
000080 64 fe 27 3f 32 a8 48 3f 76 3c 2f 3f 06 a9 ad 3f
       0.65622544 0.78381646 0.6845163 1.3567207
000090 93 a1 98 bf ca a7 a1 bc bd f7 a1 bf 8c f1 b2 3f
       -1.1924309 -0.019733328 -1.2653729 1.3979964
0000a0 7a 42 7c 3f 0d 46 62 3f 39 e0 71 3f dc f5 a0 3f
       0.98538935 0.8838814 0.9448276 1.257503
0000b0 bb 86 96 bf 79 a3 bb 3f 41 b7 65 3f 3f 28 b4 bf
       -1.1759866 1.4659263 0.8973275 -1.4074782
0000c0 59 80 ce 3f e4 69 6e 3e e3 7f a2 bf 74 6b 94 bf
       1.6132919 0.23282582 -1.2695278 -1.1595292
0000d0 6d 87 b4 bf d8 ef 3a bf ac 13 93 bf a5 da 12 bf
       -1.4103829 -0.7302222 -1.1490378 -0.57364875
0000e0 d7 1b b9 3f 95 23 93 bf c2 3c 91 3f 29 6c b5 bf
       1.4461621 -1.1495234 1.1346667 -1.4173633
0000f0 09 81 e9 be 5c 8e 4d bf ca 28 62 bf 92 a9 3b 3f
       -0.4560626 -0.8029535 -0.8834349 0.7330562
000100 b5 65 ba bf 38 e3 bd bf 5c 6a 78 bf 7c 45 b8 3f
       -1.4562289 -1.4834967 -0.9703729 1.4396205
000110 28 e3 9f bf 4d 41 1b bf d6 8d ae 3f 88 c5 42 3f
       -1.2491198 -0.60646516 1.3637035 0.7608266
000120 95 c2 92 3f dc ca 24 3f 77 f8 69 3f 73 b2 88 bf
       1.1465632 0.6437204 0.9139475 -1.0679458
000130 39 c9 9b 3f 21 22 b0 be 6d 5e f1 3e a5 a6 8c 3f
       1.2170783 -0.34401038 0.47142354 1.0988356
000140 22 a5 15 3f d0 38 c5 3e 6b 85 87 bf 6f 37 c2 bf
       0.584551 0.38519907 -1.0587591 -1.5173167
000150 06 e2 7e bf b0 bd aa be 2b b1 8a bd 79 0c e3 be
       -0.99563634 -0.33347845 -0.06772073 -0.44345453
000160 00 07 2d 3f ac 45 d2 3e 92 fc 21 3f 72 54 a1 bf
       0.67588806 0.4106878 0.63276017 -1.2603896
000170 8b 51 eb be 81 48 df 3f 35 7a e0 3f 45 7d 9a 3f
       -0.4596065 1.7444001 1.7537295 1.2069479
000180 bf 65 f3 3f c9 3c 8f 3f 91 96 a9 3f df ec 1e 3f
       1.9015425 1.1190425 1.3249074 0.62080187
000190 40 80 7a bf b1 86 92 3f 2f 68 ab bf 7b e9 62 bf
       -0.97851944 1.1447355 -1.3391169 -0.8863751
0001a0 fa 0d 84 3f 2e 0b 06 3f 1a 10 87 bf 1f 0d cf bf
       1.0316765 0.5236081 -1.0551789 -1.6175879
0001b0 28 57 8c bf 95 dc 8d bf 57 ea 02 bf 0c 7d c2 bf
       -1.0964098 -1.1082941 -0.51138824 -1.5194411
0001c0 da e2 4e bf 0f b0 bc 3f 15 6f 95 3f c4 10 93 bf
       -0.808149 1.4741229 1.1674525 -1.1489491
0001d0 fd 00 f4 be d2 9d af bf e9 4c 8d bf 69 a0 7e be
       -0.47657004 -1.3720038 -1.1039096 -0.24865879
0001e0 78 d9 15 3e 42 4b a8 be 33 4b 8c 3f dc 9d a1 bf
       0.14633739 -0.32869917 1.0960449 -1.26263
0001f0 e7 d1 bc 3f 4d 69 c6 3f ea 79 21 bf d8 86 4b bf
       1.4751557 1.5500885 -0.6307665 -0.7950263
000200 51 96 06 3f d2 ac a5 bf c3 9f b7 bf 22 1e a6 bf
       0.52573115 -1.2943366 -1.434563 -1.2977946
000210 0a d1 b0 3f 51 b1 62 3f 22 c3 a3 bf 95 ad 96 bf
       1.3813794 0.88551813 -1.2793925 -1.1771723
000220 69 2a 39 bf 7f 1e 94 bf f9 68 af bf 7f 47 53 bf
       -0.7233034 -1.1571807 -1.370391 -0.8253097
000230 45 1e e3 be da af 6f bf d7 bd 58 bf 18 79 ae bf
       -0.4435903 -0.93627703 -0.8466467 -1.3630705
000240 3a 3b 96 be 85 a9 f4 bf e1 ea a7 bf 6d bb c2 bf
       -0.2934206 -1.9114233 -1.3118554 -1.5213448
000250 47 da 94 bf 27 c9 37 bf 26 07 b4 bf 71 6f 21 3f
       -1.1629113 -0.7179131 -1.4064682 0.6306067
000260 d2 4f 5b bf ce 3e 98 bf 9c b6 43 bf 86 c4 7d bf
       -0.8566867 -1.1894166 -0.76450515 -0.99127996
000270 88 01 7c bf d1 06 a8 be ca aa 8f bf 09 33 99 3f
       -0.98439837 -0.328177 -1.1223996 1.19687
000280 16 a9 34 3f ed c3 4e 3f 0a 16 ba 3f ea e5 d5 3f
       0.70570505 0.8076771 1.4537976 1.6710789
000290 fb b8 87 bf 49 c5 d5 3e 52 d8 93 bf df 69 d0 3f
       -1.0603327 0.4175208 -1.1550391 1.6282309
0002a0 0c 2e f1 3e 7e 0d 60 3f 99 fd 95 3f ba e6 86 3f
       0.47105443 0.8752059 1.1718017 1.0539162
0002b0 b3 47 f7 be 2e a2 b8 3f e2 93 65 3f fb 85 82 bf
       -0.4829689 1.4424493 0.89678776 -1.0197138
0002c0 76 55 95 3f 04 bc 50 3e ba 10 eb bf 69 95 95 bf
       1.1666706 0.20384222 -1.836448 -1.1686221
0002d0 ad 76 a2 bf 19 77 08 bf a8 14 93 bf e3 2d 4b bf
       -1.2692467 -0.5330673 -1.1490679 -0.7936689
0002e0 bf fc 70 3f e2 2a 9b bf a4 82 b7 3f 67 ff 6f bf
       0.9413566 -1.2122462 1.4336743 -0.9374909
0002f0 6f ea d8 be b9 4c 3c bf ca dc 28 bf d7 fb 74 3f
       -0.4236636 -0.7355457 -0.659619 0.9569678
000300 8f c9 a3 bf d4 e5 dc bf bc 64 95 bf 0b 59 a9 3f
       -1.2795886 -1.7257638 -1.1671367 1.3230299
000310 08 2f 90 bf a1 04 99 be 5b ab 97 3f 07 48 a3 3f
       -1.1264353 -0.29886344 1.1849169 1.2756356
000320 40 22 88 3f 82 35 8d 3f 29 52 a3 3f 11 ab 85 bf
       1.0635452 1.1031954 1.2759448 -1.044283
000330 9e b2 95 3f a0 11 d2 be 06 05 07 3f f3 32 96 3f
       1.1695135 -0.41029072 0.5274204 1.1734298
000340 9f 7b 8a 3f 64 9f 10 3f 8e 5b 84 bf 23 b8 d1 bf
       1.0818976 0.5649321 -1.034044 -1.6384319
000350 78 4a aa bf 98 a9 95 bc 1f 8c 8b 3d 5d e5 f0 bd
       -1.3303976 -0.018269345 0.06813835 -0.117624976
000360 3d ad 92 3f 21 d8 17 bf 9d ad 00 3f ea 1a a7 bf
       1.1459118 -0.5931416 0.5026491 -1.3055089
000370 3b 5c ad bf 10 15 7c 3f 19 42 ec 3f a0 cb 94 3f
       -1.3543772 0.9846964 1.8457671 1.1624641
000380 cc 56 3d 3f bd 9f 89 3f 0c 4f cb 3f 17 9d dc 3e
       0.73960567 1.0751873 1.5883498 0.430886
000390 43 31 6a bf 26 05 9c 3f 89 40 94 bf c2 ca 56 bf
       -0.9148142 1.2189071 -1.1582195 -0.83903134
0003a0 47 99 c8 3e 86 ba c3 3e f3 74 91 bf cc 44 b5 bf
       0.3917944 0.38228244 -1.1363815 -1.416162
0003b0 11 af ae bf df 09 a4 bf 70 e1 f3 be ba 03 9f bf
       -1.3647176 -1.2815512 -0.47632933 -1.2423012
0003c0 e4 04 8e bf e9 3b 83 3f b2 6f 9d 3f 70 3c 74 bf
       -1.1095243 1.0252658 1.2299712 -0.9540472
0003d0 13 f2 11 bf 2b c1 bf bf 26 09 c2 bf 8f 87 fb be
       -0.5701 -1.4980825 -1.5159042 -0.4912686
0003e0 f9 81 e1 be 95 7f 19 be 2f 03 5e 3f 1e 38 9d bf
       -0.44044474 -0.14990075 0.8672361 -1.2282751
0003f0 bb 21 d7 3f a1 03 95 3f fd 4d e5 be 82 fd 5b bf
       1.6807169 1.1641732 -0.44786063 -0.859337

net.4.bias f4 [169]
000000 f3 40 c6 3e 46 6f 54 3f 39 09 a9 3f ef be 58 3f
       0.38721427 0.8298229 1.320594 0.8466634
000010 e4 c0 8f 3f 52 84 39 3f aa 4f 90 3f 1e 9f 88 bd
       1.123074 0.7246753 1.1274312 -0.06670974
000020 e3 eb 24 3f fd 51 89 3f 81 a0 40 3f 62 87 f8 3e
       0.64422435 1.0728146 0.7524491 0.4854079
000030 a1 64 0c 3f bb 0e 33 3f 5b 58 7a 3f c0 ba 83 3f
       0.5484105 0.6994435 0.9779107 1.0291367
000040 f5 0a 3c 3f 18 82 6a 3f 26 c7 2f 3f 1d 26 8c 3f
       0.7345422 0.9160476 0.6866325 1.0949131
000050 5b 20 c0 3d bf a2 0e 3f a8 bd eb 3e 3a 0a 1a 3f
       0.09381171 0.5571708 0.46043134 0.60171854
000060 14 d5 4e 3f 9a 1a 9a 3f 87 86 65 3f 89 4a 69 3f
       0.8079388 1.2039368 0.896584 0.91129357
000070 20 df 4e 3f 19 d2 83 3f 83 1b 8e 3f 47 2e 6e 3f
       0.8080921 1.0298492 1.1102146 0.93039364
000080 34 b3 35 3f 39 aa 63 3f ab a9 87 3f 20 c8 92 3f
       0.7097657 0.88931614 1.0598654 1.1467323
000090 3b ea 54 3f e6 00 3f 3f c5 46 0f 3f 7d 35 75 3f
       0.8316991 0.74610746 0.5596736 0.9578474
0000a0 2a dc 85 3f de 58 0b 3f 2b da 82 3f 6b 39 6f 3f
       1.0457814 0.54432476 1.022283 0.9344699
0000b0 05 39 41 3f d3 17 e3 3e b4 ef 55 3f 10 e5 1f 3f
       0.7547763 0.44354114 0.8356888 0.62458897
0000c0 be 99 89 3f 27 10 96 3f 79 fc 6a 3f 48 16 6c 3f
       1.0750043 1.1723679 0.9179149 0.922215
0000d0 33 ad 49 3f f0 4e 89 3f 40 d4 8f 3e e2 b9 83 3f
       0.78779906 1.0727215 0.2809162 1.0291102
0000e0 d2 99 80 3f 06 3c 95 3f 32 81 06 3f 24 28 90 3f
       1.0046942 1.1658943 0.52540886 1.126225
0000f0 ef bc 96 3f 28 bb e2 3e f6 f7 57 3f ee 40 94 3f
       1.1776408 0.44283414 0.84362733 1.1582315
000100 c5 71 57 3f dd f0 86 3f 7f 57 50 3f bf 22 ad 3f
       0.84157974 1.0542256 0.8138351 1.3526229
000110 df 17 8c 3f 41 2c 35 3f 1e 6e 1d 3f bf ae c2 3e
       1.0944785 0.7077065 0.6149615 0.38023946
000120 bb 86 69 3f fe 51 2c 3f 02 e4 4d 3f b6 97 51 3f
       0.9122121 0.6731261 0.8042604 0.8187212
000130 19 74 79 3f 09 6a 37 3f 85 fd 2e 3f a1 c9 7b 3f
       0.97442776 0.7164617 0.6835559 0.98354536
000140 72 7b 8a 3f 16 55 8d 3f 64 29 d6 3d 24 25 7f 3f
       1.0818923 1.1041591 0.104571134 0.9966605
000150 20 92 96 3e a3 1c 83 3f 31 00 27 3f e3 fe 01 3f
       0.2940836 1.0243114 0.6523467 0.5077955
000160 f2 68 25 3f b9 26 f4 3e 0c 4e 4f 3f cd 5b 50 3e
       0.6461326 0.47685793 0.80978465 0.20347519
000170 fe c4 1c 3f 71 a6 75 3f b6 be 3c 3f 66 22 32 3f
       0.61238086 0.95957094 0.737285 0.6958374
000180 5f 53 9f 3e ce 41 0a 3f 38 1f 15 3f 41 af 44 3f
       0.31118295 0.5400666 0.5825076 0.76829916
000190 52 36 27 3f d8 63 26 3f 28 c6 7b 3f ae ba 4f 3f
       0.6531726 0.649961 0.9834924 0.81144226
0001a0 35 f0 8c 3f b5 7d 47 3f ba 7b 8a 3f 8e 5d 6e 3e
       1.1010805 0.7792619 1.0819008 0.23277876
0001b0 df 09 3f 3f 88 f3 25 3f 2c a0 b0 3e f7 94 19 3f
       0.7462444 0.64824724 0.344972 0.5999293
0001c0 84 eb 9e 3f b8 08 be 3e 13 21 07 3f 62 ff d9 3e
       1.2415624 0.37116027 0.5278484 0.42577654
0001d0 c6 d4 4d 3f 83 e7 64 3f e7 8b ff 3e 44 26 60 3f
       0.8040279 0.8941576 0.49911425 0.8755839
0001e0 14 4c bc 3e 46 b5 70 3e 23 f3 67 3f 7b 98 cf 3d
       0.36776793 0.2350665 0.9060537 0.10136505
0001f0 e3 d6 0d 3f e5 96 21 3f 93 98 3a 3f 75 1a 46 3f
       0.55406016 0.6312087 0.7288906 0.7738412
000200 fa d3 27 3f b0 a4 10 3f 11 34 80 3f 9f 14 1f 3f
       0.65557826 0.56501293 1.001589 0.6214084
000210 3b 28 58 3f 06 21 e0 3e 7f a8 50 3f f3 16 0d 3f
       0.84436387 0.43775195 0.81507105 0.5511314
000220 bc df d5 3e 93 c1 1f 3f f9 61 1a 3f bf ef 4d 3f
       0.41772258 0.62404746 0.60305744 0.8044395
000230 52 02 21 3f 68 87 85 3e 4a 9a fc 3e 84 6e 5d 3f
       0.62894166 0.2607987 0.49336463 0.8649676
000240 a9 3b 05 3f 76 d3 98 3d 37 43 54 3f b4 fc 07 3f
       0.5204416 0.07462208 0.8291506 0.5311997
000250 50 fd 01 3f 24 bd 48 3f 95 a7 9d 3e 28 95 ad 3e
       0.5077715 0.78413606 0.30791917 0.3390286
000260 23 4b bc 3e f8 34 53 3f 35 24 62 3e 4f b8 4d 3f
       0.36776075 0.825027 0.22084124 0.8035936
000270 3a 82 0c 3e c2 c4 73 3f fc 20 82 3e 8d 91 34 3f
       0.13721552 0.95222104 0.2541579 0.7053459
000280 73 91 4f 3f 46 b5 00 3f 62 bd 55 3f 5e 40 98 3e
       0.8108131 0.502766 0.834921 0.29736608
000290 7f e7 00 3f c4 3a 2a 3f 18 f0 5b 3f eb 73 2c 3f
       0.50353235 0.6649592 0.8591323 0.67364377
0002a0 f3 5f 65 3f
       0.8959953
