lunar_lander_continuous/models/DQN/layers_2/8_128_tanh_121/model.pth (torch, 68511 bytes, 4 tensors)

net.0.weight f4 [128, 8]
000000 37 20 05 c0 91 e2 a2 3f c2 28 c1 c0 ea d2 ad c0
       -2.0800912 1.2725393 -6.0362253 -5.4319963
000010 41 3d 1c 3e 14 3c f6 be dc ca 08 40 30 64 db 40
       0.15257742 -0.4809271 2.1373816 6.85598
000020 6d 61 60 c0 fa 8d c5 3f d3 b4 0a bf f3 46 30 3e
       -3.5059464 1.5433953 -0.54182166 0.17214565
000030 c4 21 cb be 39 64 40 c0 64 e2 cb be 1a f2 95 40
       -0.396742 -3.006117 -0.3982116 4.6858034
000040 7b 04 3d be 7d e8 6c bf f7 18 bc 3f 00 dd 1a 40
       -0.1845874 -0.9254225 1.4695119 2.4197388
000050 44 93 be 3f 77 7a b6 3e ec 2f 96 40 0f 21 16 c0
       1.4888692 0.35640308 4.69335 -2.3457677
000060 b8 c6 1c 40 c8 04 10 40 d7 9f a4 40 71 1f 42 40
       2.4496288 2.2502918 5.1445117 3.033169
000070 7f b1 42 c0 44 95 8e c0 2a c5 b8 c0 cb e2 9a bf
       -3.0420835 -4.455721 -5.774068 -1.2100462
000080 de 1f 4a 40 6a 93 78 bf 75 d2 88 bf 35 95 25 40
       3.158195 -0.97099936 -1.0689226 2.5872319
000090 21 06 e8 3f 22 70 fd 3e 7f 18 a5 bd c0 8d 50 40
       1.812687 0.49499613 -0.08061313 3.2586517
0000a0 c0 8a 27 41 5a 8a 29 c0 1d 4b 78 40 ed 08 60 c0
       10.4713745 -2.6490693 3.8795846 -3.5005448
0000b0 5f 25 b9 bf 75 ae 3c 3f 08 aa a7 3d 4e e9 dc 3d
       -1.446453 0.737037 0.08186728 0.10786687
0000c0 80 57 51 be 9f fa ee 3f c8 c3 58 bf 5a 85 cc 3f
       -0.20443535 1.8670233 -0.8467374 1.5978196
0000d0 2a 5d 26 40 6f 50 21 40 fa 1d 72 3f 66 ca 2f c0
       2.5994363 2.5205343 0.9457699 -2.7467284
0000e0 c4 ba 90 bf f1 f7 80 3f 01 90 2c 40 f3 4f a6 bf
       -1.1306996 1.0075666 2.6962893 -1.2993149
0000f0 2f 00 64 c1 b7 d2 14 c0 8d 4d 88 40 dd f2 bc 40
       -14.250045 -2.325361 4.2594666 5.9046464
000100 3e 35 1e 40 7a 9a 9a 40 77 cb 7b 3f b9 00 11 40
       2.4719996 4.831357 0.9835734 2.265669
000110 da 31 c0 3e 73 dd 1e c0 30 4e aa bf fa 6e 64 40
       0.37538034 -2.4822662 -1.3305111 3.5692735
000120 d8 61 34 c0 c5 63 49 c0 66 41 88 bf 98 fa fe be
       -2.818472 -3.1467144 -1.0644958 -0.49800563
000130 0f 50 5c bf bd c2 54 c0 3a 8e a7 3f 95 78 88 40
       -0.8605966 -3.324386 1.3090279 4.2647195
000140 e8 1b 09 c0 f4 1f 83 3f a5 43 b0 bd e9 0d d2 3e
       -2.1423283 1.0244126 -0.08606652 0.41026238
000150 a6 84 41 40 af 20 33 40 05 bf 11 40 95 f2 99 bf
       3.0237212 2.7988698 2.277284 -1.2027155
000160 d8 a3 90 bf b8 59 1d 3f b0 45 9d 3e 4c 09 a3 3d
       -1.1300001 0.61465025 0.3071723 0.079607576
000170 61 3b f4 3f cc e3 96 40 4f 71 cd 40 a4 5f 25 bf
       1.9080621 4.715307 6.4200816 -0.6459906
000180 9a bd a1 be cc b6 b4 3f 0d 71 95 bf 12 8a e7 be
       -0.31589967 1.4118285 -1.1675125 -0.45222527
000190 18 a0 fe 3f e0 be c3 3f 7a 4c 90 bd 59 a2 74 40
       1.9892607 1.5292625 -0.07045837 3.822409
0001a0 90 dc 04 c0 db ec c6 3e 76 ba 1d bf 8b 9c 37 bf
       -2.075962 0.3885258 -0.6161264 -0.7172324
0001b0 71 1a 33 40 e1 76 bc 3f 01 70 57 bf e8 88 a9 bf
       2.7984889 1.4723779 -0.8415528 -1.3244905
0001c0 af d5 8c be d7 41 22 40 36 1b fc 3d 73 9e 81 c1
       -0.27506778 2.5352685 0.123098776 -16.202368
0001d0 8e 91 2c c0 f1 42 0f 40 43 a3 48 c0 08 24 1d c1
       -2.696384 2.2384608 -3.1349647 -9.821297
0001e0 dd b3 d0 bf ba 86 14 40 4d b4 15 bf 35 bd 79 3e
       -1.630489 2.320723 -0.5847824 0.24388583
0001f0 a8 41 61 40 6a 34 15 40 55 ef 20 3e 19 17 c7 be
       3.5196323 2.331324 0.15716298 -0.3888481
000200 bf 9a 07 bf c4 15 3d c0 07 18 4c 3f ac 71 97 bf
       -0.529705 -2.9544535 0.7972416 -1.1831565
000210 c5 26 82 be f1 54 c5 3f ba 68 47 40 10 16 7e 40
       -0.25420204 1.5416547 3.115767 3.9700966
000220 11 82 1c 3f c4 ca 81 3e 43 56 3d c0 1b ad 15 40
       0.61135966 0.2535001 -2.95839 2.3386905
000230 d6 15 02 40 8a 0f b8 40 ff c3 33 3f 79 58 bf c0
       2.0325828 5.751897 0.7022094 -5.97955
000240 f6 81 8f bf c6 23 8f bf 3a b9 de 3f 89 e8 a2 40
       -1.1211536 -1.1182792 1.7400277 5.0908856
000250 83 45 ff 3f ab fd d0 bf 81 10 81 c0 b5 cd a6 3f
       1.9943088 -1.6327413 -4.0332646 1.3031527
000260 a2 93 55 3f 45 61 15 40 e7 7c ad 3e f9 82 c8 40
       0.83428395 2.3340619 0.33884355 6.265988
000270 1d 3b 7a 3f ad b5 52 3f 3b 97 bc 3f 83 6b 5f 3f
       0.9774645 0.82308465 1.4733652 0.87273425
000280 8a a8 c6 3e 9a c3 e9 3f 09 08 c6 bf e6 eb e0 3f
       0.3880046 1.8262818 -1.5471202 1.757199
000290 34 50 79 40 7d 96 59 40 53 c7 81 40 18 77 07 c0
       3.8955202 3.39981 4.0555816 -2.116644
0002a0 78 ae 49 40 2d b1 e2 3f 2d 8b 48 c0 95 a0 95 c0
       3.1512737 1.771032 -3.1334946 -4.6758523
0002b0 cb 62 cd bf da 0a 60 3f 69 66 46 40 62 a5 fd 40
       -1.6045774 0.8751656 3.1000006 7.9264383
0002c0 e6 bf 48 bf 67 72 e1 bf 56 4f 4a be fd 78 83 40
       -0.78417814 -1.7613038 -0.19756827 4.108519
0002d0 0e 6d c3 bd 06 71 e3 bd 16 81 e2 c0 f7 bb e8 c0
       -0.09542285 -0.11105542 -7.0782576 -7.272945
0002e0 5e fa 4a 40 d9 94 a0 bf 07 52 e8 3f f4 e4 e1 3e
       3.1715312 -1.2545425 1.8150033 0.4411999
0002f0 57 56 c4 bc d8 db 12 be aa 6e 52 3f 89 2a 06 40
       -0.023966951 -0.14341676 0.8220011 2.0963461
000300 26 64 d0 c0 b6 72 24 40 eb 51 22 c0 39 c2 64 3e
       -6.512225 2.5695014 -2.5362499 0.22339715
000310 7e e8 58 3f 88 4a 26 bf 43 f1 47 3f fb 1c 29 bf
       0.84729755 -0.64957476 0.7810251 -0.66059846
000320 8d c7 a2 bf 3d 64 42 bf 27 f7 8e bf c5 e5 3d 3f
       -1.2717148 -0.759342 -1.1169175 0.74178725
000330 f5 0e ca 3f 23 55 0f 3f 5f 96 84 3e 47 cf 0a 40
       1.5785815 0.55989283 0.25895974 2.1689012
000340 d1 c8 be 3e fc 9c 30 bd e3 05 a1 c0 92 1b 55 c1
       0.37262586 -0.043118462 -5.0319686 -13.319231
000350 c5 b4 b5 40 23 1a 93 3f 4e 6a 9f c0 19 5a b4 c0
       5.6783166 1.1492351 -4.9817266 -5.6359982
000360 d1 de ea 40 24 e3 28 40 c8 4a 1b 40 97 0c 49 40
       7.3396993 2.6388636 2.4264393 3.1413934
000370 ae 3d 18 40 25 d1 dd bf b6 d8 86 c0 3f 58 43 c0
       2.3787646 -1.7329451 -4.213954 -3.052261
000380 40 3f 1f 40 f4 5a bf be a2 6f ae 3f fa 16 45 3e
       2.4882355 -0.3737408 1.3627818 0.19247046
000390 64 24 45 c0 10 75 9e bf ac ec 8f be 44 1e 53 3f
       -3.080346 -1.2379475 -0.28110254 0.82468057
0003a0 72 c5 ac bf e8 40 83 bf 60 6c 9b 3f 49 b2 da 3e
       -1.3497756 -1.0254183 1.2142448 0.42714146
0003b0 cb ca dd 3f 7e 04 5e 40 89 d9 78 40 46 fb 22 c0
       1.7327513 3.4690242 3.8882773 -2.5465865
0003c0 94 a5 16 40 59 ef 80 40 60 56 e8 3f ee df 9f 3f
       2.353856 4.0292172 1.815136 1.2490213
0003d0 44 ac 3b bf 97 c7 50 c0 91 64 db bf 7c f0 8b 3f
       -0.7330973 -3.262182 -1.7140065 1.0932765
0003e0 65 70 e3 3f 23 3e 21 c0 7b 33 9a 3f 26 6e 27 c0
       1.7768675 -2.5194175 1.204696 -2.616098
0003f0 e8 ab 85 be 7c ee ca bf 1a 4f b9 40 d0 1f 11 40
       -0.26107717 -1.585403 5.790906 2.2675667

net.0.bias f4 [128]
000000 db 19 36 c0 28 39 23 40 f5 e7 aa bf 39 2a 07 c0
       -2.845328 2.5503635 -1.3352038 -2.111952
000010 70 fa f9 bf a5 ae cc 3e 70 d9 6e 40 a2 7b 52 c0
       -1.9529552 0.39976993 3.7320213 -3.288796
000020 d2 9e 0e 40 06 15 9e bf 39 fb 7f 40 b2 b5 11 40
       2.2284436 -1.2350166 3.9997084 2.2767148
000030 06 d3 40 40 cc 38 2f 40 a9 3c 2d 3f 74 28 45 40
       3.0128798 2.7378416 0.67670685 3.080594
000040 e9 45 f9 bf e2 f3 7a c0 95 ca 83 40 74 b1 8a bf
       -1.947446 -3.9211354 4.1184793 -1.0835404
000050 a4 22 67 40 cd f3 73 c0 53 42 77 40 eb 80 34 c0
       3.6114893 -3.8117554 3.863423 -2.8203685
000060 f4 83 96 3f 2d dc 1c c0 1d 8a 96 3f e8 3a 9a bf
       1.1759019 -2.4509385 1.1760899 -1.2049227
000070 d7 39 42 c0 bd 19 7a 40 de 99 38 40 cd 0e 56 c0
       -3.0347803 3.907821 2.8843913 -3.3446534
000080 44 a4 68 40 f8 fb 2a bf 0e 43 b9 3f 2e 19 10 c0
       3.635026 -0.66790724 1.4473588 -2.2515368
000090 8c fa 48 c0 77 17 66 c0 89 f1 c9 bf f9 c5 55 40
       -3.1402922 -3.5951822 -1.5776836 3.3402083
0000a0 12 e7 6a c0 ba 50 81 40 04 09 ee 3f 5c 6d 48 c0
       -3.6703534 4.0411043 1.8596501 -3.1316748
0000b0 c3 3e 15 40 fa 02 fd bf 81 0c 38 c0 90 ca 63 c0
       2.3319557 -1.9766533 -2.8757632 -3.5592384
0000c0 df 00 74 c0 85 fa 21 bf 63 86 fa 3f 60 aa 57 c0
       -3.8125532 -0.6327289 1.9572262 -3.3697739
0000d0 60 79 64 40 ea c1 6c 40 57 7d 7e 3f ca 45 37 c0
       3.5699081 3.6993356 0.99410003 -2.8636346
0000e0 86 ef 69 c0 c1 dd 08 c0 bc e7 2c 40 5e e7 43 40
       -3.6552444 -2.1385348 2.701644 3.0609965
0000f0 ce 6c d2 bf 23 ea 2f 40 95 3c 5a c0 7a e8 d3 bf
       -1.6439455 2.7486656 -3.4099476 -1.6555321
000100 78 2e 1b c0 f6 04 45 c0 ab 6b 28 40 dd 47 d0 be
       -2.4247112 -3.0784278 2.6315715 -0.40679827
000110 32 19 e5 3f 02 31 70 c0 f6 ca 64 c0 5b da 24 bf
       1.7898314 -3.7529912 -3.5748878 -0.64395684
000120 97 82 4d c0 dc c8 e1 bf 4a 4a 5a 40 2c 3f 65 c0
       -3.2110956 -1.7639422 3.4107842 -3.5819807
000130 00 3c fb 3e 89 95 12 c0 d8 b4 72 c0 1a 6d 4c 40
       0.49069214 -2.290377 -3.7922878 3.194159
000140 82 11 62 40 cb 12 92 bf 44 2d 5c 40 42 75 55 c0
       3.5323186 -1.1411985 3.4402628 -3.3352818
000150 8f 8a 46 c0 59 7e 0e c0 a4 ca 19 c0 ff 9e 28 3e
       -3.102207 -2.2264616 -2.4029932 0.16466902
000160 1a 6e 12 40 ed 00 2a 40 18 83 7c 40 e5 32 22 40
       2.28797 2.6563065 3.9455013 2.5343564
000170 ea 59 1b 40 95 f2 9c 3e dc 65 7a c0 8c 8e 3e 40
       2.427363 0.30653825 -3.912467 2.9774504
000180 60 1b 6b c0 dd 00 04 40 fa 91 63 c0 30 74 52 40
       -3.6735458 2.0625527 -3.5557847 3.2883415
000190 37 93 76 c0 d7 27 32 3f 46 68 8f bf 70 b9 28 40
       -3.8527353 0.6959204 -1.1203697 2.6363182
0001a0 e7 25 4a 40 e6 5b 6f c0 7c b0 81 c0 ff f3 93 bf
       3.1585634 -3.739984 -4.0527935 -1.1558837
0001b0 f1 39 4d 40 57 c2 2c bf 72 56 c1 3f c5 0d b3 be
       3.2066615 -0.6748404 1.5104506 -0.34971443
0001c0 a0 4f 04 c0 ee 4a 2d 40 8a 58 24 c0 d2 f7 76 40
       -2.06736 2.7076983 -2.567904 3.8588758
0001d0 4d 98 37 40 2c 55 45 c0 d2 62 66 3f 20 00 6a 40
       2.8686707 -3.0833235 0.8999454 3.6562576
0001e0 3d 8d cc 3f 6c 6b e1 bf 90 ac 64 40 ce 02 61 40
       1.5980603 -1.7610908 3.5730324 3.5157962
0001f0 ae b2 4c 40 f0 ff 36 40 a5 34 9b be 88 4b 94 c0
       3.1984057 2.8593712 -0.30313602 -4.63422

net.2.weight f4 [121, 128]
000000 1b b5 9f 3f 5f c5 9e 3f db 68 b8 bf 94 06 b7 bf
       1.2477144 1.2403983 -1.4406999 -1.4298882
000010 08 8d d3 bf 7d 67 c3 3f 95 28 c3 3f c0 7f ee 3f
       -1.6527414 1.5265957 1.524676 1.8632736
000020 81 04 ab 3f 1b 9c d8 bf f4 a1 bb 3f 76 db cf 3f
       1.336075 -1.692264 1.4658799 1.6238849
000030 fa 1e 50 3e 96 ea 4d 3f 20 5a 0f c0 96 cd 8b 3f
       0.20324317 0.80436075 -2.2398758 1.0922115
000040 ae d7 8a bf b8 16 b2 bf f5 0b a3 bf 26 fb f6 bf
       -1.084707 -1.3913183 -1.2738024 -1.9295394
000050 1c 90 95 3f d3 b1 fc 3f 2a 4c f0 bf 0c f2 cc bf
       1.1684604 1.9741768 -1.8773243 -1.6011367
000060 01 12 eb 3f bb 1b 22 bf ff cf ff bf d8 c4 ca bf
       1.8364869 -0.63323563 -1.998535 -1.5841322
000070 60 d5 9f bf 40 dc ed 3f 80 f2 9a 3f 07 d7 f0 bf
       -1.2486992 1.858284 1.2105255 -1.8815621
000080 12 d6 c3 3f 03 56 b6 3f 7d 11 e8 3f ff 38 e0 3f
       1.5299704 1.4244999 1.8130337 1.7517394
000090 1f e4 b2 bf ef 91 ca bf 76 63 ce bf 4d b7 b8 3f
       -1.3975867 -1.5825785 -1.6124103 1.4430939
0000a0 85 18 7d be 30 65 f5 3f 07 4e 46 c0 7b 61 9f 3f
       -0.24716385 1.9171505 -3.0985124 1.2451624
0000b0 39 d1 df bf 94 35 c6 bf be ce c7 3f b0 49 d7 3f
       -1.7485725 -1.5485101 1.5609968 1.6819363
0000c0 a8 da d2 bf 55 3e f1 bf 20 61 44 3f e0 a9 96 bf
       -1.6472979 -1.8847147 0.767107 -1.1770592
0000d0 38 2a b0 3f 1a f3 89 3f 3d 79 6e bf 95 54 cb bf
       1.3762884 1.0777314 -0.93153745 -1.5885187
0000e0 ba 72 b0 bf e7 ee 91 bf b1 c8 b4 3f 04 f0 0e 40
       -1.3785012 -1.1401032 1.4123746 2.2333994
0000f0 aa 4b 2f bf 4b 68 96 bf 89 d2 d0 bf d8 9f a6 3f
       -0.6847483 -1.1750578 -1.631425 1.301753
000100 5e bc 1c 40 19 20 ce bf 0a 3a f0 3f 83 f3 e8 bf
       2.448997 -1.6103545 1.8767712 -1.8199314
000110 5d d3 99 bf 86 42 af bf b1 8a ae bf 06 ff 9d 3f
       -1.2017628 -1.3692176 -1.3636075 1.2343452
000120 61 40 14 40 49 a7 bc bf 25 99 c5 3f 6f 98 ca bf
       2.3164294 -1.4738551 1.5437361 -1.5827769
000130 c6 65 ca 3f 6d 55 ed 3f 8a 48 96 bf 20 2f 46 3f
       1.5812309 1.8541695 -1.1740887 0.7741566
000140 6d 6f af 3f 09 37 51 40 fc 03 df 3f 64 d1 f7 bf
       1.370588 3.268984 1.7423091 -1.9360776
000150 47 53 03 40 30 83 dc 3f 19 e0 82 bf 4f 68 c2 3f
       2.0519578 1.7227535 -1.0224639 1.5188082
000160 2e af a5 3f e3 9f 97 3f d8 2d b2 bf a4 1f 0f 40
       1.2944086 1.1845669 -1.392024 2.2363062
000170 f1 9a 07 40 6c 53 c4 3f 41 75 a1 bf ed 9b 52 3f
       2.1188319 1.5337958 -1.2613908 0.82269174
000180 77 ac 25 40 c1 e4 f5 3f 8d 01 9f bf 41 28 d4 3f
       2.5886514 1.9210435 -1.2422348 1.6574785
000190 73 7f 08 40 2d 14 30 c0 5a cd e1 bf 55 a8 b4 bf
       2.132779 -2.7512314 -1.7640793 -1.4113871
0001a0 f1 ba 8d 3f 3c 30 8f bf e2 e3 f7 3f 71 49 a4 bf
       1.1072675 -1.1186595 1.9366419 -1.2834913
0001b0 1a 6e 0d 40 83 65 8e 3f 7f e3 32 3f 77 91 84 3f
       2.209845 1.1124729 0.6987838 1.0356892
0001c0 8b ff b1 bf c1 b8 dc bf 6d 27 25 c0 1c 24 f4 3f
       -1.390611 -1.7243882 -2.5805314 1.907352
0001d0 2c 21 e2 3f 17 41 fd bf 42 8a 0d 40 62 06 a6 3f
       1.7666373 -1.9785489 2.2115636 1.2970698
0001e0 a5 55 d8 3f 57 08 f6 bf 3a a9 97 3f b1 b6 90 3e
       1.6901137 -1.9221295 1.1848519 0.28264382
0001f0 f7 76 3c be 2c 4e ed 3f fe b8 a2 bf 88 11 a5 bf
       -0.18404756 1.8539481 -1.2712705 -1.2895975
000200 7d 39 b8 3f 9f b3 e5 3f 0d 11 9c be ba ec 7b bf
       1.4392544 1.7945441 -0.3048176 -0.9840809
000210 2f 23 cc bf 6d 69 ce 3f 03 e3 bc 3f b0 16 dc 3f
       -1.5948237 1.6125923 1.4756778 1.7194424
000220 a2 86 ae 3f 1c b5 c4 bf 57 75 e6 3f be 4d 8c 3f
       1.3634837 -1.536777 1.8004559 1.0961225
000230 11 56 7f 3f 5a 46 70 3f 4e d0 23 c0 30 94 a7 3f
       0.997407 0.9385735 -2.559589 1.3092098
000240 c1 b5 da bf 46 5b a2 bf cd 51 c6 bf 97 7f cb bf
       -1.7086717 -1.2684104 -1.5493714 -1.5898312
000250 69 ee 8d 3f 28 8e fb 3f 4c 62 be bf b1 fc 9e bf
       1.1088382 1.9652758 -1.4873748 -1.2420865
000260 46 e5 e1 3f 83 fe 41 bf 50 f0 01 c0 04 b9 e6 bf
       1.7648094 -0.7577898 -2.0302925 -1.8025212
000270 da db eb be 10 a7 b3 3f ed 02 ae 3f 6b 6c d3 bf
       -0.4606617 1.4035358 1.3594643 -1.6517462
000280 ca 8a b7 3f f3 f7 d7 3f fb 51 ed 3f 9a e1 ca 3f
       1.433923 1.6872543 1.8540643 1.5850098
000290 44 3b d0 bf b6 4e a8 bf 1b 10 c4 bf fa 3e 62 40
       -1.6268086 -1.3149021 -1.5317415 3.5350938
0002a0 42 85 a1 bf 82 6e b0 3f 15 18 31 c0 44 93 92 3f
       -1.2618792 1.3783724 -2.7670949 1.1451192
0002b0 43 46 d6 bf a0 7d a9 bf ae f0 bc 3f 34 c5 b1 3f
       -1.6740192 -1.3241463 1.476095 1.3888307
0002c0 fb 07 88 bf b4 b4 f7 bf 55 36 9d 3f f0 77 d7 bf
       -1.0627435 -1.9352021 1.2282206 -1.6833477
0002d0 92 95 6c 3f cd 2f 90 3f 7c dc c9 bf 9c 6a b9 bf
       0.92415726 1.1264588 -1.5770411 -1.448566
0002e0 d3 6f a4 bf 94 4e ca bf 56 f6 e2 3f 78 77 77 3f
       -1.2846626 -1.580523 1.7731426 0.9666667
0002f0 25 ce fd be f9 81 b2 bf 61 9a ba bf 5c 97 95 3f
       -0.49571338 -1.3945915 -1.4578363 1.1686816
000300 c9 ca 2d 40 7f 65 c3 bf 1b b2 91 3f da 25 e8 bf
       2.715502 -1.5265349 1.1382478 -1.8136551
000310 b3 57 b9 bf 7f 46 be bf 76 64 8d bf 99 b9 b5 3f
       -1.4479889 -1.4865264 -1.1046283 1.4197265
000320 2c ce 05 40 3f 8b e7 bf 75 dc ad 3f 65 19 96 bf
       2.0907087 -1.808937 1.3582903 -1.17265
000330 49 a6 d4 3f 72 c1 00 40 3b 1e ab bf 5d 37 a3 3f
       1.6613246 2.011807 -1.3368601 1.275127
000340 cd 4f b9 3f 09 6d 55 40 31 4b c0 3f 9e 24 b2 bf
       1.4477478 3.33478 1.5022947 -1.3917425
000350 8a a9 f0 3f bf 98 0d 40 18 35 af bf c3 bb ae 3f
       1.8801739 2.212448 -1.3688078 1.365105
000360 2f df b5 3f 89 db bc 3f 91 c6 fb bf 94 d9 15 40
       1.4208735 1.4754497 -1.9669973 2.341405
000370 54 5b bc 3f 89 29 30 40 08 ce c2 bf d5 df 7e 3f
       1.4715371 2.752535 -1.5219126 0.9956029
000380 ae 8e 37 40 0b f8 d9 3f c4 39 e4 bf b5 8e 69 3f
       2.8680835 1.7028822 -1.7830129 0.9123338
000390 8f 67 f0 3f 10 4c cf bf 50 b3 c0 bf da f1 98 bf
       1.8781604 -1.6195087 -1.5054722 -1.1948807
0003a0 d2 69 a9 3f bd cc 84 bf 24 33 eb 3f dd 81 bb bf
       1.3235419 -1.0374981 1.8374982 -1.4649006
0003b0 5e 26 bb 3f e4 f1 b7 3f 5e a9 68 3f 42 d5 8d 3d
       1.4621084 1.4370694 0.90883434 0.06925441
0003c0 34 41 b0 bf 31 13 de bf ca 66 03 c0 7f 02 c7 3f
       -1.3769898 -1.7349607 -2.0531487 1.5547637
0003d0 02 a1 f7 3f 06 aa d9 bf d2 ac fa 3f d9 2e ab 3f
       1.9346011 -1.7005012 1.958399 1.3373672
0003e0 aa 83 fe 3f 69 1d e4 bf 36 9f d1 3f cc bf 85 3f
       1.9883931 -1.7821475 1.6376712 1.0449157
0003f0 e9 15 9a 3f 0b eb be 3f c5 bc 88 bf b0 9b a0 bf
       1.2037936 1.491548 -1.0682608 -1.2547512

net.2.bias f4 [121]
000000 ac 93 2c 3f a0 b4 80 3f 3c a1 9e 3f 17 2d 54 3f
       0.6741283 1.0055122 1.2392955 0.828813
000010 72 3f 94 3f 62 10 9c 3f 65 1a 87 3f 96 7b 56 3f
       1.1581862 1.21925 1.055493 0.8378233
000020 bf c4 3c 3f 3b ea 90 3f 85 c5 ad 3f ad 45 47 3f
       0.7373771 1.1321481 1.3575903 0.7784069
000030 e7 ce 63 3f fb 82 a7 3f 6c 34 0a 3f a7 1e 7a 3f
       0.8898758 1.3086847 0.5398624 0.9770302
000040 be 66 9c 3f 63 4c 98 3f 31 61 b1 3f 28 26 ac 3f
       1.2218854 1.1898311 1.3857785 1.3449144
000050 10 28 68 3f 14 bc 76 3f 07 93 83 3f 8d 94 51 3f
       0.9068613 0.96380734 1.0279244 0.81867296
000060 dd dd 82 3f e4 02 8d 3f 5f 44 7a 3f 77 02 3b 3f
       1.0223957 1.1016507 0.97760576 0.73050636
000070 0c a9 9e 3f 2a f3 20 3f e6 c8 03 3f a2 89 b1 3f
       1.2395339 0.6287104 0.5147842 1.3870127
000080 08 8c 87 3f 3e 23 43 3f c2 f2 46 3f e0 75 65 3f
       1.0589609 0.7622565 0.7771417 0.8963299
000090 f1 23 95 3f ef cd aa 3f cc 43 d1 3e fe 1c 57 3f
       1.1651593 1.3344096 0.40872037 0.84028614
0000a0 05 4d 5b 3f 5d 6e 8c 3f d3 7f 36 3f e0 91 7f 3f
       0.856644 1.097118 0.71288794 0.9983196
0000b0 9c f6 91 3f 36 a2 a5 3f 18 33 6b 3f 43 4c 82 3f
       1.1403384 1.2940128 0.9187484 1.0179523
0000c0 d9 92 76 3f 5a 91 bc 3f 1b 27 69 3f 9f 19 98 3f
       0.9631782 1.4731858 0.91075295 1.1882819
0000d0 12 4e 7f 3f c4 cc 8a 3f b2 3d a3 3f 17 f0 27 3f
       0.997285 1.084374 1.2753203 0.65600723
0000e0 0d c6 84 3f ac 2a 91 3f d1 36 dc bd a1 f5 d2 3f
       1.037294 1.1341147 -0.10752643 1.648121
0000f0 48 e6 a7 3f d4 90 3d 3f 43 9b e3 3e 9d 2b 75 3f
       1.3117151 0.74049115 0.44454393 0.95769674
000100 46 db ad 3f 04 2e 8b 3f 3b 2c 60 3f 39 f6 85 3f
       1.3582542 1.0873418 0.8756749 1.0465766
000110 49 db 9b 3e da fe 28 3f e2 37 7e 3e ab 6a 38 3f
       0.3044074 0.6601387 0.24826005 0.7203776
000120 bc 8d 82 3e 9a 45 98 3f b3 47 6a 3f 3a ce 43 3f
       0.2549876 1.1896241 0.91515654 0.7648655
000130 b9 36 bc 3f 7c 71 f5 3e b5 e2 67 3f 49 fd 70 3f
       1.47042 0.47938144 0.905803 0.9413648
000140 25 45 fa 3e cc 30 1d 3f 5b 6f e2 3e e6 5c 26 3f
       0.48880878 0.61402583 0.44225582 0.649855
000150 89 20 50 3f f3 f2 c6 3e 47 48 65 3f 61 d3 55 3f
       0.81299645 0.3885723 0.8956341 0.83525664
000160 8a c9 23 3f 97 aa 35 3f 9a 4a 34 3f 63 19 b4 3e
       0.639794 0.70963424 0.7042633 0.3517562
000170 0a 85 0e 3f 92 4c d5 3e d2 62 60 3f 21 9a f4 3d
       0.5567175 0.4165998 0.8765079 0.1194346
000180 a1 1a 57 3f d0 fb 60 3f 05 91 2c 3f 56 5d fa 3e
       0.8402501 0.87884235 0.6740878 0.48899335
000190 66 9d a3 3e f2 cc 34 3f 2a 2d b9 3e 91 3e 1d 3f
       0.31956023 0.7062522 0.3616727 0.61423594
0001a0 65 65 3a 3f 10 58 16 3f a8 62 da 3e ad 75 2d 3f
       0.72810966 0.5872812 0.42653394 0.67757684
0001b0 7f 97 11 3f e4 20 fc 3e 61 14 5d 3f 20 13 86 3f
       0.5687179 0.49243844 0.8635922 1.0474586
0001c0 df e9 8b 3f 91 81 ed 3e f3 4d 63 3f 5c ce c8 3e
       1.0930747 0.46387914 0.88790816 0.3921994
0001d0 0f d4 22 3f 63 3e 82 3f fa 47 2a 3f f6 da 4f 3f
       0.63604826 1.0175289 0.6651608 0.8119348
0001e0 dd 31 33 3f
       0.6999796
